Kovasznay/best_net_no_improved.pth (torch, 333959 bytes, 20 tensors)

weight f4 [100, 2]
0	0xbdfdfb03	-0.12401392
1	0x3cbc3195	0.022972861
2	0xbd30a097	-0.0431219
3	0xbe8882f0	-0.26662397
4	0x3e5df9d0	0.21677327
5	0x3d8a41f9	0.067508645
6	0x3e58ec45	0.2118388
7	0xbe05199f	-0.12998055
8	0xbe1e59b7	-0.15463911
9	0xbe423275	-0.1896456
10	0x3dcf1e62	0.10113217
11	0x3e4401e4	0.19141346
12	0x3c8f598d	0.017498756
13	0xbe1c9143	-0.15289788
14	0x3e0e75bd	0.13912101
15	0xbd8ddaa0	-0.06926465
16	0x3da4e324	0.08051136
17	0xbd8ff9a5	-0.07030038
18	0x3db61f03	0.08892634
19	0xbe8568a0	-0.26056385
20	0xbc92793c	-0.017880075
21	0xbdf841de	-0.12121938
22	0xbcd24540	-0.025667787
23	0xbe941cfa	-0.28928357
24	0xbe3b6d5b	-0.18303435
25	0x3e984398	0.2973907
26	0xbe08b880	-0.13351631
27	0x3dd0c3c9	0.10193593
28	0x3e3f01bb	0.18653004
29	0xbdd6296b	-0.104571186
30	0x3e4d6a8c	0.20060176
31	0x3d9aeee2	0.075650945
32	0x3d8cf6ab	0.06882986
33	0xbdd2c544	-0.10291532
34	0x3db47d19	0.08812923
35	0xbe1b02f9	-0.15137853
36	0x3dc8281f	0.097732775
37	0xbe9e87f5	-0.30963102
38	0x3d15192b	0.036400955
39	0xbda9e619	-0.08295841
40	0xbe0bbc9d	-0.13646169
41	0x3ded6540	0.115915775
42	0x3e162a87	0.1466466
43	0x3b915b60	0.0044359416
44	0x3d5b4590	0.053533137
45	0xbe31d580	-0.173666
46	0xbdb31712	-0.08744635
47	0x3d61eaa7	0.055155423
48	0xbd6f3c7c	-0.05840729
49	0xbd835cb0	-0.06414163
50	0xbd1c20b2	-0.03811712
51	0xbe41dfc8	-0.18933022
52	0xbe1fcc2d	-0.1560523
53	0xbd7cf405	-0.061756153
54	0xbd92c85f	-0.07167124
55	0xbd0b6cd9	-0.034039352
56	0x3e5913bf	0.21198939
57	0x3dd7d303	0.10538294
58	0xbdfd93ae	-0.12381683
59	0x3d9be59c	0.07612154
60	0x3d7281dc	0.059205875
61	0xbe8911b0	-0.26771307
62	0xbd4f180d	-0.050560046
63	0xbe0eb219	-0.13935126
64	0xbbd4afed	-0.0064906985
65	0xbd352f4e	-0.044234566
66	0xbe03ed11	-0.12883402
67	0xbda8b88b	-0.08238324
68	0xbe186194	-0.14880973
69	0xbe2eecf2	-0.17082575
70	0xbc22a376	-0.009926667
71	0x3dfd75f9	0.12376017
72	0x3e1c06d4	0.1523698
73	0x3c1ca993	0.009561914
74	0x3de87b49	0.1135164
75	0x3bf60192	0.0075075114
76	0xbe562dce	-0.2091591
77	0x3e57b23c	0.21064085
78	0x3d029a73	0.031885576
79	0x3e98ea61	0.29866317
80	0xbe3c46bd	-0.1838636
81	0x3e248560	0.16066504
82	0x3e23b7fa	0.1598815
83	0xbe7556c9	-0.23958887
84	0xbda86956	-0.08223216
85	0x3cf9939d	0.030465895
86	0xbe31f191	-0.17377307
87	0x3e2e929b	0.17048113
88	0xbdcff2ab	-0.10153707
89	0xbe95e391	-0.29275182
90	0x3e57c5f6	0.2107161
91	0xbe9027c4	-0.2815534
92	0x3dcbc748	0.09950119
93	0xbe30d76f	-0.17269681
94	0xbe0283a7	-0.12745534
95	0xbe9362d8	-0.2878635
96	0x3e437a73	0.1908968
97	0xbe251f9b	-0.16125338
98	0x3de2312e	0.110445365
99	0x3dc992d9	0.09842462
100	0x3d2e06a9	0.04248682
101	0xbd857d54	-0.06518045
102	0xbe63ffae	-0.22265503
103	0x3e7aa2a0	0.24476099
104	0xbe171bde	-0.14756724
105	0xbdea2104	-0.114320785
106	0xbe262555	-0.16225179
107	0x3e25a153	0.16174822
108	0x3c5506b8	0.01300209
109	0x3d9c6bf4	0.07637778
110	0x3e36441b	0.17799418
111	0xbe502b7c	-0.20329088
112	0x3e60fe85	0.21972091
113	0x3e8420eb	0.25806364
114	0xbe4607b9	-0.19338883
115	0x3d87ac3c	0.06624648
116	0x3e24de4d	0.16100426
117	0xbd22111b	-0.039567094
118	0x3df1ca5b	0.11806174
119	0xbd082dc2	-0.033246763
120	0x3e3aa80d	0.18228169
121	0x3e2ee037	0.17077719
122	0xbe3f0cda	-0.18657246
123	0x3e49b3cd	0.19697495
124	0xbdc34080	-0.09533787
125	0x3e99a866	0.3001129
126	0xbc4d7aae	-0.012541456
127	0x3b7d31df	0.0038634462
128	0xbd7b10a8	-0.06129518
129	0xbdcce3fc	-0.10004422
130	0xbe12208b	-0.14270227
131	0x3d902b6c	0.07039532
132	0x3d869077	0.06570523
133	0x3e6654cd	0.22493286
134	0xbdf46b03	-0.11934473
135	0x3e094639	0.13405694
136	0xbda0d134	-0.07852402
137	0xbe300e8b	-0.17193048
138	0xbd25d1fe	-0.040483467
139	0xbe7313d1	-0.23738028
140	0xbe0d9855	-0.13827641
141	0x3eaca33e	0.33718294
142	0x3cbf7d16	0.023375075
143	0xbd49ba08	-0.04924968
144	0xbe1e949e	-0.1548638
145	0xbdcb3ad8	-0.09923333
146	0x3c76fb5c	0.015074577
147	0xbeb0b2af	-0.34511325
148	0xbe1918d9	-0.14950885
149	0x3e2fd382	0.17170528
150	0x3d148251	0.036257092
151	0xbdde6cee	-0.108606204
152	0xbe21adee	-0.15789005
153	0xbeb999e1	-0.36250213
154	0xbca95b89	-0.02067353
155	0xbe4e7a2d	-0.20163794
156	0x3d193032	0.03739948
157	0x3e2c53da	0.16828862
158	0xbdc3dd55	-0.095637
159	0xbe1d45cf	-0.15358661
160	0xbdbaa562	-0.091135755
161	0x3e8a43f3	0.27004966
162	0xbe09db73	-0.1346262
163	0x3e081818	0.13290441
164	0xbe3135ce	-0.17305681
165	0x3e225afd	0.15855022
166	0xbd010c86	-0.031506084
167	0x3d9c3ea0	0.07629132
168	0xbe13daed	-0.14438982
169	0xbd9a7a23	-0.07542827
170	0xbdb5d1d5	-0.08877913
171	0xbe648e2c	-0.2231986
172	0xbe0378a0	-0.12838984
173	0x3e9dac4d	0.30795518
174	0x3e40c222	0.18824056
175	0x3972256f	0.00023092864
176	0x3d7fb9c5	0.062433023
177	0xbbf78347	-0.0075534913
178	0xbcc4e29b	-0.024033835
179	0xbda8169c	-0.082074374
180	0x3def8107	0.11694532
181	0x3c566482	0.013085486
182	0xbd3bd913	-0.045861315
183	0x3e65856d	0.22414179
184	0x3d3df29f	0.04637396
185	0x3e9cbf4d	0.306147
186	0x3e20288f	0.15640472
187	0x3e32598e	0.17416975
188	0x3e6089c7	0.21927558
189	0xbb571f6c	-0.0032825125
190	0xbe19f98b	-0.150366
191	0x3e2a594c	0.16635627
192	0x3d48bd7f	0.049008843
193	0x3dad0e24	0.08449963
194	0xbd80e017	-0.06292742
195	0x3d99fd3d	0.075190045
196	0x3e57cb68	0.21073687
197	0xbe7d4e19	-0.24736823
198	0xbe4c9522	-0.19978765
199	0x3da700f8	0.08154482

bias f4 [100]
0	0x3cc7217a	0.024307955
1	0xbd07cc8c	-0.033154055
2	0x3d2eeb47	0.042704847
3	0x3d918854	0.07106081
4	0xbd7cd139	-0.061722968
5	0xbc00343b	-0.007824953
6	0xbd504570	-0.05084747
7	0xbc6fa9cd	-0.014627886
8	0x3d2140a8	0.0393683
9	0xbba2999b	-0.004962159
10	0xbc0cc52f	-0.008591934
11	0x3d1992de	0.03749358
12	0xbc08839a	-0.0083321575
13	0xbd5e18c6	-0.054222845
14	0xbccc9774	-0.024974562
15	0x3d9b1b3c	0.07573554
16	0xbd866895	-0.06562916
17	0x3ce2c175	0.027680138
18	0xbc150336	-0.009095004
19	0x3d370632	0.044683643
20	0x3c807cd2	0.015684519
21	0x3c915268	0.01773949
22	0x3cf2813f	0.029602645
23	0xbc55e6e3	-0.013055536
24	0xbd3cd049	-0.046097074
25	0x396a3806	0.0002233685
26	0x3ca846d5	0.020541588
27	0x3d36f583	0.044667732
28	0xbd0f51fa	-0.03499029
29	0xbdc6397c	-0.09678933
30	0xbc10d1ce	-0.008839084
31	0xbccf397b	-0.025295964
32	0xbd8cf162	-0.068819776
33	0xbd843cdd	-0.06456921
34	0x3c6353fb	0.013875003
35	0xbd9c949b	-0.07645532
36	0x3ca97d5b	0.020689657
37	0x3b869018	0.004106533
38	0xbcca2edd	-0.02468055
39	0x3d97c117	0.07409876
40	0x3d0f1f6b	0.034942072
41	0xbc8940fd	-0.016754622
42	0x3b7849d0	0.0037885793
43	0xbb9f1677	-0.004854973
44	0xbd1dd7b3	-0.038535785
45	0xba4d2062	-0.0007824955
46	0x3b9f47f7	0.004860874
47	0xbcfe859d	-0.031069571
48	0xb9893dd0	-0.0002617673
49	0xbc1a8acc	-0.009432506
50	0x3ca4f11e	0.020134505
51	0xbba6424b	-0.0050738207
52	0xbcd4f508	-0.025995746
53	0xbd299813	-0.041404795
54	0xbcb3f1ab	-0.021965822
55	0x3c9dbc57	0.019254846
56	0x3d53bf18	0.051695913
57	0xbd4c1677	-0.04982611
58	0x3cf55567	0.02994795
59	0xbc4967d7	-0.012292824
60	0x3d09626f	0.03354114
61	0xbc226b6d	-0.009913308
62	0x3cd791a5	0.026314566
63	0xbca4c66d	-0.020114148
64	0x3b940a95	0.004517863
65	0xbd510133	-0.051026534
66	0x3ccb716c	0.024834357
67	0xba950eb5	-0.0011372181
68	0x3d5acab1	0.053415958
69	0x3c6f24ae	0.014596147
70	0x3d54badd	0.05193602
71	0x3bf51e8e	0.007480449
72	0x3ba929ea	0.0051624672
73	0xb9b65f0e	-0.00034784566
74	0x3d50e8f8	0.051003426
75	0xbcfe3b80	-0.031034231
76	0xbd63cd7d	-0.05561589
77	0xbd2bd91a	-0.04195509
78	0x3c508839	0.0127277905
79	0xbd73bb19	-0.059504602
80	0x3d0af488	0.03392461
81	0x3d7a8bcb	0.061168473
82	0x3d30a39a	0.043124773
83	0x3cbc2724	0.022967882
84	0x3c48ad31	0.012248323
85	0xbd1095db	-0.035299163
86	0x3d3ac27a	0.045595624
87	0x3d322525	0.043492455
88	0xbcce990d	-0.025219465
89	0xbc8cc168	-0.017182067
90	0xbc5c5563	-0.013448092
91	0x3cfa7e88	0.030577913
92	0x3c353b8b	0.011061559
93	0x3b1062eb	0.0022031616
94	0x3c281c0f	0.010260596
95	0xbcc8ddd0	-0.024519831
96	0xbd4be014	-0.049774244
97	0x3d16ff6c	0.036864683
98	0xbcb08736	-0.021548849
99	0x3c11cdc5	0.008899157

weight f4 [100, 100]
0	0xbd6dd6cc	-0.058066174
1	0xbd159f82	-0.03652907
2	0xbd25352d	-0.040333916
3	0x3e1cb0ed	0.15301867
4	0xbdb01864	-0.08598402
5	0x3d663cc5	0.056210298
6	0xbe245161	-0.16046669
7	0x3e20285c	0.15640396
8	0xbd21fb59	-0.039546344
9	0x3e31c828	0.1736151
10	0xbe2cb20e	-0.16864797
11	0xbdaefdb8	-0.08544487
12	0x3d97b311	0.07407201
13	0xbd8e57fc	-0.069503754
14	0xba32a223	-0.00068143214
15	0x3cf16f38	0.029471979
16	0x3e01119b	0.12604372
17	0x3d57829c	0.052614793
18	0x3de23237	0.11044734
19	0x3c8cb361	0.017175378
20	0x3dfe42f4	0.12415114
21	0xbde0d15d	-0.10977433
22	0xbd018011	-0.031616274
23	0xbd4298ba	-0.047508933
24	0xbd1768f1	-0.036965314
25	0x3d3accbc	0.045605406
26	0x3c94fc84	0.018186815
27	0xbd728138	-0.059205264
28	0xbcb027b8	-0.021503314
29	0xbcdcf0cf	-0.026970295
30	0xbd42f168	-0.047593504
31	0xbe30db34	-0.1727112
32	0xbd22472a	-0.03961865
33	0x3dd8356a	0.10557063
34	0x3e1c6093	0.15271215
35	0x3dcee19f	0.101016276
36	0xbe1ab843	-0.15109353
37	0x3da0e6a5	0.07856492
38	0xbd0edc30	-0.034877956
39	0xbb882ce1	-0.0041557406
40	0xbbe63db5	-0.007026399
41	0xbda86daf	-0.082240455
42	0xbd3dfd44	-0.04638411
43	0xbdec2ce1	-0.115319975
44	0x3de686be	0.11256169
45	0x3d986fd6	0.07443206
46	0xbd92773b	-0.07151648
47	0xbdfc7036	-0.1232609
48	0xbe12e811	-0.14346339
49	0xbcfbe125	-0.030747006
50	0xbe1bbda5	-0.15209062
51	0x3e15b8a6	0.14621219
52	0x3dbcaf0a	0.092130736
53	0xbc68c03c	-0.0142059885
54	0xbe0f0f68	-0.13970721
55	0x3de91341	0.113806255
56	0x3c4351bb	0.0119213415
57	0x3df7470c	0.12074098
58	0xbe1dba71	-0.15403153
59	0xbda5691e	-0.0807669
60	0x3d91e49a	0.071236804
61	0xbe299b66	-0.16563186
62	0x3e07b77f	0.13253592
63	0x3b8732fd	0.0041259513
64	0x3cbe6677	0.023242218
65	0x3dc16a7b	0.09444138
66	0x3d689087	0.056778457
67	0x3d217c7a	0.03942535
68	0xbd3b7f95	-0.04577597
69	0x3d24b497	0.040211286
70	0x3d81b6f8	0.06333727
71	0x3d1a6f58	0.037703842
72	0x3e1e67de	0.1546931
73	0xbe0ed854	-0.1394971
74	0x3cbe144f	0.023203043
75	0xbde411b1	-0.11136187
76	0x3c1eb662	0.009687038
77	0xbe378972	-0.17923525
78	0xbd6cef64	-0.05784549
79	0x3db78d76	0.089625284
80	0x3e1b690c	0.15176791
81	0x3d02f121	0.03196824
82	0xbd6d6bf5	-0.057964284
83	0x3a36a8e3	0.0006967915
84	0xbe2de13a	-0.16980448
85	0x3cf2642a	0.029588778
86	0xbc0eda5f	-0.008719056
87	0xbddec571	-0.10877503
88	0x3e39c09c	0.18139881
89	0x3d8a1a6c	0.06743321
90	0x3ca3dbb8	0.020002231
91	0xbe24fab8	-0.16111267
92	0xbb6e40de	-0.0036354582
93	0xbde96954	-0.11397043
94	0xbd88a1e3	-0.066715024
95	0x3e219893	0.15780859
96	0x3d5eefff	0.054428097
97	0xbe2203c2	-0.15821746
98	0xbdcd7c94	-0.10033527
99	0x3ca69af9	0.020337569
100	0x3bf65570	0.007517509
101	0x3e0c046e	0.13673565
102	0x3dd94fc8	0.1061092
103	0x3da03188	0.07821947
104	0xbc142df6	-0.009044161
105	0x3ca4d9e7	0.020123435
106	0xbdaa80ac	-0.083253235
107	0x3e184757	0.14870964
108	0xbcf07e00	-0.029356956
109	0x3c80aef0	0.015708417
110	0x3d50b36a	0.050952353
111	0x3d6b9346	0.057513498
112	0x3db2e461	0.08734966
113	0x3e1bc67a	0.15212432
114	0xbd5c6da2	-0.05381549
115	0xbd5b99b0	-0.053613365
116	0x3d42993a	0.04750941
117	0xbd72f510	-0.05931574
118	0x3ca9add2	0.020712767
119	0x3baa7bcd	0.0052027465
120	0xbe0c38f4	-0.13693601
121	0xbae6af6a	-0.0017599885
122	0xbcbed2ba	-0.023293842
123	0xbdd9a7bf	-0.10627698
124	0xbcde1670	-0.027110308
125	0x3d32f543	0.04369093
126	0x3e0e2710	0.13882089
127	0xbda3b4c5	-0.079934634
128	0xbdbf4991	-0.093402036
129	0x3d1c683b	0.03818534
130	0xbc8e0821	-0.01733786
131	0xbe1d4b12	-0.15360668
132	0xbca263ce	-0.019822981
133	0x3d811eed	0.06304727
134	0x3e2de2dd	0.16981073
135	0x3c2893ba	0.010289127
136	0xbe2746ba	-0.16335574
137	0x3dfa8fdd	0.12234471
138	0x3d891179	0.06692786
139	0x3d25ad53	0.040448498
140	0x3c4d070d	0.012513888
141	0x3df67327	0.12033682
142	0xbc8ecc6e	-0.017431464
143	0xbcd353f1	-0.025796862
144	0xbe1a8c74	-0.15092641
145	0xbe05eaa7	-0.13077794
146	0xbe1b4451	-0.1516278
147	0x3e0c9577	0.13728891
148	0x3daa2006	0.08306889
149	0xbe17e8cb	-0.14834897
150	0x3dccb052	0.09994568
151	0xbe1a19c7	-0.15048896
152	0x3dfa83c4	0.122321635
153	0x3debe84c	0.115189165
154	0xbd654e5f	-0.055982944
155	0xbdb00f8b	-0.085967146
156	0x3deab87e	0.1146097
157	0xbdfbd18b	-0.122958265
158	0x3e31600c	0.17321795
159	0x3b396d65	0.0028293964
160	0xbcf043f5	-0.02932928
161	0x3c143e64	0.009048078
162	0xbd80ef00	-0.06295586
163	0xbe2b879f	-0.16750954
164	0x3ab8edf8	0.0014109006
165	0x3ca0d5e0	0.019633234
166	0xbcd02b68	-0.025411323
167	0x3d5fb62a	0.054617085
168	0xbdf0837a	-0.11743827
169	0x3d95ef06	0.07320981
170	0xbd85e926	-0.0653861
171	0xbdad80e0	-0.084718466
172	0xbde20e7c	-0.11037919
173	0x3e1b8067	0.151857
174	0x3e13b8e6	0.14426002
175	0x3b95e979	0.0045749513
176	0xbd8cd945	-0.068773784
177	0xbe0aaec2	-0.13543227
178	0x3a5e1ab3	0.00084726064
179	0x3de501b6	0.11181967
180	0xbd72855a	-0.059209205
181	0x3d0c1f8f	0.034209784
182	0x3db765bd	0.08954952
183	0xbdcc3b7d	-0.09972284
184	0x3e01a429	0.12660278
185	0x3dfaf774	0.12254229
186	0xbe0eee5a	-0.13958111
187	0x3d5fcbe5	0.05463781
188	0xbd3b4451	-0.04571945
189	0xbd5c4b5a	-0.0537828
190	0x3e2172c0	0.1576643
191	0xbdff7617	-0.12473696
192	0x3e0eb93c	0.13937849
193	0xbe063741	-0.13107015
194	0xbc8b8f31	-0.017036052
195	0x3e0c3014	0.13690215
196	0xbe286f98	-0.1644882
197	0xbd8b6775	-0.06806842
198	0x3e11a234	0.14222032
199	0xbd90479b	-0.07044908
200	0x3e13924f	0.14411281
201	0x3de074e4	0.10959795
202	0xbccd9817	-0.025096936
203	0xbd05c24f	-0.03265601
204	0x3d1c78b0	0.038201034
205	0x3d451e21	0.048124436
206	0x3cc067a8	0.023486927
207	0xbdfedc61	-0.12444378
208	0xbdb72c4c	-0.08943996
209	0x3ce704a3	0.028200453
210	0xbdbd3624	-0.09238842
211	0xbe39fe08	-0.18163311
212	0xbd56bbe4	-0.05242528
213	0x3e23bcb5	0.15989955
214	0xbce4de88	-0.027938142
215	0xbe1ef455	-0.15522893
216	0xbe1af92f	-0.15134118
217	0x3ddd1e20	0.107967615
218	0x3cc73f14	0.02432207
219	0xbdc384cc	-0.09546813
220	0xbe171c90	-0.1475699
221	0x3e152cad	0.14567824
222	0xbd8bf3b9	-0.06833596
223	0x3d7848e3	0.060616385
224	0xbe20c91a	-0.15701714
225	0xbe08c134	-0.13354951
226	0x3cb37feb	0.021911582
227	0xbb60a753	-0.003427942
228	0xbd3d3313	-0.046191286
229	0x3dff281c	0.12458822
230	0xbdeddfd7	-0.1161496
231	0x3d504c57	0.050854053
232	0xbdbeea3c	-0.093220204
233	0x3d464afa	0.048411347
234	0x3dd60c9b	0.10451623
235	0x3e06d8e9	0.13168682
236	0x3d463e21	0.048399094
237	0x3e26aeb8	0.16277587
238	0x3d61189a	0.054955103
239	0x3d77d9e0	0.060510516
240	0xbc91a4c1	-0.017778756
241	0xbe32127e	-0.17389867
242	0xbdfe2eaf	-0.12411248
243	0x3d8a226f	0.06744849
244	0xbe2909fe	-0.16507718
245	0xbda17b65	-0.07884864
246	0x3ce23abd	0.0276159
247	0xbe33ad41	-0.1754656
248	0xbdd66827	-0.10469084
249	0x3cd8911a	0.026436377
250	0xbe2a7db3	-0.16649513
251	0xbca7a1b8	-0.020462856
252	0x3de7faef	0.11327159
253	0x3dd72463	0.10504987
254	0xbdea7d5b	-0.11449691
255	0x3d1027fe	0.03519439

bias f4 [100]
0	0xbc23bbb7	-0.009993485
1	0x3c9fae98	0.019492432
2	0xbcf01f6e	-0.029311862
3	0xbce441a9	-0.02786334
4	0xbd03b5d2	-0.03215582
5	0xbb5abd36	-0.0033376939
6	0xbbc261f9	-0.0059320894
7	0x3d61cce2	0.055127032
8	0x3c8937e3	0.016750282
9	0xbb775153	-0.0037737682
10	0x3d882e6a	0.06649478
11	0x3cbf6d1d	0.023367459
12	0xbc889772	-0.016673777
13	0xbd68e63f	-0.056860205
14	0xbd1ceeb9	-0.0383136
15	0x3a9b12d7	0.0011831176
16	0x3cc09212	0.023507152
17	0xbd2c9b21	-0.04214013
18	0xbd18cfa5	-0.0373074
19	0x3c674bbf	0.01411718
20	0x3b5c6015	0.0033626605
21	0x3c7c7132	0.015407847
22	0x3d5b3a39	0.053522322
23	0x3c3c5fae	0.011497421
24	0x3cbd8681	0.023135426
25	0xbd3d71b8	-0.04625103
26	0xbd0aaf4f	-0.033858594
27	0xbc9b6bcc	-0.0189723
28	0xbc0a4f1c	-0.008441713
29	0x3d8a094d	0.06740055
30	0x3d13a61f	0.036047097
31	0xbd146bdd	-0.03623568
32	0x3d3c5402	0.045978554
33	0xbb89062a	-0.004181643
34	0xbc28c181	-0.010300041
35	0x3cfd0f62	0.030891124
36	0xbcd4eecd	-0.025992775
37	0x3c2dc155	0.010605176
38	0xbc244c4a	-0.010027954
39	0x3cacd8be	0.021099444
40	0x3cbcf9ac	0.023068272
41	0xbd0e2a9c	-0.034708604
42	0x3bdfcbc8	0.0068297125
43	0xbd9a73cc	-0.07541618
44	0x3c9865ef	0.018603293
45	0xbcadf534	-0.021235086
46	0xbd079312	-0.03309924
47	0xbca9a0c7	-0.020706547
48	0x3d557f02	0.052123077
49	0x3d1298c7	0.03579023
50	0xbd82059f	-0.063487284
51	0xbd168cf6	-0.036755525
52	0xbd3a8fff	-0.04554748
53	0xbcb34458	-0.021883175
54	0x3d11a253	0.035555195
55	0x3d14b871	0.03630871
56	0xbbc99023	-0.0061512156
57	0xbd2950b7	-0.04133674
58	0xbd839b49	-0.06426103
59	0x3c8caf07	0.017173303
60	0xbc82d27e	-0.015969511
61	0xbcd89bd8	-0.0264415
62	0x3c8f950f	0.017527131
63	0xbbd2e019	-0.006435406
64	0x3d0607dd	0.032722343
65	0xbc394a8e	-0.011309279
66	0x3cd7b586	0.026331674
67	0x3cad10e3	0.021126216
68	0xbd7e5ff5	-0.06210323
69	0xbc84b461	-0.016199293
70	0x3d2d569f	0.042318936
71	0x3ca481da	0.02008145
72	0xbc067ba9	-0.008208194
73	0x3d2ba37b	0.041903954
74	0x3d13dff4	0.03610225
75	0x39e82990	0.00044281455
76	0x3d643e35	0.055723388
77	0x3c5e9473	0.013585198
78	0xbca69db8	-0.020338878
79	0xbb2cbe2c	-0.0026358468
80	0x3d42433d	0.047427405
81	0xbd205f33	-0.03915329
82	0x3c5d1c9f	0.013495593
83	0xbd08674e	-0.033301644
84	0xbd321aca	-0.04348258
85	0xbd4c4d05	-0.04987814
86	0x3be5eb5c	0.0070165824
87	0xbc3f2ca3	-0.011668357
88	0x3cd97f82	0.026550058
89	0x3d9ee48b	0.07758435
90	0xbd14ef2a	-0.036360897
91	0xba01a00f	-0.000494481
92	0x3d6a2d64	0.057172194
93	0x3caa602d	0.020797813
94	0x3c53991d	0.012914923
95	0x3d21f9e5	0.03954496
96	0x3cb320c6	0.021866214
97	0x3cc30443	0.023805743
98	0x3d13cce6	0.03608408
99	0xbd17412d	-0.03692739

weight f4 [100, 100]
0	0xbd6e115c	-0.058122024
1	0xbd54975b	-0.051902156
2	0xbe0f14d7	-0.13972794
3	0x3d2fd21a	0.042924978
4	0x3d1d6eec	0.03843586
5	0xbd952038	-0.07281536
6	0xbe235a8e	-0.15952513
7	0xbb4620e7	-0.0030232014
8	0x3d9bc201	0.07605363
9	0xbcb62703	-0.0222354
10	0x3d9db84d	0.07701168
11	0xbd34c516	-0.04413327
12	0x3c985d83	0.018599277
13	0x3e0c33d7	0.1369165
14	0xbd65b111	-0.056077067
15	0xbdd19f01	-0.10235406
16	0xbdb1ae87	-0.086758666
17	0x3c1d7568	0.009610511
18	0xbe2d0fe6	-0.16900596
19	0x3dc60074	0.09668055
20	0xbe13b396	-0.14423975
21	0xbd9d2dc7	-0.07674747
22	0x3dfafa2c	0.12254748
23	0x3d9cefe7	0.07662945
24	0x3d2f426d	0.042787958
25	0xbc2abfb1	-0.010421679
26	0x3d758b58	0.05994734
27	0xbcd1af35	-0.02559624
28	0x3e3654c8	0.17805779
29	0xbdedfc07	-0.11620336
30	0xbc87cc6a	-0.016576964
31	0x3e298c09	0.16557325
32	0x3d8dab67	0.06917458
33	0xbd024a6b	-0.03180925
34	0x3def0b98	0.11672133
35	0x3cc136f9	0.023585783
36	0x3e137107	0.14398585
37	0x3d9e944b	0.077431284
38	0xbe109afa	-0.14121619
39	0x3df4bdae	0.11950241
40	0xbe12f889	-0.14352621
41	0x3c39249c	0.011300232
42	0xbd1c3ece	-0.038145833
43	0xbe239959	-0.15976466
44	0x3e074854	0.13211185
45	0xbb77e5b1	-0.0037826116
46	0x3e2a362d	0.16622229
47	0x3dc00520	0.093759775
48	0xbdc8686f	-0.09785544
49	0xbd642f65	-0.05570926
50	0x3da1d43c	0.079018086
51	0xbe20e9f6	-0.15714249
52	0x3e18c488	0.1491872
53	0xbde1644e	-0.1100546
54	0x3e1b10d7	0.15143143
55	0x3ca646b0	0.020297378
56	0x3de5999a	0.11210938
57	0x3d013127	0.031541016
58	0x3dd57006	0.104217574
59	0xbde4a809	-0.11164863
60	0x3da297a3	0.07939079
61	0xbd8a1b94	-0.06743541
62	0xbdb45da1	-0.08806921
63	0xbdf0e907	-0.117631964
64	0xbe2b1bfb	-0.16709892
65	0xbd7164d8	-0.058934063
66	0xbe1aea67	-0.1512848
67	0x3b3aa8ac	0.0028481884
68	0xbdbda784	-0.09260467
69	0xbdfa4258	-0.12219685
70	0xbe197609	-0.14986433
71	0x3cf9e285	0.03050352
72	0x3d91cd5e	0.07119249
73	0x3d745fb1	0.05966157
74	0x3d999f81	0.07501126
75	0x3dc5111d	0.09622405
76	0x3e2a2c16	0.1661838
77	0x3deb2f7e	0.11483668
78	0x3c71d6a6	0.014760649
79	0xbdf4742d	-0.11936221
80	0x3e097534	0.13423616
81	0x3d52cd23	0.051465165
82	0x3d8b6ba4	0.0680764
83	0xbe2ac335	-0.16676028
84	0xbd3231b3	-0.043504428
85	0xbbe97ab2	-0.007125222
86	0x3e11ae76	0.14226708
87	0xbd152689	-0.036413703
88	0x3d82b334	0.063818365
89	0xbe03e721	-0.12881137
90	0xbdc3514c	-0.095369905
91	0xbdb846e3	-0.089978956
92	0x3cc92b8e	0.024556901
93	0xbe2c4658	-0.16823709
94	0xbdc879d6	-0.09788863
95	0x3d8dffba	0.069335416
96	0xbe27ec2e	-0.16398689
97	0xbdada7a6	-0.08479242
98	0x3ddaadcb	0.1067768
99	0x3e1f2778	0.155424
100	0xbdde33c9	-0.10849721
101	0x3d11fd20	0.03564179
102	0x3e1f2114	0.15539962
103	0x3dcabe9e	0.098996386
104	0xbdf30a60	-0.11867213
105	0x384f2c18	4.939371e-05
106	0xbe1aa515	-0.15102036
107	0x3c20d4c4	0.009816352
108	0xbdb3ccb6	-0.0877928
109	0xbdf4b895	-0.11949269
110	0xbdf427e0	-0.11921668
111	0xbdadeca6	-0.08492403
112	0x3c757687	0.014981872
113	0xbdcf5e85	-0.1012545
114	0xbe1b5251	-0.1516812
115	0x3df675f0	0.120342135
116	0xbe0eeb59	-0.13956966
117	0xbc68de23	-0.014213118
118	0x3af0f5d3	0.0018383808
119	0xbdc7c79a	-0.09754868
120	0x3de29e66	0.11065368
121	0x3e348a77	0.17630945
122	0x3d9ccd80	0.076563835
123	0xbe108dd6	-0.14116606
124	0xbde4ec95	-0.11177937
125	0x3dc81b67	0.097708516
126	0xbe16c708	-0.14724362
127	0x3d796051	0.06088287
128	0x3dde92c8	0.1086784
129	0x3d8ae0d8	0.06781167
130	0xbb5772d3	-0.0032874837
131	0xbc2c0448	-0.010499068
132	0xbd9c47a1	-0.0763085
133	0x3e1ae5c9	0.15126719
134	0x3dafa6c6	0.085767314
135	0xbd164f33	-0.036696624
136	0xbd17ce1a	-0.03706179
137	0x3e39a0e3	0.1812778
138	0x3e18861c	0.14894909
139	0x3d4fbc0a	0.050716437
140	0xbbb9d0ad	-0.005670628
141	0x3dc39e5f	0.09551691
142	0xbe024ea0	-0.12725306
143	0xbdfbff30	-0.123045325
144	0x3c28d220	0.010304004
145	0x3cfe44c9	0.031038659
146	0x3e1c101e	0.15240523
147	0xbde72b54	-0.11287561
148	0x3db0024c	0.08594188
149	0x3d9392c6	0.07205729
150	0x3e256bdb	0.16154425
151	0x3d708daf	0.05872887
152	0x3c161c87	0.009162075
153	0x3b82faa7	0.0039971652
154	0x3e1774a5	0.1479059
155	0xbd83837c	-0.06421563
156	0x3d1ee558	0.038792938
157	0x3ddc3a4b	0.10753306
158	0x3d65de41	0.05612016
159	0xbd9f8ae9	-0.07790167
160	0xbdee590a	-0.116380766
161	0x3de492d7	0.1116082
162	0xbdf17bef	-0.117912166
163	0xbe278055	-0.16357549
164	0xbc8d882e	-0.01727685
165	0x3d163f03	0.036681186
166	0xbae739ea	-0.0017641161
167	0x3da6fe7c	0.08154008
168	0x3d8bca46	0.0682569
169	0xbe1537d1	-0.14572074
170	0xbdaa4422	-0.083137766
171	0x3e11377a	0.14181319
172	0x3e26e1e2	0.16297105
173	0x3df1ca7b	0.11806198
174	0xbc85c011	-0.016326936
175	0x3e28668d	0.1644537
176	0x3bec4e78	0.0072115026
177	0x3ce06051	0.027389677
178	0x3d9c60db	0.07635661
179	0x3d329e4b	0.04360799
180	0x3e27efda	0.1640009
181	0xbd4a121e	-0.049333684
182	0x3d147c17	0.036251154
183	0x3c2f45a3	0.010697755
184	0x3e2c6a5f	0.16837452
185	0x3dcc1e41	0.09966708
186	0x3d09ec4a	0.03367261
187	0xbdfa8b74	-0.1223363
188	0x3e33ed14	0.17570907
189	0xbda49e7f	-0.08038043
190	0xbd9713fb	-0.07376858
191	0x3e0b5ee0	0.1361041
192	0xbe1adac9	-0.15122522
193	0xbe0db787	-0.13839541
194	0x3c6bb101	0.014385463
195	0x3e0691cb	0.13141553
196	0xbd005654	-0.03133233
197	0xbd49e4d1	-0.049290482
198	0x3e14b145	0.14520748
199	0x3e20e0f1	0.15710808
200	0xbde36e21	-0.1110499
201	0x3d04b88b	0.032402556
202	0xbe0dea1c	-0.13858837
203	0x3d299211	0.041399065
204	0xbc473cba	-0.012160474
205	0xbcd5dbda	-0.02610581
206	0xbdc7c37e	-0.09754084
207	0x3e023f5d	0.12719484
208	0xbdee7248	-0.11642891
209	0xbd1c6c11	-0.038188998
210	0x3d0e75a7	0.03478017
211	0xbd95376e	-0.07285963
212	0x3d9db09f	0.076997034
213	0xbe02c759	-0.12771358
214	0x3dec10c6	0.11526637
215	0xbdb37929	-0.08763344
216	0x3d19c72b	0.037543457
217	0xbc22413c	-0.009903248
218	0xbdd03811	-0.10166944
219	0x3dc0d51e	0.09415649
220	0xbbde5dfe	-0.006786107
221	0x3cd4127f	0.025887726
222	0x3dc4d5dd	0.09611104
223	0xbe3af046	-0.1825572
224	0x3cb1d47e	0.02170777
225	0xbdf92ec2	-0.121671215
226	0xbc591625	-0.013249909
227	0x3de9056f	0.113779895
228	0x3cdba758	0.026813194
229	0x3dcc3173	0.09970369
230	0x3b881c57	0.004153769
231	0xbd881f5f	-0.066466086
232	0x3dee8164	0.11645773
233	0x3dd23639	0.102642484
234	0xbcde3a4e	-0.027127411
235	0xbe315f00	-0.17321396
236	0x3db3de27	0.087826066
237	0x3e21ba2b	0.15793674
238	0x3daee3d0	0.085395455
239	0x3dda14e5	0.106485166
240	0x3dcc0c5f	0.09963297
241	0xbe09e06c	-0.13464516
242	0x3c5b2b1c	0.013376977
243	0xbe14f86d	-0.14547892
244	0x3e2a70b1	0.16644551
245	0x3d650c6b	0.055920046
246	0x3d4ff9a5	0.05077519
247	0xbd8b7202	-0.06808855
248	0x3dd10020	0.10205102
249	0xbcda8024	-0.02667243
250	0x3e2293f9	0.1587676
251	0xbd6255c2	-0.055257566
252	0x3ddb142e	0.10697208
253	0x3ccfd9d3	0.025372421
254	0xbd0a688e	-0.033791117
255	0xbda5c66f	-0.08094489

bias f4 [100]
0	0xbc3275b3	-0.0108923195
1	0x3b7ff329	0.0039054847
2	0x3d5da8b2	0.05411596
3	0xbd3d07a4	-0.046149865
4	0xbd18f227	-0.03734031
5	0x3c119211	0.008884923
6	0xbd10fccf	-0.035397347
7	0x3cd2fc1f	0.025754986
8	0xbc867fdb	-0.016418388
9	0x3c282b92	0.010264294
10	0x3c865821	0.016399445
11	0x3d086145	0.03329589
12	0x3cc4d1de	0.024025854
13	0xbc0c3207	-0.008556849
14	0x3c6b438b	0.014359365
15	0x3cb36d1e	0.021902617
16	0xbb14debb	-0.0022715766
17	0xbc394ac1	-0.011309327
18	0xbc9bffa8	-0.019042805
19	0x3be8f2bd	0.007109015
20	0xbb63f169	-0.0034781343
21	0xbcb793ef	-0.022409407
22	0xbb3ebaf2	-0.0029103127
23	0x3d162993	0.036660742
24	0xbc7c6d5f	-0.0154069355
25	0x3cd375ac	0.025812946
26	0xbc7dbe09	-0.015487202
27	0xbd0d8744	-0.034552827
28	0x3c931b0d	0.017957235
29	0x3c7757ea	0.015096644
30	0x3d252e7b	0.04032753
31	0x3a8e1d33	0.0010842442
32	0x3d313424	0.043262616
33	0x3be7c1e0	0.0070726722
34	0xbccfe291	-0.02537659
35	0x3d08d02d	0.033401657
36	0xbd0d0e7c	-0.03443764
37	0xbd365ec4	-0.04452397
38	0x3c8d7130	0.017265886
39	0xbb213929	-0.002460072
40	0xbcdd8450	-0.02704063
41	0x3c211d7c	0.00983369
42	0x3c631483	0.013859871
43	0x3bac2eb3	0.0052545904
44	0xbca801fc	-0.020508759
45	0xbc82593e	-0.015911695
46	0x3b9b242f	0.004734538
47	0x3d05bf28	0.032653004
48	0x3c2afedc	0.01043674
49	0x3cabeebd	0.020987863
50	0xba6c313b	-0.00090100215
51	0x3d053015	0.032516558
52	0x3c890bc8	0.01672925
53	0x3cf44111	0.029816182
54	0xbc9cf252	-0.019158516
55	0xbcd9ea2e	-0.026600923
56	0x3c8f259e	0.017473992
57	0x3c45797f	0.012052893
58	0xbb49c739	-0.0030788912
59	0xbc261cd9	-0.010138714
60	0x3c761d01	0.0150215635
61	0xbc19b270	-0.009380922
62	0x3d23344c	0.039844796
63	0x3bce8819	0.006302845
64	0x3ab64f88	0.00139092
65	0xbc8d4578	-0.01724504
66	0xbc6a4f93	-0.014301199
67	0x3bea723f	0.0071547325
68	0xbc8712be	-0.01648843
69	0x3cdc3965	0.026882837
70	0x3cb78a23	0.022404736
71	0xbc817bbe	-0.015806075
72	0xbd235024	-0.03987135
73	0xbb68b9e4	-0.003551119
74	0x3c91f81a	0.0178185
75	0xbd31dc15	-0.043422777
76	0xbd6b9f62	-0.057525046
77	0xbbde9f03	-0.006793858
78	0xbcda699b	-0.026661685
79	0x3cdcce97	0.026953978
80	0x3b4d0f2c	0.003128956
81	0x3acea707	0.0015766331
82	0x3cd9e5ba	0.0265988
83	0xbc59bd51	-0.013289765
84	0xbcde9132	-0.027168844
85	0xbc248563	-0.0100415675
86	0x3c49d104	0.0123179
87	0x3c44e1f1	0.012016759
88	0x3be99f30	0.0071295723
89	0x3c64421e	0.013931779
90	0xbd21ea42	-0.039530046
91	0xbd051962	-0.03249491
92	0x3b5e909c	0.0033960706
93	0x3d0a94b7	0.03383323
94	0xbb5c5677	-0.0033620873
95	0xbc2890d9	-0.010288441
96	0xbc2b896d	-0.010469777
97	0xbb554b54	-0.003254612
98	0x3df67617	0.120342426
99	0xbce32636	-0.027728181

weight f4 [100, 100]
0	0x3d8050de	0.06265424
1	0x3e0234fa	0.12715521
2	0xbe33a0b2	-0.17541769
3	0x3d7e70dd	0.062119354
4	0x3e15eaa0	0.14640284
5	0x3d98f7b2	0.07469119
6	0xbcb24db6	-0.021765571
7	0xbd8cd84d	-0.068771936
8	0x3d12934b	0.035785
9	0xbd0560fe	-0.032563202
10	0x3e00e4d7	0.12587295
11	0xbdf7aaa6	-0.120930955
12	0xbd0c9c2e	-0.034328632
13	0x3b5de333	0.0033857345
14	0x3c9cbd44	0.019133218
15	0xbc091a69	-0.008368113
16	0x3e07b85e	0.13253924
17	0x3d778447	0.060428884
18	0xbd19d336	-0.037554942
19	0x3e1b60d7	0.1517366
20	0x3e3af870	0.18258834
21	0x3e2cd252	0.16877106
22	0xbb6d87e8	-0.0036244337
23	0x3e0dc8e1	0.1384616
24	0x3d5ce9be	0.05393385
25	0xbd053891	-0.03252465
26	0x3e1e8426	0.15480098
27	0xbdb9f472	-0.09079827
28	0xbe115f63	-0.14196543
29	0xbdafb9d7	-0.08580368
30	0x3d4d3e5f	0.05010831
31	0x3dec8fb4	0.11550847
32	0x3ddbfaca	0.107411936
33	0x3d76dddf	0.060270187
34	0xbdf9ed20	-0.12203431
35	0x3d4765b6	0.048680983
36	0xbda11c20	-0.078666925
37	0xbde71551	-0.11283363
38	0xbdfba4e2	-0.12287308
39	0xbd8a8ed7	-0.06765526
40	0x3cab776d	0.02093097
41	0xbde0a71f	-0.10969376
42	0x3e120922	0.14261296
43	0x3cdd0565	0.026980111
44	0xbc1b6cb1	-0.009486363
45	0x3d780a45	0.06055667
46	0xbdcf5adb	-0.10124751
47	0xbd6bcaef	-0.05756658
48	0xba972ec7	-0.0011534326
49	0x3d0f739c	0.035022363
50	0xbe049a45	-0.12949474
51	0x3e44b496	0.19209513
52	0xbe0d1231	-0.1377647
53	0x3df01cdd	0.11724255
54	0x3e7f4751	0.24929549
55	0x3d71c45a	0.059025146
56	0xbd0eb33f	-0.03483891
57	0x3d3f3d8d	0.04668956
58	0xbe122249	-0.14270891
59	0xbde07cde	-0.109613165
60	0xbd8a2849	-0.06745965
61	0x3e0810b4	0.13287622
62	0xbe5bd808	-0.21469128
63	0xbd33c9d3	-0.043893646
64	0xbe269eca	-0.1627151
65	0x3c173f43	0.009231391
66	0xbe165d74	-0.14684087
67	0xbd8f5440	-0.06998491
68	0x3e229b0d	0.1587946
69	0xbdd5f334	-0.10446778
70	0xbd957d1f	-0.072992556
71	0xbd924a97	-0.07143133
72	0x3d9b418e	0.07580863
73	0xbb8f7d81	-0.004378975
74	0xbdf02329	-0.11725456
75	0xbd5c90bd	-0.05384897
76	0x3dcb7d14	0.09935966
77	0x3dbcd62d	0.09220538
78	0x3dcd1298	0.10013312
79	0x3d5b936a	0.053607382
80	0xbd1c42a3	-0.038149487
81	0xbd2066c5	-0.03916051
82	0x3bb1f97e	0.005431353
83	0x3dffcd91	0.124903806
84	0x3e0badb5	0.13640483
85	0x3ca32c83	0.019918686
86	0x3c35d200	0.011097431
87	0x3be89750	0.007098116
88	0xbca0098c	-0.019535802
89	0x3dd2964c	0.10282573
90	0x3d0f1584	0.03493263
91	0x3d4f66db	0.0506352
92	0xbd9e9bcb	-0.07744559
93	0x3d8cbc61	0.06871868
94	0x3de5e182	0.11224653
95	0xbe35df24	-0.17760903
96	0x3dca8dd3	0.09890332
97	0x3e233a24	0.15940148
98	0x3e08d6d8	0.13363206
99	0xbdcd39e8	-0.1002081
100	0x3d432c4e	0.047649674
101	0x3e147583	0.14497952
102	0x3e2ba72e	0.16762993
103	0x3e05b32e	0.13056633
104	0xbdb044e4	-0.0860689
105	0x3df718c0	0.120652676
106	0xbde43854	-0.11143556
107	0x3ba5ae7f	0.005056202
108	0x3e10722e	0.14106056
109	0xbc886b6e	-0.016652789
110	0x3e24d61c	0.16097301
111	0x3e057993	0.13034658
112	0x3e3d7fb2	0.18505743
113	0x3dbb004f	0.09130918
114	0x3b6c823f	0.0036088375
115	0xbd044959	-0.032296512
116	0x3d815d51	0.06316627
117	0x3e28924b	0.16462056
118	0xbdc69ec4	-0.09698251
119	0x3cdf2fb1	0.02724442
120	0x3d95db7a	0.073172525
121	0x3df76554	0.12079874
122	0x3e352c2b	0.1769263
123	0x3e09ed5e	0.13469455
124	0xbda2db05	-0.07951931
125	0x3db98912	0.09059347
126	0xbe2a4a4a	-0.16629902
127	0xbd975bd0	-0.07390559
128	0xbe384bc2	-0.1799765
129	0x3d5dde96	0.054167353
130	0x3e316847	0.17324935
131	0x3e2cf371	0.1688974
132	0x3cd50852	0.026004944
133	0xbdd2a320	-0.1028502
134	0x385b8cb1	5.2344698e-05
135	0x3d868643	0.06568577
136	0xbe0c995a	-0.13730374
137	0xbe080142	-0.1328173
138	0x3ddf8b03	0.10915186
139	0xbd430423	-0.047611367
140	0xbd759876	-0.05995985
141	0x3e1b6ea1	0.1517892
142	0xbd2e20e1	-0.042511825
143	0x3d2c3f67	0.042052653
144	0x3cf9a30c	0.030473255
145	0xbd6a2fc4	-0.05717446
146	0xbc95783f	-0.018245814
147	0xbd0c5845	-0.034263868
148	0xbd150cd1	-0.036389176
149	0x3d0b9b92	0.03408391
150	0x3e4fee05	0.20305641
151	0x3dbc9ecf	0.09209978
152	0xbe0faab1	-0.14029957
153	0x3e20f6b9	0.15719117
154	0xbe055206	-0.1301957
155	0xbd488b2c	-0.04896085
156	0x3e097ef3	0.13427334
157	0xbdd8100c	-0.10549936
158	0x3d9646db	0.07337733
159	0x3caca836	0.021076303
160	0xbe195acf	-0.14976047
161	0xbe0d3830	-0.13790965
162	0x3e0b3c05	0.13597114
163	0x3cfd457e	0.030916926
164	0xbd7d5adf	-0.06185424
165	0x3d620206	0.05517771
166	0xbe36d16f	-0.1785333
167	0x3d07244e	0.032993607
168	0xbdf8b571	-0.12143982
169	0xbd7a9f96	-0.06118735
170	0x3d16e21a	0.03683672
171	0xbdf44aa3	-0.11928298
172	0xbe0fc12b	-0.14038531
173	0x3d1b871b	0.037970643
174	0xbd86d2e2	-0.065831915
175	0x3b7aed14	0.0038288282
176	0xbe00a57b	-0.12563126
177	0x3deae938	0.11470264
178	0xbe2b2277	-0.16712366
179	0x3d9ed160	0.07754779
180	0x3e005647	0.12532912
181	0x3e166163	0.14685588
182	0x3db06c1f	0.086143725
183	0x3d962c55	0.073326744
184	0xbe22d394	-0.15901023
185	0xbcc74ffb	-0.02433013
186	0x3d8a79d7	0.0676152
187	0x3cb42b40	0.02199328
188	0xbd922237	-0.07135432
189	0xbd6d5d97	-0.057950582
190	0xbdec9b8a	-0.11553104
191	0xbdec4e7a	-0.11538406
192	0x3d2f2d2c	0.04276769
193	0x3e177d38	0.14793861
194	0xbb0a1fa8	-0.0021075998
195	0x3d1d947a	0.038471676
196	0x3d844e74	0.06460276
197	0x3d72473c	0.059149966
198	0x3de0f3ac	0.10983977
199	0xbe107778	-0.14108074
200	0xbd8d4d1d	-0.06899474
201	0x3e243364	0.16035229
202	0x3e225478	0.15852535
203	0x3d9ce855	0.07661501
204	0x3aef0175	0.0018234687
205	0xbdbf19db	-0.093311034
206	0x3df824de	0.12116407
207	0xbe290a9d	-0.16507955
208	0x3d09aa94	0.03360994
209	0xbd8ae1c3	-0.06781342
210	0xbdd1a902	-0.10237314
211	0xbe165e19	-0.14684333
212	0xbc2d4710	-0.010576025
213	0x3d05032f	0.03247374
214	0x3e1a4c3c	0.15068144
215	0x3cb164e7	0.02165456
216	0xbd79f655	-0.061025936
217	0x3d235b65	0.039882082
218	0x3c36c74b	0.011155914
219	0x3e088bfb	0.13334648
220	0xbd99df8c	-0.07513341
221	0xbcb9c501	-0.022676947
222	0x3e12f274	0.14350301
223	0x3d2e70ff	0.04258823
224	0x3c88e38f	0.01671007
225	0x3de8486c	0.113419384
226	0x3de40880	0.11134434
227	0xbd3ed966	-0.046594046
228	0xbd86f794	-0.065901905
229	0x3e004267	0.1252533
230	0xbe090b2d	-0.1338317
231	0xbdab2ee1	-0.08358551
232	0xbd183c6a	-0.03716699
233	0xbe05b1da	-0.13056126
234	0x3d55902a	0.05213944
235	0x3db4dda0	0.08831334
236	0xbe1b8daa	-0.1519076
237	0xbe16bbfb	-0.14720146
238	0xbe1f8957	-0.15579735
239	0xbe1ed8e1	-0.1551242
240	0xbe15f1b9	-0.14642991
241	0x3d164fa9	0.036697064
242	0x3da36574	0.07978335
243	0x3c8eb5a7	0.017420603
244	0x3e336d19	0.17522086
245	0xbdf41ccf	-0.11919557
246	0x3e1c5c97	0.15269695
247	0x3d41f727	0.047354843
248	0xbe170cec	-0.14751023
249	0x3e1e052e	0.15431663
250	0x3be8f128	0.007108826
251	0x3dd37c5d	0.10326455
252	0xbe22bdb3	-0.15892677
253	0x3cb3c630	0.02194509
254	0x3dd653c7	0.10465198
255	0x3e047f05	0.12939079

bias f4 [100]
0	0x3b9986a8	0.0046852417
1	0x3d2ebd3c	0.042660937
2	0xbca66bf6	-0.020315152
3	0x3cd518d4	0.026012816
4	0x3c5e3a2f	0.013563677
5	0x3d2559d1	0.04036886
6	0xbc9dabd2	-0.01924697
7	0x3cfcd067	0.030861093
8	0x3cac725e	0.021050628
9	0xbc9e30e8	-0.01931043
10	0xbcecdc32	-0.028913591
11	0xbcf45609	-0.029826181
12	0xbd02ebcb	-0.03196315
13	0xbcfa08ba	-0.03052174
14	0x3cc7dcaa	0.024397213
15	0xbc9211d0	-0.01783076
16	0x3d142779	0.036170457
17	0xbce78ca2	-0.028265301
18	0x3c28b6f5	0.010297527
19	0xbcde93ed	-0.027170146
20	0x3d11533f	0.03547978
21	0x3d288db3	0.04115076
22	0xbc457196	-0.012051007
23	0xbc136815	-0.008996983
24	0xbd131f00	-0.035918236
25	0xbd15b85c	-0.036552772
26	0x3c2aea58	0.0104318485
27	0x3c9cdca7	0.019148184
28	0x3c3768b5	0.011194398
29	0xbcb4dc2d	-0.022077644
30	0x3c9191c7	0.017769707
31	0xbcbbe40e	-0.022935893
32	0xbdb6bc50	-0.089226365
33	0xbcdaf49b	-0.026727965
34	0xbc6b3fba	-0.014358455
35	0xbd07ea71	-0.033182565
36	0xbc5dc0aa	-0.013534704
37	0xbd0bc430	-0.034122646
38	0x3cd2a189	0.025711792
39	0xbbc9ba4c	-0.0061562415
40	0xbc9acdba	-0.018896926
41	0xbc465a1e	-0.012106447
42	0x3b8fb963	0.0043861135
43	0x3ca6f95b	0.020382574
44	0xbc19ab87	-0.009379274
45	0x3c9706b6	0.018435817
46	0xbc15276a	-0.009103635
47	0xbc80bb26	-0.01571424
48	0x3cfe98ab	0.031078657
49	0x3bf33050	0.007421531
50	0x3cca50c3	0.024696713
51	0xbc5f9df7	-0.013648502
52	0xbcd4d811	-0.025981935
53	0x3cef1f9c	0.029189877
54	0xbb2b194e	-0.0026107612
55	0x3bd5629a	0.0065119984
56	0x3c33dc56	0.010977825
57	0xbca97220	-0.020684302
58	0xbcec4317	-0.028840585
59	0xbc8a87ba	-0.016910423
60	0x3d38a4de	0.045079105
61	0x3acc53fe	0.0015588996
62	0xbcd22552	-0.025652561
63	0x3abb04e2	0.0014268423
64	0xbbe9cf91	-0.0071353395
65	0x3c53ec1c	0.012934711
66	0x3cda94c5	0.026682267
67	0xbcd7474a	-0.02627911
68	0xbcf857f3	-0.030315375
69	0xbd3c0164	-0.045899764
70	0x3c512428	0.012764968
71	0xbba11100	-0.0049153566
72	0x3c311670	0.010808572
73	0xbc03a717	-0.008035443
74	0x3d43f0b8	0.04783699
75	0x3cd42830	0.02589807
76	0x3c729cea	0.014807919
77	0x3b7f4915	0.0038953472
78	0xbce7dd86	-0.028303873
79	0x3cda20be	0.02662694
80	0xbc83ca9a	-0.016087819
81	0xbc45224e	-0.012032105
82	0xbd38710e	-0.045029692
83	0x3be5dbfb	0.007014749
84	0x3cf8d74c	0.030376099
85	0x3d55eb92	0.05222661
86	0x3acf03fe	0.0015794036
87	0xbc84b2fd	-0.01619863
88	0xbcb89bf4	-0.022535302
89	0xbc41df11	-0.011832968
90	0xba67fa0a	-0.00088492094
91	0xbc9621ab	-0.018326601
92	0x3c775e50	0.015098169
93	0xbc222433	-0.009896326
94	0x3cb5c4ea	0.022188623
95	0x3b4128df	0.0029473824
96	0x3c890fe0	0.016731203
97	0xbd0340ab	-0.032044094
98	0x3b1dcf44	0.0024079839
99	0xbc771636	-0.015080979

weight f4 [100, 100]
0	0x3def1014	0.116729885
1	0x3db0c770	0.0863179
2	0xbd18b391	-0.037280623
3	0xbda830fc	-0.08212468
4	0x3e145eb0	0.14489245
5	0x3b5775d8	0.0032876637
6	0xbd490065	-0.049072642
7	0x3dcb83f7	0.0993728
8	0xbcdf5fd6	-0.027267378
9	0xbdc0464e	-0.093884096
10	0x3de2e9a1	0.110797174
11	0x3d7107a4	0.058845177
12	0x3d992b2a	0.07478936
13	0x3df1ba69	0.11803133
14	0xbdc866f1	-0.097852595
15	0xbdc7cd29	-0.09755928
16	0xbd9526d9	-0.072828
17	0x3db24827	0.08705168
18	0xbda547a3	-0.08070304
19	0x3d0e6dda	0.03477273
20	0x3d696708	0.056983024
21	0x3a49e9b9	0.0007702369
22	0xbd2b784f	-0.041862782
23	0x3d96d415	0.0736467
24	0x3d511a48	0.051050454
25	0x3def5a1d	0.116871096
26	0xbdf57da3	-0.11986854
27	0xbcf1cd30	-0.029516786
28	0xbd14f1d4	-0.036363438
29	0x3caf6993	0.021412646
30	0xbe15fedc	-0.14648002
31	0x3c440992	0.011965172
32	0x3e237a27	0.15964566
33	0x3d77e6bf	0.06052279
34	0x3dfe0958	0.12404126
35	0xbdac6812	-0.08418287
36	0xbdd5fdfc	-0.10448834
37	0x3d2a1278	0.04152152
38	0xbdbc2cb5	-0.09188215
39	0x3db59a40	0.088673115
40	0x3d21f9a7	0.039544728
41	0x3d37ca73	0.044870805
42	0x3e1b133b	0.15144055
43	0x3e3edc82	0.18638805
44	0x3bfb3090	0.007665701
45	0x3d82047f	0.06348514
46	0x3d35f659	0.04442439
47	0x3da03a74	0.07823649
48	0x3d818461	0.063240774
49	0xbd72732b	-0.059191864
50	0x3ce85eed	0.028365577
51	0xbc274a53	-0.010210591
52	0x3d610efe	0.05494594
53	0xbd56be9f	-0.052427884
54	0x3d4514af	0.04811543
55	0x3e1dc248	0.15406144
56	0xbd1f4ba4	-0.038890496
57	0x3de5d829	0.1122287
58	0xbd609b21	-0.054835442
59	0x3cd572f8	0.026055798
60	0xbd035c94	-0.03207071
61	0xbe183d7c	-0.14867204
62	0xbd6f45b5	-0.058416087
63	0xbe00b3cc	-0.12568587
64	0xbdfa6e03	-0.12228014
65	0xbde4d2b5	-0.11173002
66	0x3dbc564f	0.091961496
67	0xbdd94b3e	-0.106100544
68	0x3e19e4d1	0.15028693
69	0x3e22e893	0.15909033
70	0xbca08ed2	-0.019599352
71	0x3cd274b8	0.025690421
72	0x3d3ba6b4	0.045813277
73	0x3e13b1bb	0.14423268
74	0xbd220df7	-0.0395641
75	0x3d8a1307	0.067419104
76	0xbb379eb3	-0.0028018176
77	0x3d91d8e0	0.07121444
78	0xbe14e72c	-0.1454131
79	0xbbecb0cf	-0.0072232257
80	0xbc695b64	-0.014242981
81	0x3e0c10c3	0.13678269
82	0x3df51798	0.11967391
83	0x3ca58e0f	0.02020934
84	0xbd541bf9	-0.05178449
85	0xbcdf9585	-0.027292976
86	0x3e1266a3	0.14296965
87	0x3d85e0cc	0.06537017
88	0x3d9fd4d5	0.07804266
89	0xbdfcb9e2	-0.12340142
90	0xbe28580c	-0.16439837
91	0x3dfb968b	0.12284573
92	0xbe04ef74	-0.12981969
93	0xbd244887	-0.04010823
94	0xbe0e2f32	-0.13885191
95	0xbdb2ca63	-0.087300085
96	0xbdea99a2	-0.114550844
97	0x3d9d4c2e	0.07680546
98	0x3e2f118a	0.17096534
99	0xbd393b2f	-0.045222457
100	0x3d0d75f6	0.034536324
101	0xbc9f11b4	-0.019417621
102	0x3df30488	0.11866099
103	0xbe3f7d04	-0.18700033
104	0xbe276d34	-0.16350251
105	0x3e296e51	0.16545989
106	0xbdd783a7	-0.105231576
107	0xbe1eab1d	-0.15494962
108	0x3cbf9507	0.023386491
109	0xbdcc5998	-0.09978026
110	0x3e337082	0.17523387
111	0xbe212682	-0.15737346
112	0x3d2a7411	0.041614596
113	0x3d3c99dd	0.046045173
114	0x3d6743b7	0.056461062
115	0x3d012e5e	0.03153836
116	0x3e28e0da	0.16492024
117	0x3de6001c	0.112304896
118	0xbe282c09	-0.16423048
119	0x3dffb435	0.12485544
120	0xbd47f472	-0.048817106
121	0x3ae72798	0.0017635701
122	0x3d1e909f	0.03871214
123	0x3dd07a30	0.101795554
124	0x3e15f0a3	0.14642577
125	0xbd1c6075	-0.038177926
126	0xbe33a52c	-0.17543477
127	0x3e1203d4	0.14259273
128	0xbe04d898	-0.12973249
129	0xbdf81d92	-0.12115015
130	0xbdc53c63	-0.096306585
131	0x3dd53296	0.10410039
132	0x3d998a19	0.07497043
133	0xbde8d719	-0.113691516
134	0x3da7f170	0.082003474
135	0x3e16d651	0.14730193
136	0xbe0c4255	-0.13697179
137	0xbdbbb3ee	-0.09165178
138	0xbdb27e46	-0.08715491
139	0xbdde9f43	-0.108702205
140	0xbc5070fb	-0.012722249
141	0x3be07f9d	0.00685115
142	0xbdad2f17	-0.08456247
143	0x3de2833c	0.11060187
144	0x3df94816	0.121719524
145	0x3b5e365a	0.0033906908
146	0x3e04efc0	0.12982082
147	0x3d10048f	0.035160597
148	0xbddea34f	-0.108709924
149	0xbdc5266d	-0.0962647
150	0x3d267c33	0.04064579
151	0xbd840a1f	-0.06447243
152	0xbdde55e1	-0.10856224
153	0xbd694495	-0.05695017
154	0xbd4d9ce4	-0.05019845
155	0xbe0fda88	-0.14048207
156	0xbe34c897	-0.17654644
157	0x3d945a4f	0.072437875
158	0xbdbc6b80	-0.092001915
159	0x3d6b8760	0.05750215
160	0xbd95ad94	-0.07308498
161	0xbdd8c259	-0.10583944
162	0xbd632819	-0.055458162
163	0xbdea5488	-0.11441904
164	0x3e3bbf22	0.1833463
165	0xbda37784	-0.0798178
166	0x3e2bd137	0.16779028
167	0xbd192844	-0.037391916
168	0x3dfadd40	0.12249231
169	0xbc7c0752	-0.015382605
170	0xbda118f6	-0.07866089
171	0x3e2f5b68	0.17124712
172	0xbdce9ad7	-0.10088127
173	0xbe0551fc	-0.13019556
174	0xbd861a06	-0.06547932
175	0x3d882aa7	0.0664876
176	0x3df1014e	0.11767827
177	0x3dbf8a93	0.09352603
178	0x3c9fac1f	0.019491253
179	0x3d2f4a7d	0.042795647
180	0xbd6f2cb1	-0.05839223
181	0x3d8c94bb	0.068643056
182	0x3d91e6c6	0.07124095
183	0xbe289817	-0.16464268
184	0x3ce4a6ac	0.027911507
185	0xbdd08c90	-0.1018306
186	0xbe2e63e2	-0.1703029
187	0xbdabf54b	-0.08396395
188	0xbd3648f6	-0.044503175
189	0xbdada535	-0.08478776
190	0x3e4f136d	0.20222254
191	0x3badaafe	0.005299925
192	0xbe1b0ae4	-0.15140873
193	0xbde722a5	-0.11285905
194	0xbd02998a	-0.031884708
195	0xbd50dfe2	-0.05099476
196	0x3d11a4fe	0.03555774
197	0x3d57a180	0.052644253
198	0x3de4aee3	0.111661695
199	0x3d9fc298	0.07800788
200	0xbd4357d6	-0.04769119
201	0x3d5eb78e	0.05437427
202	0xbddb0a54	-0.10695329
203	0x3e498890	0.19681
204	0xbd8c7ab5	-0.06859342
205	0xbe04ef59	-0.12981929
206	0x3d7f58f1	0.06234068
207	0xbc9d6882	-0.019214872
208	0x3e1c52a1	0.15265895
209	0x3e3e0c49	0.18559374
210	0x3e47b42c	0.19502324
211	0x3e229b12	0.15879467
212	0x3df54ae4	0.11977175
213	0xbc205f8a	-0.009788403
214	0xbe091a04	-0.1338883
215	0x3e1ce48d	0.1532156
216	0x3c57bcbf	0.013167559
217	0x3c3606ac	0.011109989
218	0x3d85d131	0.06534041
219	0xbdc2975d	-0.095015265
220	0xbdb41ef3	-0.087949656
221	0x3e025af1	0.12730004
222	0xbdccabb6	-0.09993689
223	0xbcc3a023	-0.02388007
224	0xbcdfd19d	-0.027321631
225	0x3e19d358	0.15022027
226	0xb739ed1a	-1.1082064e-05
227	0x3dd518a9	0.10405094
228	0xbe335f26	-0.17516765
229	0xbda112f2	-0.07864942
230	0xbe0a5255	-0.1350797
231	0x3d9ebf66	0.0775135
232	0x3d67c901	0.056588177
233	0x3dbd20f9	0.09234805
234	0xbd5afdb6	-0.053464614
235	0xbd1875b6	-0.037221633
236	0x3e48444a	0.195573
237	0xbdb8b4c3	-0.090188526
238	0xbb2e5623	-0.0026601634
239	0x3e14552c	0.14485615
240	0xbd91e201	-0.07123185
241	0xbc1a491d	-0.009416846
242	0xbbb511cb	-0.0055258027
243	0x3d839a3d	0.06425903
244	0xbd2d1546	-0.042256616
245	0xbc7d4168	-0.015457489
246	0xbe07891e	-0.132359
247	0x3d864097	0.06555288
248	0x3dd04c12	0.10170759
249	0xbd235b47	-0.03988197
250	0xbdbc5503	-0.09195902
251	0xbd69fbce	-0.057124905
252	0xbdcf07e3	-0.10108926
253	0xbb41b6fc	-0.002955853
254	0xbde3d978	-0.11125463
255	0x3d00f8a1	0.03148711

bias f4 [100]
0	0xbc6c80a2	-0.014434965
1	0xbc801f0b	-0.015639802
2	0xbb2b3eb3	-0.00261299
3	0xbc661bbc	-0.014044698
4	0xbc7d361b	-0.015454794
5	0xbd1b050e	-0.037846617
6	0x3d8b221c	0.06793615
7	0xbc6a712f	-0.014309212
8	0xbc411778	-0.011785381
9	0x3c3e73c3	0.011624279
10	0xbac09d45	-0.0014695307
11	0x3d0a66fc	0.03378962
12	0x3cf64883	0.030063873
13	0x3b9f7853	0.0048666387
14	0x3c8449db	0.016148498
15	0x3d104e5e	0.035230987
16	0xbd00af80	-0.03141737
17	0x3cc1ea08	0.023671165
18	0x3c55a858	0.013040625
19	0xbc9bee23	-0.01903445
20	0xbca61c16	-0.020277064
21	0x3cccb9a3	0.024990862
22	0x3c53969c	0.012914326
23	0x3cb672b5	0.022271493
24	0x3ca6747a	0.020319212
25	0xbc0bd558	-0.008534752
26	0x3d0c2573	0.0342154
27	0xbcc9f76e	-0.024654116
28	0x3cc46e9c	0.023978524
29	0xbc36d8c8	-0.011160083
30	0xbccd4904	-0.02505923
31	0xbcb923ed	-0.022600139
32	0x3cc3b735	0.02389107
33	0x3c9baa2a	0.019002039
34	0xbb1c4ce3	-0.002384954
35	0xbbe21465	-0.006899404
36	0x3c1a3017	0.00941088
37	0x3cd64ea8	0.026160553
38	0x3cc46fef	0.023979155
39	0xbce439a5	-0.027859518
40	0xbcce7029	-0.025199967
41	0xbb271fea	-0.00255012
42	0x3cac09f7	0.021000845
43	0x3cda6c12	0.02666286
44	0xbd07b84b	-0.03313474
45	0xbce8e7c8	-0.028430834
46	0x3cc76818	0.024341628
47	0xbd4a2b72	-0.04935784
48	0x3d49ceef	0.049269613
49	0x3c12ea3a	0.008966977
50	0x3d391125	0.045182366
51	0x3c9b30f5	0.018944243
52	0x3c06159c	0.008183863
53	0xbd1f8259	-0.03894267
54	0xbce9f8b0	-0.028560966
55	0xbce461b5	-0.027878622
56	0x3cd17295	0.025567332
57	0x3cbaae73	0.022788262
58	0x3cdb177d	0.026744599
59	0x3cb72e93	0.022361076
60	0x3d293da8	0.041318566
61	0x3c7351cb	0.014851044
62	0x3cd84540	0.026400208
63	0xbd4d1252	-0.0500663
64	0x3ce4b2f5	0.027917365
65	0xbd2c8147	-0.042115476
66	0x3cad3c95	0.021147052
67	0x3d33298a	0.043740787
68	0xbca54325	-0.020173619
69	0x3cdc3bc0	0.02688396
70	0xbcd24880	-0.025669336
71	0xbcfe74b9	-0.031061517
72	0xbcc7409d	-0.024322802
73	0x3d4b0f5c	0.049575195
74	0x3cc6d34d	0.024270678
75	0xbd503619	-0.05083284
76	0x3c48a433	0.012246179
77	0xbc98c83a	-0.018650163
78	0xbd65a231	-0.05606288
79	0xbc84b390	-0.016198903
80	0xbcac7c48	-0.021055356
81	0xbc9481bf	-0.018128274
82	0xbd1ede01	-0.03878594
83	0xbce15e51	-0.027510794
84	0xbc4c0377	-0.012451998
85	0x3ce749ce	0.028233435
86	0xbc453367	-0.012036181
87	0xbd10c1ba	-0.035341002
88	0x3c300ef0	0.010745749
89	0xbbdfee5e	-0.0068338355
90	0x3d3e215b	0.04641853
91	0xbc53f472	-0.012936698
92	0x3bb215d8	0.005434733
93	0x3ce5287d	0.027973408
94	0x3c5858b6	0.013204744
95	0xbca37a9d	-0.019955928
96	0x3d02d5da	0.031942226
97	0x3c7912e6	0.01520226
98	0xbd31a532	-0.043370433
99	0x3c8a6fbb	0.01689898
