Kovasznay/best_net_with_improved(DE).pth (torch, 96651 bytes, 16 tensors)

weight f4 [60, 2]
-0.12878701 -0.20666918 0.029325029 0.008046067 0.1535277 -0.09590111 -0.20820154 0.07232703
-0.11866633 -0.36746833 0.046188552 -0.022164214 -0.050988495 0.118270695 -0.031962436 0.24036859
0.11640613 0.15332715 -0.25799668 -0.14311798 -0.0708566 0.08993744 0.20900683 -0.038876332
-0.113420874 -0.34232014 -0.18050033 -0.11299169 0.04883989 0.10811329 0.22578207 0.33107847
-0.022846205 -0.09413411 0.04325105 -0.08819688 0.022254625 0.20191708 0.25654188 0.103960685
0.28897792 -0.08676147 -0.21310695 -0.11037713 0.17062148 0.20438746 -0.22695757 -0.09699904
0.15048897 -0.053220253 0.20009674 -0.03441848 0.10865723 -0.3749295 -0.07338295 0.38099274
0.25208104 -0.05911739 -0.16028205 0.09139227 -0.103824526 0.14334776 -0.16329895 0.13558869
-0.14345154 -0.21954851 0.049083877 -0.38878533 -0.105954096 0.2635179 0.2850701 0.3212567
0.20859315 -0.37048945 0.07903403 -0.034462728 -0.12727903 -0.32324782 0.28674263 0.22629954
0.023121763 0.35890257 0.20418009 -0.23006487 0.035812356 -0.26638144 -0.21781409 0.014092561
0.048065998 0.07288364 -0.14064875 -0.29651114 0.104939125 0.21525016 0.08600196 -0.09989087
0.032163557 -0.025789399 -0.2836052 -0.051515825 0.042800456 -0.26963058 -0.20876727 0.3080166
-0.20137192 -0.19034708 0.035688818 -0.20014638 -0.17272906 0.18033762 -0.019463947 0.335227
0.15081184 -0.24419434 0.25893936 -0.050348956 0.23965809 -0.22628699 0.07153912 0.23991749
00000000: bee0 03be 16a1 53be 0b3b f03c a7d3 033c
00000010: 5e36 1d3e cd67 c4bd c932 55be 3220 943d
00000020: 5507 f3bd cf24 bcbe 3530 3d3d ba91 b5bc
00000030: 50d9 50bd e837 f23d 0beb 02bd 2f23 763e
00000040: 5666 ee3d cb01 1d3e 2418 84be 858d 12be
00000050: 441d 91bd 1f31 b83d e305 563e ca3c 1fbd
00000060: 3449 e8bd 9644 afbe 14d5 38be 3068 e7bd
00000070: 560c 483d 806a dd3d 6a33 673e 1e83 a93e
00000080: f727 bbbc 62c9 c0bd 0328 313d 91a0 b4bd
00000090: 554f b63c 5ac3 4e3e 7559 833e 57e9 d43d
000000a0: eaf4 933e ffaf b1bd b538 5abe 680d e2bd
000000b0: 66b7 2e3e f24a 513e 9167 68be 6fa7 c6bd
000000c0: c819 1a3e 7bfd 59bd 29e6 4c3e 64fa 0cbd
000000d0: af87 de3d c2f6 bfbe cd49 96bd 7b11 c33e
000000e0: c410 813e 1425 72bd fa20 24be df2b bb3d
000000f0: f4a1 d4bd c1c9 123e d737 27be c3d7 0a3e
00000100: f6e4 12be 53d1 60be 2d0c 493d df0e c7be
00000110: 76fe d8bd d1eb 863e b5f4 913e c27b a43e
00000120: 7199 553e cbb0 bdbe 98dc a13d ca28 0dbd
00000130: 6f55 02be bd80 a5be eecf 923e 11bb 673e
00000140: da69 bd3c 14c2 b73e 9614 513e 2096 6bbe
00000150: faaf 123d 2663 88be a80a 5fbe 7ce4 663c
00000160: dae0 443d 0544 953d 3a06 10be 4fd0 97be
00000170: 53ea d63d 8a6a 5c3e cc21 b03d 9693 ccbd
00000180: efbd 033d 4a44 d3bc b334 91be 4202 53bd
00000190: 884f 2f3d 050d 8abe 16c7 55be 5ab4 9d3e
000001a0: 7134 4ebe 58ea 42be 702e 123d 2cf3 4cbe
000001b0: e3df 30be 6daa 383e db72 9fbc e0a2 ab3e
000001c0: 6b6e 1a3e 150e 7abe b393 843e b53a 4ebd
000001d0: ee68 753e c7b7 67be 1a83 923d eeac 753e

bias f4 [60]
-0.054962777 0.007591191 -0.012329585 -0.0674138 0.0034991398 -0.001165342 0.04295642 0.1058937
0.027693976 0.010116914 0.004867231 0.054697935 -0.12084491 -0.09691958 -0.0041861394 -0.045458525
-0.043157224 -0.04961291 0.11283336 -0.004336259 -0.018886281 0.012965762 -0.0021313608 0.010954081
0.054228727 0.05128271 -0.017364165 0.04280675 0.03714128 -0.009475675 0.008045459 0.019439436
0.015997678 -0.012516562 0.009140069 0.03620408 0.07693028 0.016184123 -0.0038682458 -0.08516222
0.015410991 -0.03861973 0.009694838 -0.051523875 -0.16443504 -0.052399125 0.017022926 0.037263036
0.0617652 -0.01116856 0.08635722 -0.030298404 0.01299927 0.0025718245 -0.01122671 0.032378856
-0.011970575 -0.0023443846 0.032935128 0.004280592
00000000: a620 61bd 87bf f83b 0702 4abc 3f10 8abd
00000010: d351 653b 64be 98ba 12f3 2f3d ccde d83d
00000020: 7ade e23c 6ac1 253c 4b7d 9f3b f10a 603d
00000030: 897d f7bd c67d c6bd e22b 89bb b832 3abd
00000040: a1c5 30bd e836 4bbd 2d15 e73d 2d17 8ebb
00000050: 67b7 9abc 596e 543c 4dae 0bbb bf78 333c
00000060: f11e 5e3d d20d 523d 4b3f 8ebc 2156 2f3d
00000070: 7421 183d dd3f 1bbc 1ad1 033c 743f 9f3c
00000080: 900d 833c 4412 4dbc 3ac0 153c bb4a 143d
00000090: 9f8d 9d3d 9194 843c 6582 7dbb 8869 aebd
000000a0: 627e 7c3c b92f 1ebd 19d7 1e3c b30a 53bd
000000b0: a961 28be 77a0 56bd aa73 8b3c 20a1 183d
000000c0: 82fd 7c3d 56fc 36bc 0edc b03d 5c34 f8bc
000000d0: e4fa 543c 0e8c 283b 3cf0 37bc b19f 043d
000000e0: 3b20 44bc 3fa4 19bb fce6 063d 3544 8c3b

weight f4 [60, 60]
-0.025676563 0.21753035 -0.0951355 -0.03899026 -0.19087768 -0.13900459 0.1254071 -0.10862194
-0.082492374 -0.055543583 0.08288824 0.16322196 0.17467338 0.12369813 0.22446643 -0.10293936
-0.11708835 0.0053213714 0.14729223 0.13797791 0.2312699 0.03829396 0.1687636 -0.19324933
-0.03521133 0.18038552 -0.19476445 0.048211303 -0.17927134 -0.18147731 0.12859058 0.14852352
0.1835627 0.17237535 0.040401682 0.1786195 -0.13090333 -0.042182993 -0.14024492 -0.18853208
0.013397993 0.20174578 -0.099407874 0.009295049 0.08306063 -0.033352576 0.13431963 0.013023404
0.18438491 0.16057467 -0.04808269 0.2065541 -0.14467625 -0.076799504 0.0771427 0.097516835
0.15795618 -0.19934423 -0.20934081 0.10033973 0.020947432 0.21459444 -0.10206545 -0.047615178
0.051724184 0.17103867 -0.08597709 0.048056044 -0.046190035 0.058384564 -0.022872781 -0.19115962
0.20668602 -0.10757776 -0.16192678 -0.0038839232 0.17056677 -0.07961881 0.18594383 0.16345882
-0.07153779 -0.06252269 -0.0066092 -0.0009889415 -0.06632578 -0.21540605 0.12428911 0.16870941
-0.11195335 -0.17569637 -0.057597905 0.011179203 0.032399405 0.19512598 0.0787444 -0.16024637
0.0866082 0.011978398 -0.11061873 -0.14680259 0.23023899 -0.1509611 -0.09321433 0.19862077
0.17927167 0.15381339 -0.10540961 -0.15970378 0.17583983 0.061361354 0.14713493 -0.14571823
-0.036012232 -0.22875115 0.18071187 0.10825117 0.16397108 0.22931542 -0.1772303 0.23062718
-0.00058059604 -0.15606412 -0.14892167 0.11411098 -0.091205746 0.0048302766 0.107070155 0.1243734
-0.17019512 0.16966245 0.13797049 -0.15159822 -0.14421457 -0.13359644 -0.09465732 0.04788455
0.17745294 -0.1860398 -0.08039095 0.103972666 -0.17545582 -0.2163208 0.022890579 -0.09759433
-0.08172098 -0.06745738 -0.071512006 0.116000764 -0.1967279 -0.10940212 -0.042955052 -0.13123631
0.16496232 0.03020928 0.06925959 -0.03929034 -0.1069201 0.02063274 -0.1051648 -0.21302688
0.072190754 0.13314007 -0.0564871 0.16023105 0.14417374 0.16696307 -0.22749312 0.19075137
0.08317459 -0.23197186 0.0028101702 -0.15795875 0.13505195 0.041671127 0.13200876 0.078296684
-0.007671433 -0.037018396 0.22380953 0.18303597 0.08846002 0.2317666 -0.1602861 0.22266294
-0.10076346 -0.05553072 -0.032323383 -0.009627266 0.1814816 0.17492673 0.22417924 0.0009951217
0.061383158 0.03255507 -0.08644687 0.21663804 -0.2548671 0.14899494 -0.14734147 -0.11579551
0.0020601852 0.15850413 0.0966474 -0.07628694 0.04972569 0.13231114 -0.10761106 0.21699046
0.074977614 -0.18994619 0.1299795 0.20542173 -0.01075949 -0.04059552 0.24884757 -0.17965508
0.117846295 0.21958724 -0.12937236 -0.096768476 -0.16397709 -0.1145386 -0.06984426 -0.20695257
0.125904 -0.15616003 0.14072627 0.15569863 -0.014342552 -0.10258597 -0.17073008 0.11166877
-0.04314319 0.08138519 -0.097760685 0.04877796 -0.08082585 0.03050854 -0.028520985 -0.106226616
0.1399064 -0.20318764 -0.15014048 0.13725784 -0.15435492 -0.21191189 0.11926273 -0.0012007032
-0.12838195 0.21867417 0.20682228 -0.13285522 -0.058572974 0.0467822 0.104561985 0.13857834
00000000: a857 d2bc 47c0 5e3e 67d6 c2bd 40b4 1fbd
00000010: 7075 43be 3857 0ebe b86a 003e 2e75 debd
00000020: c3f1 a8bd ab81 63bd 4fc1 a93d a823 273e
00000030: 94dd 323e 7255 fd3d 87da 653e dfd1 d2bd
00000040: 04cc efbd e65e ae3b c6d3 163e 154a 0d3e
00000050: 04d2 6c3e 21da 1c3d 5dd0 2c3e 27e3 45be
00000060: c139 10bd fbb6 383e 5570 47be 3779 453d
00000070: e892 37be 30d5 39be 40ad 033e 8d16 183e
00000080: dcf7 3b3e 2a83 303e 3c7c 253d 08e8 363e
00000090: 860b 06be 13c8 2cbd 5d9c 0fbe 8e0e 41be
000000a0: 4183 5b3c 7296 4e3e 5b96 cbbd 434a 183c
000000b0: b11b aa3d b69c 08bd 168b 093e 1e60 553c
000000c0: 66cf 3c3e b06d 243e 5bf2 44bd eb82 533e
000000d0: 0326 14be 0f49 9dbd fefc 9d3d e8b6 c73d
000000e0: 44bf 213e e520 4cbe 705d 56be eb7e cd3d
000000f0: f399 ab3c a5be 5b3e b107 d1bd 2208 43bd
00000100: bddc 533d c324 2f3e c214 b0bd 6ad6 443d
00000110: c331 3dbd a724 6f3d b35f bbbc 59bf 43be
00000120: 80a5 533e bb51 dcbd 22d0 25be 6b89 7ebb
00000130: 0ea9 2e3e 300f a3bd 0f68 3e3e c061 273e
00000140: 6882 92bd e50b 80bd fd91 d8bb 5f9f 81ba
00000150: cfd5 87bd 6793 5cbe 4a8b fe3d 29c2 2c3e
00000160: cc47 e5bd c0e9 33be c8eb 6bbd fa28 373c
00000170: 3db5 043d 1bcf 473e be44 a13d a017 24be
00000180: a45f b13d 0b41 443c 138c e2bd 6b53 16be
00000190: c5c3 6b3e 8c95 1abe 28e7 bebd 3e63 4b3e
000001a0: fe92 373e 4281 1d3e fee0 d7bd 6389 23be
000001b0: 5b0f 343e 0b56 7b3d 8aaa 163e 2937 15be
000001c0: 9081 13bd be3d 6abe 880c 393e cab2 dd3d
000001d0: 09e8 273e a9d1 6a3e dc7b 35be 8829 6c3e
000001e0: 2433 18ba 46cf 1fbe ec7e 18be 04b3 e93d
000001f0: 14ca babd 4c47 9e3b 9947 db3d 7bb7 fe3d
00000200: a147 2ebe febb 2d3e 2348 0d3e 903c 1bbe
00000210: fcac 13be 81cd 08be b2db c1bd 9722 443d
00000220: 39b6 353e 3881 3ebe 03a4 a4bd 9fef d43d
00000230: b1aa 33be 3383 5dbe 0685 bb3c 89df c7bd
00000240: 545d a7bd 1827 8abd e374 92bd cf91 ed3d
00000250: 0a73 49be 380e e0bd a3f1 2fbd d062 06be
00000260: e2eb 283e 7479 f73c f9d7 8d3d e8ee 20bd
00000270: edf8 dabd fe05 a93c a560 d7bd b823 5abe
00000280: bfd8 933d df55 083e 045f 67bd 9c13 243e
00000290: 48a2 133e 5ef8 2a3e f5f3 68be 5454 433e
000002a0: 7057 aa3d 088a 6dbe d52a 383b f0bf 21be
000002b0: 0f4b 0a3e 58af 2a3d 4e2d 073e 035a a03d
000002c0: a560 fbbb 9aa0 17bd 532e 653e c86d 3b3e
000002d0: 872a b53d 3954 6d3e 0a22 24be c101 643e
000002e0: 135d cebd 2e74 63bd 8665 04bd aebb 1dbc
000002f0: 50d6 393e fe1f 333e 3e8f 653e be6e 823a
00000300: e86c 7b3d 7758 053d 0e0b b1bd 5dd6 5d3e
00000310: f17d 82be 2192 183e afe0 16be 3226 edbd
00000320: 2c04 073b e84e 223e 12ef c53d 543c 9cbd
00000330: 2aad 4b3d 927c 073e 3063 dcbd bf32 5e3e
00000340: dd8d 993d 4181 42be 5919 053e 135a 523e
00000350: 9248 30bc 7d47 26bd e6d1 7e3e 80f7 37be
00000360: 6659 f13d 7adb 603e 307a 04be 8d2e c6bd
00000370: 9ce9 27be 3793 eabd 820a 8fbd 60eb 53be
00000380: faec 003e 6ae8 1fbe 8c1a 103e 766f 1f3e
00000390: 06fd 6abc 9818 d2bd ded3 2ebe 99b2 e43d
000003a0: eab6 30bd 47ad a63d c136 c8bd 66cb 473d
000003b0: 0688 a5bd 0ced f93c d7a4 e9bc 578d d9bd
000003c0: a043 0f3e 6c10 50be 6dbe 19be 528d 0c3e
000003d0: 370f 1ebe 6eff 58be 0540 f43d ea60 9dba
000003e0: 8f76 03be 1fec 5f3e 38c9 533e 330b 08be
000003f0: 37ea 6fbd b19e 3f3d 9824 d63d 7be7 0d3e

bias f4 [60]
-0.009324641 -0.030128062 0.01584044 -0.050059713 0.004100211 0.071274415 0.031568717 0.034536272
0.043857675 0.04766612 0.024154503 0.03222657 0.025175216 -0.044722978 -0.008118838 -0.09371406
-0.07308979 0.011235923 -0.05986396 -0.0028328188 0.008269669 -0.038676746 0.035794206 0.013569403
-0.033525713 -0.026011921 -0.05531628 0.012063504 0.10434565 0.017562246 -0.014458112 0.01838583
-0.028803347 -0.06100931 0.028961403 0.039774735 -0.01409237 0.0228528 -0.03325282 0.01640813
0.030152442 0.029537518 0.03417606 -0.004867765 -0.013463049 -0.0023522333 0.08824398 -0.0061442023
0.0052121766 -0.07359412 0.008395126 -0.028063167 0.0008211597 0.023510233 -0.0040450217 -0.04990313
0.008998806 -0.00075609935 -0.016713979 0.03125758
00000000: 61c6 18bc 20cf f6bc cfc3 813c 6a0b 4dbd
00000010: 105b 863b 52f8 913d 334e 013d e875 0d3d
00000020: 1ba4 333d 8d3d 433d aadf c53c 0200 043d
00000030: 413c ce3c 712f 37bd e004 05bc 28ed bfbd
00000040: 1ab0 95bd e016 383c e933 75bd d0a6 39bb
00000050: 817d 073c 826b 1ebd f29c 123d 3452 5e3c
00000060: 4252 09bd f416 d5bc 5393 62bd 01a6 453c
00000070: 2cb3 d53d b3de 8f3c b8e1 6cbc e19d 963c
00000080: fff4 ebbc e6e4 79bd 7740 ed3c d5ea 223d
00000090: afe3 66bc cc35 bb3c 1c34 08bd 586a 863c
000000a0: 4102 f73c aaf8 f13c 32fc 0b3d c681 9fbb
000000b0: 1f94 5cbc ed27 1abb 43b9 b43d 4e55 c9bb
000000c0: e8ca aa3b 84b8 96bd b68b 093c bae4 e5bc
000000d0: 1843 573a 8898 c03c 1a8c 84bb 3967 4cbd
000000e0: ba6f 133c f834 46ba c1eb 88bc f307 003d

weight f4 [60, 60]
0.09749551 -0.0039002954 0.12370506 0.002556787 0.061446555 -0.16478571 -0.010088495 -0.105083555
0.08129938 0.21507674 -0.18295619 -0.22930875 -0.19077888 -0.06362053 -0.14257272 0.06626414
0.031183753 -0.0216493 -0.10090688 0.21740513 0.045510102 0.056935165 0.17210668 0.18018696
-0.19482374 0.19578114 0.15865347 -0.049210496 0.09946964 -0.14079243 0.120606855 0.19650751
0.095715575 -0.21536256 -0.13045366 0.16158623 -0.086337775 -0.040129747 0.0011204152 0.20422997
-0.21559262 -0.18366009 -0.19615379 -0.092033096 -0.090570524 -0.051884484 -0.0831657 -0.1402638
0.09074438 0.113589145 0.24010232 -0.02234187 -0.078860976 0.060228404 -0.13843314 -0.28731644
-0.054617446 0.026021924 0.18774611 0.18598776 -0.054620057 -0.22199653 0.0009035569 -0.23319317
-0.1485546 0.14804392 -0.19910324 0.16523008 0.07774222 0.0928077 0.14170523 0.04620199
0.09372925 -0.044456847 0.17715642 0.18944603 -0.16910389 0.15676203 -0.2326696 -0.115612485
-0.09158249 -0.19176744 0.04486851 -0.10510447 -0.18271981 0.053237487 0.22586973 0.22670367
0.07813301 0.11183645 0.10680257 0.10410499 0.021091145 -0.110622205 -0.013145679 -0.08336238
0.15589197 -0.037656266 0.13685586 0.18151957 -0.085354105 0.13245688 0.07524017 -0.1860083
-0.12353508 -0.02346494 0.15397774 0.07970494 -0.071458295 0.025281753 0.17700268 -0.062249985
-0.1269792 -0.04724633 0.17888635 0.06528756 0.068996094 0.034524184 0.18617707 0.13974959
0.29103306 0.10048626 0.042138774 0.25331512 -0.003453052 0.18167481 0.19590902 0.20971133
0.09879031 -0.040700875 0.20960507 -0.06713317 -0.16505711 -0.22046494 0.20103094 -0.12967472
-0.22325394 0.17611201 0.022630999 0.1750415 -0.16791764 -0.19697139 0.36658603 0.055244286
-0.26161578 -0.053691067 -0.15041631 -0.122102216 0.34066764 0.26588264 0.12129048 0.16419776
-0.18252063 -0.0619557 -0.21744925 0.19273561 -0.04853465 0.05836495 0.10854172 -0.056372363
0.064563945 0.20463432 0.15058865 0.058367644 0.017754825 0.60428023 -0.19524798 -0.03752161
-0.21323736 -0.21234229 -0.10095986 -0.5208953 -0.19089831 0.07927218 -0.23583382 -0.16608815
0.19660962 -0.18395899 -0.41461557 -0.06802906 -0.15106128 -0.20625474 0.15317115 -0.1318144
0.21629839 -0.16982578 0.1261111 -0.07877773 -0.10537939 -0.0014198659 0.10259172 0.024814574
0.09786315 -0.034571864 -0.15671301 -0.19180177 0.15420847 0.19481796 0.10166771 -0.21843624
0.063280195 0.11449765 0.15737358 -0.22866334 -0.113285124 0.14114244 0.15827441 -0.12224238
0.22275203 -0.19266157 -0.16827805 0.012479244 -0.14148714 -0.18785134 0.027147595 0.10763202
-0.081330135 -0.038673636 -0.118018016 -0.22089492 0.14315464 0.15591514 0.22391115 0.029803045
0.10449438 -0.22374818 -0.08839905 -0.20088758 0.141587 0.0596176 0.25233445 -0.14404777
0.059832424 -0.086670935 -0.061827667 -0.027837802 0.09933677 0.12261913 0.24098699 0.10352913
0.019981153 0.19106998 0.2030547 0.069169015 0.22748382 0.0025809763 -0.0599539 0.19355366
-0.050755847 0.12530032 0.18467313 0.07464533 0.11881388 -0.15550627 0.20115621 -0.10908238
00000000: baab c73d 199c 7fbb 1459 fd3d c58f 273b
00000010: 62af 7b3d 96bd 28be 374a 25bc 0c36 d7bd
00000020: 4a80 a63d 143d 5c3e de58 3bbe eacf 6abe
00000030: 8a5b 43be 7b4b 82bd 95fe 11be 7eb5 873d
00000040: 1275 ff3c df59 b1bc 44a8 cebd 739f 5e3e
00000050: cd68 3a3d d934 693d bc3c 303e ee82 383e
00000060: e07f 47be da7a 483e 0e76 223e f290 49bd
00000070: bdb6 cb3d e42b 10be ba00 f73d 4439 493e
00000080: 8706 c43d 0188 5cbe a595 05be dc76 253e
00000090: dcd1 b0bd 175f 24bd e5da 923a a921 513e
000000a0: 50c4 5cbe 6411 3cbe 8adc 48be d97b bcbd
000000b0: 0a7d b9bd d384 54bd c752 aabd 50a1 0fbe
000000c0: 31d8 b93d 6da1 e83d 62dd 753e 4c06 b7bc
000000d0: dd81 a1bd 0fb2 763d 6bc1 0dbe 241b 93be
000000e0: 8bb6 5fbd ee2b d53c 8440 403e 9373 3e3e
000000f0: 48b9 5fbd 0f53 63be addc 6c3a 31ca 6ebe
00000100: b21e 18be d398 173e b8e1 4bbe 1332 293e
00000110: 5037 9f3d f711 be3d 2d1b 113e 4c3e 3d3d
00000120: 1ff5 bf3d 6218 36bd 7e68 353e 24fe 413e
00000130: 9229 2dbe 3a86 203e f140 6ebe 3dc6 ecbd
00000140: 9a8f bbbd af5e 44be 0bc8 373d 0341 d7bd
00000150: e71a 3bbe 8d0f 5a3d 654a 673e 0225 683e
00000160: 3304 a03d 820a e53d 4ebb da3d ff34 d53d
00000170: 56c7 ac3c e58d e2bd f960 57bc e5b9 aabd
00000180: 25a2 1f3e 753d 1abd f123 0c3e 44e0 393e
00000190: 22ce aebd c7a2 073e 8517 9a3d f678 3ebe
000001a0: f6ff fcbd 8c39 c0bc 57ac 1d3e 583c a33d
000001b0: ba58 92bd ae1b cf3c 3140 353e d7f9 7ebd
000001c0: d606 02be 5e85 41bd fc2d 373e 7cb5 853d
000001d0: d34d 8d3d 3b69 0d3d 34a5 3e3e 841a 0f3e
000001e0: 4902 953e becb cd3d b599 2c3d 85b2 813e
000001f0: 994c 62bb f608 3a3e 609c 483e 91be 563e
00000200: 9352 ca3d f6b5 26bd b6a2 563e 1e7d 89bd
00000210: bb04 29be 90c1 61be 0edb 4d3e 73c9 04be
00000220: ae9c 64be b556 343e a564 b93c 143e 333e
00000230: 9af2 2bbe deb2 49be 2ab1 bb3e d547 623d
00000240: 81f2 85be 2aeb 5bbd bc06 1abe ba10 fabd
00000250: fd6b ae3e c521 883e 2567 f83d 7523 283e
00000260: b0e6 3abe 43c5 7dbd 04ab 5ebe 7c5c 453e
00000270: 45cc 46bd 1610 6f3d 1f4b de3d b5e6 66bd
00000280: 1a3a 843d a98b 513e e933 1a3e e912 6f3d
00000290: 9172 913c 1cb2 1a3f 16ef 47be 42b0 19bd
000002a0: e55a 5abe 4270 59be 0bc4 cebd 6559 05bf
000002b0: d97a 43be 7459 a23d 6c7e 71be 0313 2abe
000002c0: 0854 493e bf5f 3cbe 7e48 d4be d252 8bbd
000002d0: cfaf 1abe 7134 53be e6d8 1c3e 5bfa 06be
000002e0: 537d 5d3e cfe6 2dbe 4523 013e 3856 a1bd
000002f0: 26d1 d7bd cb1a baba 9c1b d23d ef47 cb3c
00000300: 7a6c c83d 3a9b 0dbd 6079 20be af67 44be
00000310: d3e8 1d3e 5c7e 473e 2937 d03d c0ad 5fbe
00000320: 0c99 813d be7d ea3d 8a26 213e b926 6abe
00000330: 0802 e8bd a587 103e b012 223e 375a fabd
00000340: 1c19 643e 1349 45be 1551 2cbe be75 4c3c
00000350: 01e2 10be 1a5c 40be a264 de3c 2d6e dc3d
00000360: 6a90 a6bd 3f68 1ebd 6eb3 f1bd 4732 62be
00000370: 2197 123e 38a8 1f3e f748 653e 8425 f43c
00000380: 2601 d63d 3e1e 65be 900a b5bd 79b5 4dbe
00000390: 2ffc 103e 9631 743d fb31 813e 4281 13be
000003a0: d812 753d 8880 b1bd 023f 7dbd 1a0c e4bc
000003b0: 1471 cb3d bd1f fb3d 4bc5 763e 1507 d43d
000003c0: 84af a33c d9a7 433e 92ed 4f3e 7ca8 8d3d
000003d0: 85f1 683e 9925 293b 3892 75bd ee32 463e
000003e0: 5de5 4fbd ba4e 003e f41a 3d3e a7df 983d
000003f0: b154 f33d 093d 1fbe e5fb 4d3e 9566 dfbd

bias f4 [60]
-0.033025466 0.03324724 0.15982638 0.016584 0.0054555843 0.054530896 0.023079313 -0.031757705
-0.02663938 0.030229086 -0.024007171 -0.06916448 -0.03772124 -0.014775833 -0.0010152705 0.005393818
0.026279815 -0.027257519 0.007095365 -0.025584126 0.0008750491 0.015409716 0.03147288 -0.03342727
0.020245811 -0.04356569 0.03715194 -0.031193454 -0.033889297 -0.011105407 -0.018570686 0.04513817
0.020018471 -0.012951244 -0.053979084 -0.0067399456 -0.020437425 0.00933119 0.04176872 -0.043272994
0.00043900372 -0.025736881 0.028642626 -0.01791975 0.016294386 -0.020444263 -0.031633172 -0.0018670812
-0.0072512915 0.008991938 -0.0025732673 0.038266808 -0.018312426 -0.004969815 -0.018057233 -0.024059054
-0.041870274 -0.020321885 0.029492717 0.056081437
00000000: b645 07bd 422e 083d 87a9 233e 2bdb 873c
00000010: c2c4 b23b ca5b 5f3d d410 bd3c 5e14 02bd
00000020: d43a dabc fda2 f73c b0aa c4bc 1ba6 8dbd
00000030: 9681 1abd 5616 72bc d312 85ba a0be b03b
00000040: c448 d73c 294b dfbc 3c80 e83b cd95 d1bc
00000050: 8d63 653a 0979 7c3c b5e9 003d 08eb 08bd
00000060: 8bda a53c f071 32bd a22c 183d 6a89 ffbc
00000070: 81cf 0abd 74f3 35bc 8d21 98bc cde2 383d
00000080: c7fd a33c 7431 54bc 2c19 5dbd c3da dcbb
00000090: 636c a7bc d9e1 183c ad15 2b3d 063f 31bd
000000a0: 152a e639 27d6 d2bc f1a3 ea3c 71cc 92bc
000000b0: ce7b 853c ba7a a7bc c991 01bd d9b8 f4ba
000000c0: 3e9c edbb ec52 133c 43a4 28bb a8bd 1c3d
000000d0: f103 96bc d4d9 a2bb c3ec 93bc 7e17 c5bc
000000e0: 2a80 2bbd 157a a6bc b69a f13c a6b5 653d

weight f4 [60, 60]
0.18974054 -0.0689131 -0.04969919 0.11261847 0.011918223 -0.0783474 0.08779016 0.10120096
0.15261485 -0.11334655 0.25404966 -0.19318789 0.16016631 0.19690245 -0.18507047 -0.026530309
-0.14100036 0.23046851 0.10985987 0.21806382 0.11137096 0.14228654 0.14033997 -0.1253463
-0.19085126 0.23788409 -0.03047284 0.17373641 -0.033880726 0.16976292 -0.041961312 -0.07107522
0.049203724 0.051996514 0.22596359 -0.13667113 0.04160221 -0.11308293 -0.076829284 0.020412246
0.037285708 0.053827025 -0.15708074 0.19929384 -0.11922264 -0.20184743 -0.03531011 -0.087321095
-0.0019288299 -0.022557123 0.07347062 0.024767037 -0.17950921 0.0757604 -0.16469583 -0.044506952
0.10093619 0.12899694 0.038147997 -0.10451694 0.06001806 -0.16039853 -0.0089556165 -0.05716079
0.25099778 -0.1521951 0.03417853 0.16603288 0.018103205 0.10586563 -0.19262294 -0.2067542
0.2049024 0.19240463 0.17763966 -0.033673044 -0.113439634 0.005596111 0.106758185 -0.059725985
0.23197372 -0.02767945 0.049982052 0.10355337 -0.053086523 0.16863053 0.21967545 -0.124023564
0.028307313 0.16685683 -0.07816073 0.24601142 0.027142383 0.21782072 -0.20208931 0.26235437
0.06311417 -0.18153769 0.28755894 0.13629135 0.11186261 0.13504156 0.08725847 0.1435651
-0.121224575 0.05433729 0.22871283 0.122917145 -0.010514278 0.10949038 0.067676775 -0.030295843
0.091873184 -0.017202443 -0.07352579 -0.016315538 -0.2248728 0.011946792 -0.12931614 0.03612724
-0.08986196 0.10632476 0.089450404 -0.24850777 -0.05625895 -0.1324606 0.12727647 -0.10200293
0.05362456 -0.15190093 -0.0237299 0.21235603 -0.17057738 -0.16571367 -0.096590534 -0.038172133
0.037861537 -0.02842295 0.13364507 -0.04257542 0.18952557 -0.1461257 -0.22659755 0.018604709
-0.14056076 -0.057712402 0.012939695 -0.029114243 0.20033103 0.13320753 0.18888444 0.068333514
0.08038982 -0.12787773 -0.1052503 0.109222956 -0.26004237 0.17634116 -0.05639488 -0.04360436
-0.1475652 0.046224635 0.20422806 0.05390626 0.0033532039 -0.23344445 0.03737459 0.0374336
0.07807087 -0.033283852 0.44160584 -0.20280787 -0.11661064 -0.20432593 0.25826907 0.007993592
0.09681397 0.16770433 0.15158135 0.01037493 -0.20748702 -0.049771406 0.051320873 -0.014489687
-0.21503362 -0.1934414 -0.030303909 -0.18833973 0.19346789 -0.10156896 0.21075282 -0.088150054
0.14582476 0.07688316 0.16024068 -0.05515861 -0.053112242 0.11578195 0.07789315 0.1816996
0.11815469 -0.20778905 0.18448274 0.10447357 -0.08948188 0.1580373 0.074746 -0.07822216
0.17983912 0.034922734 0.08846633 0.17061643 -0.101483196 0.075542785 0.053829886 0.1529701
0.1489814 -0.10820245 -0.041375116 0.112392165 0.08251016 -0.009082415 -0.1861466 0.21896787
-0.17637406 -0.10368632 -0.011485137 -0.16606015 0.054425932 0.19912413 -0.05852698 -0.18555947
-0.017765805 0.086115465 0.06010933 0.03913586 0.011813 -0.21524023 0.20002034 0.081669524
-0.15813172 -0.10800964 -0.09157736 -0.21723366 0.07965737 -0.1415282 -0.083394825 0.109111205
-0.03973793 -0.23930907 -0.03337791 0.26973242 -0.07800271 -0.18007652 -0.25473964 -0.15036744
00000000: 584b 423e 5022 8dbd 6191 4bbd 83a4 e63d
00000010: a744 433c 9a74 a0bd 54cb b33d 7342 cf3d
00000020: 1147 1c3e 3c22 e8bd cc12 823e 0cd3 45be
00000030: a302 243e cca0 493e 1d83 3dbe 1756 d9bc
00000040: 6662 10be f0ff 6b3e 36fe e03d 1f4c 5f3e
00000050: 7516 e43d 90b3 113e 48b5 0f3e c85a 00be
00000060: 836e 43be e397 733e 2da2 f9bc f5e7 313e
00000070: 84c6 0abd 55d6 2d3e a0df 2bbd e38f 91bd
00000080: d889 493d 4cfa 543d 0063 673e 84f3 0bbe
00000090: 1467 2a3d 0698 e7bd ac58 9dbd 9537 a73c
000000a0: e6b8 183d ba79 5c3d c6d9 20be af13 4c3e
000000b0: 002b f4bd 18b1 4ebe 55a1 10bd 67d5 b2bd
000000c0: cbd0 fcba b7c9 b8bc c477 963d 3ee4 ca3c
000000d0: 43d1 37be 4528 9b3d 06a6 28be ec4c 36bd
000000e0: a2b7 ce3d c617 043e 1341 1c3d fa0c d6bd
000000f0: 7fd5 753d 833f 24be 94ba 12bc 6f21 6abd
00000100: c882 803e 08d9 1bbe c9fe 0b3d 8604 2a3e
00000110: 2c4d 943c 14d0 d83d f33e 45be 5fb7 53be
00000120: efd1 513e b805 453e 2ce7 353e bfec 09bd
00000130: 0a53 e8bd 955f b73b 09a4 da3d 3ca3 74bd
00000140: 858a 6d3e 04c0 e2bc fbb9 4c3d ca13 d43d
00000150: 4171 59bd 7bad 2c3e 9af2 603e 1100 febd
00000160: bde4 e73c 84dc 2a3e bc12 a0bd 6bea 7b3e
00000170: b459 de3c 650c 5f3e 80f0 4ebe 5053 863e
00000180: 0142 813d 04e5 39be ed3a 933e f68f 0b3e
00000190: 3918 e53d 5648 0a3e 92b4 b23d bb02 133e
000001a0: 9744 f8bd c790 5e3d b233 6a3e fcbb fb3d
000001b0: 1444 2cbc 7e3c e03d 1f9a 8a3d fd2e f8bc
000001c0: 0228 bc3d 23ec 8cbc b094 96bd 2aa8 85bc
000001d0: 0e45 66be 7abc 433c 736b 04be 28fa 133d
000001e0: 8c09 b8bd ccc0 d93d c631 b73d d278 7ebe
000001f0: c96f 66bd c0a3 07be c354 023e eae6 d0bd
00000200: 6da5 5b3d eb8b 1bbe 3565 c2bc dc73 593e
00000210: d6ab 2ebe d8b0 29be 42d1 c5bd 625a 1cbd
00000220: b314 1b3d 3fd7 e8bc 41da 083e 9063 2ebd
00000230: fe12 423e faa1 15be 3009 68be e768 983c
00000240: 29ef 0fbe d763 6cbd 0401 543c fe80 eebc
00000250: 9423 4d3e 8e67 083e ec6a 413e 71f2 8b3d
00000260: 6ba3 a43d 61f2 02be 788d d7bd 49b0 df3d
00000270: 4624 85be c792 343e 51fe 66bd 7c9a 32bd
00000280: 551b 17be 0b56 3d3d 2921 513e cfcc 5c3d
00000290: 6dc1 5b3b 100c 6fbe 1916 193d f953 193d
000002a0: 9fe3 9f3d a654 08bd 291a e23e deac 4fbe
000002b0: 8fd1 eebd d13a 51be d83b 843e 8ef7 023c
000002c0: 6746 c63d afba 2b3e 2438 1b3e 9cfb 293c
000002d0: 7a77 54be 1add 4bbd d635 523d 2766 6dbc
000002e0: c631 5cbe 8115 46be e73f f8bc 21dc 40be
000002f0: 721c 463e 6303 d0bd 96cf 573e 0488 b4bd
00000300: 1653 153e eb74 9d3d 2216 243e ffed 61bd
00000310: 398c 59bd 161f ed3d 7286 9f3d 760f 3a3e
00000320: 16fb f13d a7c6 54be 0be9 3c3e 3df6 d53d
00000330: 4742 b7bd 88d4 213e 6e14 993d f132 a0bd
00000340: bf27 383e 240b 0f3d d62d b53d 13b6 2e3e
00000350: 6cd6 cfbd 2db6 9a3d ba7c 5c3d 32a4 1c3e
00000360: 958e 183e 3f99 ddbd f478 29bd dd2d e63d
00000370: 16fb a83d 69ce 14bc 379d 3ebe 1d39 603e
00000380: 679b 34be 7e59 d4bd 282c 3cbc ac0b 2abe
00000390: baed 5e3d 32e7 4b3e fdb9 6fbd 4d03 3ebe
000003a0: 9889 91bc 4e5d b03d 3335 763d ec4c 203d
000003b0: 508b 413c ef67 5cbe 22d2 4c3e 5a42 a73d
000003c0: 48ed 21be 2834 ddbd e98c bbbd 8072 5ebe
000003d0: 6723 a33d c5ec 10be e8ca aabd b275 df3d
000003e0: 3dc4 22bd 700d 75be 46b7 08bd 5e1a 8a3e
000003f0: e3bf 9fbd fb65 38be 3c6d 82be ecf9 19be

bias f4 [60]
-0.027986372 0.025302717 -0.02039309 -0.009167772 -0.02870007 -0.03253818 0.011322776 0.018318376
0.029175872 0.041354258 0.02748176 0.039617646 0.020069577 0.006014487 -0.03288983 -0.010119611
-0.026430666 0.034023345 -0.003918053 -0.009634699 -0.002125174 -0.042506587 -0.030612743 -0.02863047
-0.025048144 0.0034077622 0.029775457 -0.019765044 -0.042949673 -0.01763816 0.034608655 -0.0050200894
0.07007277 0.025059272 0.0062629194 -0.022317631 0.0066950326 -0.024256038 0.049906485 -0.03190546
0.018829333 -0.022061557 -0.02658833 0.067021705 -0.04178691 0.030361893 -0.008502178 0.004565748
0.007888764 0.060748823 0.05260025 -0.01732043 0.03370546 -0.031686172 -0.03969061 0.039760944
-0.025585508 -0.030486543 -0.012545415 -0.032791287
00000000: ad43 e5bc a547 cf3c 690f a7bc 6c34 16bc
00000010: 691c ebbc c146 05bd 2a83 393c 6b10 963c
00000020: 3d02 ef3c 1563 293d 6e21 e13c 1d46 223d
00000030: f468 a43c 2c15 c53b 7db7 06bd bacc 25bc
00000040: 2085 d8bc 105c 0b3d 0363 80bb dbda 1dbc
00000050: 8146 0bbb 631b 2ebd 93c7 fabc 738a eabc
00000060: c431 cdbc c354 5f3b a9eb f33c 4dea a1bc
00000070: ffeb 2fbd e77d 90bc cec1 0d3d 907f a4bb
00000080: 5082 8f3d 1a49 cd3c 2d39 cd3b 77d3 b6bc
00000090: 0162 db3b 99b4 c6bc be6a 4c3d 4daf 02bd
000000a0: f93f 9a3c 70ba b4bc c5cf d9bc ad42 893d
000000b0: c028 2bbd 81b9 f83c b84c 0bbc 459c 953b
000000c0: e03f 013c c2d3 783d 5c73 573d 93e3 8dbc
000000d0: bd0e 0a3d 5cc9 01bd 9f92 22bd 5fdc 223d
000000e0: b398 d1bc eabe f9bc 498b 4dbc 2850 06bd

weight f4 [60, 60]
0.17525753 0.12632003 0.22462611 -0.24669513 0.178181 -0.16490883 0.17698473 0.2744647
0.11702438 -0.052425053 -0.13732415 -0.06906005 0.010713201 -0.16755342 0.15259932 -0.06443787
-0.022497805 -0.3310456 0.11253093 0.24176674 0.10314738 -0.183465 0.10911583 -0.2511196
0.02114071 0.3194592 0.04300436 -0.08279223 0.28139532 0.022427313 -0.13065758 -0.25449058
-0.2340906 0.016783545 -0.09112958 0.13722093 -0.33336583 0.119933546 -0.26732174 0.02501147
0.088484876 0.078415155 -0.013717983 -0.26346985 -0.04707175 0.24429032 0.07852796 -0.15314248
-0.22955458 0.060756043 -0.05397617 -0.15459235 -0.08672099 0.03324743 -0.046790417 0.0009052987
-0.09201604 -0.1434218 0.20993185 0.035601173 0.04122358 0.14434071 0.09504034 -0.13369365
0.15857586 -0.047394786 -0.031677715 0.19902319 -0.17462848 0.07905409 0.08216108 0.03323603
0.025582872 -0.09909551 -0.10347007 0.0983475 0.04050423 -0.076086126 -0.0016241496 -0.20073096
0.15341194 -0.08979224 0.14331585 -0.17478934 0.10611376 0.050006367 -0.15283175 -0.13312805
0.15814655 -0.067454316 -0.04783541 0.18316971 -0.23914786 -0.18462785 -0.20609008 -0.019688591
-0.23645835 -0.091776304 -0.1821993 0.19659153 0.036904406 -0.22165592 -0.13032815 -0.10688414
0.1737472 -0.002964369 0.19413082 0.14728148 -0.17310257 -0.15228832 -0.06223752 -0.012179777
-0.03936626 -0.14290191 0.014344957 0.19361456 0.05249294 0.17801979 0.19063307 0.14152063
0.019676903 0.07185756 0.089694604 0.006280912 -0.18524268 0.0001431161 0.12070786 0.1878301
0.117134735 -0.18017021 0.007845376 0.00984149 -0.14609087 0.03567813 -0.036897548 -0.029413752
0.02184712 -0.04416584 -0.040523127 -0.0039366116 -0.16188024 -0.20561047 -0.13595934 -0.24416167
-0.12867028 -0.11623282 -0.15396988 0.033753853 -0.064990014 0.14252375 0.2216657 -0.03736191
0.10688775 0.16565897 0.035721693 -0.017386021 -0.0822595 -0.15936308 -0.075575076 0.025709515
-0.1949247 -0.0076551917 0.21877214 -0.21818335 0.11040976 0.1927641 -0.07427956 0.12828708
-0.23439032 -0.15536866 -0.0043910625 0.16248535 0.12969355 -0.17360616 -0.073363975 -0.087202825
-0.1639339 -0.06467551 -0.17644091 -0.059726145 -0.03559031 -0.005677049 -0.11401795 -0.104284
-0.19133364 0.008982828 -0.29076952 -0.24014013 0.3334545 -0.09556706 -0.09963966 -0.1597992
-0.009321316 0.16385366 -0.1733099 -0.08961231 0.021940833 -0.042581946 -0.06878772 -0.20470764
0.059267413 -0.058023833 -0.051932167 -0.09882998 -0.042873576 -0.27278242 -0.13902746 -0.0562333
-0.006587496 -0.20417088 -0.02736102 0.03214492 0.006258882 -0.23728836 -0.21449983 -0.18851797
0.20593718 0.03354609 0.162482 0.05820677 0.08964626 0.2548505 -0.07563418 0.09362764
-0.17681387 -0.16578531 0.03779136 -0.258867 0.25056055 -0.19880007 0.13288985 0.05272518
-0.28250173 -0.19063264 -0.06805784 0.13166891 0.13794799 -0.14229709 -0.08170029 0.034321856
0.058038514 -0.10939008 -0.18130192 0.21984942 0.19709416 0.19549698 -0.12084149 -0.035301335
-0.1479533 -0.26146758 -0.35303196 -0.09598627 -0.13938403 -0.13954209 0.030829014 -0.014494848
00000000: b676 333e 0a5a 013e 6304 663e a69d 7cbe
00000010: 1475 363e dcdd 28be 7c3b 353e a386 8c3e
00000020: 7aaa ef3d a7bb 56bd b49e 0cbe 5b6f 8dbd
00000030: 6c86 2f3c 2093 2bbe ff42 1c3e 01f8 83bd
00000040: 514d b8bc cf7e a9be 9e76 e63d b391 773e
00000050: ef3e d33d 40de 3bbe 1f78 df3d c092 80be
00000060: 482f ad3c 2890 a33e 5725 303d f98e a9bd
00000070: 0c13 903e 7cb9 b73c 1acb 05be 974c 82be
00000080: 72b5 6fbe a57d 893c 25a2 babd a583 0c3e
00000090: edae aabe b89f f53d 65de 88be dbe4 cc3c
000000a0: 8f37 b53d 2098 a03d 64c1 60bc 85e5 86be
000000b0: 4fce 40bd 3e27 7a3e 44d3 a03d 62d1 1cbe
000000c0: 5b10 6bbe 54db 783d 1e16 5dbd 754d 1ebe
000000d0: c69a b1bd 752e 083d 4fa7 3fbd 9151 6d3a
000000e0: e872 bcbd 2add 12be 60f8 563e 89d2 113d
000000f0: 0eda 283d 0dce 133e 83a4 c23d fde6 08be
00000100: b661 223e 0921 42bd 7ec0 01bd bccc 4b3e
00000110: cfd1 32be 1ce7 a13d 1144 a83d 8122 083d
00000120: 2c93 d13c 96f2 cabd 1ee8 d3bd 6a6a c93d
00000130: c3e7 253d 0bd3 9bbd 6be1 d4ba 6b8c 4dbe
00000140: 0518 1d3e fee4 b7bd 64c1 123e fafb 32be
00000150: 2c52 d93d 7ad3 4c3d ed7f 1cbe b852 08be
00000160: 2bf1 213e 7d25 8abd 10ef 43bd d790 3b3e
00000170: 2de3 74be 150f 3dbe 4709 53be f849 a1bc
00000180: 2322 72be 37f5 bbbd 7492 3abe 4a4f 493e
00000190: 1329 173d c5f9 62be be74 05be 12e6 dabd
000001a0: c9ea 313e dc45 42bb 3bca 463e f5d0 163e
000001b0: cd41 31be 78f1 1bbe c5ec 7ebd b08d 47bc
000001c0: 843e 21bd e154 12be 1c07 6b3c e542 463e
000001d0: d602 573d d24a 363e 5135 433e c9ea 103e
000001e0: 7531 a13c 0e2a 933d ceb1 b73d 1cd0 cd3b
000001f0: 42b0 3dbe 7011 1639 af35 f73d 8956 403e
00000200: 56e4 ef3d 8a7e 38be e489 003c 333e 213c
00000210: d898 15be 3b23 123d e221 17bd 1cf5 f0bc
00000220: bbf8 b23c 3de7 34bd 94fb 25bd b1fe 80bb
00000230: efc3 25be 8d8b 52be ed38 0bbe 8405 7abe
00000240: 24c2 03be 790b eebd 48aa 1dbe 7b41 0a3d
00000250: 7c19 85bd bff1 113e 55fc 623e cd08 19bd
00000260: f7e7 da3d 81a2 293e e950 123d 216d 8ebc
00000270: ab77 a8bd 1330 23be 1bc7 9abd c39c d23c
00000280: 579a 47be 67d8 fabb ce05 603e 756b 5fbe
00000290: 831e e23d f463 453e e21f 98bd b05d 033e
000002a0: 0404 70be f618 1fbe e7e2 8fbb 8f62 263e
000002b0: 63ce 043e d0c5 31be da3f 96bd 6597 b2bd
000002c0: 4ade 27be 9874 84bd edac 34be 67a3 74bd
000002d0: 25c7 11bd 8a06 babb 3e82 e9bd da92 d5bd
000002e0: f7ec 43be b62c 133c bedf 94be 4be7 75be
000002f0: 8cba aa3e aab8 c3bd e10f ccbd 67a2 23be
00000300: 6fb8 18bc 41c9 273e 2778 31be a986 b7bd
00000310: 43bd b33c 686a 2ebd 93e0 8cbd e19e 51be
00000320: 63c2 723d 66aa 6dbd d3b6 54bd 5f67 cabd
00000330: 349c 2fbd 23aa 8bbe 375d 0ebe e454 66bd
00000340: ecdb d7bb 2c12 51be 3824 e0bc 64aa 033d
00000350: 4f17 cd3b b8fb 72be d8a5 5bbe db0a 41be
00000360: 32e1 523e a067 093d ae61 263e 396a 6e3d
00000370: 7598 b73d c47b 823e 18e6 9abd d9bf bf3d
00000380: b20e 35be a0c3 29be 1dcb 1a3d 378a 84be
00000390: 7949 803e 3f92 4bbe 4714 083e 5cf6 573d
000003a0: 11a4 90be 3435 43be e961 8bbd 37d4 063e
000003b0: 3d42 0d3e 54b6 11be 7b52 a7bd 1395 0c3d
000003c0: cbb9 6d3d e807 e0bd 36a7 39be 3520 613e
000003d0: 0dd3 493e 5c30 483e be7b f7bd 2298 10bd
000003e0: 1281 17be 14df 85be 9bc0 b4be 7394 c4bd
000003f0: b0ba 0ebe 1fe4 0ebe 218d fc3c cd7b 6dbc

bias f4 [60]
0.024371974 -0.062082253 -0.007599893 0.030264134 -0.02586176 0.036978777 0.0021674132 -0.008709089
-0.026995137 -0.022631971 -0.019937007 -0.019169537 0.044386037 0.103355646 -0.03222906 -0.018377833
-0.027434312 -0.0038725804 0.040641982 -0.0052998676 -0.009011877 -0.023250734 0.026758786 -0.01589285
-0.010638707 0.008029709 0.0028223018 0.034055736 0.02067251 -0.01130307 -0.008107293 0.042076197
-0.044752758 -0.027026828 -0.01584467 0.022562 -0.0023479143 0.001979831 -0.017704977 -0.064179644
-0.04461911 -0.08741447 -0.01798155 0.0010601693 0.009471104 -0.015839271 0.02237448 0.021044066
0.052953184 0.01884716 -0.040158004 -0.013704997 0.033267226 -0.018038154 -0.087790236 0.010029431
0.0049095633 0.015613206 0.046722177 -0.024200024
00000000: bca7 c73c f649 7ebd 8608 f9bb 7dec f73c
00000010: 0bdc d3bc 0f77 173d 290b 0e3b 91b0 0ebc
00000020: e824 ddbc af66 b9bc ef52 a3bc 6f09 9dbc
00000030: 22ce 353d 20ac d33d 9e02 04bd 1c8d 96bc
00000040: ecbd e0bc 1ecb 7dbb 3578 263d 83aa adbb
00000050: 8da6 13bc 5378 bebc 3e35 db3c b931 82bc
00000060: f94d 2ebc 0a8f 033c 5ef6 383b 077e 0b3d
00000070: 6559 a93c 8330 39bc 74d4 04bc 1758 2c3d
00000080: ab4e 37bd 5e67 ddbc aecc 81bc f2d3 b83c
00000090: 77df 19bb 0dc0 013b 070a 91bc 9e70 83bd
000000a0: 87c2 36bd 5c06 b3bd 0b4e 93bc 61f5 8a3a
000000b0: b02c 1b3c 5cc1 81bc af4a b73c 9b64 ac3c
000000c0: 70e5 583d 5c65 9a3c b87c 24bd ec8a 60bc
000000d0: 3743 083d c0c4 93bc 5ecb b3bd 7c52 243c
000000e0: 67e0 a03b 88ce 7f3c c15f 3f3d 213f c6bc

weight f4 [60, 60]
-0.10383165 0.16696379 0.19550362 0.06637241 0.20410678 -0.16255502 -0.10218309 0.18806125
-0.10203203 0.22106758 0.0945467 -0.20505239 0.005058731 0.09309351 -0.058803886 -0.10013146
-0.09621911 -0.09639788 -0.080216765 0.01010352 -0.056066923 0.041990038 -0.17749636 0.12859227
-0.10432193 -0.089613974 -0.00096688705 0.013716784 -0.19255908 0.09182984 -0.14290568 -0.09126538
0.109550685 -0.1697476 -0.080173984 0.090099104 -0.15710117 -0.20685607 0.04223341 -0.14595512
-0.03199574 0.16574252 0.18868868 -0.1771539 -0.076556 0.092484206 -0.24423955 -0.0068056877
-0.13023478 0.069265306 0.20324993 0.21701446 -0.12957151 -0.20790556 0.14279792 0.034127023
-0.08408588 -0.07198267 -0.009490377 -0.19225346 0.10278957 0.17879507 -0.14642392 -0.2200196
0.14123946 -0.054191347 0.048764404 -0.15380827 0.2112309 -0.08832607 0.07891268 0.025122177
-0.022143096 -0.22827439 -0.120427415 -0.113180146 -0.18191274 0.004506304 -0.21942376 -0.11532134
-0.13873257 0.0070788153 -0.20445721 -0.08049031 0.11253957 0.20985642 0.24683863 -0.10500537
-0.09871041 0.0937148 0.068225086 0.113305785 0.08346368 -0.07471235 0.19767298 -0.15047461
0.025990432 -0.23305711 0.16293849 0.22873741 -0.052656222 0.16837288 0.23964055 -0.058281664
0.07571038 0.07872115 -0.0010582996 0.17776415 0.24388868 -0.14092152 -0.101783425 -0.04367491
0.06482761 0.13283859 -0.08780293 0.12352113 -0.19330098 0.1801677 -0.12403188 0.14815125
-0.079972364 0.07686185 -0.088758 -0.156391 -0.24513185 -0.056290783 0.28014782 0.1538931
0.19218695 -0.21271457 -0.12421262 -0.08560135 0.12791312 0.04246947 -0.16231754 0.2487049
0.046111964 -0.103733994 -0.14824878 0.050796203 -0.115171455 0.24756365 0.17776603 -0.15209658
-0.08666409 -0.055606384 0.09316653 0.08013981 0.219629 0.21052629 0.06563514 -0.018357744
0.017828587 0.025931869 0.097704254 -0.08611337 -0.0042135455 -0.21882512 0.07379366 -0.12795632
0.23492564 0.03885537 0.10167952 -0.1996497 0.07819425 0.06680031 0.18551448 0.015722461
-0.048411418 0.1588097 0.054852307 -0.00060393754 -0.044955853 0.008842706 0.09595155 0.18855967
-0.23470981 0.17542657 -0.04918895 0.16053061 -0.18900119 0.02934949 0.14301074 0.18005504
-0.094841994 0.10569297 0.21872339 -0.14787687 0.0040231296 0.14093001 0.012621994 0.017464643
0.17441653 -0.1869796 0.23436853 -0.19060932 0.022025805 -0.17198424 0.08878507 -0.17897922
0.08226641 -0.09627647 0.18631503 -0.124224536 -3.1110742e-06 0.009625502 0.15846375 0.18329029
-0.12591377 -0.09499982 0.21278314 0.26575163 -0.093562536 -0.2190113 0.1879165 0.21556178
-0.048652604 0.015838265 -0.1787734 0.07463607 0.11550509 0.17373984 0.0352422 -0.05110362
0.29853958 0.031415258 -0.23605041 0.120115004 -0.116399124 0.1476816 0.27623546 -0.09810925
0.027879136 0.0584919 -0.14086276 0.09699709 0.17657185 -0.13729712 0.03329624 0.021980118
-0.17952976 -0.28230733 -0.024066713 0.14547561 -0.086403854 -0.020612014 -0.19134547 -0.14095607
0.14256856 -0.0212307 -0.052341636 0.012997057 0.01040021 -0.05440352 0.0781154 -0.21360776
00000000: b0a5 d4bd 8ef8 2a3e 1a32 483e 42ee 873d
00000010: 5e01 513e d374 26be 5e45 d1bd 2193 403e
00000020: 2bf6 d0bd 8a5f 623e b3a1 c13d 41f9 51be
00000030: b6c3 a53b cfa7 be3d 58dc 70bd b911 cdbd
00000040: 860e c5bd 406c c5bd b048 a4bd 3c89 253c
00000050: 6ea6 65bd bffd 2b3d 9bc1 35be b1ad 033e
00000060: bca6 d5bd 8887 b7bd b176 7dba 5dbc 603c
00000070: 352e 45be 4811 bc3d de55 12be 58e9 babd
00000080: 1c5c e03d 51d2 2dbe 4232 a4bd e185 b83d
00000090: 21df 20be 14d2 53be f1fc 2c3d 4275 15be
000000a0: f70d 03bd 68b8 293e 9b37 413e d567 35be
000000b0: 64c9 9cbd 5c68 bd3d ef19 7abe 3f02 dfbb
000000c0: 445c 05be f8da 8d3d c020 503e 0a39 5e3e
000000d0: 65ae 04be 32e5 54be 9e39 123e c7c8 0b3d
000000e0: 3835 acbd a66b 93bd 877d 1bbc 17de 44be
000000f0: 5783 d23d 0e16 373e 27f0 15be d14c 61be
00000100: 14a1 103e bff7 5dbd 2fbd 473d ea7f 1dbe
00000110: ea4c 583e 4ce4 b4bd f99c a13d 06cd cd3c
00000120: 7065 b5bc c3c0 69be a6a2 f6bd feca e7bd
00000130: 5547 3abe 9ea9 933b 9fb0 60be 982d ecbd
00000140: e90f 0ebe 68f5 e73b 3b5d 51be 1bd8 a4bd
00000150: 257b e63d 9ae4 563e 44c3 7c3e 0e0d d7bd
00000160: af28 cabd 8ced bf3d 98b9 8b3d dd0c e83d
00000170: 02ef aa3d ca02 99bd c96a 4a3e 0416 1abe
00000180: e3e9 d43c 86a6 6ebe 59d9 263e 243a 6a3e
00000190: 0dae 57bd f169 2c3e 5564 753e c1b8 6ebd
000001a0: 0b0e 9b3d 8e38 a13d a4b6 8aba ce07 363e
000001b0: f4bd 793e bb4d 10be d473 d0bd 76e4 32bd
000001c0: 57c4 843d d706 083e 06d2 b3bd a5f8 fc3d
000001d0: b1f0 45be e27d 383e 6d04 febd f6b4 173e
000001e0: 8dc8 a3bd bf69 9d3d c1c6 b5bd f624 20be
000001f0: d803 7bbe 2a91 66bd 896f 8f3e 2796 1d3e
00000200: a8cc 443e d9d1 59be 3063 febd c34f afbd
00000210: a8fb 023e 78f4 2d3d 9236 26be 7fac 7e3e
00000220: e6df 3c3d 7d72 d4bd 87ce 17be ae0f 503d
00000230: 03df ebbd 5381 7d3e 4c08 363e 35bf 1bbe
00000240: f17c b1bd 85c3 63bd 18ce be3d 5720 a43d
00000250: 6de6 603e 3494 573e b76b 863d fb62 96bc
00000260: 420d 923c 126f d43c 2b19 c83d 355c b0bd
00000270: c811 8abb b113 60be 2121 973d fb06 03be
00000280: 5990 703e cf26 1f3d 5a3d d03d f970 4cbe
00000290: 4f24 a03d 9ace 883d 82f7 3d3e 64cc 803c
000002a0: 0d4b 46bd 039f 223e d0ac 603d 9051 1eba
000002b0: a123 38bd ffe0 103c 3f82 c43d c915 413e
000002c0: c557 70be 06a3 333e 5a7a 49bd 2362 243e
000002d0: 8789 41be 576e f03c 6871 123e 5960 383e
000002e0: 853c c2bd 8e75 d83d 06f9 5f3e 096d 17be
000002f0: 75d4 833b f54f 103e 7bcc 4e3c 0312 8f3c
00000300: 3f9a 323e 9577 3fbe 4efe 6f3e 172f 43be
00000310: 766f b43c a31c 30be f2d4 b53d 5446 37be
00000320: 4b7b a83d 992c c5bd 5ec9 3e3e 6f69 febd
00000330: d9c7 50b6 48b4 1d3c 5244 223e 73b0 3b3e
00000340: 8aef 00be 448f c2bd d3e3 593e 9910 883e
00000350: b79d bfbd 8044 60be 2f6d 403e 3abc 5c3e
00000360: f447 47bd 40bf 813c 6010 37be ccda 983d
00000370: ef8d ec3d dbe8 313e 205a 103d 0852 51bd
00000380: 2eda 983e 49ad 003d 33b7 71be dbfe f53d
00000390: aa62 eebd d839 173e bc6e 8d3e 81ed c8bd
000003a0: c962 e43c 3495 6f3d 543e 10be 69a6 c63d
000003b0: 40cf 343e 9e97 0cbe a361 083d a60f b43c
000003c0: a6d6 37be 968a 90be 8e27 c5bc 8ff7 143e
000003d0: 81f4 b0bd 87da a8bc 11f0 43be ca56 10be
000003e0: 7efd 113e 01ec adbc 2f64 56bd 9cf1 543c
000003f0: a465 2a3c 3ad6 5ebd f8fa 9f3d febb 5abe

bias f4 [60]
-0.0019292778 -0.034022175 0.04230954 0.03015689 0.03071926 0.04024548 -0.022586497 -0.0445219
-0.041145857 0.027324356 -0.001998573 0.018810937 -0.009163216 -0.008890171 -0.016444284 0.04275571
-0.004873625 -0.038197566 0.006037543 -0.033495404 0.0012059677 -0.023556445 -0.018690294 -0.0001626286
0.026336743 0.0101735145 0.025778973 0.02387535 0.026355447 -0.016140418 -0.049035974 -0.015633374
-0.011520505 0.021364113 0.006599543 0.02501195 0.013181403 0.0280151 0.0056010997 -0.04661792
0.014883041 -0.033568863 -0.012098757 0.015114221 -0.021976514 0.022631055 0.021343691 0.026935076
0.049710758 -0.022306377 -0.038882893 -0.062587075 0.034926806 -0.033090238 0.0040600137 0.005941396
0.040182743 -0.023718053 -0.076252766 0.0044717407
00000000: d2df fcba d65a 0bbd c54c 2d3d 950b f73c
00000010: f5a6 fb3c 72d8 243d 5107 b9bc 995c 36bd
00000020: 8f88 28bd 54d7 df3c 7efa 02bb 6519 9a3c
00000030: 5021 16bc 14a8 11bc 2ab6 86bc 9d20 2f3d
00000040: eeb2 9fbb 0d75 1cbd 95d6 c53b 7a32 09bd
00000050: 9011 9e3a 72f9 c0bc 631c 99bc 4887 2ab9
00000060: 27c0 d73c d0ae 263c 6d2e d33c 3d96 c33c
00000070: 61e7 d73c e938 84bc f2d9 48bd 9011 80bc
00000080: 80c0 3cbc cb03 af3c fb40 d83b dce5 cc3c
00000090: d0f6 573c ec7f e53c 6e89 b73b 6ff2 3ebd
000000a0: 00d8 733c 817f 09bd dd39 46bc a3a1 773c
000000b0: 1708 b4bc c364 b93c f7d8 ae3c f3a6 dc3c
000000c0: 829d 4b3d ddbb b6bc ab43 1fbd a72d 80bd
000000d0: 690f 0f3d a189 07bd dd09 853b 0bb0 c23b
000000e0: a996 243d 5d4c c2bc 692a 9cbd ae87 923b

weight f4 [60, 60]
0.08089311 0.11418744 -0.10316082 -0.07295284 0.16891275 0.2053218 0.040964473 -0.26977643
-0.11854347 -0.027086861 0.18632069 -0.14148416 -0.231569 -0.1491183 -0.12010039 -0.008362269
0.19178838 -0.11313455 0.18404417 -0.09770578 -0.19651076 -0.20150505 0.25151888 -0.23671758
-0.008608093 0.029079305 0.0653408 0.031000158 0.16261825 0.01843182 0.14189704 0.09395143
0.00794803 -0.02527474 -0.09089094 -0.18803048 0.16195291 0.1322588 0.1932223 0.118267104
-0.06371463 0.13772024 0.20067835 0.23504478 -0.002954073 0.045728013 -0.10699518 0.1003381
-0.0726177 0.20740905 0.15998316 0.082868196 -0.059745308 -0.10826205 0.073619455 0.19566646
0.082955696 0.038403753 -0.05517919 0.048275393 0.17741652 0.17219256 0.080953486 -0.048847426
0.089837335 0.17517179 -0.101911284 -0.0655939 -0.07085603 0.01611038 0.14180279 0.10249271
0.21886748 -0.17887276 0.09970825 -0.11438146 0.19611554 0.043216456 -0.08075026 -0.1414369
-0.15908937 -0.05241349 -0.11807925 0.107216895 -0.0642982 -0.16462147 0.0070424466 -0.028873036
0.12550184 -0.122452274 -0.05231101 -0.098556355 -0.12929909 -0.06513718 0.12949432 -0.018698711
-0.103436 0.0126408 0.16559634 0.20476145 -0.0067777243 0.21982077 0.037618548 0.1556864
0.22227682 -0.14431079 0.09947274 -0.041974034 0.067676745 0.056674898 -0.18046306 0.200875
-0.13878101 -0.20277372 -0.18449418 0.034223035 -0.023748199 0.14093465 -0.0515092 -0.010792743
0.14978798 0.16449362 0.027335497 -0.027264899 0.20689471 0.15319699 0.11357744 0.031325415
0.16663623 0.18811786 0.18429682 0.034598216 -0.118923694 0.09592853 -0.05773726 -0.00846544
-0.208395 -0.019500976 0.14115024 0.14294618 -0.034997966 0.026787082 -0.19188422 0.0061776494
-0.1210038 0.17087269 -0.04675174 -0.005271088 0.07059112 0.1907007 0.16235498 -0.06386734
0.123243 0.04300298 0.039410044 -0.07161583 0.072857864 0.028144436 0.11787652 -0.11787529
0.03204294 -0.20267849 -0.019228969 -0.20827237 0.03896634 -0.012557652 -0.07911667 0.17470452
-0.021543033 -0.01582044 -0.031390652 0.18895957 0.09151119 0.022630028 -0.06974323 0.17265053
0.03450892 0.06513335 -0.057337828 -0.18454105 -0.01607677 0.026886778 -0.10782208 0.10991412
0.1648568 0.15491903 -0.04674799 0.037599377 -0.017359229 -0.06502677 0.14685272 -0.1857621
0.11455801 -0.07176045 -0.21985738 0.16110206 0.19809482 -0.14585973 0.075177 -0.10710963
-0.085702725 -0.23502171 -0.045023397 0.03611672 0.21918218 0.045429144 -0.14007154 -0.17475033
-0.04287012 0.2245329 0.01174644 -0.05061779 -0.0015804281 0.19033435 -0.087961294 -0.20690991
-0.23700412 0.10088088 0.1550988 0.2088451 -0.16637656 -0.019345144 0.030769495 0.1408905
0.0004145371 -0.21225035 -0.13601916 0.08354077 0.07372352 0.20456293 0.0758496 0.004710058
-0.1295359 0.006320838 -0.0734533 0.05678916 -0.17191866 -0.12436799 -0.057884313 0.17267196
-0.1185617 -0.08989216 0.0984582 -0.1260766 -0.22255547 -0.070416 -0.017800212 0.029921766
0.005040761 0.06292103 0.07588619 0.117055565 0.1941484 0.21441 -0.16973084 0.0958208
00000000: 49ab a53d 1bdb e93d fb45 d3bd 4c68 95bd
00000010: 77f7 2c3e e13f 523e 5dca 273d 2320 8abe
00000020: ebc6 f2bd 44e5 ddbc daca 3e3e 39e1 10be
00000030: 6d20 6dbe 78b2 18be 31f7 f5bd e601 09bc
00000040: 2c64 443e 16b3 e7bd 1376 3c3e f819 c8bd
00000050: 1e3a 49be 5757 4ebe 15c7 803e 1866 72be
00000060: f508 0dbc b937 ee3c 66d1 853d 0bf4 fd3c
00000070: 6685 263e 54fe 963c 754d 113e 9b69 c03d
00000080: 7438 023c f90c cfbc 0725 babd 108b 40be
00000090: fcd6 253e da6e 073e 11dc 453e 0636 f23d
000000a0: d17c 82bd 8906 0d3e a07e 4d3e 94af 703e
000000b0: 1f99 41bb 4c4d 3b3d 4a20 dbbd 107e cd3d
000000c0: 97b8 94bd 0a63 543e a0d2 233e cdb6 a93d
000000d0: 7fb7 74bd 7eb8 ddbd ccc5 963d ca5c 483e
000000e0: ade4 a93d 414d 1d3d 9303 62bd 6bbc 453d
000000f0: adac 353e 3f53 303e f1ca a53d 3d14 48bd
00000100: a3fc b73d 3c60 333e ddb6 d0bd 1856 86bd
00000110: f71c 91bd eaf9 833c c034 113e b3e7 d13d
00000120: cc1e 603e 6c2a 37be d733 cc3d d440 eabd
00000130: 83d2 483e bd03 313d 6460 a5bd d6d4 10be
00000140: 53e8 22be 87af 56bd 89d3 f1bd 8894 db3d
00000150: c6ae 83bd 8892 28be 53c4 e63b 2587 ecbc
00000160: 8e83 003e 42c8 fabd 1244 56bd ead7 c9bd
00000170: fb66 04be a466 85bd 299a 043e 0a2e 99bc
00000180: 41d6 d3bd 5c1b 4f3c 1692 293e fcac 513e
00000190: ac17 debb b218 613e e815 1a3d 416c 1f3e
000001a0: 899c 633e 35c6 13be 5db8 cb3d f7ec 2bbd
000001b0: 1b9a 8a3d f023 683d 4fcb 38be 2db2 4d3e
000001c0: 9c1c 0ebe eaa3 4fbe 0bec 3cbe 742d 0c3d
000001d0: 958b c2bc 2c51 103e 50fb 52bd 0cd4 30bc
000001e0: 0562 193e 0471 283e b1ee df3c a35a dfbc
000001f0: 35dc 533e acdf 1c3e 4a9b e83d 144f 003d
00000200: b0a2 2a3e f8a1 403e 4eb8 3c3e dcb6 0d3d
00000210: 448e f3bd 2d76 c43d e87d 6cbd a1b2 0abc
00000220: 8065 55be 83c0 9fbc b089 103e 7c60 123e
00000230: 075a 0fbd 9570 db3c 4c7d 44be e16d ca3b
00000240: d7d0 f7bd 40f9 2e3e c17e 3fbd 17b9 acbb
00000250: 1492 903d 0b47 433e 6240 263e e1cc 82bd
00000260: d366 fc3d e523 303d 6d6c 213d 52ab 92bd
00000270: 8136 953d 298f e63c 3f69 f13d 9a68 f1bd
00000280: 753f 033d f38a 4fbe 1286 9dbc 5a45 55be
00000290: 2b9b 1f3d 9cbe 4dbc ec07 a2bd bee5 323e
000002a0: 047b b0bc de99 81bc 7c93 00bd 9e7e 413e
000002b0: 386a bb3d 9c62 b93c 8ad5 8ebd 4dcb 303e
000002c0: 3a59 0d3d a264 853d 12db 6abd 54f8 3cbe
000002d0: 6eb3 83bc a941 dc3c d3d1 dcbd a71a e13d
000002e0: 39d0 283e 18a3 1e3e d27a 3fbd ce01 1a3d
000002f0: f134 8ebc c12c 85bd 8f60 163e 6c38 3ebe
00000300: 649d ea3d 25f7 92bd 4b22 61be f0f7 243e
00000310: 5ed9 4a3e 415c 15be 66f6 993d 4b5c dbbd
00000320: e984 afbd 88a9 70be 746a 38bd 20ef 133d
00000330: 4b71 603e e913 3a3d ea6e 0fbe c0f1 32be
00000340: 9498 2fbd f4eb 653e 2474 403c 9a54 4fbd
00000350: 5e26 cfba 02e7 423e 0d25 b4bd 31e0 53be
00000360: 35b1 72be a39a ce3d 38d2 1e3e 7ddb 553e
00000370: 9e5e 2abe b579 9ebc 4f10 fc3c 9945 103e
00000380: 3a56 d939 2858 59be 9b48 0bbe 6c17 ab3d
00000390: 5bfc 963d f278 513e 0957 9b3d d556 9a3b
000003a0: 0fa5 04be 081f cf3b af6e 96bd c09b 683d
000003b0: 720b 30be a5b4 febd 1a18 6dbd ebd0 303e
000003c0: 7ad0 f2bd 6119 b8bd 74a4 c93d 391a 01be
000003d0: 95e5 63be 4436 90bd c0d1 91bc 7e1e f53c
000003e0: f82c a53b bedc 803d 386a 9b3d d4ba ef3d
000003f0: d7ce 463e 4c8e 5b3e eccd 2dbe b23d c43d
