Kovasznay/best_net_with_improved(adaptive loss).pth (torch, 334461 bytes, 20 tensors)

weight f4 [100, 2]
-0.12601724 0.016710704 -0.050934654 -0.2683556 0.2255317 0.06511153 0.21439694 -0.12340618
-0.1626185 -0.19144563 0.1072729 0.17620362 0.014041629 -0.15372764 0.13408066 -0.06945998
0.082263 -0.06520055 0.08362587 -0.26055714 -0.018086202 -0.120445244 -0.02969253 -0.29001138
-0.18344776 0.29860982 -0.13377088 0.09093034 0.18414547 -0.10644631 0.19766957 0.07256915
0.0708434 -0.09631689 0.08701245 -0.14933367 0.10121692 -0.307907 0.02762689 -0.07907726
-0.13917276 0.09597818 0.14372605 0.009009935 0.053950366 -0.16837205 -0.08732646 0.05780553
-0.06229734 -0.05950938 -0.0396526 -0.18629594 -0.15823548 -0.06606649 -0.067438886 -0.030807162
0.2039846 0.10236007 -0.124319986 0.0709424 0.062128395 -0.23973936 -0.052870132 -0.13526553
-0.012285817 -0.04984473 -0.12641199 -0.07505458 -0.14935912 -0.17021452 -0.002472555 0.11301718
0.14928222 0.0102533335 0.1101991 0.013494847 -0.21147893 0.204707 0.03410056 0.30314508
-0.18537185 0.15128511 0.14788952 -0.2190969 -0.07214822 0.051007446 -0.17503569 0.15124342
-0.10156216 -0.29747894 0.20867924 -0.28743592 0.09506138 -0.17076549 -0.12908654 -0.27428877
0.17865805 -0.16778317 0.11406178 0.088524036 0.04255937 -0.062049873 -0.21552753 0.2466497
-0.16558224 -0.11860314 -0.16932747 0.1548483 0.012773998 0.08064807 0.16575466 -0.208748
0.22148508 0.2552444 -0.19594504 0.059758995 0.1632683 -0.041847285 0.11640723 -0.029585592
0.18904294 0.1613442 -0.18700793 0.18818806 -0.106822744 0.27147317 -0.010526013 -0.0009983494
-0.06220665 -0.08624347 -0.1402453 0.07104052 0.06822743 0.21739365 -0.11684475 0.130975
-0.079187855 -0.16981106 -0.04251936 -0.2356452 -0.13558845 0.3491373 0.014843122 -0.049905073
-0.1531544 -0.09349236 0.005334666 -0.30654797 -0.14539938 0.16985862 0.037678294 -0.1040211
-0.16174622 -0.3872775 -0.027141979 -0.19094503 0.03825707 0.1627185 -0.09864744 -0.13792165
-0.08641311 0.26283225 -0.13081194 0.124877095 -0.15158539 0.1462299 -0.026139414 0.08081727
-0.14091687 -0.06893542 -0.09536724 -0.21907328 -0.1261002 0.2929655 0.1891287 0.0019085835
0.062143844 -0.0018347291 -0.027335685 -0.07780389 0.116795756 0.01929503 -0.039705105 0.23657346
0.050098646 0.30049956 0.15489034 0.16624548 0.22007966 -0.008761858 -0.14840391 0.15921062
0.050763696 0.089293025 -0.06137384 0.06939633 0.2083048 -0.24799395 -0.19535652 0.07398652
00000000: aa0a 01be e3e4 883c dba0 50bd e865 89be
00000010: c8f1 663e 3259 853d df8a 5b3e 61bc fcbd
00000020: 7785 26be 530a 44be e5b1 db3d b96e 343e
00000030: dc0e 663c c76a 1dbe 714c 093e 0941 8ebd
00000040: 8179 a83d de87 85bd 0a44 ab3d bf67 85be
00000050: 8429 94bc ffab f6bd c03d f3bc 5f7c 94be
00000060: bbd9 3bbe 63e3 983e 3cfb 08be b039 ba3d
00000070: a190 3c3e 8600 dabd e469 4a3e 229f 943d
00000080: 5816 913d ca41 c5bd 9533 b23d edea 18be
00000090: d14a cf3d fca5 9dbe ca51 e23c 42f3 a1bd
000000a0: 4e83 0ebe 3590 c43d ec2c 133e 689e 133c
000000b0: 0ffb 5c3d b969 2cbe 37d8 b2bd 7ec5 6c3d
000000c0: 7f2b 7fbd 1cc0 73bd c46a 22bd 5dc4 3ebe
000000d0: 7b08 22be de4d 87bd 661d 8abd 4d5f fcbc
000000e0: 57e1 503e 28a2 d13d 7a9b febd 404a 913d
000000f0: 587a 7e3d 3c7e 75be 5a8e 58bd 0c83 0abe
00000100: 744a 49bc fd29 4cbd 2572 01be 37b6 99bd
00000110: 99f1 18be b74c 2ebe 970a 22bb 8d75 e73d
00000120: 70dd 183e 99fd 273c 11b0 e13d 7e19 5d3c
00000130: ef8d 58be b69e 513e 07ad 0b3d d535 9b3e
00000140: 1ed2 3dbe 7cea 1a3e 5a70 173e f05a 60be
00000150: 72c2 93bd 2fed 503d 8e3c 33be 8edf 1a3e
00000160: d2ff cfbd 294f 98be 03b0 553e cd2a 93be
00000170: 8aaf c23d 26dd 2ebe 432f 04be 946f 8cbe
00000180: 23f2 363e 5acf 2bbe 3999 e93d 174c b53d
00000190: bc52 2e3d 0228 7ebd 40b3 5cbe bd91 7c3e
000001a0: 648e 29be 34e6 f2bd 2e64 2dbe 8e90 1e3e
000001b0: 084a 513c d12a a53d 97bb 293e 09c2 55be
000001c0: fccc 623e 65af 823e d1a5 48be d9c5 743d
000001d0: ce2f 273e 0f68 2bbd ea66 ee3d 7c5d f2bc
000001e0: 7994 413e 6a37 253e 027f 3fbe 5fb4 403e
000001f0: e2c5 dabd 88fe 8a3e 4c75 2cbc 0cdb 82ba
00000200: 66cc 7ebd 6ba0 b0bd 779c 0fbe b17d 913d
00000210: d3ba 8b3d 719c 5e3e 4d4c efbd 4f1e 063e
00000220: 3e2d a2bd f3e2 2dbe c828 2ebd fa4c 71be
00000230: b3d7 0abe 20c2 b23e 9130 733c 4369 4cbd
00000240: 82d4 1cbe ec78 bfbd 6cce ae3b dbf3 9cbe
00000250: 93e3 14be 6bef 2d3e 8e54 1a3d 0409 d5bd
00000260: cda0 25be 3d49 c6be db58 debc 1887 43be
00000270: 72b3 1c3d ae9f 263e ab07 cabd 553b 0dbe
00000280: 5bf9 b0bd f391 863e 91f3 05be 90bf ff3d
00000290: 3339 1bbe 4abd 153e 5322 d6bc 8683 a53d
000002a0: 834c 10be 032e 8dbd e64f c3bd bf54 60be
000002b0: 6920 01be 93ff 953e f4aa 413e 6f29 fa3a
000002c0: 8b8a 7e3d 4b7b f0ba 16ef dfbc a557 9fbd
000002d0: 9d32 ef3d 9c10 9e3c d2a1 22bd 5040 723e
000002e0: 3d34 4d3d 14db 993e 939b 1e3e 413c 2a3e
000002f0: 905c 613e e58d 0fbc 32f7 17be 1c08 233e
00000300: 98ed 4f3d 43df b63d 2363 7bbd aa1f 8e3d
00000310: da4d 553e 20f2 7dbe 8a0b 48be 3f86 973d

bias f4 [100]
-0.0024293999 -0.013661197 0.050041027 0.08081821 -0.050022684 -0.004730356 -0.044809517 -0.012208106
0.046675134 -0.011196792 -0.012106635 0.033465907 0.0017897027 -0.055058137 -0.03908859 0.07855401
-0.043230277 0.03915173 -0.046129126 0.04753723 0.01980299 0.040075704 0.051553153 -0.021535734
-0.051064327 0.0063074124 0.003748801 0.04278455 -0.011262781 -0.10476643 -0.02161883 -0.0074833664
-0.055876005 -0.07458051 0.026069013 -0.07461361 0.030788217 0.0018048655 -0.03741405 0.09056993
0.04390061 0.0037733275 -0.036363292 -0.0030196677 -0.031128798 -0.0147117805 -0.0004340044 -0.032016397
0.0073792166 -0.0223645 0.008682643 -0.0034722346 0.009366007 0.012167262 -0.017725298 0.024070479
0.04930929 -0.050597273 0.050428797 -0.0055425013 0.0434075 -0.040174354 0.02931677 -0.005441971
0.009782393 -0.048015494 0.016108721 -0.0017960821 0.05526763 0.025848724 0.077686094 0.04037936
0.002582371 0.031044388 0.023960203 -0.017890701 -0.051420122 -0.030283025 0.010658332 -0.062353276
0.016672475 0.054771554 0.018725567 0.022929985 -0.001421075 -0.06486861 0.02473105 0.051685963
-0.011316776 -0.0030040152 -0.007911958 0.028349869 -0.0029014684 0.016565312 -0.001333196 -0.01635871
-0.050720714 0.019184954 -0.015347376 0.0073949657
00000000: 9136 1fbb 37d3 5fbc d2f7 4c3d 0584 a53d
00000010: 96e4 4cbd 1a01 9bbb 2f8a 37bd 8204 48bc
00000020: 6d2e 3f3d c072 37bc e85a 46bc 8c13 093d
00000030: 7594 ea3a a484 61bd 5b1b 20bd ede0 a03d
00000040: 3b12 31bd 905d 203d e5f1 3cbd 66b6 423d
00000050: e139 a23c 6c26 243d 6629 533d b56b b0bc
00000060: d428 51bd 69ae ce3b 72ae 753b da3e 2f3d
00000070: 8787 38bc c88f d6bd f919 b1bc 0737 f5bb
00000080: 3dde 64bd abbd 98bd af8e d53c 05cf 98bd
00000090: 9237 fc3c 3d91 ec3a 7a3f 19bd ba7c b93d
000000a0: 20d1 333d ee49 773b adf1 14bd 9ee5 45bb
000000b0: d201 ffbc ae09 71bc 168b e3b9 a023 03bd
000000c0: 5bcd f13b c235 b7bc a541 0e3c 6e8e 63bb
000000d0: e173 193c 3259 473c a534 91bc 742f c53c
000000e0: 8af8 493d 163f 4fbd 6d8e 4e3d df9d b5bb
000000f0: 10cc 313d dd8d 24bd b929 f03c 9052 b2bb
00000100: 5546 203c e5ab 44bd 70f6 833c 846a ebba
00000110: 4f60 623d b4c0 d33c e319 9f3d d464 253d
00000120: ff3c 293b cd50 fe3c 3048 c43c 858f 92bc
00000130: e89d 52bd 1b14 f8bc 49a0 2e3c 2666 7fbd
00000140: b794 883c 2358 603d 5c66 993c aad7 bb3c
00000150: 5d43 baba d5d9 84bd c598 ca3c a9b4 533d
00000160: 006a 39bc 03df 44bb 28a1 01bc fc3d e83c
00000170: 9026 3ebb fab3 873c a2be aeba b402 86bc
00000180: 86c0 4fbd c429 9d3c 8f73 7bbc 7851 f23b

weight f4 [100, 100]
-0.057103854 -0.036030754 -0.042286582 0.15128984 -0.08525011 0.05607058 -0.15955557 0.15567173
-0.040813085 0.17390066 -0.1676335 -0.084540345 0.073349565 -0.06812637 -0.0014553932 0.027226454
0.12523724 0.0515328 0.11130807 0.016340155 0.12403948 -0.11192489 -0.032740235 -0.046344697
-0.034919623 0.0460665 0.020638924 -0.057157163 -0.023780676 -0.024512071 -0.04652307 -0.17193787
-0.041565355 0.10709556 0.152911 0.104138665 -0.15377255 0.07591854 -0.034523115 -0.0055801487
-0.0069286167 -0.082797185 -0.043047808 -0.114524744 0.11318934 0.074398525 -0.070868865 -0.122283876
-0.1441749 -0.031760544 -0.15012203 0.14655142 0.093377486 -0.015087228 -0.13924727 0.11314673
0.011123083 0.12237928 -0.15627973 -0.081322156 0.0692296 -0.16396798 0.13155685 0.0057647172
0.022817966 0.09542816 0.055890996 0.039860718 -0.046133082 0.04047476 0.062409878 0.037403524
0.15618496 -0.13955791 0.023599679 -0.11174981 0.010883893 -0.17828022 -0.058576215 0.0913998
0.15170674 0.032762717 -0.056677427 0.0007358453 -0.16662896 0.030851834 -0.0089177 -0.110635445
0.1801238 0.06818801 0.017489113 -0.16166867 -0.0042877416 -0.115917526 -0.06772446 0.15801671
0.05504501 -0.15757366 -0.10045381 0.021670902 0.009520714 0.13577928 0.1036317 0.07886671
-0.0066618826 0.016079579 -0.08473373 0.1466217 -0.028127521 0.01597517 0.0484513 0.05694112
0.08772743 0.15153676 -0.055501096 -0.054803494 0.04558355 -0.057189405 0.020342486 0.011006918
-0.13451272 -0.0042729443 -0.019533196 -0.10513528 -0.027793912 0.04381134 0.1424277 -0.07353445
-0.09702283 0.035162047 -0.018912142 -0.15152203 -0.025156952 0.06539385 0.17484263 -0.00084034033
-0.16421697 0.12059729 0.067547806 0.04413484 0.014347183 0.12002489 -0.019361751 -0.025571994
-0.15105303 -0.13062271 -0.1512383 0.13791807 0.08233751 -0.15326224 0.09971798 -0.1508431
0.12637202 0.11600111 -0.062922396 -0.08441691 0.11241332 -0.12188682 0.1723921 -0.00024959169
-0.031867824 0.008935523 -0.061028533 -0.17548642 0.006668981 0.019561367 -0.025767172 0.055538755
-0.10946977 0.07423387 -0.06365064 -0.07887864 -0.1070139 0.15368702 0.14588428 0.0042086407
-0.070164464 -0.13835222 0.0013153298 0.11126609 -0.05935192 0.03518134 0.09095018 -0.098251216
0.13052478 0.122821055 -0.13915272 0.05276918 -0.051755477 -0.052083325 0.15425673 -0.12350739
0.13949609 -0.13358153 -0.019494463 0.13726486 -0.17487395 -0.065300435 0.14106295 -0.06895688
0.14633265 0.110886864 -0.027348474 -0.032260917 0.040287424 0.043942373 0.025830468 -0.1257861
-0.087709166 0.030428812 -0.089694925 -0.17849489 -0.05398331 0.15960237 -0.029294081 -0.15658483
-0.15239818 0.10960713 0.026922578 -0.088885926 -0.14628744 0.14328456 -0.06722367 0.061876234
-0.156178 -0.1310789 0.026011113 0.0035007715 -0.050586514 0.121485166 -0.11240022 0.053100247
-0.104174964 0.049619906 0.10714024 0.12461185 0.0465223 0.16098884 0.055008985 0.060148824
-0.016819306 -0.17404826 -0.12171873 0.067919 -0.16356982 -0.078213945 0.029757243 -0.17361473
-0.105375566 0.022846311 -0.16152935 -0.02080369 0.11720754 0.10276394 -0.12242042 0.03608694
00000000: bbe5 69bd fc94 13bd b234 2dbd b9eb 1a3e
00000010: 9c97 aebd 44aa 653d 8962 23be 6968 1f3e
00000020: 9f2b 27bd 0413 323e 1ea8 2bbe 7d23 adbd
00000030: 4c38 963d d785 8bbd e4c2 beba 030a df3c
00000040: 313e 003e 0f14 533d 7cf5 e33d cadb 853c
00000050: 6908 fe3d e038 e5bd a01a 06bd f0d3 3dbd
00000060: e107 0fbd 3ab0 3c3d f612 a93c a11d 6abd
00000070: b1cf c2bc 8acd c8bc fa8e 3ebd 7b10 30be
00000080: 6f40 2abd eb54 db3d b494 1c3e a746 d53d
00000090: 8d76 1dbe 2e7b 9b3d 1c68 0dbd aed9 b6bb
000000a0: 7309 e3bb 9291 a9bd e652 30bd f38b eabd
000000b0: d0cf e73d 415e 983d b223 91bd f86f fabd
000000c0: 96a2 13be 5817 02bd 97b9 19be 9311 163e
000000d0: b23c bf3d 6c30 77bc d696 0ebe 79b9 e73d
000000e0: 973d 363c fda1 fa3d cb07 20be 3b8c a6bd
000000f0: 40c8 8d3d 39e7 27be d7b6 063e f4e5 bc3b
00000100: beec ba3c d76f c33d f5ed 643d fe44 233d
00000110: 0bf6 3cbd ddc8 253d 80a1 7f3d 7034 193d
00000120: f3ee 1f3e 45e8 0ebe 1d54 c13c 16dd e4bd
00000130: 5b52 323c 178f 36be 9ded 6fbd d12f bb3d
00000140: 0359 1b3e 3332 063d 9726 68bd bee5 403a
00000150: c8a0 2abe fcbc fc3c 8b1b 12bc d694 e2bd
00000160: 6072 383e 28a6 8b3d 5445 8f3c 798c 25be
00000170: 2f80 8cbb 2b66 edbd 1fb3 8abd 22cf 213e
00000180: e076 613d fd5a 21be baba cdbd 2d87 b13c
00000190: c5fc 1b3c b909 0b3e db3c d43d df84 a13d
000001a0: ec4b dabb 52b9 833c e188 adbd 0024 163e
000001b0: b06b e6bc 5cde 823c df74 463d 183b 693d
000001c0: 70aa b33d 742c 1b3e 1e55 63bd a179 60bd
000001d0: d1b5 3a3d 703f 6abd 49a5 a63c 5c56 343c
000001e0: b4bd 09be 0e04 8cbb 1504 a0bc 2a51 d7bd
000001f0: 0fb0 e3bc 8573 333d 91d8 113e 3b99 96bd
00000200: e8b3 c6bd 1406 103d a3ed 9abc 9728 1bbe
00000210: f415 cebc 36ed 853d f209 333e 494a 5cba
00000220: 7e28 28be b6fb f63d 8156 8a3d bcc6 343d
00000230: 7210 6b3c 9ccf f53d 899c 9ebc 5c7c d1bc
00000240: a5ad 1abe f6c1 05be 37de 1abe 653a 0d3e
00000250: 92a0 a83d c7f0 1cbe f138 cc3d 9d76 1abe
00000260: ab67 013e fd91 ed3d 75dd 80bd c6e2 acbd
00000270: f438 e63d cc9f f9bd 8e87 303e a1db 82b9
00000280: d687 02bd 4d66 123c 0ef9 79bd b6b2 33be
00000290: 7887 da3b 293f a03c ad15 d3bc 9b7c 633d
000002a0: b031 e0bd ed07 983d 445b 82bd 208b a1bd
000002b0: 1b2a dbbd 2160 1d3e b062 153e a3e8 893b
000002c0: 63b2 8fbd 34ac 0dbe 2567 ac3a 7adf e33d
000002d0: 001b 73bd 4f1a 103d 1744 ba3d ef37 c9bd
000002e0: 4aa8 053e 9b89 fb3d 0d7e 0ebe 7f24 583d
000002f0: 8dfd 53bd 5355 55bd 7af5 1d3e 71f1 fcbd
00000300: 10d8 0e3e 99c9 08be dab2 9fbc 298f 0c3e
00000310: 2812 33be 3cbc 85bd ce72 103e 4439 8dbd
00000320: 3ad8 153e a718 e33d e809 e0bc 0624 04bd
00000330: 6d04 253d ebfc 333d 6b9a d33c 12ce 00be
00000340: dda0 b3bd d845 f93c f9b1 b7bd 5dc7 36be
00000350: 9a1d 5dbd ce6e 233e 24fa efbc c657 20be
00000360: 450e 1cbe b479 e03d bd8c dc3c d309 b6bd
00000370: 60cc 15be 30b9 123e 90ac 89bd ef71 7d3d
00000380: 20ed 1fbe 8c39 06be 4215 d53c 336d 653b
00000390: ce33 4fbd 37cd f83d 1632 e6bd a57f 593d
000003a0: af59 d5bd 3e3e 4b3d 586c db3d 7f34 ff3d
000003b0: 2b8e 3e3d 42da 243e 1a51 613d 9d5e 763d
000003c0: a4c8 89bc b539 32be ab47 f9bd 1e19 8b3d
000003d0: d97e 27be a22e a0bd 76c5 f33c 0fc8 31be
000003e0: 25cf d7bd 3028 bb3c f367 25be 806c aabc
000003f0: 820a f03d e775 d23d 8fb7 fabd e6cf 133d

bias f4 [100]
-0.010352237 0.031552684 -0.009564145 -0.021304214 -0.042498812 0.0041608964 0.014426572 0.060713198
0.0010203029 -0.0068615247 0.05946151 0.012294388 0.0006619103 -0.044099323 -0.042265836 -0.0049633486
0.0173363 -0.035030656 -0.019296655 0.01733974 -0.0111753065 -0.02060447 0.055336703 -0.010550611
0.016040372 -0.056450322 -0.023288146 -0.023476629 -0.021371018 0.072988875 0.010524015 -0.02697774
0.04186952 -0.012919316 -0.005831403 0.040332817 -0.03452074 -0.0010044082 0.0114387935 0.045976803
0.010460119 -0.0701631 0.008482788 -0.108942695 0.014916746 -0.017065322 -0.029352974 -0.030711599
0.053930044 0.026143683 -0.05703418 -0.013304377 -0.064760976 -0.009728298 0.009037358 0.04652605
-0.009155013 -0.038288992 -0.06516134 0.02639187 -0.01460172 -0.029437076 0.037039652 0.002361623
0.02460415 -0.006024156 0.03494379 0.00290561 -0.054083005 0.024215242 0.02818465 0.013147939
-0.020447947 0.0209158 0.030205788 -0.02118367 0.070453435 0.020814432 -0.012965063 -0.014222448
0.040806398 -0.0548656 0.0015324935 -0.023403896 -0.046406794 -0.030870741 0.020146413 -0.0102321515
0.014501619 0.07900047 -0.049103476 -0.0022426015 0.048854228 0.007225316 0.030700324 0.028853074
0.030717023 0.015335819 0.051057473 -0.046243265
00000000: 6e9c 29bc 633d 013d eeb2 1cbc 2d86 aebc
00000010: 3c13 2ebd 2158 883b 6e5d 6c3c 67ae 783d
00000020: afbb 853a a4d6 e0bb ea8d 733d 676e 493c
00000030: 0c84 2d3a 7ea1 34bd f11e 2dbd 96a3 a2bb
00000040: db04 8e3c 4e7c 0fbd 0514 9ebc 120c 8e3c
00000050: a218 37bc b5ca a8bc bda8 623d 78dc 2cbc
00000060: 1967 833c 7438 67bd c8c6 bebc 0f52 c0bc
00000070: 4612 afbc 317b 953d eb6c 2c3c 6c00 ddbc
00000080: 607f 2b3d 8aab 53bc 5b15 bfbb 0634 253d
00000090: 9f65 0dbd 59a6 83ba c769 3b3c 2c52 3c3d
000000a0: eb60 2b3c acb1 8fbd 64fb 0a3c 591d dfbd
000000b0: 5e65 743c 93cc 8bbc a675 f0bc e496 fbbc
000000c0: c0e5 5c3d 472b d63c ac9c 69bd 9afa 59bc
000000d0: 67a1 84bd 7063 1fbc 6d11 143c 1992 3e3d
000000e0: e8fe 15bc ebd4 1cbd 4f73 85bd c333 d83c
000000f0: 0d3c 6fbc 0626 f1bc e4b6 173d 76c5 1a3b
00000100: a48e c93c 4966 c5bb 3821 0f3d 0c6c 3e3b
00000110: 2486 5dbd 0b5f c63c 7fe3 e63c 746a 573c
00000120: 7482 a7bc 9d57 ab3c 2172 f73c 6089 adbc
00000130: e449 903d 0783 aa3c 6a6b 54bc 4505 69bc
00000140: 9c24 273d c0ba 60bd f3dd c83a 87b9 bfbc
00000150: 0d15 3ebd a3e4 fcbc 170a a53c c1a4 27bc
00000160: 3398 6d3c 00cb a13d ba20 49bd 9cf8 12bb
00000170: 5f1b 483d 58c2 ec3b 3f7f fb3c 485d ec3c
00000180: 44a2 fb3c 1643 7b3c a421 513d 9469 3dbd

weight f4 [100, 100]
-0.060010597 -0.05421772 -0.14021327 0.04070507 0.03549837 -0.07447801 -0.15553549 0.0016767671
0.0760465 -0.017031668 0.07998581 -0.047071964 0.019584747 0.13777073 -0.05360871 -0.10040656
-0.08144355 0.00986136 -0.1650675 0.09861037 -0.14116804 -0.07644312 0.1201395 0.077456385
0.039688315 -0.012292982 0.05866562 -0.029684104 0.17557353 -0.11532334 -0.018551268 0.16171478
0.07156006 -0.030182494 0.11329237 0.025326645 0.14385912 0.08074538 -0.14199023 0.11377971
-0.14296407 0.0153646525 -0.039696056 -0.158455 0.12995853 -0.0022907036 0.16568977 0.09271084
-0.09335956 -0.053483795 0.07570829 -0.1559032 0.14719243 -0.109566934 0.15377572 0.026009392
0.11371814 0.028333036 0.102683395 -0.11108019 0.07690647 -0.070032805 -0.088840775 -0.120327614
-0.16815066 -0.06049647 -0.14676426 0.001237282 -0.09699139 -0.121884994 -0.14725564 0.03294754
0.07105026 0.06064198 0.07449927 0.09368243 0.17203438 0.119854644 0.012476184 -0.12183503
0.13266535 0.03641948 0.0672343 -0.16885546 -0.03883078 -0.0050909594 0.14372204 -0.037283342
0.06344605 -0.1284001 -0.09425742 -0.09394047 0.019893054 -0.16997933 -0.09890918 0.0681287
-0.16534062 -0.08411526 0.10627753 0.15673065 -0.105061755 0.03814056 0.15532734 0.101640746
-0.11174079 0.00037972827 -0.15038975 0.0052126693 -0.0911247 -0.11319095 -0.116393626 -0.087946676
0.011534016 -0.10035855 -0.15775788 0.1196317 -0.14313753 -0.016176103 0.0068849777 -0.09815696
0.10336306 0.16822886 0.07202454 -0.14802118 -0.1098964 0.09972147 -0.14652869 0.06432061
0.10264807 0.06471169 -0.0052146986 -0.008346805 -0.078819714 0.15369152 0.07785095 -0.036361318
-0.030968292 0.17564082 0.15150689 0.04929672 -0.007247395 0.08989895 -0.12638082 -0.12663117
0.011434451 0.027401105 0.15675 -0.105967656 0.08019443 0.06459124 0.16293295 0.06619372
0.011830411 0.009306769 0.13619904 -0.06215 0.04017801 0.1173262 0.062328465 -0.0859692
-0.11001592 0.11175798 -0.11859213 -0.16343492 -0.018528152 0.04016361 -0.006284739 0.081669636
0.07378779 -0.14225645 -0.081619956 0.13893078 0.1614158 0.12159761 -0.015034079 0.16335963
0.007869956 0.025345443 0.07793314 0.04166025 0.1673362 -0.06260395 0.035631828 0.020382926
0.1645546 0.0988405 0.029424444 -0.122858725 0.1763308 -0.08203102 -0.0823029 0.13705908
-0.1508497 -0.13553917 0.010838705 0.13468924 -0.025136808 -0.032142732 0.1509082 0.15513444
-0.110372044 0.03923379 -0.13961473 0.04012301 -0.012310123 -0.026010612 -0.09188736 0.12976137
-0.11438509 -0.02440349 0.023993883 -0.08155185 0.07197802 -0.11920143 0.11104536 -0.08651185
0.038236324 -0.01390841 -0.09292437 0.097911544 -0.009353549 0.018860303 0.09510851 -0.18566564
0.016457196 -0.12276037 -0.012509998 0.10718298 0.026342258 0.10087577 -0.0030744092 -0.0662521
0.11882243 0.10552368 -0.027892292 -0.17292334 0.08309966 0.15626384 0.08523325 0.112454616
0.101951465 -0.13688475 0.011411687 -0.14952016 0.16359112 0.05706241 0.054298338 -0.07048359
0.106687956 -0.028468192 0.15510444 -0.054147642 0.102255836 0.028854152 -0.02378078 -0.07600646
00000000: accd 75bd 6613 5ebd 1194 0fbe 5cba 263d
00000010: bd66 113d ed87 98bd b244 1fbe f8c6 db3a
00000020: 44be 9b3d ff85 8bbc 9acf a33d 88ce 40bd
00000030: 3170 a03c c513 0d3e cf94 5bbd f4a1 cdbd
00000040: e0cb a6bd 8b91 213c 7407 29be 3cf4 c93d
00000050: 5b8e 10be 368e 9cbd b30b f63d 74a1 9e3d
00000060: 3790 223d 8168 49bc 5c4b 703d 142c f3bc
00000070: 8cc9 333e a52e ecbd d4f8 97bc 8f98 253e
00000080: 158e 923d 4741 f7bc d505 e83d d379 cf3c
00000090: ce4f 133e d55d a53d e365 11be 5605 e93d
000000a0: 2c65 12be 06bc 7b3c 5598 22bd 0742 22be
000000b0: d913 053e a11f 16bb 94aa 293e 2edf bd3d
000000c0: 4c33 bfbd d311 5bbd f30c 9b3d 17a5 1fbe
000000d0: 9db9 163e a164 e0bd 6277 1d3e a611 d53c
000000e0: 0ee5 e83d af1a e83c ac4b d23d 037e e3bd
000000f0: 2481 9d3d 5c6d 8fbd 27f2 b5bd 536e f6bd
00000100: b02f 2cbe 26cb 77bd 5f49 16be 4b2c a23a
00000110: 6ca3 c6bd d79e f9bd 2fca 16be 00f4 063d
00000120: cc82 913d ba63 783d 1393 983d 93dc bf3d
00000130: c829 303e 5a76 f53d e968 4c3c a584 f9bd
00000140: 6dd9 073e 982c 153d 23b2 893d 72e8 2cbe
00000150: 060d 1fbd 10d2 a6bb df2b 133e 6bb6 18bd
00000160: 01f0 813d 517b 03be 090a c1bd dc63 c0bd
00000170: c2f6 a23c 100f 2ebe e590 cabd 0f87 8b3d
00000180: 0d4f 29be 9f44 acbd 09a8 d93d 007e 203e
00000190: 9e2a d7bd 4739 1c3d 210e 1f3e 0629 d03d
000001a0: 5bd8 e4bd 4416 c739 c5ff 19be 0acf aa3b
000001b0: 969f babd a8d0 e7bd c85f eebd 631d b4bd
000001c0: 2bf9 3c3c c988 cdbd 488b 21be 7701 f53d
000001d0: a592 12be bf83 84bc 619b e13b 8406 c9bd
000001e0: 03b0 d33d 3044 2c3e 9a81 933d dd92 17be
000001f0: 5d11 e1bd c53a cc3d 9e0b 16be 86ba 833d
00000200: 2739 d23d 9087 843d 10e0 aabb 0ac1 08bc
00000210: 3b6c a1bd 4f61 1d3e 5270 9f3d 9bef 14bd
00000220: 37b1 fdbc 30db 333e 9f24 1b3e 5ceb 493d
00000230: 8e7b edbb f11c b83d f969 01be 9aab 01be
00000240: 9057 3b3c 4878 e03c 1283 203e 9205 d9bd
00000250: fa3c a43d 6948 843d e5d7 263e 9390 873d
00000260: 57d4 413c 6b7b 183c c377 0b3e 0091 7ebd
00000270: b291 243d b848 f03d 224c 7f3d 9f10 b0bd
00000280: 0750 e1bd 5ee1 e43d 6ee0 f2bd 7c5b 27be
00000290: 5ac8 97bc 9982 243d 36f0 cdbb 6942 a73d
000002a0: 0e1e 973d adab 11be 5d28 a7bd df43 0e3e
000002b0: 2f4a 253e 2b08 f93d 7f51 76bc bf47 273e
000002c0: fdf0 003c 3fa1 cf3c 699b 9f3d f0a3 2a3d
000002d0: 2e5a 2b3e 8036 80bd aef2 113d 18fa a63c
000002e0: 0081 283e e36c ca3d 880b f13c 5b9d fbbd
000002f0: 1090 343e e1ff a7bd 6c8e a8bd 3759 0c3e
00000300: 5878 1abe c8ca 0abe d394 313c faeb 093e
00000310: b5eb cdbc 19a8 03bd ae87 1a3e 90db 1e3e
00000320: bd0a e2bd 9cb3 203d 2af7 0ebe 0658 243d
00000330: 66b0 49bc 3514 d5bc 712f bcbd 2ae0 043e
00000340: bb42 eabd d4e9 c7bc d28e c43c a804 a7bd
00000350: 3669 933d e11f f4bd c06b e33d 202d b1bd
00000360: b19d 1c3d 1ae0 63bc 224f bebd d985 c83d
00000370: a13f 19bc ec80 9a3c 40c8 c23d 221f 3ebe
00000380: 3ed1 863c ca69 fbbd bcf6 4cbc c082 db3d
00000390: b8cb d73c f597 ce3d 077c 49bb 2eaf 87bd
000003a0: 2d59 f33d cd1c d83d 607e e4bc d112 31be
000003b0: 2830 aa3d a103 203e c58e ae3d 9b4e e63d
000003c0: eecb d03d 842b 0cbe 16f8 3a3c d01b 19be
000003d0: 6e84 273e 46ba 693d ef67 5e3d b359 90bd
000003e0: 377f da3d 2036 e9bc b3d3 1e3e ebc9 5dbd
000003f0: 826b d13d 8b5f ec3c e9cf c2bc 46a9 9bbd

bias f4 [100]
-0.010606555 -0.0018183297 0.07022622 -0.030698247 -0.05197513 0.010464333 -0.037272755 0.018900806
-0.007318328 -0.014635087 0.0060793064 0.021478508 0.024205726 -0.011545078 0.0076348446 0.015510447
0.0146884 -0.0051934184 -0.019875508 -0.0006851045 -0.025200874 -0.0069226865 -3.294171e-05 0.0515765
-0.02729666 0.031124007 -0.0050510047 -0.027222475 0.019521298 0.011516957 0.027413992 -0.033051353
0.030141233 0.014773917 -0.03617899 0.04129105 -0.037286565 -0.036531992 -0.016851136 -0.010447476
-0.028209709 0.016348176 -0.0020061908 0.003224291 -0.019715084 -0.0013146898 0.004642149 0.022633752
-0.0035814198 0.009664304 0.0058988887 0.03524189 0.015765296 0.0036573599 -0.012669294 -0.009789324
0.016511196 -0.013703279 -0.0055607725 0.003462191 0.02002726 -0.0074446565 0.04776754 -0.0033494718
0.009773163 -0.032356165 -0.022441793 0.0054723895 -0.028795922 0.019250954 0.02070728 0.0013888709
-0.032762576 -0.0012016576 -0.0026148262 -0.046523944 -0.055966724 -0.0035880716 -0.03030369 0.014893684
0.0057822373 0.011905234 0.0034328566 -0.008014004 -0.0150704365 0.008903007 0.0077419123 -0.0006997223
-0.0041660382 0.0095002055 -0.017491287 -0.037502397 -0.0066750734 0.011620207 -0.00496324 -0.0005025626
-0.010818071 -0.004182565 0.16722585 -0.035382044
00000000: 1ec7 2dbc 0555 eeba c4d2 8f3d e47a fbbc
00000010: e0e3 54bd 9872 2b3c 51ab 18bd ddd5 9a3c
00000020: 96ce efbb 01c8 6fbc eb34 c73b b2f3 af3c
00000030: 164b c63c 9127 3dbc b82d fa3b 881f 7e3c
00000040: 9da7 703c 8d2d aabb f6d1 a2bc 9698 33ba
00000050: 1072 cebc b4d7 e2bb e42a 0ab8 e141 533d
00000060: 3f9d dfbc c6f7 fe3c e682 a5bb ab01 dfbc
00000070: 21eb 9f3c 9eb1 3c3c 4f93 e03c db60 07bd
00000080: bfea f63c 4d0e 723c 6c30 14bd ce20 293d
00000090: ccb9 18bd 92a2 15bd 650b 8abc e42b 2bbc
000000a0: 0c18 e7bc 9cec 853c 4c7a 03bb a04e 533b
000000b0: 8781 a1bc ab51 acba 2b1d 983b 6b6a b93c
000000c0: 41b6 6abb 0757 1e3c 774b c13b cd59 103d
000000d0: 3926 813c 51b0 6f3b df92 4fbc 6763 20bc
000000e0: 7d42 873c b883 60bc 2437 b6bb ede5 623b
000000f0: 3510 a43c 4ef2 f3bb e5a7 433d d082 5bbb
00000100: 9e1f 203c e687 04bd dad7 b7bc bb51 b33b
00000110: 6de5 ebbc 2db4 9d3c 50a2 a93c c60a b63a
00000120: 0d32 06bd f080 9dba 815d 2bbb e48f 3ebd
00000130: 5d3d 65bd da25 6bbb 723f f8bc a304 743c
00000140: ec78 bd3b 2c0e 433c c7f9 603b 2b4d 03bc
00000150: fee9 76bc ebdd 113c deaf fd3b 926d 37ba
00000160: 4383 88bb c0a6 1b3c e349 8fbc 1d9c 19bd
00000170: 93ba dabb ae62 3e3c ada2 a2bb 68be 03ba
00000180: 473e 31bc e60d 89bb 413d 2b3e c3ec 10bd

weight f4 [100, 100]
0.0426424 0.12010125 -0.1812155 0.074250974 0.14891858 0.071758114 -0.008687169 -0.063617416
0.04546624 -0.03018306 0.13696149 -0.111437306 -0.035946768 -0.010560778 0.025656538 -0.016444681
0.12699006 0.06687682 -0.043487146 0.14771575 0.18453309 0.164848 -0.018654749 0.1291298
0.062063046 -0.061769057 0.15005487 -0.093673706 -0.14882292 -0.09422809 0.04983322 0.10331792
0.09703084 0.063911274 -0.11440963 0.06372047 -0.06089379 -0.11773746 -0.11384636 -0.050319567
0.020572903 -0.11794271 0.15108678 0.019342415 -0.05059681 0.062490087 -0.09251608 -0.060479168
0.012404634 0.029631233 -0.1475679 0.18372968 -0.12936573 0.11192476 0.2612776 0.06449519
-0.017526826 0.049401868 -0.15723418 -0.110084355 -0.07913021 0.12844045 -0.22185779 -0.04620068
-0.17995341 0.0052545234 -0.1671805 -0.051148478 0.16009977 -0.11933679 -0.07294012 -0.08231356
0.07677368 0.009433542 -0.12110777 -0.050312035 0.10181816 0.079085685 0.0917527 0.036943972
-0.03715502 -0.029774273 0.013593812 0.14375322 0.1494737 0.04632381 0.018617542 0.02028375
-0.026377365 0.08471643 0.032574028 0.053691 -0.08038615 0.08180025 0.11451832 -0.18973967
0.08355904 0.16514848 0.12703826 -0.07411158 0.021694707 0.13655902 0.1641867 0.122621484
-0.078338094 0.11617928 -0.09736544 0.006745987 0.13652131 -0.015570422 0.16608648 0.12017848
0.20087396 0.06827199 -0.0039570853 -0.055770796 0.063746266 0.15297587 -0.10387197 0.04345229
0.07282645 0.14245549 0.18129185 0.11743101 -0.081932046 0.08170971 -0.15369229 -0.072545476
-0.1728737 0.055997014 0.17938279 0.16455612 0.017952837 -0.095169 -0.011015097 0.06845174
-0.12142216 -0.13928021 0.11238003 -0.040211283 -0.07617669 0.15355067 -0.02451108 0.02926308
0.02580031 -0.05444768 -0.024408098 -0.050348327 -0.030652802 0.03229163 0.19377375 0.08907884
-0.12557787 0.15936185 -0.10662679 -0.0413518 0.16268244 -0.10316396 0.06433312 0.025953783
-0.15847695 -0.14834107 0.11282469 0.038249463 -0.06574017 0.061122056 -0.18452501 0.03812606
-0.11869205 -0.06401018 0.05512651 -0.12400919 -0.15776154 0.045666542 -0.05970453 0.015365744
-0.12457195 0.123063646 -0.17268871 0.07005085 0.12320225 0.16453582 0.073835105 0.08239365
-0.1504111 -0.01901862 0.061235152 0.012971341 -0.078084104 -0.05930403 -0.12083532 -0.08602344
0.042225715 0.14999159 0.009273791 0.045626875 0.048834924 0.05991284 0.08866805 -0.14519392
-0.066303305 0.16069168 0.16997138 0.06475844 0.0018653353 -0.08234836 0.11899346 -0.16888583
0.022488892 -0.0654844 -0.106456116 -0.15395354 -0.0035165434 0.026481085 0.15105313 0.021770343
-0.059482455 0.0370808 0.008960266 0.147542 -0.079468794 -0.027741589 0.1440672 0.04365172
0.011805853 0.11990684 0.11476711 -0.047300685 -0.05986216 0.13788292 -0.12725468 -0.07674343
-0.034245588 -0.13016288 0.046586353 0.08684859 -0.16067038 -0.15114217 -0.15274595 -0.15852064
-0.15119389 0.037981797 0.085339636 0.018073311 0.20461036 -0.119210444 0.14343083 0.047831304
-0.14616355 0.1542531 0.010643306 0.1026279 -0.1566638 0.028449835 0.09610418 0.120921604
00000000: cca9 2e3d a5f7 f53d 8e90 39be e510 983d
00000010: 1d7e 183e ebf5 923d a154 0ebc d949 82bd
00000020: cf3a 3a3d 7742 f7bc a23f 0c3e 3e39 e4bd
00000030: eb3c 13bd 1d07 2dbc a92d d23c ffb6 86bc
00000040: af09 023e b7f6 883d 941f 32bd cc42 173e
00000050: 3ef6 3c3e eacd 283e d8d1 98bc 9a3a 043e
00000060: d235 7e3d 8d01 7dbd fca7 193e 00d8 bfbd
00000070: 0965 18be a8fa c0bd eb1d 4c3d 5898 d33d
00000080: 1bb8 c63d eae3 823d 994f eabd e17f 823d
00000090: c46b 79bd 5620 f1bd 4828 e9bd e41b 4ebd
000000a0: 8188 a83c f38b f1bd 7eb6 1a3e fc73 9e3c
000000b0: 9a3e 4fbd 9bf5 7f3d 1279 bdbd 01b9 77bd
000000c0: ce3c 4b3c 33bd f23c 0a1c 17be a223 3c3e
000000d0: 7378 04be cf38 e53d 2dc6 853e 0e16 843d
000000e0: 6b94 8fbc 9d59 4a3d ff01 21be e873 e1bd
000000f0: 050f a2bd e585 033e b02e 63be ed3c 3dbd
00000100: b545 38be 232e ac3b 5d31 2bbe 1181 51bd
00000110: 32f1 233e d966 f4bd a161 95bd 0394 a8bd
00000120: 853b 9d3d 258f 1a3c 5a07 f8bd fe13 4ebd
00000130: 0a86 d03d adf7 a13d d7e8 bb3d 9052 173d
00000140: dd2f 18bd 2de9 f3bc 94b8 5e3c 0b34 133e
00000150: a20f 193e 09be 3d3d d183 983c 1b2a a63c
00000160: 5815 d8bc cf7f ad3d 586c 053d 18eb 5b3d
00000170: 7ea1 a4bd e486 a73d 9588 ea3d 1e4b 42be
00000180: 0121 ab3d af1c 293e 5116 023e d0c7 97bd
00000190: 19b9 b13c 21d6 0b3e 8f20 283e f920 fb3d
000001a0: b96f a0bd 67ef ed3d 8867 c7bd 710d dd3b
000001b0: 3ecc 0b3e 151b 7fbc 9312 2a3e 2320 f63d
000001c0: e7b1 4d3e 2fd2 8b3d 70aa 81bb eb6f 64bd
000001d0: 678d 823d b5a5 1c3e d4ba d4bd 07fb 313d
000001e0: 0926 953d dadf 113e 92a4 393e ab7f f03d
000001f0: fdcb a7bd 6c57 a73d 8361 1dbe b992 94bd
00000200: ce05 31be 205d 653d 1fb0 373e 6681 283e
00000210: d411 933c f7e7 c2bd aa78 34bc 6d30 8c3d
00000220: 2eac f8bd 799f 0ebe 8027 e63d 96b4 24bd
00000230: 8602 9cbd 633c 1d3e 76cb c8bc 20b9 ef3c
00000240: 2c5b d33c 8804 5fbd 7ef3 c7bc 0c3a 4ebd
00000250: 961b fbbc 3a44 043d a06c 463e f86e b63d
00000260: 7c97 00be c12f 233e 255f dabd 8160 29bd
00000270: 3a96 263e a047 d3bd 15c1 833d 079d d43c
00000280: c847 22be b9e6 17be a210 e73d 78ab 1c3d
00000290: c8a2 86bd 1f5b 7a3d 20f4 3cbe 122a 1c3d
000002a0: d114 f3bd c517 83bd 56cc 613d 88f8 fdbd
000002b0: 3e8c 21be d70c 3b3d bd8c 74bd 9ac0 7b3c
000002c0: 941f ffbd cb08 fc3d 4fd5 30be d276 8f3d
000002d0: 7651 fc3d 147c 283e dc36 973d 01be a83d
000002e0: 5e05 1abe f0cc 9bbc b6d1 7a3d bf85 543c
000002f0: 8fea 9fbd c8e8 72bd 8278 f7bd 0f2d b0bd
00000300: dff4 2c3d 6597 193e 19f1 173c 3fe3 3a3d
00000310: 2107 483d 2b67 753d 9897 b53d b7ad 14be
00000320: 07ca 87bd 5c8c 243e fa0c 2e3e 13a0 843d
00000330: 447e f43a 42a6 a8bd d8b2 f33d 68f0 2cbe
00000340: a03a b83c af1c 86bd aa05 dabd ffa5 1dbe
00000350: cf75 66bb dcee d83c acad 1a3e b857 b23c
00000360: e0a3 73bd 09e2 173d 14ce 123c 4015 173e
00000370: 89c0 a2bd 5442 e3bc 5a86 133e 25cc 323d
00000380: 566d 413c b891 f53d 050b eb3d 5dbe 41bd
00000390: 0632 75bd 2e31 0d3e 0d4f 02be a92b 9dbd
000003a0: 1a45 0cbd 6b49 05be 55d1 3e3d acdd b13d
000003b0: c786 24be 03c5 1abe 6f69 1cbe 3c53 22be
000003c0: 92d2 1abe cd92 1b3d 8cc6 ae3d 7b0e 943c
000003d0: 6185 513e 9b24 f4bd 88df 123e c2ea 433d
000003e0: e6ab 15be 86f4 1d3e 4361 2e3c 942e d23d
000003f0: 7a6c 20be a10f e93c 45d2 c43d bfa5 f73d

bias f4 [100]
-0.013242486 0.043965153 -0.0068748286 0.02135828 0.025868116 0.040159717 -0.01913565 0.039188802
0.01550105 -0.020135393 -0.03172346 -0.02973976 -0.028339053 -0.034721144 0.021946553 -0.0015996505
0.041795038 -0.03174872 0.0026780292 -0.02257015 0.045133233 0.017873487 -0.012180663 0.00051240204
-0.049278393 -0.04138154 0.022531673 0.025211344 0.005241265 -0.038387764 0.015810909 -0.019880857
-0.07689036 -0.045356452 -0.031924393 -0.021652855 -0.01149903 -0.028845446 0.02508662 0.0056098877
-0.02575088 0.0030030927 -0.0063877986 -0.0075239884 -0.006392409 0.027267389 -0.01760692 -0.025562802
0.032504626 0.013633032 0.023983186 -0.01971618 -0.03029118 0.030511063 -0.010942024 -0.0014813199
-0.0006099362 -0.019162837 -0.028667841 -0.011204049 0.03458459 0.011936849 -0.012321696 0.0067405566
0.0008234023 0.020966321 0.025300466 -0.03285597 -0.033419307 -0.04624058 0.0019859406 -0.0044753845
0.025669735 -0.030722005 0.041568324 0.036825795 0.009115708 0.0041555385 -0.015094679 0.043305997
-0.011897449 0.004376158 -0.04309093 -0.0034847918 0.03807999 0.024855735 -0.00016618337 -0.016547443
-0.028843164 -0.0088356165 -0.013489787 -0.011984088 -0.0019287023 -0.014996815 0.028849987 -3.6241054e-05
0.015209468 -0.02289777 -0.0011355238 -0.017045267
00000000: 03f7 58bc ce14 343d 3e46 e1bb 8ff7 ae3c
00000010: 5fe9 d33c 847e 243d 5ec2 9cbc 7084 203d
00000020: 1ef8 7d3c fbf2 a4bc 75f0 01bd cca0 f3bc
00000030: 4d27 e8bc c237 0ebd 42c9 b33c 5dab d1ba
00000040: 4631 2b3d f20a 02bd e081 2f3b 09e5 b8bc
00000050: a0dd 383d 6b6b 923c 6791 47bc b852 063a
00000060: 24d8 49bd b17f 29bd 5894 b83c 0588 ce3c
00000070: ebbe ab3b 7d3c 1dbd e185 813c 2edd a2bc
00000080: b178 9dbd b0c7 39bd 27c3 02bd 5461 b1bc
00000090: 6d66 3cbc 494d ecbc 7582 cd3c 26d3 b73b
000000a0: 82f3 d2bc 89cf 443b bd50 d1bb ca8b f6bb
000000b0: 6a77 d1bb dc5f df3c 633c 90bc 1569 d1bc
000000c0: 9223 053d 155d 5f3c 6378 c43c d483 a1bc
000000d0: 3525 f8bc 56f2 f93c 2d46 33bc d928 c2ba
000000e0: 20e4 1fba 62fb 9cbc d2d8 eabc 3091 37bc
000000f0: 92a8 0d3d c692 433c f0e0 49bc e3df dc3b
00000100: 98d9 573a 90c1 ab3c ec42 cf3c fb93 06bd
00000110: afe2 08bd c366 3dbd 8e26 023b 3fa6 92bb
00000120: 5649 d23c b7ac fbbc 8c43 2a3d a5d6 163d
00000130: 0d5a 153c 2f2b 883b ac4f 77bc a161 313d
00000140: 85ed 42bc e065 8f3b 1d80 30bd 1b61 64bb
00000150: c3f9 1b3d 419e cb3c 8241 2eb9 818e 87bc
00000160: 8048 ecbc 43c3 10bc 4404 5dbc e958 44bc
00000170: 83cc fcba 33b5 75bc cf56 ec3c 8901 18b8
00000180: 2231 793c 1b94 bbbc dbd5 94ba 84a2 8bbc

weight f4 [100, 100]
0.115042865 0.08504923 -0.058864262 -0.07251596 0.1522278 -0.010290739 -0.04434957 0.092263624
-0.014423798 -0.07995356 0.11178565 0.06789342 0.08464749 0.14041457 -0.11438597 -0.097360075
-0.073187925 0.0880833 -0.077079415 0.04987551 0.05027688 -0.007630707 -0.039188694 0.086570315
0.08066139 0.12216294 -0.13779046 -0.038288392 -0.048378784 -0.0045269066 -0.13359274 0.0058316765
0.17269583 0.063081875 0.12988232 -0.08526725 -0.111904204 0.04940895 -0.09861987 0.09017872
0.02837639 0.040211935 0.15828393 0.17465633 0.0036026346 0.0671694 0.024955705 0.08272035
0.05484425 -0.06969583 0.031407323 -0.0040962226 0.06089497 -0.066466294 0.026559168 0.18137561
-0.044854153 0.10243917 -0.04999516 0.03611162 -0.032633755 -0.14434902 -0.0927302 -0.118557565
-0.13334894 -0.11323156 0.08355325 -0.08719662 0.15111983 0.1691662 -0.023526553 0.022610238
0.053720318 0.15888818 -0.049035907 0.04892393 0.0035789635 0.08247683 -0.15084405 -0.00660732
-0.014767437 0.13660723 0.11732922 0.025578588 -0.07088652 -0.03545761 0.14529659 0.0585683
0.07775969 -0.13326524 -0.1908639 0.11881634 -0.1343727 -0.021521488 -0.1429186 -0.087541975
-0.12167214 0.0756408 0.16726674 -0.05089175 0.018299121 -0.005172411 0.1347136 -0.18649292
-0.18068415 0.15339863 -0.09993751 -0.14166436 0.031969484 -0.102052815 0.16238134 -0.1650272
0.02195545 0.034617487 0.045683626 0.0420352 0.18048687 0.090522274 -0.16366673 0.117298394
-0.06302637 -0.005878252 0.02062451 0.1345279 0.124721475 -0.026694905 -0.14302109 0.15439661
-0.12244862 -0.15683292 -0.105573416 0.10022507 0.052168716 -0.1333439 0.09393345 0.17438574
-0.14027369 -0.100579396 -0.08443552 -0.08854064 0.010349739 -0.01679628 -0.09138553 0.0856998
0.120285705 0.010316335 0.14165628 0.018843219 -0.11228644 -0.106094435 0.034260105 -0.070254005
-0.085700594 -0.041765384 -0.053599454 -0.15795816 -0.18139736 0.082603075 -0.08173816 0.059269227
-0.049894243 -0.098093174 -0.012911346 -0.1305108 0.1690654 -0.09306329 0.15685582 -0.04522605
0.11241322 -0.028258521 -0.0722665 0.14774999 -0.10781931 -0.13361946 -0.05350361 0.08462123
0.10765565 0.0858685 0.0042889495 0.019116534 -0.045002382 0.057682578 0.06444073 -0.16141443
0.029887907 -0.10445207 -0.158928 -0.048890434 -0.03886251 -0.09605842 0.22305606 0.019035066
-0.15616372 -0.09666344 -0.01255602 -0.06044052 0.0061408663 0.03366907 0.10861669 0.094047114
-0.03218034 0.06829919 -0.0731075 0.1505639 -0.081612855 -0.10762517 0.050019696 0.02431824
0.110057056 0.15377977 0.20994397 0.14037894 0.12066205 -0.027281668 -0.13584015 0.17918907
0.015026221 0.04064827 0.05296295 -0.09610349 -0.033589054 0.13937102 -0.0876568 -0.032403346
-0.06032732 0.09891925 -0.003358471 0.07684703 -0.1265584 -0.064847216 -0.17440733 0.11127236
0.06486751 0.095087476 -0.0741689 -0.068486124 0.20100322 -0.08587628 0.0024266327 0.14717919
-0.08765964 -0.0033683577 0.014628958 0.07370957 0.0013008708 -0.027262665 -0.09450122 0.0634363
0.12518954 -0.03801477 -0.08030144 -0.05086696 -0.090489075 0.04970567 -0.08429197 -0.021685435
00000000: 989b eb3d 4a2e ae3d a71b 71bd 3f83 94bd
00000010: 9be1 1b3e 7d9a 28bc e5a7 35bd b6f4 bc3d
00000020: cb51 6cbc b1be a3bd e0ef e43d b50b 8b3d
00000030: aa5b ad3d d6c8 0f3e 3143 eabd b864 c7bd
00000040: 8de3 95bd 0465 b43d d0db 9dbd 434a 4c3d
00000050: 21ef 4d3d 030b fabb 5384 20bd c74b b13d
00000060: cd31 a53d 9030 fa3d f118 0dbe 4ad4 1cbd
00000070: d528 46bd 7256 94bb 89cc 08be a617 bf3b
00000080: 2dd7 303e 1231 813d dfff 043e 99a0 aebd
00000090: 082e e5bd 0a61 4a3d 37f9 c9bd 9faf b83d
000000a0: 9a75 e83c 45b5 243d 2f15 223e 1cd9 323e
000000b0: 2e1a 6c3b 1c90 893d e86f cc3c 4969 a93d
000000c0: 5da4 603d b0bc 8ebd f7a4 003d 9b39 86bb
000000d0: 016d 793d 7b1f 88bd 9d92 d93c 87ba 393e
000000e0: fdb8 37bd a1cb d13d bac7 4cbd c7e9 133d
000000f0: f9aa 05bd 3bd0 13be 55e9 bdbd 4fce f2bd
00000100: a08c 08be f3e5 e7bd f71d ab3d 2494 b2bd
00000110: 28bf 1a3e e839 2d3e c2ba c0bc 1b39 b93c
00000120: d609 5c3d 95b3 223e e0d9 48bd 7564 483d
00000130: 0b8d 6a3b 9de9 a83d dd76 1abe 3882 d8bb
00000140: 1ff3 71bc c4e2 0b3e 4d4a f03d 308a d13c
00000150: f42c 91bd 003c 11bd a1c8 143e 50e5 6f3d
00000160: 7940 9f3d af76 08be d471 43be fb55 f33d
00000170: ff98 09be d54d b0bc 4159 12be 3549 b3bd
00000180: 3e2f f9bd 90e9 9a3d f947 2b3e de73 50bd
00000190: 0ae8 953c 547d a9bb 5df2 093e 00f8 3ebe
000001a0: 4405 39be 8814 1d3e 0aac ccbd 7610 11be
000001b0: 6ff2 023d 1101 d1bd 4b47 263e e4fc 28be
000001c0: eadb b33c 11cb 0d3d c11e 3b3d 1a2d 2c3d
000001d0: 8dd1 383e be63 b93d 4098 27be 243a f03d
000001e0: f813 81bd 5a9e c0bb bbf4 a83c afc1 093e
000001f0: f96d ff3d 46af dabc 1f74 12be 251a 1e3e
00000200: 58c6 fabd cf98 20be e036 d8bd cd42 cd3d
00000210: ddae 553d 4e8b 08be 2e60 c03d 2d92 323e
00000220: e8a3 0fbe 92fc cdbd 88ec acbd cc54 b5bd
00000230: f491 293c 5a98 89bc 5628 bbbd 6083 af3d
00000240: 5a58 f63d d805 293c 580e 113e 185d 9a3c
00000250: 6ff6 e5bd 0a48 d9bd 5354 0c3d 55e1 8fbd
00000260: cb83 afbd 2e12 2bbd 1a8b 5bbd c9bf 21be
00000270: 3bc0 39be cd2b a93d 5666 a7bd 4ac4 723d
00000280: e85d 4cbd 13e5 c8bd 1c8a 53bc a0a4 05be
00000290: 7b1f 2d3e f797 bebd d09e 203e f33e 39bd
000002a0: e738 e63d 6a7e e7bc 7500 94bd c64b 173e
000002b0: 5fd0 dcbd 8ad3 08be 9a26 5bbd e54d ad3d
000002c0: 917a dc3d d3db af3d 518a 8c3b 479a 9c3c
000002d0: 6b54 38bd 9144 6c3d 80f9 833d d349 25be
000002e0: 7cd7 f43c f8ea d5bd 06be 22be 5641 48bd
000002f0: 4c2e 1fbd 47ba c4bd cf68 643e 6def 9b3c
00000300: 62e9 1fbe 7bf7 c5bd c4b7 4dbc 7b90 77bd
00000310: 5239 c93b 94e8 093d 6d72 de3d c69b c03d
00000320: 88cf 03bd 72e0 8b3d 63b9 95bd 6c2d 1a3e
00000330: a424 a7bd 966a dcbd 74e1 4c3d 0c37 c73c
00000340: 9865 e13d 7278 1d3e 8dfb 563e 7fbf 0f3e
00000350: aa1d f73d ce7d dfbc ae19 0bbe 577d 373e
00000360: 8a30 763c cd7e 263d aeef 583d e8d1 c4bd
00000370: ad94 09bd 47b7 0e3e 6985 b3bd 5fb9 04bd
00000380: c819 77bd 2d96 ca3d cb19 5cbb fa61 9d3d
00000390: 8698 01be 9ece 84bd d697 32be c3e2 e33d
000003a0: 42d9 843d 39bd c23d dde5 97bd 7442 8cbd
000003b0: cad3 4d3e e7df afbd 2408 1f3b 24b6 163e
000003c0: e686 b3bd aabf 5cbb 4cae 6f3c 0bf5 963d
000003d0: fb81 aa3a f455 dfbc db89 c1bd e4ea 813d
000003e0: b031 003e 60b5 1bbd 1575 a4bd e059 50bd
000003f0: 5652 b9bd 2c98 4b3d 45a1 acbd a7a5 b1bc

bias f4 [100]
-0.0304719 -0.020560054 -0.004121143 -0.01191698 -0.008160374 -0.028696995 0.06360425 -0.02789907
-0.014339736 0.0072509865 -0.00770319 0.018323736 0.03950282 0.0125800045 0.00871495 0.07099222
-0.031429294 0.012737757 0.010781236 -0.027258618 -0.03198771 0.03830216 0.017966872 0.023615044
0.017888824 0.00050869765 0.06353759 -0.02402286 0.02851365 -0.004141548 -0.016545879 -0.033706512
0.0088513745 -0.020162473 0.008366821 -0.008307213 0.016387494 0.015025671 0.023831822 -0.025984336
-0.020001227 0.007594155 -0.0053966683 0.017552894 -0.055185575 -0.03207217 0.014468298 -0.04011043
0.05071783 0.009248862 0.05576148 0.030351233 0.0007713716 -0.02943721 -0.016822742 -0.029571628
0.04807856 0.0373321 0.027168246 0.02897663 0.037593607 0.027100028 0.0018070604 -0.032572344
0.03394016 -0.048589565 0.0068733124 0.038596332 -0.022770412 0.027033353 -0.03358296 -0.015860206
-0.02804046 0.0623447 0.024205659 -0.021305196 0.016315864 -0.024996344 -0.044962015 -0.024038553
-0.033201806 -0.043380003 -0.044980094 -0.024396395 -0.010449236 0.036033712 -0.025829492 -0.029306041
0.012493797 -0.005321972 0.051897794 -0.0069033313 -7.7557845e-05 0.06635616 0.013648253 -0.0245257
0.03236762 0.013938267 -0.028891215 0.011298525
00000000: 35a0 f9bc 8f6d a8bc a70a 87bb 703f 43bc
00000010: 17b3 05bc f615 ebbc f242 823d 978c e4bc
00000020: 36f1 6abc af99 ed3b 0b6b fcbb a91b 963c
00000030: b5cd 213d 5d1c 4e3c 26c9 0e3c 5e64 913d
00000040: 01bc 00bd 06b2 503c c8a3 303c 774d dfbc
00000050: 8c05 03bd bae2 1c3d 432f 933c 5674 c13c
00000060: 958b 923c 1f5a 053a ff1f 823d 97cb c4bc
00000070: 7595 e93c d3b5 87bb 398b 87bc d70f 0abd
00000080: 5b05 113c c52b a5bc fe14 093c fa1a 08bc
00000090: 113f 863c 3b2e 763c f43a c33c 1add d4bc
000000a0: 9dd9 a3bc 64d8 f83b 89d6 b0bb 16cb 8f3c
000000b0: 450a 62bd 1c5e 03bd 710c 6d3c d64a 24bd
000000c0: 80bd 4f3d 8a88 173c 2666 643d 26a3 f83c
000000d0: df35 4a3a 4e26 f1bc d9cf 89bc 3340 f2bc
000000e0: 06ee 443d 8be9 183d f18f de3c 6660 ed3c
000000f0: c1fb 193d e100 de3c e3da ec3a 946a 05bd
00000100: d604 0b3d da05 47bd 8639 e13b 3017 1e3d
00000110: 0489 babc 0d75 dd3c 498e 09bd 43ed 81bc
00000120: 1bb5 e5bc 285d 7f3d f24a c63c 3c88 aebc
00000130: d9a8 853c 22c5 ccbc 172a 38bd 80ec c4bc
00000140: 9efe 07bd 3baf 31bd 0c3d 38bd f3da c7bc
00000150: 4633 2bbc 1698 133d 5f98 d3bc 3913 f0bc
00000160: c8b2 4c3c f063 aebb c892 543d 5735 e2bb
00000170: 8da6 a2b8 bde5 873d ec9c 5f3c 1fea c8bc
00000180: e993 043d 545d 643c 45ad ecbc 731d 393c

weight f4 [100, 100]
0.13384978 0.02153347 0.12580183 -0.13548167 -0.027748296 -0.13244998 0.01679226 -0.004219455
0.05547938 -0.033574276 0.06570955 -0.102938734 0.09650866 -0.17721377 -0.033123273 0.07650194
0.097875044 0.10612012 -0.11609896 -0.09547132 0.13183372 -0.15700155 0.02212209 -0.12314821
0.20347095 0.05282742 -0.14734472 -0.103779174 -0.035372075 0.01637434 0.024011897 -0.020962521
0.20380384 0.032519363 -0.20663436 0.15659715 0.058987204 0.13767987 0.075908594 0.025471654
-0.029209655 -0.085980184 0.13704641 0.10035411 -0.054456804 0.04156394 -0.019516109 0.08600285
-0.052936215 0.16269486 -0.19186835 0.00825245 -0.12448676 0.0144181885 0.15993017 0.042002715
-0.10810932 -0.120259225 -0.14323378 0.045444157 -0.009312219 0.16130622 -0.032490477 0.066582724
0.029049221 0.10580886 0.14803515 -0.043909945 -0.18019639 -0.059163447 -0.19681896 -0.13231257
-0.0014207024 -0.12690617 -0.11816172 0.027608031 -0.10300178 0.14248054 0.018911589 -0.15107228
0.02565108 -0.011972477 0.14195664 -0.02071595 0.112292044 -0.13338445 0.02012308 0.091838636
-0.024157014 -0.2017601 -0.13524641 -0.07230319 -0.08804262 -0.11528272 -0.17415026 -0.022548059
0.16122453 -0.20989606 0.20114523 0.2265897 0.016175805 0.10525839 -0.014693884 0.13417596
0.12637678 0.052576836 -0.09372054 0.06568183 0.1685556 -0.08412601 0.100819364 0.114042126
0.09415018 0.11083124 0.163062 -0.14718659 0.0366738 0.025987519 0.18112467 -0.07511091
0.032248452 0.014056875 0.0018643774 0.11984848 0.0616795 0.048714854 0.062321197 -0.046449333
0.16020784 0.019681036 -0.084014505 -0.0809011 0.045551036 0.11646518 0.11951807 -0.13307352
0.009680381 0.059522998 -0.028184723 -0.065058775 -0.04548628 0.17927946 0.033928588 0.09076569
0.08691658 0.16128665 -0.13067085 -0.055875584 0.04897576 0.17707755 -0.14988245 0.15925911
0.027128661 0.049159594 -0.07060283 -0.17260008 0.16060118 0.04710287 -0.022256196 0.044846147
0.10717401 0.14775795 0.012415147 -0.026663963 -0.113865934 0.15565933 -0.17551763 -0.13140538
-0.13013044 -0.123217136 0.08060415 -0.12483018 -0.059781034 -0.1738952 0.036428526 0.0090114735
0.12697594 0.15491189 -0.096210554 -0.15537512 -0.0228145 -0.116065495 0.10502518 0.03142264
-0.03716747 -0.05442599 0.05357302 0.094330855 0.05579753 0.12317548 0.1572938 -0.11186493
0.049307905 -0.03827937 -0.03593459 0.03195443 0.11952734 -0.008636973 0.08334883 -0.122154295
0.14199288 -0.02139796 -0.061667718 -0.08040217 -0.12211653 -0.068946086 0.16921763 0.13727757
0.1499622 0.1697154 -0.1184257 -0.08758874 -0.090305716 -0.034512416 -0.07582412 0.03259996
-0.082033835 -0.040897287 -0.16743833 -0.1452496 -0.15384486 -0.06581816 -0.09019039 -0.113039866
-0.0017056067 -0.018134376 0.00084463524 0.0580815 0.08804273 0.059380356 -0.06789247 -0.074774615
-0.00235283 0.07276647 0.095792614 -0.042380847 -0.11157923 0.055668183 -0.0077537834 -0.07651732
-0.059636954 0.06764415 0.16117954 -0.015545725 -0.112976775 -0.10065876 -0.056225095 -0.06367767
-0.12857759 -0.05302998 -0.06865866 0.04456147 0.059492346 0.12443911 0.035427928 -0.0061476748
00000000: eb0f 093e f666 b03c 32d2 003e b5bb 0abe
00000010: 6550 e3bc f8a0 07be ec8f 893c 5b43 8abb
00000020: 593e 633d 2e85 09bd bb92 863d 8bd1 d2bd
00000030: 55a6 c53d 8777 35be 45ac 07bd 0dad 9c3d
00000040: b672 c83d 8155 d93d 4bc5 edbd 7886 c3bd
00000050: 6bff 063e 04c5 20be 6339 b53c 2135 fcbd
00000060: b05a 503e 9161 583d 89e1 16be 2d8a d4bd
00000070: 4fe2 10bd 7b23 863c 99b4 c43c 98b9 abbc
00000080: f4b1 503e 0633 053d f597 53be 015b 203e
00000090: 919c 713d f4fb 0c3e f775 9b3d eea9 d03c
000000a0: 1649 efbc 6116 b0bd e555 0c3e 7586 cd3d
000000b0: 190e 5fbd f33e 2a3d 3fe0 9fbc 4322 b03d
000000c0: a5d3 58bd 7b99 263e 2379 44be 4935 073c
000000d0: eaf2 febd 443a 6c3c bcc4 233e 0a0b 2c3d
000000e0: 6b68 ddbd 784a f6bd e0ab 12be a723 3a3d
000000f0: 4792 18bc 752d 253e bc14 05bd 865c 883d
00000100: a2f8 ed3c 51b2 d83d 8796 173e eada 33bd
00000110: 6785 38be 5f55 72bd e98a 49be f27c 07be
00000120: dd36 baba b1f3 01be c6fe f1bd 3d2a e23c
00000130: 99f2 d2bd 6be6 113e 7aec 9a3c b1b2 1abe
00000140: 3722 d23c 3528 44bc 155d 113e 7fb4 a9bc
00000150: 5ff9 e53d ef95 08be 28d9 a43c e515 bc3d
00000160: eee4 c5bc 339a 4ebe 097e 0abe b213 94bd
00000170: b04f b4bd 5919 ecbd 7254 32be b5b6 b8bc
00000180: 0b18 253e feee 56be 04f9 4d3e 2107 683e
00000190: 1f83 843c b691 d73d 9ebe 70bc 6c65 093e
000001a0: ea68 013e cf5a 573d 8ef0 bfbd 3284 863d
000001b0: d799 2c3e 424a acbd 627a ce3d eb8e e93d
000001c0: cfd1 c03d 7dfb e23d baf9 263e 15b8 16be
000001d0: 4437 163d c7e3 d43c bf78 393e c0d3 99bd
000001e0: f416 043d cf4e 663c 205e f43a 1f73 f53d
000001f0: a5a3 7c3d 3a89 473d 8344 7f3d a841 3ebd
00000200: 860d 243e 203a a13c cc0f acbd 7aaf a5bd
00000210: b993 3a3d 4c85 ee3d e4c5 f43d 6d44 08be
00000220: 769a 1e3c 63ce 733d a6e3 e6bc 893d 85bd
00000230: d24f 3abd 0995 373e b4f8 0a3d 5de3 b93d
00000240: 5201 b23d 5428 253e 94ce 05be ccdd 64bd
00000250: ce9a 483d d153 353e c97a 19be d214 233e
00000260: ed3c de3c 925b 493d 3798 90bd 13be 30be
00000270: a374 243e f0ee 403d a052 b6bc 98b0 373d
00000280: 0c7e db3d dc4d 173e e768 4b3c 626e dabc
00000290: 8b32 e9bd 2965 1f3e e5ba 33be 228f 06be
000002a0: ea40 05be 4459 fcbd ca13 a53d f7a6 ffbd
000002b0: f5dc 74bd 9511 32be 1436 153d dca4 133c
000002c0: fb05 023e 39a1 1e3e 0a0a c5bd a81a 1fbe
000002d0: 79e5 babc bfb3 edbd 7117 d73d 07b5 003d
000002e0: eb3c 18bd c9ed 5ebd 626f 5b3d 8930 c13d
000002f0: f38b 643d 6d43 fc3d a011 213e 7119 e5bd
00000300: 16f7 493d d4ca 1cbd 2630 13bd a6e2 023d
00000310: c0ca f43d 1782 0dbc cbb2 aa3d 082c fabd
00000320: 9566 113e c64a afbc 4a97 7cbd e5a9 a4bd
00000330: 3b18 fabd 9b33 8dbd 6347 2d3e 7e92 0c3e
00000340: b18f 193e e0c9 2d3e 2c89 f2bd ba61 b3bd
00000350: 34f2 b8bd e45c 0dbd ad49 9bbd 8987 053d
00000360: 5b01 a8bd ea83 27bd f474 2bbe 50bc 14be
00000370: 8289 1dbe accb 86bd bdb5 b8bd 7281 e7bd
00000380: aa8e dfba 8b8e 94bc 836a 5d3a dee6 6d3d
00000390: bf4f b43d d138 733d 350b 8bbd 6f23 99bd
000003a0: f031 1abb 9606 953d eb2e c43d 8a97 2dbd
000003b0: a783 e4bd 5204 643d 7313 febb 1db5 9cbd
000003c0: e145 74bd 0489 8a3d 400c 253e 7fb3 7ebc
000003d0: 5e60 e7bd 2e26 cebd 494c 66bd 7069 82bd
000003e0: d8a9 03be f735 59bd e99c 8cbd 1786 363d
000003f0: 3fae 733d efd9 fe3d e01c 113d 6f72 c9bb
