Kovasznay/best_net_with_improved(all improvements).pth (torch, 97031 bytes, 16 tensors)

weight f4 [60, 2]
0	0x3e3d454c	0.18483466
1	0xbebba2b9	-0.36647585
2	0x3e102d01	0.14079668
3	0x3e2cf7d4	0.16891414
4	0xbdfe31ed	-0.12411866
5	0x3da54cbb	0.08071276
6	0x3e99c216	0.30030888
7	0x3e153145	0.14569576
8	0xbe7b1e66	-0.24523315
9	0x3d7efb92	0.062251635
10	0x3d899559	0.06717939
11	0x3e8d6906	0.2761919
12	0x3e88e47c	0.2673682
13	0x3dc49017	0.095977955
14	0x3e4a98ce	0.19784853
15	0x3e89a017	0.2687995
16	0xbdddf1a8	-0.10837108
17	0x3e3bb9e3	0.18332629
18	0x3dc42e09	0.09579093
19	0xbd890350	-0.06690085
20	0x3dd2dd39	0.10296101
21	0xbeb38749	-0.35064152
22	0xbda964de	-0.08271192
23	0x3e3fb6b1	0.18722035
24	0x3e029f91	0.12756182
25	0x3e298f56	0.16558585
26	0x3da0afd0	0.078460336
27	0xbe7f95f0	-0.2495954
28	0x3d8d6b79	0.069052644
29	0xbe9f9490	-0.31168032
30	0x3d4f4d70	0.05061096
31	0x3e16dc87	0.14732562
32	0x3e400f95	0.18755944
33	0x3e9a8841	0.30182078
34	0xbd922990	-0.07136834
35	0x3dbf8732	0.09351958
36	0x3e853474	0.2601658
37	0xbde2e3d8	-0.11078614
38	0xbe703c56	-0.23460516
39	0x3e01ca74	0.12674886
40	0x3e64a5d0	0.22328877
41	0xbe386330	-0.18006587
42	0x3e212c52	0.15739563
43	0xbe815a73	-0.2526432
44	0x3e86c411	0.26321462
45	0xbea2a204	-0.31764233
46	0x3e2b2f54	0.16717273
47	0xbea4f760	-0.32219982
48	0xbe2e56a6	-0.17025241
49	0xbd136bc7	-0.035991456
50	0xbbefe063	-0.00732045
51	0x3e61685b	0.22012465
52	0xbea3d493	-0.3199812
53	0x3e4d8b0f	0.20072578
54	0xbe738730	-0.23782039
55	0xbe071e99	-0.13195266
56	0xbddece25	-0.10879163
57	0xbe90b23d	-0.28260985
58	0xbe72ec99	-0.23723067
59	0x3eb7018e	0.35743374
60	0xbd7958d4	-0.06087573
61	0xbdd1738b	-0.10227116
62	0xbe8d6670	-0.27617216
63	0xbc8ef1f0	-0.01744935
64	0x3d929ef6	0.07159226
65	0xbe7bd31d	-0.24592252
66	0xbe8aa942	-0.27082258
67	0x3ded1b59	0.11577482
68	0xbd8c17f3	-0.068405055
69	0xbd8f8cb2	-0.070092574
70	0x3d3bfb9e	0.045894258
71	0x3ee6822f	0.45021197
72	0xbe85f0fb	-0.26160416
73	0xbe8473da	-0.25869638
74	0xbd1f99b6	-0.03896495
75	0x3e5a259c	0.2130341
76	0xbdb4db50	-0.08830893
77	0x3e700d41	0.23442556
78	0x3e789e4d	0.24279137
79	0xbd9e9530	-0.07743299
80	0xbe3e5400	-0.18586731
81	0xbe50000c	-0.20312518
82	0xbbae145c	-0.0053124856
83	0xbde3d3f7	-0.111244135
84	0xbbbbe448	-0.0057340004
85	0xbe32655c	-0.17421478
86	0xbd3e65d2	-0.046483822
87	0xbde259b1	-0.110522635
88	0xbe681d52	-0.22667435
89	0xbce8aa2e	-0.02840146
90	0xbe5fb4fb	-0.21846382
91	0x3e9634a2	0.2933703
92	0x3da98150	0.082766175
93	0x3ec033b9	0.3753946
94	0xbe46b058	-0.19403207
95	0x3e0cd72b	0.13753955
96	0x3e3b2997	0.18277584
97	0x3e55a71a	0.20864525
98	0xbc743698	-0.014905594
99	0xbe89b052	-0.26892334
100	0x3d7cab89	0.061687026
101	0x3e0cbbb5	0.1374348
102	0x3de8acc9	0.11361081
103	0x3e6c2640	0.23061466
104	0xbccecb24	-0.02524335
105	0xbdd176b5	-0.1022772
106	0xbe8d6a83	-0.27620324
107	0xbec5623b	-0.38551506
108	0xbe58c39d	-0.2116837
109	0x3ecd88f7	0.40143558
110	0xbe19fd8f	-0.15038131
111	0xbea0c98a	-0.31403762
112	0xbc034ee9	-0.008014419
113	0x3e023f4a	0.12719455
114	0x3e6e17e8	0.23251307
115	0xbc631a1a	-0.013861204
116	0xbc9be5cb	-0.019030472
117	0x3eadf3d1	0.3397508
118	0xbe658407	-0.22413646
119	0xbe706dba	-0.23479357

bias f4 [60]
0	0xbc92923c	-0.017891996
1	0x3d328803	0.043586742
2	0xbd1b60f1	-0.037934247
3	0xbd689521	-0.056782845
4	0x3c8a84b3	0.016908979
5	0xbd821766	-0.06352119
6	0x3d4bca24	0.049753323
7	0xbd9ed4f8	-0.07755464
8	0xbcf3f82d	-0.029781425
9	0x3a5b43b9	0.00083642785
10	0x3d6d397e	0.057916157
11	0xbd0a43a0	-0.0337559
12	0x3dbb1725	0.09135274
13	0x3d5184b9	0.051151965
14	0x3d523a5f	0.0513252
15	0xbbb937a4	-0.005652385
16	0xbd81be50	-0.06335127
17	0xbde8b138	-0.11361927
18	0x3e3185e3	0.1733623
19	0xbcaf6992	-0.021412645
20	0xbd81986b	-0.063278995
21	0x3d50772a	0.050894894
22	0x3d9afcec	0.07567772
23	0xbc1e1df2	-0.009650694
24	0x3d4efcf2	0.050534196
25	0x3dbcf96c	0.09227261
26	0x3c6fa2e1	0.014626236
27	0xbdbb396e	-0.09141813
28	0x3e049399	0.12946929
29	0x3c2f1a58	0.010687433
30	0x3d6fdda7	0.058560994
31	0xbdbd1953	-0.09233346
32	0x3cfb52d0	0.030679137
33	0xbca05370	-0.019571036
34	0xbcd7ffc6	-0.02636708
35	0xbc4a7d7f	-0.012359022
36	0x3a8b5be5	0.0010632245
37	0xbd9902d8	-0.074712455
38	0x3aacaf46	0.0013174794
39	0xbdf9f234	-0.122044
40	0xbd5be77b	-0.053687554
41	0x3d64e7c4	0.05588509
42	0xbd997751	-0.07493461
43	0x3d7f7fc7	0.062377717
44	0x3dc39042	0.09548999
45	0x3da3dede	0.08001493
46	0xbc902912	-0.017597709
47	0x3d55de81	0.05221415
48	0xbd140f1f	-0.036147233
49	0xbd175f45	-0.03695609
50	0x3d11e6af	0.035620388
51	0xbd5529f8	-0.052041978
52	0x3cb88274	0.022523142
53	0xbd4588ee	-0.04822629
54	0xbd963089	-0.07333476
55	0xbbf8912c	-0.007585665
56	0xbd743779	-0.059623215
57	0x3cfde8d0	0.030994803
58	0xbcbf33b5	-0.023340086
59	0xbd043952	-0.032281227

weight f4 [60, 60]
0	0x3d5b4f59	0.05354247
1	0x3e45648c	0.19276637
2	0x3e59187c	0.21200746
3	0xbca124aa	-0.019670803
4	0xbd15240c	-0.03641133
5	0x3e420543	0.1894732
6	0x3e671444	0.22566324
7	0xbdb6d24c	-0.0892683
8	0x3e865a33	0.26240692
9	0xbe325e14	-0.174187
10	0xbe90088c	-0.2813152
11	0x3e53baa6	0.2067667
12	0x3e59e3ec	0.21278352
13	0xbe857480	-0.26065445
14	0xbe95776d	-0.29192677
15	0x3e5dd99d	0.21665044
16	0x3d9c305e	0.07626413
17	0xbd880467	-0.06641465
18	0xbe12e9d9	-0.14347018
19	0x3e56065e	0.20900866
20	0xbdc07dce	-0.09398995
21	0xbea320db	-0.31861004
22	0xbc3d44dc	-0.011552062
23	0xbe91c44a	-0.2847007
24	0xbdf7896e	-0.120867595
25	0xbe01e7de	-0.12686107
26	0xbde2351f	-0.11045288
27	0x3d7a10d0	0.06105119
28	0xbdf173c6	-0.1178966
29	0x3d58cdd4	0.052930668
30	0xbe6c4473	-0.23072986
31	0x3e5e71e2	0.2172313
32	0xbc57e1d8	-0.013176404
33	0x3e432ca0	0.19059992
34	0x3d872f6f	0.06600844
35	0x3e9c42e2	0.30519778
36	0x3e2f264e	0.17104456
37	0x3e06b734	0.13155824
38	0x3e5a9277	0.21344934
39	0xbe08febd	-0.13378425
40	0xbe50bd44	-0.20384699
41	0x3df2cfde	0.11856054
42	0x3da99323	0.08280017
43	0x3d8c1ada	0.06841059
44	0x3e16c518	0.14723623
45	0xbbd37ac6	-0.0064538447
46	0x3e81b8d5	0.25336328
47	0xbdd24cd7	-0.10268562
48	0x3e0e5cd7	0.13902603
49	0x3d43d4b6	0.04781028
50	0xbc45da78	-0.012076013
51	0xbdcdaab6	-0.10042326
52	0xbe78dfc8	-0.24304116
53	0xbe55578b	-0.20834176
54	0x3e90bb67	0.28267977
55	0xbcba3f4f	-0.022735266
56	0x3dcabd17	0.09899347
57	0x3d6bb70e	0.05754762
58	0x3e69c7a5	0.22830065
59	0xbdf04590	-0.11732018
60	0x3e70b9bd	0.23508354
61	0xbe22722c	-0.15863866
62	0xbd915f3f	-0.07098245
63	0xbe3cba14	-0.18430358
64	0xbd28ac8d	-0.041180182
65	0xbd775015	-0.060379107
66	0xbe6887ee	-0.22708103
67	0xbce0344d	-0.027368689
68	0xbd42a95c	-0.047524795
69	0xbd8a30b0	-0.06747568
70	0x3db560d6	0.088563606
71	0x3c8b5f64	0.01701326
72	0x3d3debc4	0.04636742
73	0xbe24e34b	-0.1610233
74	0x3d0fa2e1	0.035067443
75	0x3dfd9c77	0.12383359
76	0x3d2c15b6	0.042012893
77	0x3d991949	0.07475526
78	0x3df0e30e	0.11762057
79	0x3e50808a	0.20361534
80	0x3e0416f5	0.12899382
81	0xbce55bd5	-0.02799789
82	0x3dbcd712	0.09220709
83	0xbd262483	-0.040562164
84	0xbdb055f2	-0.08610143
85	0xbd58caa5	-0.052927632
86	0xbcfa8815	-0.030582467
87	0x3e348754	0.17629749
88	0xbe24833d	-0.16065688
89	0x3d7b1f59	0.061309192
90	0xbd9c8c00	-0.076438904
91	0x3d70bb67	0.05877247
92	0x3e0a5da1	0.13512279
93	0xbe1bd68a	-0.15218559
94	0x3e510f8e	0.2041609
95	0x3db0c527	0.08631354
96	0xbd53f1ee	-0.051744394
97	0x3e50146f	0.20320295
98	0xbe7e6991	-0.24844958
99	0x3e0b0370	0.1357553
100	0xbdea5824	-0.11442593
101	0xbdb5fdf3	-0.088863276
102	0xbe316f96	-0.17327723
103	0x3e797373	0.24360447
104	0xbe3840fc	-0.1799354
105	0xbe40ca26	-0.18827114
106	0x3d5e9bbc	0.05434774
107	0xbe532e44	-0.20623118
108	0xbe6a368f	-0.22872375
109	0x3e4c515f	0.19952916
110	0xbe81fccb	-0.25388178
111	0xbe0aadec	-0.13542908
112	0x3d3b909c	0.045792207
113	0x3e1def92	0.1542342
114	0xbdb3a421	-0.087715395
115	0xbe002725	-0.12514932
116	0x3df81f19	0.121153064
117	0x3c5afb1f	0.013365536
118	0xbe22228a	-0.15833488
119	0xbbeaf75e	-0.0071706017
120	0xbdd2f08b	-0.10299786
121	0x3e25b7ee	0.16183445
122	0xbdd07739	-0.1017899
123	0x3e4899be	0.19589898
124	0xbe09a72f	-0.13442682
125	0x3da40e9b	0.08010598
126	0x3d9bc4e5	0.07605914
127	0x3e2af237	0.1669396
128	0x3e1f52db	0.1555895
129	0x3e5ba458	0.21449411
130	0xbe17390d	-0.14767857
131	0x3df713a0	0.1206429
132	0xbd4e095b	-0.05030189
133	0xbdbc27bb	-0.091872655
134	0x3e0e86e7	0.13918649
135	0x3e19ca0b	0.1501848
136	0x3d15b835	0.036552627
137	0xbe84d0eb	-0.25940642
138	0xbd0f0d44	-0.03492476
139	0xbe122c14	-0.14274627
140	0xbe103159	-0.14081325
141	0xbb85399f	-0.004065707
142	0xbded40b7	-0.11584609
143	0xbd85c1b9	-0.0653109
144	0x3e46402f	0.19360422
145	0x3e2d3492	0.16914585
146	0x3e2299b9	0.15878953
147	0xbdfe553d	-0.12418602
148	0xbdab457d	-0.08362863
149	0x3dccc6e9	0.099988766
150	0xbe347de3	-0.17626147
151	0xbe638e87	-0.22222339
152	0x3e5ec6a4	0.21755463
153	0xbe66f38a	-0.2255384
154	0x3b582f3e	0.0032987143
155	0x3e0768ce	0.13223574
156	0x3e45eb4a	0.19328037
157	0xbae42353	-0.0017405547
158	0x3d2a6f76	0.041610204
159	0x3e3270fe	0.17425916
160	0xbe35cc50	-0.1775372
161	0x3dc965ff	0.09833907
162	0xbe1cbd06	-0.15306482
163	0xbcb2618b	-0.021775028
164	0x3dbdea69	0.09273226
165	0x3d55e729	0.052222405
166	0x3dc5e935	0.09663621
167	0x3daa1376	0.08304493
168	0xbe2f3617	-0.17110477
169	0xbde4d3ca	-0.11173208
170	0x3d1cb18e	0.038255267
171	0xbde5896f	-0.11207854
172	0x3b0d9aea	0.0021607229
173	0xbe270114	-0.16309005
174	0xbd1db7e0	-0.038505435
175	0x3d87296a	0.06599696
176	0x3dcd4d76	0.1002454
177	0x3ce9ea23	0.028554028
178	0xbe2234d3	-0.15840463
179	0xbe26a816	-0.16275057
180	0x3e540dc9	0.20708384
181	0xbded800e	-0.1159669
182	0x3e087365	0.1332527
183	0x3dc2a57c	0.0950422
184	0xbd239cfa	-0.039944626
185	0xbd19c48d	-0.03754096
186	0xbe5dbd05	-0.21654136
187	0x3d92f446	0.07175498
188	0xbdeec9f0	-0.1165961
189	0x3b10a5b7	0.002207143
190	0xbd0c5c41	-0.034267668
191	0xbe542c32	-0.20719984
192	0x3d6f481e	0.058418386
193	0x3dd9895e	0.10621904
194	0x3e6ab5d6	0.22920927
195	0xbe1ea64f	-0.15493129
196	0x3c6d0dc4	0.014468614
197	0x3e02e2c0	0.12781811
198	0x3dd4684b	0.10371455
199	0x3bfdb149	0.0077420813
200	0xbdc5cfd1	-0.096587785
201	0xbe205eb7	-0.15661131
202	0xbd93038f	-0.07178413
203	0x3da7249d	0.0816128
204	0xbdb44c71	-0.088036425
205	0x3d2da7d5	0.042396385
206	0xbe21bb85	-0.1579419
207	0x3d66bc85	0.05633213
208	0x3e015a86	0.12632188
209	0x3e4586b0	0.1928966
210	0x3e5ac91d	0.21365781
211	0x3dc082e5	0.09399966
212	0x3e50f84d	0.20407219
213	0xbe44e173	-0.19226627
214	0xbcc05d6b	-0.023482045
215	0x3b8ee716	0.0043610437
216	0x3e45f594	0.19331962
217	0x3d8a7dcd	0.06762276
218	0x3cbd090a	0.0230756
219	0x3de69020	0.112579584
220	0x3df8a2b6	0.1214041
221	0x3e28acd0	0.16472173
222	0x3e051072	0.12994555
223	0xbe4c129d	-0.19928975
224	0xbda135d6	-0.078715965
225	0xbe3ff466	-0.18745574
226	0x3d626b7f	0.055278298
227	0xb9bbcdcb	-0.00035820747
228	0x3d427370	0.04747337
229	0xbdc338e8	-0.095323384
230	0xbe6b0d1b	-0.22954218
231	0x3d6a73e8	0.057239443
232	0xbe103716	-0.14083514
233	0xbe45ed6f	-0.19328855
234	0x3e637202	0.2221146
235	0x3e12b4d5	0.14326794
236	0xbe32ffc1	-0.17480375
237	0xbd6f7411	-0.0584603
238	0xbe44527a	-0.19172087
239	0xbd072f1d	-0.033003915
240	0xbd7e7778	-0.062125653
241	0x3dbc6709	0.0919934
242	0xbd762a25	-0.060098786
243	0x3daf8d0a	0.08571823
244	0x3d7a8450	0.06116134
245	0xbd72cf5d	-0.05927979
246	0x3e4fb749	0.20284761
247	0x3e553e43	0.20824532
248	0x3e159cb5	0.1461056
249	0x3e42de9f	0.19030236
250	0x3e5660fa	0.20935431
251	0xbbc3e6c3	-0.0059784367
252	0xbe169b4d	-0.1470768
253	0x3e66054d	0.2246296
254	0xbe3768f3	-0.17911129
255	0xbdfe4966	-0.124163434

bias f4 [60]
0	0xbd11a36f	-0.035556253
1	0xbc8f9b43	-0.01753009
2	0x3d4b7f13	0.049681734
3	0xbd8faac9	-0.070149966
4	0x3cfe3dc2	0.031035308
5	0xbd1df50c	-0.038563773
6	0xbdc8c673	-0.09803476
7	0x3d45d37d	0.048297394
8	0xbcab8759	-0.020938562
9	0xbc6d7934	-0.014494229
10	0x3c42bb36	0.011885455
11	0xbc949033	-0.018135166
12	0x3c8c3294	0.017113961
13	0xbc969b4a	-0.018384594
14	0xbd0b5b19	-0.034022424
15	0x3d453af5	0.04815193
16	0xbcbea2a8	-0.02327092
17	0x3c4b50d1	0.012409405
18	0xbdf4d5ee	-0.11954866
19	0x3d419563	0.047261607
20	0x3d3a10c0	0.04542613
21	0xbd061e13	-0.032743525
22	0xbd174629	-0.036932144
23	0x3c9ad08d	0.018898273
24	0x3dc3b6a7	0.095563225
25	0xbd53fd48	-0.05175522
26	0xbca9acbb	-0.020712247
27	0xbbf2ba2c	-0.0074074473
28	0x3cdd93bd	0.027047986
29	0xbd2ccf38	-0.042189807
30	0xbd967412	-0.073463574
31	0x3df8e91c	0.12153837
32	0xbc5bbc5b	-0.013411607
33	0x3c93568e	0.017985608
34	0x3cd65898	0.026165292
35	0x3bd519f2	0.006503337
36	0x3d2cb27d	0.042162407
37	0x3cbfd211	0.023415597
38	0xbd84f4b0	-0.06491983
39	0x3d3a67d4	0.045509174
40	0x3bd0146a	0.00635009
41	0x3c0b5937	0.008505157
42	0x3dde0584	0.10840896
43	0x3b1da863	0.0024056665
44	0x3dc8aa54	0.097981125
45	0xbd3f69ab	-0.046731632
46	0x3d2c0e69	0.04200593
47	0xbcc5d0bc	-0.024147384
48	0x3d53b668	0.051687628
49	0xbdd094ef	-0.10184657
50	0x3bc85f7a	0.0061148973
51	0x3c246c78	0.010035627
52	0xbc8dcba0	-0.01730901
53	0xbdb79304	-0.08963588
54	0x3d75ae76	0.059980832
55	0xbd44f83f	-0.04808831
56	0x3cdf3fea	0.027252156
57	0xbd4771cb	-0.048692506
58	0xbba472e0	-0.005018577
59	0x3dcf9bf2	0.10137166

weight f4 [60, 60]
0	0x3e69bf09	0.2282678
1	0x3e3d5e0c	0.18492907
2	0x3dd36ca3	0.10323455
3	0x3d97aadc	0.07405636
4	0x3e11eaec	0.14249772
5	0x3c8ff033	0.01757059
6	0xbd2a3dc9	-0.04156283
7	0xbdfcb452	-0.12339081
8	0x3e6daf3d	0.2321138
9	0x3dc920cc	0.09820709
10	0x3dd86f53	0.105681084
11	0xbe511b01	-0.20420457
12	0x3d57fd59	0.052731846
13	0x3e293d1c	0.16527218
14	0xbc78576f	-0.015157565
15	0xbe18d960	-0.14926672
16	0xbd1b270b	-0.03787903
17	0x3e1f3f72	0.15551546
18	0xba877145	-0.001033344
19	0xbd397dac	-0.045285866
20	0xbe4982ce	-0.19678804
21	0x3cd42a98	0.025899217
22	0xbdb3c5f8	-0.08777994
23	0xbe250246	-0.16114148
24	0xbe06796a	-0.13132253
25	0x3d89e49c	0.06733057
26	0x3d4f839a	0.050662614
27	0x3e28f9d7	0.16501556
28	0x3dddc5a3	0.10828712
29	0xbc806e61	-0.015677633
30	0xbdaef72b	-0.08543237
31	0xbd9f0c68	-0.07766038
32	0xbd8d127c	-0.06888291
33	0x3df9ff83	0.12206938
34	0x3cbc8405	0.02301217
35	0xbd999c49	-0.07500512
36	0xbb7e6394	-0.0038816677
37	0xbe40ca55	-0.18827184
38	0x3e225267	0.15851746
39	0xbe3cab0d	-0.18424626
40	0xbdbb5a3d	-0.09148071
41	0x3e4b6e9e	0.19866416
42	0xbe0001ed	-0.12500735
43	0x3e4458ab	0.19174449
44	0xbcd44957	-0.025913877
45	0xbe117470	-0.14204574
46	0xbe42a6e2	-0.19008973
47	0xbe5e28b0	-0.21695209
48	0xbc8b49ad	-0.017002905
49	0xbd4797f6	-0.048728906
50	0xbde8ab20	-0.113607645
51	0x3e45c225	0.19312342
52	0xbe63a535	-0.2223099
53	0xbdf6b3a0	-0.120459795
54	0xbdd553dc	-0.104163855
55	0xbd05bfa9	-0.032653484
56	0xbe102771	-0.14077546
57	0x3e38176f	0.17977689
58	0x3e69df78	0.22839153
59	0x3dcb0724	0.09913471
60	0xbdb754ea	-0.08951743
61	0xbc548e66	-0.012973404
62	0x3dd69f09	0.10479552
63	0xbd436706	-0.047705673
64	0x3da68327	0.08130484
65	0xbe350412	-0.17677334
66	0x3d638e1b	0.055555444
67	0x3dab2169	0.08355982
68	0x3e409cea	0.18809858
69	0xbd60bc94	-0.054867342
70	0x3dcfb275	0.1014146
71	0x3dc5178f	0.09623634
72	0xbe027d72	-0.12743166
73	0x3bfb339e	0.0076660654
74	0x399db8e0	0.00030083116
75	0x3d58c20a	0.052919425
76	0x3e319103	0.17340474
77	0xbe41e4bf	-0.18934916
78	0xbe82a6c5	-0.2551786
79	0xbc2ed13e	-0.010670004
80	0x3dc1fbdc	0.094718665
81	0xbe0f1dd8	-0.13976228
82	0xbe7f6714	-0.24941665
83	0xbce1a697	-0.027545257
84	0xbdb0ae39	-0.0862698
85	0xbe00c6eb	-0.12575881
86	0xbe621247	-0.22077285
87	0x3d73ffab	0.059569996
88	0x3e01b576	0.12666878
89	0x3cca2736	0.0246769
90	0x3db2a7be	0.087234005
91	0x3d8bbded	0.06823335
92	0x3e1fd4b8	0.1560849
93	0x39d289c1	0.00040156956
94	0x3e10cea5	0.14141329
95	0xbe348d56	-0.1763204
96	0x3cc67cb9	0.024229394
97	0x3dd1540b	0.10221108
98	0x3e35f8f3	0.17770748
99	0xbe6521f4	-0.22376233
100	0x3e2aab63	0.16666941
101	0xbb4e4d9c	-0.0031479364
102	0x3dc9a09e	0.098450884
103	0x3dda3457	0.10654514
104	0x3d3bf008	0.04588321
105	0xbd336e2f	-0.04380625
106	0xbda6dfc1	-0.081481464
107	0x3e41a259	0.18909587
108	0x3cc3dc7a	0.023908842
109	0x3e4dc6a8	0.20095313
110	0x3e26ecd0	0.16301274
111	0xbd78bc02	-0.060726173
112	0x3e059599	0.13045348
113	0xbd2e5a65	-0.042566676
114	0xbe30ce62	-0.17266229
115	0xbcad0bfc	-0.021123879
116	0xbcfb6232	-0.030686472
117	0xbe22af61	-0.15887214
118	0xbe5d8bbf	-0.2163534
119	0xbde8e9d5	-0.11372725
120	0x3e4b7fbc	0.19872946
121	0x3e62e93e	0.22159287
122	0xbe551540	-0.20808887
123	0x3de69eef	0.11260783
124	0x3ddeac10	0.10872662
125	0x3c80a214	0.015702285
126	0xbd5fc93c	-0.05463527
127	0xbe2eeb15	-0.17081864
128	0xbc1e68c0	-0.009668529
129	0x3e4dfc9f	0.20115899
130	0xbe3c0e0f	-0.18364738
131	0x3e10125c	0.14069504
132	0xbe1f895f	-0.15579747
133	0x3e285f35	0.16442569
134	0xbcd8cf83	-0.026466137
135	0x3d87a046	0.066223666
136	0x3d2097e8	0.03920737
137	0x3dde2ed1	0.10848773
138	0x3e0929ce	0.13394853
139	0x3da308d4	0.07960668
140	0xbe61ae8e	-0.22039244
141	0x3e481c2a	0.19541994
142	0x3d8b14d7	0.06791084
143	0x3e0ad93f	0.13559435
144	0xbe3b4e9f	-0.1829171
145	0xbde3a61a	-0.11115666
146	0xbe24f7d4	-0.16110164
147	0x3e67f134	0.22650605
148	0xbe1f22bb	-0.15540592
149	0xbd1aef7a	-0.03782604
150	0x3e09f2ac	0.13471478
151	0xbe2bf043	-0.16790871
152	0xbe04eac0	-0.12980175
153	0x3dada22e	0.08478199
154	0xbe26cb92	-0.16288593
155	0xbc8d5523	-0.01725251
156	0x3e6b5e58	0.22985208
157	0x3e304030	0.17211986
158	0x3d8d8b50	0.069113374
159	0x3d7fc257	0.062441196
160	0xbc0df0db	-0.008663381
161	0xbe345d31	-0.17613675
162	0x3e40d6b4	0.18831903
163	0xbdd6d0bc	-0.10489032
164	0xbc6a3e5a	-0.014297092
165	0x3c16a250	0.009193972
166	0xbcdcf52f	-0.026972381
167	0x3e2ee7a7	0.17080556
168	0xbe78216f	-0.24231504
169	0x3d9ef06e	0.07760702
170	0xbe141b0e	-0.14463446
171	0xbd90a9c7	-0.070636325
172	0xbe24c316	-0.16090044
173	0x3c31d3ce	0.010853721
174	0xbe462090	-0.19348359
175	0x3d2cf6aa	0.042227425
176	0x3daff4dd	0.08591626
177	0x3dbe5dae	0.09295212
178	0x3da6d6cd	0.08146439
179	0xbcd8fc81	-0.02648759
180	0x3dcf015e	0.10107683
181	0x3e0996c8	0.13436425
182	0x3e27492f	0.16336511
183	0xbd29f0a5	-0.041489262
184	0xbd805e06	-0.062679335
185	0xbe376a0b	-0.17911546
186	0x3e0540f9	0.13013066
187	0x3ddf5f5e	0.10906862
188	0x3e45b7ad	0.19308348
189	0xbc16197e	-0.009161351
190	0xbdef30b1	-0.11679209
191	0x3d9c98d0	0.07646334
192	0xbe3febe0	-0.18742323
193	0x3e508dae	0.20366547
194	0xbda3fc7f	-0.08007144
195	0xbe3bc53f	-0.18336962
196	0xbe0c397a	-0.136938
197	0x3db3f64c	0.08787212
198	0x3dacab1c	0.08431074
199	0xbde8e81c	-0.11372396
200	0x3dddcc01	0.10829926
201	0xbcf2ccfb	-0.029638758
202	0xbda25e32	-0.079281226
203	0x3e2c476a	0.16824117
204	0xbdd28a8d	-0.10280333
205	0x3e09e414	0.13465911
206	0x3e582e40	0.21111393
207	0x3dbdcb68	0.09267312
208	0x3c6f4472	0.014603721
209	0xbe3cfa66	-0.18454894
210	0xbe36f7e6	-0.17868003
211	0xbc44cf3f	-0.012012302
212	0xbb3c48ab	-0.0028729837
213	0xbe526bec	-0.20548981
214	0x3e17654a	0.14784732
215	0x3e08fcee	0.13377735
216	0x3e335b57	0.17515312
217	0xbddb0c33	-0.10695686
218	0x3e6c2d82	0.23064235
219	0xbd42c280	-0.04754877
220	0xbe53d789	-0.20687689
221	0x3dffdc3b	0.124931775
222	0xbe0462cb	-0.12928312
223	0xbe2d903b	-0.16949551
224	0xbc42a0b5	-0.011879136
225	0x3dbab89d	0.091172434
226	0x3e4c03b5	0.19923289
227	0x3ce5fa1d	0.028073365
228	0x3e37f799	0.17965545
229	0x3deae217	0.114689045
230	0xbe4d5b3a	-0.20054331
231	0xbe41f3b3	-0.1894062
232	0xbe74d0cb	-0.23907773
233	0x3e7c8491	0.24659945
234	0xbe424bcd	-0.18974228
235	0xbb498c8c	-0.0030753938
236	0xbda2bf94	-0.07946697
237	0xbe1bf5fa	-0.15230551
238	0x3dff9c41	0.12480975
239	0xbe480cd3	-0.19536142
240	0xbe392250	-0.18079495
241	0x3e222299	0.1583351
242	0xbe26569d	-0.16243978
243	0x3d530e19	0.051527116
244	0x3e1b9d80	0.151968
245	0x3e389f4b	0.18029515
246	0x3d20e944	0.03928496
247	0xbe1cd063	-0.15313868
248	0xbc8ee4a5	-0.01744301
249	0xbd9faa2c	-0.077961296
250	0xbe31645b	-0.17323439
251	0x3e35fb0d	0.1777155
252	0x3da5340d	0.080665685
253	0xbe16bdf8	-0.14720905
254	0x3dd4483c	0.1036534
255	0xbe4b6ed1	-0.19866492

bias f4 [60]
0	0xbc4c8e9d	-0.0124851735
1	0x3cf2aba1	0.029622855
2	0xbd581a3d	-0.052759398
3	0xbc316e39	-0.010829502
4	0xbd84fdac	-0.064936966
5	0xbc8a0602	-0.016848568
6	0xbd53c6f8	-0.051703423
7	0x3d7ba338	0.061434954
8	0x3d80071d	0.06251357
9	0xbbba7649	-0.00569037
10	0xbce8918e	-0.028389718
11	0xbda1e7b7	-0.07905524
12	0x3c20299f	0.009775548
13	0xbd669fed	-0.05630486
14	0xbc60323c	-0.013683852
15	0x3d91c25a	0.07117148
16	0xbba03df6	-0.004890199
17	0xbd55297a	-0.05204151
18	0x3d50649f	0.05087721
19	0xbc79ad06	-0.015239006
20	0xbd20cbe7	-0.039256956
21	0x3d54bdc6	0.051938795
22	0x3cd2068a	0.025637884
23	0x3cd6604d	0.026168967
24	0x3d0ab502	0.03386403
25	0xbd0cefa7	-0.034408238
26	0x3b25bdf1	0.0025290216
27	0xbcebd562	-0.028788272
28	0x3cd8d99a	0.026470948
29	0xbcde61f6	-0.02714632
30	0xbc27029e	-0.010193495
31	0xb8f6ae6c	-0.00011762683
32	0x3ce071ba	0.027397979
33	0xbd8562a0	-0.06512952
34	0xbd0fec17	-0.035137262
35	0xbbd7f0b6	-0.0065899743
36	0x3d2f0ad2	0.04273493
37	0xbc9581f2	-0.01825044
38	0xbba12162	-0.0049173096
39	0xbd1f5927	-0.03890338
40	0xbc7ffb75	-0.015623917
41	0x3cd4a145	0.025955806
42	0x3b5d94e3	0.0033810667
43	0x3c669a59	0.014074885
44	0xbd357245	-0.04429843
45	0x3c36523d	0.011128006
46	0x3d19a763	0.037513148
47	0xbc2b0f42	-0.010440649
48	0xbcae774b	-0.021297118
49	0x3d074f81	0.033034805
50	0x3ce9141c	0.028451972
51	0xbcd8eada	-0.026479173
52	0x3de50f51	0.11184562
53	0x3d391bb5	0.04519244
54	0x3d4b8152	0.049683876
55	0xbb0c3c57	-0.002139827
56	0xbd0d1ee9	-0.034453306
57	0x3dfa4bfc	0.12221524
58	0xbb8afbca	-0.0042414414
59	0xbcd8a5fd	-0.026446337

weight f4 [60, 60]
0	0x3e04cf3b	0.12969677
1	0xbe8f4eb6	-0.2798974
2	0xbcc3f02a	-0.02391823
3	0x3e343aed	0.17600603
4	0x3d918c10	0.07106793
5	0x3e22cfc2	0.15899566
6	0x3d6cc57c	0.057805523
7	0xbe8d3908	-0.27582574
8	0xbd9832a2	-0.074315324
9	0xbe4fde27	-0.20299588
10	0xbe34ae69	-0.17644657
11	0xbc6dafb9	-0.014507228
12	0x3e11894e	0.14212534
13	0x3e007500	0.12544632
14	0x3dca7d1b	0.09887143
15	0xbe3e7893	-0.18600683
16	0xbe3401d6	-0.17578825
17	0xbcefbb76	-0.029264193
18	0xbdc31d00	-0.09527016
19	0xbdd7a06b	-0.10528644
20	0xbe1b080e	-0.15139791
21	0x3d53380e	0.05156713
22	0xbe5466aa	-0.20742288
23	0xbeb10b8f	-0.3457913
24	0xbcd2deb2	-0.025740955
25	0x3e5f03c6	0.21778783
26	0xbd355602	-0.044271477
27	0xbe0432a4	-0.12909943
28	0xbdcae529	-0.0990699
29	0x3cbbb879	0.022915112
30	0x3e1db63b	0.15401547
31	0x3d25f96d	0.040521074
32	0xbd74769b	-0.059683423
33	0x3dadc681	0.08485127
34	0xbdf74815	-0.120742954
35	0xbe4f1413	-0.20222501
36	0xbda0b4f4	-0.07847014
37	0xbe0aa631	-0.1353996
38	0x3c6cc447	0.014451093
39	0x3c8ce191	0.017197402
40	0x3d5d57b8	0.054038733
41	0x3e929e6d	0.28636494
42	0xbe0038b9	-0.12521638
43	0xbd759e46	-0.059965394
44	0x3de287de	0.11061071
45	0xbe352df7	-0.17693315
46	0xbd1a8fe5	-0.037734885
47	0x3d657a41	0.056024794
48	0xbe186c3c	-0.14885038
49	0x3d92dfb4	0.07171574
50	0xbd509924	-0.050927296
51	0xbe074beb	-0.13212554
52	0x3d5aea79	0.053446267
53	0x3d910ff1	0.07083119
54	0x3daf389a	0.08555718
55	0xbdbb8277	-0.091557436
56	0x3e433ca9	0.19066109
57	0x3e1f693b	0.15567486
58	0x3d052f6e	0.032515936
59	0xbdb51135	-0.088411726
60	0x3db1298e	0.08650504
61	0x3e89a29e	0.2688188
62	0x3e1c9282	0.15290263
63	0xbcda18ad	-0.026623094
64	0xbe35ddd9	-0.1776041
65	0x3d0bafea	0.03410331
66	0x3e491aba	0.19639102
67	0xbe3d217f	-0.18469809
68	0xbc5485ba	-0.012971336
69	0x3e592779	0.21206464
70	0x3e61f776	0.22067055
71	0xbe3891d6	-0.18024382
72	0xbdeada29	-0.11467392
73	0xbe31d0c1	-0.1736479
74	0x3dff987a	0.124802545
75	0xbdad945d	-0.08475564
76	0x3c8911e5	0.016732166
77	0x3b510ffb	0.0031900394
78	0x3d67cb55	0.056590397
79	0x3df7c98a	0.120989874
80	0x3e33f2ba	0.17573062
81	0xbd63039f	-0.055423375
82	0x3e421fa2	0.1895738
83	0x3e2e16f4	0.17000943
84	0xbe3c8a40	-0.18412113
85	0xbe4fe27e	-0.20301244
86	0xbd7e3240	-0.06205964
87	0x3e477e86	0.19481859
88	0xbbb56f5e	-0.0055369576
89	0x3cd415da	0.025889326
90	0xbd9522d6	-0.07282035
91	0xbd354dd9	-0.044263694
92	0xbcd4e9a5	-0.025990317
93	0x3d54167d	0.05177926
94	0xbd9325aa	-0.07184918
95	0x3cf6886a	0.030094344
96	0x3e3297c8	0.17440712
97	0xba68f874	-0.000888712
98	0x3c8b9347	0.017038
99	0x3e795061	0.24347068
100	0xbdb1c96b	-0.086809956
101	0xbd75c531	-0.06000251
102	0x3d59a770	0.053138196
103	0x3e2ae313	0.16688184
104	0xbe1cfdb4	-0.15331155
105	0x3dec1fb6	0.11529486
106	0xbe23a1b9	-0.15979661
107	0xbde7a10e	-0.113100156
108	0x3e4cd7ba	0.20004168
109	0x3e3aff05	0.18261345
110	0xbce968d4	-0.028492369
111	0x3d1561c7	0.0364702
112	0x3d76abd5	0.060222466
113	0x3e05270b	0.13003175
114	0x3dd67bda	0.104728416
115	0xbd8134f3	-0.063089274
116	0xbe3aff3d	-0.18261428
117	0xbe4f867a	-0.20266142
118	0xbde087fe	-0.109634385
119	0x3dbb4ec3	0.09145882
120	0x3e0cd024	0.13751274
121	0xbcccf684	-0.025019892
122	0x3e6a7b3a	0.2289857
123	0xbe11c2e9	-0.14234509
124	0x3e2664b6	0.16249356
125	0x3e43edad	0.19133635
126	0x3e473075	0.19452079
127	0xbe42940f	-0.19001792
128	0xbd1164f5	-0.03549667
129	0x3bdfb41b	0.00682689
130	0x3d7bd854	0.061485603
131	0x3e637359	0.2221197
132	0x3e1f98a5	0.15585573
133	0xbe341886	-0.1758748
134	0x3e02ccc3	0.12773423
135	0xbe66f8d8	-0.22555864
136	0xbe3a7362	-0.18208078
137	0xbe19f887	-0.15036212
138	0xbe25a5f7	-0.16176592
139	0xbe567914	-0.20944625
140	0x3e376afd	0.17911907
141	0x3db2d218	0.087314785
142	0xbe1d2a57	-0.15348183
143	0x3e80de2b	0.251695
144	0x3e14e5cb	0.14540784
145	0x3e3b0467	0.18263398
146	0xbe4e5ff2	-0.20153788
147	0x3e24f9f4	0.16110975
148	0x3cbf0cb7	0.023321493
149	0xbe34de13	-0.1766284
150	0x3e4fe66a	0.2030274
151	0x3e436868	0.19082797
152	0xbd3312e0	-0.043719172
153	0x3e28159c	0.16414493
154	0x3d9717e9	0.073776074
155	0x3e27053e	0.16310593
156	0xbd30fc6d	-0.043209482
157	0x3e465da7	0.19371663
158	0x3d7e23d7	0.0620459
159	0x3e596f99	0.21233977
160	0x3d82afdc	0.06381199
161	0xbddcdbb2	-0.10784091
162	0xbe71e0cd	-0.23620911
163	0xbd2a535e	-0.04158341
164	0xbe2b0f91	-0.16705157
165	0xbe71a07e	-0.23596379
166	0x3d877830	0.06614721
167	0x3e86600b	0.2624515
168	0x3cd2f901	0.0257535
169	0xbcb7d38c	-0.02243974
170	0x3d670373	0.056399774
171	0x3e508d4e	0.20366403
172	0xbe552867	-0.20816194
173	0x3e1c4234	0.1525963
174	0xbdf04621	-0.11732126
175	0x3e36b37c	0.17841905
176	0xbe2e8075	-0.1704119
177	0x3cff8b2f	0.031194298
178	0x3d13cc30	0.0360834
179	0x3d84c45b	0.06482764
180	0xbddded3a	-0.10836263
181	0x3e4e9768	0.20174944
182	0xbe434451	-0.1906903
183	0x3ca0e7f9	0.019641863
184	0xbd5ddd4a	-0.054166116
185	0xbe303b9f	-0.17210244
186	0xbe65ae8c	-0.22429866
187	0xbe065f44	-0.13122278
188	0x3e17612a	0.14783159
189	0x3d765b04	0.060145393
190	0xbe0630f1	-0.13104607
191	0xbe79c964	-0.2439323
192	0xbe3ae01f	-0.18249558
193	0x3e3ed12c	0.1863448
194	0x3e434939	0.19070901
195	0xbd3eb10a	-0.046555556
196	0x3de0a165	0.109682836
197	0x3e0ce3a3	0.13758712
198	0xbe3f8fcd	-0.187072
199	0xbe554d5a	-0.20830289
200	0x3dd848d6	0.10560767
201	0x3e2b16c2	0.167079
202	0x3e037efd	0.12841411
203	0xbddbb0e4	-0.107270986
204	0x3dc78123	0.09741428
205	0xbb53687d	-0.0032258325
206	0xbc8e41b9	-0.017365323
207	0xbe8232fe	-0.2542953
208	0x3e351158	0.17682397
209	0xbe4273d1	-0.18989493
210	0xbda594ef	-0.080850475
211	0xbe64f094	-0.22357398
212	0xbd771e19	-0.060331438
213	0xbd1ea74d	-0.03873377
214	0x3df0373d	0.11729286
215	0x3cdc419b	0.026886752
216	0xbd3623f0	-0.044467866
217	0x3d245b5e	0.040126197
218	0xbdd2f3a5	-0.10300378
219	0x3e03fd41	0.12889577
220	0xbe774371	-0.2414682
221	0x3d93bfc7	0.07214313
222	0xbe3da8c3	-0.18521409
223	0xbd0daf95	-0.034591276
224	0xbe59bd7d	-0.2126369
225	0xbe44e79e	-0.1922898
226	0x3e10b84a	0.141328
227	0xbe606253	-0.21912508
228	0x3e715ee0	0.23571348
229	0xbdc65a04	-0.09685138
230	0xbe33b7e7	-0.17550622
231	0xbddea9df	-0.10872244
232	0x3e61a9b6	0.22037396
233	0xbdbe006d	-0.09277425
234	0x3e259121	0.16168644
235	0xbe46dd40	-0.19420338
236	0xbd603b8f	-0.0547443
237	0x3e83a4ea	0.25711757
238	0xbd7b75c3	-0.061391603
239	0x3e150edd	0.14556451
240	0xbb9c6004	-0.004772188
241	0x3e5f4543	0.21803765
242	0x3cb3b806	0.021938335
243	0xbb53cd3c	-0.0032318374
244	0x3dc24d39	0.09487385
245	0x3c6020b1	0.013679669
246	0x3c6aca1b	0.014330412
247	0x3ce5dcba	0.028059352
248	0xbe116e02	-0.14202121
249	0x3d97e670	0.07416999
250	0x3e859de3	0.2609702
251	0xbdd4e507	-0.10395246
252	0xbe4fa57d	-0.20277973
253	0x3e22b851	0.15890624
254	0x3d8957fa	0.06706233
255	0x3d1e2ab5	0.038614947

bias f4 [60]
0	0x3ad157dc	0.0015971619
1	0x3c30ba1a	0.010786558
2	0xbd13f93d	-0.036126364
3	0xb9b73d11	-0.00034949978
4	0x3bce65e7	0.006298769
5	0x3d10211e	0.035187833
6	0x3d213a98	0.03936252
7	0xbc77109d	-0.0150796445
8	0x3c7a045b	0.0152598275
9	0x3d0bca3d	0.034128416
10	0xbccab634	-0.024745084
11	0xbca3a8a7	-0.01997788
12	0x3cf7d14d	0.03025117
13	0xbcafbda5	-0.021452734
14	0x3b0d510b	0.0021563198
15	0xbb8a4a3f	-0.0042202766
16	0x3cd96efa	0.026542176
17	0xbd0816c7	-0.033224847
18	0xbbabc453	-0.0052419095
19	0x3cd11edf	0.025527416
20	0xbd4abf10	-0.049498618
21	0xbb8bdfca	-0.004268621
22	0xbd2287cc	-0.039680287
23	0xbbcb0b34	-0.006196404
24	0x3ccbe4ea	0.024889428
25	0xbcb3a6e5	-0.021930167
26	0x3d085faa	0.033294357
27	0x3ce28a01	0.027653696
28	0x3cdafb75	0.026731232
29	0xbdc8f3a3	-0.09812095
30	0x3df72885	0.12068275
31	0xbbb5514c	-0.005533373
32	0xbd4d69c0	-0.05014968
33	0x3ccd160a	0.025034923
34	0xbc95dd68	-0.018294051
35	0xbd375a6b	-0.044763964
36	0xbd2a972f	-0.041648086
37	0xbc54ca29	-0.012987652
38	0xbd4fa0c0	-0.050690413
39	0x3ac91645	0.001534172
40	0xbc2935ee	-0.010327799
41	0xbca8b818	-0.020595595
42	0xbc06f6dd	-0.008237568
43	0x3c1ec2ca	0.009689996
44	0xbd2834ee	-0.041066103
45	0x3d1ffa4a	0.039057054
46	0xbd9619c8	-0.07329136
47	0xbd147a68	-0.03624955
48	0x3d68d387	0.056842353
49	0xbb5a5f87	-0.00333211
50	0xbc825328	-0.015908793
51	0x38f01c89	0.00011449407
52	0x3cb45c3a	0.022016633
53	0xbd0cf229	-0.03441063
54	0x3d731e60	0.05935514
55	0xbd3da345	-0.046298284
56	0x3d12a55e	0.035802238
57	0xbca2e488	-0.019884363
58	0xbdd6fd1c	-0.104974955
59	0xbba9f955	-0.0051871934

weight f4 [60, 60]
0	0xbe862321	-0.26198676
1	0x3e7204f6	0.23634705
2	0x3ce3fbbe	0.027830001
3	0xbdd1dbc9	-0.10246999
4	0xbdec570a	-0.11540039
5	0xbdf45459	-0.119301505
6	0xbdf8cf2a	-0.121488884
7	0x3e7ee413	0.24891691
8	0x3d37ce45	0.04487445
9	0xbe098a79	-0.1343173
10	0xbe82feb4	-0.25584948
11	0xbe1744d0	-0.14772344
12	0xbe3e6e38	-0.18596733
13	0xbd86fd06	-0.06591229
14	0xbe355114	-0.1770671
15	0xbd4554ab	-0.04817645
16	0xbd94927c	-0.07254502
17	0x3c28c522	0.010300906
18	0xbd642fda	-0.055709697
19	0x3df0113d	0.11722038
20	0xbdb15c41	-0.08660174
21	0x3ca55cb8	0.020185813
22	0xbe24538a	-0.16047493
23	0xbd65291f	-0.05594742
24	0x3e52bbeb	0.20579498
25	0x3e104a47	0.14090835
26	0xbc6de8a2	-0.014520796
27	0xbdbaa7c3	-0.09114029
28	0x3e67fd10	0.2265513
29	0xbe0f5541	-0.13997366
30	0xbd390111	-0.045167033
31	0xbd64d15c	-0.055863723
32	0x3c73b3fc	0.014874455
33	0x3b67859f	0.0035327447
34	0xbe028185	-0.1274472
35	0xbe0f8e80	-0.14019203
36	0xbcc85ed3	-0.024459278
37	0x3dec4154	0.11535898
38	0xbce9d08c	-0.028541826
39	0x3e3a1969	0.18173756
40	0xbe55bbfa	-0.20872489
41	0x3de5324d	0.11191235
42	0xbbc472f8	-0.0059951507
43	0x3e24597c	0.1604976
44	0xbe1e973e	-0.15487382
45	0x3e0cad9a	0.13738099
46	0xbd7cec9e	-0.061749093
47	0x3e28ca7a	0.16483489
48	0x3e43a687	0.19106494
49	0x3dd11423	0.10208919
50	0x3c2c0007	0.010498053
51	0xbd2b1b6e	-0.041774206
52	0xbd10dec9	-0.035368714
53	0xbdea0a04	-0.114276916
54	0x3dd72a01	0.105060585
55	0x3e1dad5a	0.1539816
56	0xbe296ffe	-0.16546628
57	0xbd80c13d	-0.06286857
58	0x3c7a1020	0.015262634
59	0x3dcf0eb2	0.10110225
60	0x3e8a0cdb	0.26962933
61	0xbe22be20	-0.1589284
62	0xbdb25d0a	-0.08709152
63	0xbe0fbe3d	-0.14037414
64	0x3d863a03	0.065540336
65	0x3df7b225	0.12094525
66	0xbe2fc085	-0.17163284
67	0xbb9ab703	-0.0047215237
68	0xbe27fad4	-0.16404277
69	0xbd2e40b5	-0.04254218
70	0x3e218f00	0.15777206
71	0x3cb956aa	0.022624332
72	0x3e41514a	0.18878666
73	0xbe1c23b5	-0.15247996
74	0x3de20f9e	0.11038135
75	0x3ca23a20	0.019803107
76	0xbdb08711	-0.08619512
77	0x3e48d8aa	0.19613901
78	0xbdfccabe	-0.123433575
79	0xbe3f4bee	-0.18681309
80	0x3df93564	0.121683866
81	0xbdd8f4aa	-0.10593541
82	0xbe09cfba	-0.13458148
83	0x3e3b9f8b	0.1832258
84	0xbc92af95	-0.01790599
85	0xbd70437f	-0.05865812
86	0xbe66e328	-0.2254759
87	0xbb99b4bf	-0.004690736
88	0xbd378250	-0.04480201
89	0xbe4e759d	-0.20162053
90	0x3d943967	0.07237511
91	0xbe5d2fd6	-0.21600279
92	0xbdc0c7ad	-0.09413085
93	0x3d9835bf	0.07432126
94	0x3e6b00a7	0.22949468
95	0xbbf2e297	-0.0074122655
96	0x3e46781a	0.19381753
97	0xbe0189e3	-0.12650256
98	0x3e5c0f46	0.21490201
99	0xbd92c2e4	-0.07166079
100	0x3e5d5124	0.21612984
101	0x3cbbae14	0.022910155
102	0xbd77d34a	-0.060504235
103	0xbdc0f31d	-0.0942137
104	0x3d3293a3	0.04359783
105	0xbe74cfac	-0.23907346
106	0x3e420b1a	0.18949547
107	0xbe5672d2	-0.20942238
108	0xbe1384e3	-0.14406161
109	0xbc47c10d	-0.012192023
110	0xbbe33b6d	-0.0069345743
111	0xbd4fe8e1	-0.0507592
112	0xbdbb6238	-0.09149593
113	0x3e642c99	0.22282638
114	0xbe485b4a	-0.19566074
115	0xbd956dec	-0.072963566
116	0x3cdc5941	0.026898028
117	0x3e34850d	0.1762888
118	0xbdf887de	-0.121352896
119	0xbd3fb10d	-0.04679971
120	0x3df959f2	0.12175359
121	0xbe8aa4cd	-0.27078858
122	0x3e5df1f6	0.21674332
123	0xbdc1829f	-0.09448742
124	0xbe5656d5	-0.20931561
125	0xbe135433	-0.14387588
126	0x3d93774e	0.0720049
127	0x3c9d4b71	0.019201012
128	0xbd1d9c69	-0.038479242
129	0x3e09416e	0.13403866
130	0x3e42122a	0.18952242
131	0xbdb9bfea	-0.09069808
132	0xbd82fe59	-0.06396169
133	0xbcee93ff	-0.029123304
134	0xbd50c0e7	-0.050965216
135	0xbe04acc3	-0.12956528
136	0xbe112771	-0.14175202
137	0xbb12999e	-0.0022369395
138	0xbe22a7ef	-0.15884374
139	0x3d916dad	0.07100997
140	0x3e6443b2	0.22291449
141	0xbe62c6c5	-0.22146137
142	0x3e7517b5	0.23934825
143	0x3de6ade1	0.112636335
144	0xbdc5ab75	-0.096518435
145	0x3e877be8	0.2646172
146	0x3e2e5d75	0.17027839
147	0x3d95e1b0	0.07318437
148	0x3d80e1ab	0.06293043
149	0xbd877388	-0.06613833
150	0xbdf2a428	-0.118477166
151	0xbdfd7ea2	-0.12377669
152	0xbe126d77	-0.1429957
153	0x3e078271	0.13233353
154	0x3e2a4804	0.16629034
155	0x3d33deca	0.04391364
156	0x3b0e1602	0.0021680598
157	0xbda2e4e5	-0.079538144
158	0x3d0b5a84	0.03402187
159	0xbe011768	-0.12606585
160	0xbdda6233	-0.10663261
161	0x3ded0595	0.1157333
162	0xbdf312b2	-0.118688
163	0xbe535b98	-0.20640409
164	0xbd85608b	-0.06512555
165	0xbbda6d07	-0.006665829
166	0x3e263e70	0.16234756
167	0xbe086a09	-0.13321699
168	0x3ba205e8	0.0049445517
169	0x3e1eff3d	0.15527053
170	0x3e152b50	0.14567304
171	0xbe4419bc	-0.19150442
172	0x3d602d43	0.054730665
173	0xbe055420	-0.13020372
174	0xbe228767	-0.15871964
175	0x3d6445ac	0.055730507
176	0xbd938545	-0.072031535
177	0x3e83f564	0.25773156
178	0x3e384220	0.17993975
179	0x3de3edce	0.11129342
180	0xbe25f1a2	-0.16205457
181	0xbe62f672	-0.22164324
182	0x3d1bf8bf	0.03807902
183	0xbe62e89b	-0.22159044
184	0xbe69f982	-0.22849086
185	0x3e241507	0.16023646
186	0xbe0bad10	-0.13640237
187	0x3e184cd3	0.14873056
188	0x3ca5d4a4	0.020242997
189	0x3de1e909	0.11030776
190	0xbe0312a3	-0.12800078
191	0xbdf4019d	-0.1191437
192	0xbe28dc19	-0.1649021
193	0xbe650389	-0.2236463
194	0xbd7006c3	-0.0586002
195	0x3dddf61c	0.10837957
196	0xbe4e308e	-0.2013571
197	0xbe5bc007	-0.21459971
198	0x3de07477	0.10959714
199	0x3c5287b9	0.012849742
200	0x3e12501d	0.14288373
201	0xbdbc3fca	-0.09191854
202	0x3e00557e	0.12532613
203	0x3da5a862	0.08088757
204	0x3d8caa5f	0.06868433
205	0x3d2abb9e	0.041682832
206	0x3e6609e3	0.22464709
207	0x3e540a98	0.20707166
208	0x3d4264d4	0.04745944
209	0xbe786a29	-0.24259247
210	0x3dae4a8a	0.08510311
211	0xbe2eebd4	-0.17082149
212	0x3c443a1a	0.011976743
213	0xbd96c00f	-0.07360851
214	0xbe4160ea	-0.18884626
215	0xbe274a9d	-0.16337056
216	0x3e69e989	0.22842993
217	0xbccfcd9b	-0.025366595
218	0x3e02f8d2	0.1279023
219	0xbd6a8863	-0.057258975
220	0x3da4a6dd	0.08039639
221	0x3de3c151	0.111208566
222	0xbe21991e	-0.15781066
223	0x3e6bb7bc	0.23019308
224	0x3e2407f5	0.1601866
225	0xbe213e2f	-0.15746377
226	0xbe227748	-0.15865815
227	0xbdbf58ba	-0.09343095
228	0xbe0b77e5	-0.13619955
229	0x3e37b88c	0.17941493
230	0xbdd10174	-0.10205355
231	0xbe194896	-0.14969096
232	0x3d73188a	0.059349574
233	0xbde0d4c4	-0.10978082
234	0x3da5a807	0.08088689
235	0x3e571c70	0.21006942
236	0x3d8785a1	0.066172846
237	0x3e32bcd5	0.17454846
238	0xbcf293e6	-0.02961154
239	0x3e32be56	0.1745542
240	0x3d9623f1	0.07331074
241	0x3e845cf5	0.2585217
242	0x3e32c365	0.1745735
243	0xbdbf2729	-0.09333641
244	0x3e81d0af	0.25354525
245	0x3d96309f	0.073334925
246	0xbd011659	-0.031515453
247	0x3e770be4	0.2412563
248	0x3df545e6	0.11976223
249	0xbe6a864a	-0.2290279
250	0xbe9d9796	-0.30779713
251	0x3d1562ed	0.036471296
252	0xbd8a8360	-0.06763339
253	0xbde8676c	-0.11347851
254	0x3da5a378	0.0808782
255	0xbe1b9020	-0.15191698

bias f4 [60]
0	0xbb8286d5	-0.0039833584
1	0xbd648e75	-0.05579992
2	0xbbcf3013	-0.0063228696
3	0x3d09a3a2	0.033603318
4	0x3c9e6113	0.019333398
5	0x3ca7b0ff	0.02047014
6	0xbd1b3acd	-0.037897874
7	0x3d9050c6	0.07046656
8	0xbd1c2454	-0.038120583
9	0x3db24011	0.08703626
10	0x3d44d063	0.048050296
11	0xbd0dd93c	-0.034631
12	0xbcbe3800	-0.023220062
13	0xbc4e6a00	-0.012598515
14	0x3d458ae6	0.048228167
15	0xbc41fc6e	-0.011839969
16	0xbd1c7795	-0.03819998
17	0xbd4283f2	-0.047489114
18	0x3a0a3a9d	0.0005273016
19	0xbc3dd69b	-0.01158681
20	0x3b6df3af	0.0036308577
21	0x3cf1e437	0.029527767
22	0xbcfa5c12	-0.03056148
23	0x3cf461f1	0.029831858
24	0xbc10bb6f	-0.00883375
25	0x3da73613	0.08164611
26	0x3d26c052	0.040710755
27	0x3b5f1d29	0.003404448
28	0x3c266b29	0.010157385
29	0x3c01dd7e	0.007926343
30	0x3ba2553e	0.0049540093
31	0x3b617152	0.003439982
32	0xbbac3a70	-0.0052559897
33	0x3bffee80	0.007810414
34	0x3d2686d8	0.04065594
35	0x3a86cc4f	0.0010284277
36	0x3d439ba6	0.04775586
37	0x3c1b56b0	0.009481117
38	0x3abdc397	0.0014477846
39	0xbd43e424	-0.047824994
40	0xbd32c9dd	-0.043649543
41	0xbd22fed6	-0.03979381
42	0x3ca3ee44	0.020011075
43	0x3c1c31f6	0.009533396
44	0x3d634a5f	0.055490848
45	0xbcac71ff	-0.021050451
46	0xbc4f7fa2	-0.012664707
47	0x3c842312	0.016130004
48	0x3cebb738	0.028773889
49	0xbd548ea8	-0.05189386
50	0xbd34a762	-0.04410494
51	0x3d0e112c	0.034684345
52	0x3cfb5b8c	0.030683301
53	0x3d12073a	0.035651423
54	0xbd25ff44	-0.040526643
55	0x3d175072	0.036941953
56	0x3d09113e	0.03346371
57	0x3d5aa33a	0.05337832
58	0x3d0184bd	0.03162073
59	0x3cdf1223	0.027230328

weight f4 [60, 60]
0	0x3e16c28e	0.14722654
1	0x3e0f5744	0.13998133
2	0x3e0cefeb	0.13763396
3	0x3de924cc	0.113839716
4	0xbd3cbf52	-0.046080895
5	0xbdc8d35f	-0.09805941
6	0xbe820b4c	-0.25399244
7	0xbdd47a06	-0.103748366
8	0xbe235768	-0.15951312
9	0xbc87064f	-0.0164825
10	0x3d2910b0	0.04127568
11	0xbd4f459b	-0.05060349
12	0xbe2651c6	-0.16242132
13	0xbd79d96a	-0.060998358
14	0x3e4e6faf	0.20159791
15	0x3d30c439	0.043155883
16	0x3e3c5282	0.18390849
17	0xbd611ff1	-0.054962102
18	0xbe336ef7	-0.17522798
19	0xbe683666	-0.22677001
20	0xbd963d79	-0.07335944
21	0x3e16435a	0.1467413
22	0xbdc88406	-0.097908065
23	0xbe3d3250	-0.18476224
24	0x3e08b9c9	0.13352121
25	0x3de545c8	0.1119495
26	0x3bbe98c3	0.0058165505
27	0xbd40acd2	-0.047039814
28	0xbe5b0fac	-0.21392697
29	0xbe78b542	-0.24287894
30	0x3e78e2a3	0.24305205
31	0xbe1e2ffb	-0.1544799
32	0xbe6b3343	-0.22968774
33	0xbddc867d	-0.10767839
34	0xbe416285	-0.18885238
35	0x3c161d4c	0.009162258
36	0xbd1138de	-0.035454623
37	0x3db3f827	0.08787566
38	0xbe0698b6	-0.13144192
39	0xbd2e9864	-0.0426258
40	0xbe6f1072	-0.23346117
41	0x3dffdcec	0.124933094
42	0x3e465580	0.19368553
43	0x3e14013b	0.14453594
44	0x3c41113f	0.011783897
45	0x3dd42890	0.10359299
46	0x3e0c7de5	0.137199
47	0xbe031588	-0.12801182
48	0x3e32739b	0.17426912
49	0xbcfeb011	-0.031089814
50	0x3e20fc53	0.15721254
51	0xbcaef5f7	-0.02135752
52	0x3d42efa2	0.047591813
53	0x3e451e71	0.19249894
54	0x3d945096	0.07241933
55	0xbe581a78	-0.21103847
56	0x3ccc280e	0.024921443
57	0xbe67562a	-0.22591463
58	0x3e5f8c12	0.21830776
59	0x3e24b700	0.16085434
60	0xbdf6738b	-0.12033757
61	0x3ca31292	0.019906316
62	0xbe0dab88	-0.13834965
63	0xbe48983d	-0.19589324
64	0x3e465c31	0.19371106
65	0xbdf3fbef	-0.11913287
66	0x3d3e7b94	0.046504572
67	0xbe73a68a	-0.23793998
68	0x3d31ac1e	0.043377034
69	0xbdffb39d	-0.124854304
70	0xbe2c5dbc	-0.16832632
71	0xbdc79635	-0.097454466
72	0xbe570167	-0.20996629
73	0xbe086bfc	-0.13322443
74	0x3e29f578	0.16597545
75	0xbd798bff	-0.060924526
76	0x3d52cd96	0.051465593
77	0x3ea7f739	0.32805803
78	0x3db7ec7d	0.089806534
79	0xbe3d2272	-0.18470171
80	0x3e0f5c51	0.1400006
81	0xbe2b8774	-0.1675089
82	0x3dfd28eb	0.1236132
83	0xbc8cef64	-0.017203994
84	0x3ca88d25	0.020575115
85	0xbe4eefcb	-0.20208661
86	0x3ddb8200	0.10718155
87	0xbdc11e20	-0.09429574
88	0x3e4a6896	0.19766459
89	0xbdf9fc4e	-0.122063264
90	0x3e01e9cd	0.12686844
91	0xbe569965	-0.20956953
92	0xbdc8a7cd	-0.097976305
93	0x3e1994fb	0.14998238
94	0x3dd91428	0.105995476
95	0xbd92c375	-0.07166187
96	0x3984d4aa	0.0002533545
97	0x3e26264c	0.16225547
98	0xbe115b92	-0.14195088
99	0x3e05f9ab	0.13083522
100	0xbc3cc054	-0.011520464
101	0xbcd6461c	-0.026156478
102	0x3df55c34	0.11980477
103	0x3e27a70f	0.16372322
104	0xbe09db2a	-0.1346251
105	0xbda12b00	-0.0786953
106	0x3cd93d6f	0.026518552
107	0xbdf05626	-0.117351815
108	0xbdc1deed	-0.09466348
109	0x3e32d3c4	0.17463595
110	0xbe367790	-0.17819047
111	0xbe2fb06e	-0.17157146
112	0xbe0ddd4f	-0.13853954
113	0xbe17c91b	-0.1482281
114	0x3ac699a1	0.0015151986
115	0xbcb02288	-0.02150084
116	0x3e2d7fc6	0.16943273
117	0xbd63bb3a	-0.055598475
118	0x3dc7a936	0.09749071
119	0x3d5a3e0f	0.05328184
120	0xbd56fbf2	-0.052486368
121	0x3e2bc355	0.16773732
122	0xbd79bba7	-0.060969975
123	0x3dda0f9e	0.1064751
124	0xbe79c14d	-0.24390145
125	0xbe7bdbe5	-0.24595602
126	0x3e004f62	0.12530282
127	0x3df26472	0.11835565
128	0x3d730636	0.059332095
129	0xbdc5bcb2	-0.096551314
130	0xbe3a2105	-0.18176658
131	0x3e3fa2f4	0.18714505
132	0xbe4e43d7	-0.20143066
133	0x3e10ba82	0.14133647
134	0x3de26319	0.11054058
135	0x3e6db0d4	0.23211986
136	0x3e86c3ba	0.26321203
137	0x3e01b56f	0.12666868
138	0xbe37aabf	-0.17936228
139	0xbdf0cf6d	-0.11758313
140	0xbd82e734	-0.06391755
141	0x3dcd5eee	0.10027872
142	0x3de06a23	0.10957744
143	0x3e53a6e9	0.2066914
144	0xbe31c6be	-0.1736097
145	0x3c892688	0.016742006
146	0x3df493bf	0.11942243
147	0x3e48831b	0.19581263
148	0x3de5fe35	0.11230127
149	0xbe3f20bb	-0.1866483
150	0xbe7088e9	-0.23489727
151	0x3c035f13	0.008018273
152	0x3cf0b3c8	0.029382601
153	0x3dbec3a9	0.09314663
154	0xbda7fca4	-0.08202484
155	0xbe3623bb	-0.17787068
156	0x3dc0f021	0.09420801
157	0xbe06774e	-0.13131449
158	0x3d912266	0.07086639
159	0x3e06ad9b	0.13152163
160	0x3e34bbdb	0.17649786
161	0xbe10fc68	-0.14158785
162	0x3db15f93	0.086608075
163	0xbdce3b8e	-0.10069953
164	0x3d89b5b6	0.06724112
165	0xbdddc111	-0.1082784
166	0x3c579633	0.013158369
167	0x3e23080a	0.15921035
168	0xbe177be3	-0.14793353
169	0x3dcd580b	0.100265585
170	0x3be9beb8	0.007133331
171	0xba0553ee	-0.0005086054
172	0x3deb1089	0.11477763
173	0x3ca5c883	0.020237213
174	0xbda4f11c	-0.080538005
175	0xbda37787	-0.079817824
176	0xbe924a1c	-0.28572166
177	0xbd3fdfe0	-0.046844363
178	0xbc603c96	-0.01368632
179	0x3e58fe14	0.21190673
180	0x3c937024	0.017997809
181	0xbe288613	-0.16457395
182	0x3c8b44d6	0.017000597
183	0x3e6da283	0.23206525
184	0xbcce6d02	-0.025198463
185	0xbe18e2eb	-0.14930312
186	0x3e3c404d	0.18383904
187	0x3e285c9f	0.16441582
188	0xbd50ecd2	-0.0510071
189	0xbe4f877f	-0.20266531
190	0x3e41e07e	0.18933293
191	0x3e4c6fe7	0.19964562
192	0x3e311375	0.17292579
193	0x3db51a9d	0.08842967
194	0x3e5357c5	0.2063895
195	0x3d39e7a5	0.04538693
196	0xbe147d53	-0.14500932
197	0xbd97d525	-0.07413701
198	0xbdfb40af	-0.12268197
199	0xbe11efdd	-0.14251657
200	0x3e026c10	0.12736535
201	0xbde095f6	-0.10966103
202	0xbd55104f	-0.052017506
203	0x3e2d40ea	0.16919294
204	0xbd5ae3f0	-0.053440034
205	0xbcc2f484	-0.023798235
206	0xbc8de6c5	-0.017321954
207	0xbd9b9b3b	-0.07597967
208	0xbde3ce02	-0.11123277
209	0xbe41adc0	-0.18913937
210	0x3d244e03	0.04011346
211	0x3dc8512a	0.09781106
212	0xbcbbab98	-0.02290897
213	0x3e40b9ce	0.18820879
214	0x3d86fda8	0.0659135
215	0xbda72b72	-0.081625834
216	0x3da73e3a	0.08166166
217	0x3d06fa1c	0.032953367
218	0x3dd5c8d7	0.10438698
219	0xbe1f3e5d	-0.15551133
220	0x3d4af337	0.049548354
221	0xbd39e65d	-0.045385707
222	0xbe1d10a1	-0.15338375
223	0x3dd40933	0.10353317
224	0xbd774e7e	-0.06037759
225	0x3e3754a4	0.17903382
226	0xbe140110	-0.1445353
227	0x3ce91469	0.028452115
228	0x3b81f135	0.0039655217
229	0xbe33bd54	-0.17552692
230	0x3e5017f7	0.20321642
231	0xbcf45cf9	-0.029829489
232	0xbdc47d4d	-0.09594212
233	0x3e1ae3d4	0.15125972
234	0xbd3d2ba5	-0.0461842
235	0xbe6438bb	-0.22287266
236	0xbccd4868	-0.02505894
237	0xbe140651	-0.14455535
238	0xbd87179b	-0.06596299
239	0x3e0162e0	0.12635374
240	0x3d68df38	0.056853503
241	0xbcc800b4	-0.024414398
242	0xbdaf4bd5	-0.08559386
243	0x3e5d27da	0.21597233
244	0x3dfb9959	0.12285108
245	0x3dd17a74	0.10228434
246	0xbe011551	-0.12605788
247	0xbe1e0aaa	-0.15433756
248	0x3db302b9	0.08740754
249	0xbe405902	-0.18783954
250	0xbe922b51	-0.28548673
251	0xbd2f96fb	-0.042868596
252	0xbe266175	-0.16248114
253	0x3d16aa7c	0.03678368
254	0xbd9b9057	-0.0759589
255	0x3d54a97e	0.051919453

bias f4 [60]
0	0x3c6efafc	0.0145862065
1	0xbd55a738	-0.052161425
2	0x3c16bfd8	0.009201013
3	0x3c9f0a27	0.01941402
4	0xbd89c0bd	-0.06726215
5	0x3a02dccc	0.0004992008
6	0x3cefcbfa	0.029272068
7	0xbc918599	-0.0177639
8	0xbd1d09e4	-0.03833951
9	0x3d4ba8ec	0.049721643
10	0xbd4e9786	-0.050437473
11	0xbc53055c	-0.012879696
12	0x3cb36b50	0.021901757
13	0x3d634f82	0.055495746
14	0xbcfb98ef	-0.030712573
15	0xbcdb8799	-0.026798056
16	0x3d3f067a	0.046637036
17	0xbd89ede1	-0.06734825
18	0xbd0178a0	-0.031609178
19	0xbd3d4059	-0.046203945
20	0xbb239869	-0.002496267
21	0xbd42bcc7	-0.047543313
22	0xbcd37ed5	-0.025817314
23	0x3c9eaa8d	0.019368434
24	0x3cdd9b2d	0.027051533
25	0x3b62d914	0.0034614252
26	0xbb5e9945	-0.0033965867
27	0x3cf9caab	0.030492147
28	0xbd1bcd2a	-0.038037457
29	0xbc9df995	-0.019284049
30	0x3cecc160	0.028900802
31	0xbd3972d4	-0.045275524
32	0x3d200c8c	0.039074466
33	0x3d06e8c4	0.032936826
34	0xbcd214dc	-0.025644712
35	0xbb5efd6d	-0.0034025565
36	0xbcfeaef8	-0.031089291
37	0x3c97338e	0.0184572
38	0x3d750f94	0.05982931
39	0xbd5d1a05	-0.053979892
40	0xbc458c7f	-0.012057423
41	0xbcaa2cc6	-0.020773303
42	0x3cff8e8d	0.031195903
43	0xbc84298c	-0.016133092
44	0xbc3da6fc	-0.011575457
45	0x3ce50445	0.027956137
46	0xbb16aa11	-0.002298955
47	0xbbfbd551	-0.0076853414
48	0x3d0c7060	0.034286857
49	0xbd1b8138	-0.03796503
50	0xbc6ec35c	-0.0145729445
51	0xba73b457	-0.0009296587
52	0xbd037aa1	-0.03209937
53	0xbce59e88	-0.028029695
54	0x3ca3bfc2	0.019988898
55	0x3d2d9fe2	0.042388804
56	0xbd4edecf	-0.050505456
57	0xbd0a4344	-0.033755556
58	0xbc535df1	-0.012900815
59	0xbbfac4c4	-0.007652851
