Kovasznay/best_net_with_improved(adaptive sampling).pth (torch, 334613 bytes, 20 tensors)

weight f4 [100, 2]
000000 f6 a1 13 be 96 c2 83 3c 60 76 50 bd 7d 5e 85 be
       -0.14417252 0.016083997 -0.05089414 -0.2604865
000010 9e 8e 68 3e 42 25 7e 3d 10 b8 5c 3e 76 20 0b be
       0.22710654 0.06204725 0.2155459 -0.13586602
000020 80 e9 29 be a8 99 29 be ab 7e f2 3d ef d7 39 3e
       -0.1659298 -0.16562521 0.11840566 0.18148778
000030 7d 53 94 3c ad 20 0c be f3 df 12 3e 19 6b a3 bd
       0.018106217 -0.1368434 0.14343242 -0.07979412
000040 ba 45 ac 3d fe 8f 72 bd dd 0f b3 3d b1 62 7a be
       0.08411737 -0.059219353 0.0874326 -0.2445171
000050 93 8e 9e bc 1c 1e e4 bd b4 49 06 bd 16 aa 93 be
       -0.019355094 -0.111385554 -0.032785133 -0.28840703
000060 b2 98 46 be a6 0b 9a 3e 2e 86 f9 bd 49 b1 01 3e
       -0.19394186 0.30087012 -0.12183796 0.12665285
000070 6d b3 3b 3e b8 a0 db bd 78 68 4b 3e ed 00 91 3d
       0.18330164 -0.10724014 0.1986407 0.07080255
000080 6c c3 ad 3d f6 db ba bd 28 81 c2 3d af 5f 1c be
       0.084845394 -0.091239855 0.09497291 -0.15270875
000090 e6 62 cc 3d ac b1 9b be c0 34 e8 3c ff 83 a1 bd
       0.09979801 -0.3040899 0.028345466 -0.078865044
0000a0 53 78 0e be f1 7a a5 3d ae 3e 1d 3e 3a 98 42 38
       -0.13913088 0.0808009 0.15355942 4.6394976e-05
0000b0 bb 6a 74 3d ea c8 35 be 37 66 b6 bd e5 aa 4d 3d
       0.0596721 -0.17752424 -0.08906215 0.050211806
0000c0 4b c6 68 bd 5a 37 44 bd 22 e8 26 bd a8 57 3b be
       -0.056829732 -0.04790435 -0.040748723 -0.18295157
0000d0 a2 7a 2f be bc d6 20 bd b9 44 95 bd a1 05 01 bd
       -0.17136624 -0.039267287 -0.072884984 -0.03149951
0000e0 f1 a5 5b 3e c0 6b c0 3d 06 fb fc bd bd 8c a8 3d
       0.2145002 0.09395552 -0.123525664 0.08229969
0000f0 f9 55 69 3d ac 10 67 be 29 b4 5e bd da bd f1 bd
       0.056966756 -0.22564954 -0.054371033 -0.118037894
000100 e1 ed e1 bb 99 90 e5 bc 57 6f 00 be 5b d7 a0 bd
       -0.0068948125 -0.028023051 -0.12542473 -0.07853576
000110 a1 06 1b be 42 62 2f be 42 62 fd 3b ac a5 ff 3d
       -0.15139247 -0.17127326 0.0077326605 0.12482771
000120 5c 91 37 3e c5 38 a3 3c 01 45 f3 3d 42 7e 68 3c
       0.17926544 0.01992453 0.11878396 0.014190258
000130 a6 94 5b be 71 39 5f 3e 36 73 11 3d b0 31 8d 3e
       -0.21443424 0.21799256 0.035510264 0.2757697
000140 93 ac 4e be 42 6e 02 3e 6c 4a 34 3e 5f 3f 57 be
       -0.2018302 0.12737373 0.17606515 -0.21020268
000150 f3 c3 cc bd df 71 ae 3c 76 6d 3e be 16 79 14 3e
       -0.09998312 0.021294532 -0.18596444 0.14499316
000160 83 cb e6 bd 0c a1 88 be 70 5c 55 3e ae 93 8a be
       -0.112692855 -0.2668537 0.20836043 -0.27065796
000170 95 9e dc 3d d4 e0 2a be 1b 15 10 be 64 02 89 be
       0.107724346 -0.16687328 -0.14070551 -0.26759636
000180 bc 02 49 3e b0 e2 1c be 9e 39 f0 3d 78 52 a6 3d
       0.1962995 -0.1532085 0.117297396 0.081211984
000190 cd 7b 24 3d ee 9a 86 bd 37 69 6b be 2a 8e 76 3e
       0.040157128 -0.06572519 -0.22989355 0.24077669
0001a0 97 98 2e be 9a 61 bd bd e2 ff 2b be ba 62 2b 3e
       -0.17050396 -0.09247132 -0.1679683 0.1673688
0001b0 7d 27 a1 3c f4 33 84 3d 79 a4 35 3e 8b 5f 50 be
       0.01967215 0.06455222 0.17738523 -0.20348947
0001c0 cd 51 66 3e ff 65 6d 3e 7a 41 45 be 58 2b 8a 3d
       0.22492142 0.2318344 -0.19263259 0.067465484
0001d0 4a e7 29 3e a6 d1 0d bd f8 cb fe 3d 8f 28 e1 bc
       0.16592136 -0.034623764 0.12441248 -0.02748516
0001e0 c5 92 4f 3e 10 c9 15 3e b6 8f 45 be 18 b9 4c 3e
       0.20270832 0.1462748 -0.19293103 0.19992483
0001f0 7e 8c cc bd 16 d3 89 3e 2e d5 80 bc 1c 5d 26 3c
       -0.09987734 0.26918858 -0.015726652 0.010154035
000200 1c 4e ab bd ad 7a a7 bd 73 0c 18 be 42 6b 93 3d
       -0.083645076 -0.081776954 -0.14848499 0.07198192
000210 2c 73 93 3d b6 72 4a 3e f0 13 f8 bd eb 30 ff 3d
       0.07199702 0.19770321 -0.12113178 0.12460502
000220 07 9e aa bd 4c be 28 be b8 8c 38 bd 63 2e 76 be
       -0.083309226 -0.16478842 -0.045056075 -0.24041133
000230 06 db 0c be 9d e2 a2 3e ac ee a0 3d 5b 36 be bc
       -0.13755426 0.31813517 0.07858023 -0.023219278
000240 45 33 24 be 7d c1 e6 bd 24 95 62 3c d3 92 98 be
       -0.16035183 -0.11267374 0.013829503 -0.29799518
000250 85 f5 1c be 86 7c 22 3e fa f4 15 3d eb 44 cf bd
       -0.15328033 0.15867814 0.03661058 -0.10120567
000260 85 7f 28 be 55 5b b2 be 1f 94 bb bc 17 a0 2a be
       -0.16454895 -0.34835306 -0.022897778 -0.16662632
000270 43 ac 1d 3d ac 44 1b 3e 35 ba df bd c7 b2 03 be
       0.03849436 0.15162915 -0.10924188 -0.12861167
000280 36 ba c0 bd 2a da 7f 3e 66 86 0b be d4 2b 0f 3e
       -0.09410517 0.24985567 -0.13625488 0.13981563
000290 75 32 3d be ae 44 2d 3e 83 b0 c5 bc ea 9b 94 3d
       -0.18476279 0.1692073 -0.024132019 0.07256301
0002a0 18 ec 24 be 1c ce 91 bd a6 5e cb bd 8c 6e 45 be
       -0.16105688 -0.0711939 -0.09930162 -0.19280452
0002b0 88 63 fb bd 0c 40 91 3e bf df 41 3e 50 2c 66 3b
       -0.122748435 0.28369176 0.18933009 0.0035121627
0002c0 28 24 95 3d 9b 8d dd bb 4e 3b db bc 63 89 5b bd
       0.07282287 -0.0067612655 -0.026761677 -0.05359782
0002d0 b2 b3 01 3e 34 5c dd bb e6 85 12 bd 9d dd 54 3e
       0.12666205 -0.0067553762 -0.035772227 0.20787664
0002e0 e8 25 4c 3d f9 55 90 3e 6b 54 23 3e bd b2 24 3e
       0.049840838 0.28190592 0.15950172 0.16083808
0002f0 16 7c 6c 3e d9 b0 a1 3b d9 83 22 be 1e b7 30 3e
       0.2309421 0.004934412 -0.15870608 0.17257354
000300 2e 34 63 3d 8d ee a4 3d bb 54 7e bd 51 e9 59 3d
       0.055469684 0.080533125 -0.062092524 0.053201023
000310 9b 8a 61 3e 37 0b 73 be d3 b6 4a be 9d 43 97 3d
       0.2202553 -0.23734747 -0.19796304 0.07385943

bias f4 [100]
000000 09 8d 4c 3c 6f 5b 9f bc 41 56 13 3d a9 84 71 3d
       0.012484797 -0.019452779 0.03597093 0.058964405
000010 e4 a3 26 bd e8 dd 60 bc 0c 0c c0 bc c2 ff cf bb
       -0.040683642 -0.013724782 -0.023443244 -0.0063476274
000020 fc 9b c6 3c cc be fa bb 2c 5d 58 bc 19 bb 0c 3d
       0.024244301 -0.0076521393 -0.013205808 0.034358118
000030 ce 2e ce bb 51 75 5e bd 58 94 95 bc 5c f6 99 3d
       -0.0062922006 -0.0543111 -0.018259212 0.075176924
000040 de a0 5c bd c2 20 91 3c b4 e6 82 bb 43 de 5a 3d
       -0.053864352 0.017715815 -0.003994787 0.05343462
000050 27 5e 9e 3c fe e5 dd 3b 0d 25 d7 3c e0 6a 81 bb
       0.019332005 0.006771802 0.026262784 -0.003949508
000060 96 6c 18 bd c1 75 30 bc db 2a 3f 3c b9 b6 02 3d
       -0.03721293 -0.010770262 0.011667932 0.03191254
000070 2a 0a e3 bc 26 c1 bc bd 08 d0 95 bc 09 26 88 bc
       -0.027714808 -0.09216528 -0.018287674 -0.0166197
000080 8b f4 42 bd e2 e8 4b bd b4 cf ab 3b 8e 6c a2 bd
       -0.047596496 -0.04978264 0.005243266 -0.079308614
000090 34 82 90 3c 83 85 fb 3b 39 ce cc bc 24 80 75 3d
       0.01764021 0.007675828 -0.025000678 0.059936658
0000a0 51 b1 e5 3c 32 61 d7 bb de ee e4 3b c6 94 8f bc
       0.028038653 -0.006572866 0.006986483 -0.017526995
0000b0 59 76 c1 bc 62 9b 96 3b 74 f1 fe ba c7 26 02 bd
       -0.023616003 0.00459616 -0.0019450621 -0.031775262
0000c0 70 1a 24 bb 62 d6 e6 3a ae ed 8b 3c 0e fa b1 bc
       -0.0025040172 0.0017611498 0.017081108 -0.02172568
0000d0 82 37 0b bd dc 56 f1 bc 4b 6b d7 bc 32 89 ce 3c
       -0.033988483 -0.029460363 -0.026296278 0.025211904
0000e0 05 8e 34 3d 59 a4 16 bd 8d 15 9b 3c f3 00 f8 bb
       0.044080753 -0.036777828 0.018931175 -0.0075684725
0000f0 5b fa af 3c 31 44 89 bc f8 4e 34 3d c8 e8 f9 bc
       0.021481683 -0.016756149 0.044020623 -0.030506507
000100 bb 52 ba 3b 69 b3 1d bd 1a 82 dc 3c d4 d4 fa 3b
       0.005686132 -0.038501177 0.026917506 0.0076547656
000110 ca 77 40 3d d7 13 8f 3c 2f 0a 35 3d 4e 15 ae 3b
       0.04698924 0.017465515 0.044199165 0.0053125983
000120 90 71 1f 3b 8c f4 ca 3b af 7a 47 3d 90 25 e7 bc
       0.0024329163 0.006193703 0.048700985 -0.028216153
000130 c3 38 22 bd b8 95 11 bd 66 75 6f 3c 18 44 7d bd
       -0.039604913 -0.035543174 0.014615392 -0.061832517
000140 1c ba 89 3c c2 2d 48 3d 0d 27 ec 3c 8f 75 c7 3c
       0.016812377 0.048871763 0.028827215 0.024348048
000150 a5 26 64 3b 0c f3 f0 bc 8b e8 aa 3c 94 82 bb 3c
       0.0034813073 -0.029412769 0.020862838 0.022889413
000160 37 6d e4 bc 96 a4 91 bc 8f 01 47 bb 4c 86 52 3c
       -0.027884109 -0.017778676 -0.003036592 0.012849402
000170 52 8b 02 3c 4c 6b 17 3c 16 19 11 3c 27 2a 84 bc
       0.007967787 0.00924189 0.008856079 -0.016133381
000180 64 01 17 bd fd b6 ea 3c 82 d0 ae bc fe f9 a1 3b
       -0.03686656 0.028651709 -0.021339659 0.0049431315

weight f4 [100, 100]
000000 a2 02 6b bd 7f c6 08 bd cf 35 28 bd ac 06 1e 3e
       -0.057375558 -0.033392426 -0.04106694 0.15432233
000010 78 71 ad bd 1b 02 56 3d 56 31 21 be dd b7 1e 3e
       -0.08468908 0.0522481 -0.15741476 0.15499826
000020 02 3d 1d bd 7e 4e 34 3e c5 0b 2a be f3 27 a7 bd
       -0.03838826 0.17608067 -0.16606052 -0.081619166
000030 14 be 95 3d f9 2e 91 bd f3 1a d4 ba 55 11 f1 3c
       0.07311645 -0.070890374 -0.0016182348 0.02942721
000040 90 dd 01 3e e9 24 64 3d ec c0 e8 3d fe c4 ab 3c
       0.12682176 0.055699263 0.11364922 0.020967957
000050 5a 09 00 3e 68 c5 e2 bd 7a 30 e3 bc 6d bc 3f bd
       0.12503567 -0.110728085 -0.027733076 -0.046810556
000060 55 10 15 bd 10 bc 48 3d cb e1 a1 3c af c0 65 bd
       -0.03639253 0.049007475 0.019760987 -0.05609196
000070 18 10 c0 bc 8a 45 f0 bc 93 27 35 bd 76 37 2e be
       -0.023445174 -0.029330034 -0.044227194 -0.17013344
000080 f6 67 3c bd 47 56 db 3d d2 c4 1e 3e 23 0c c3 3d
       -0.045997582 0.107098155 0.15504768 0.09523799
000090 ed ca 1a be e8 32 a1 3d 29 cd 0d bd 52 ed c9 bb
       -0.15116473 0.07871038 -0.034619484 -0.006162324
0000a0 6e c7 c1 bb 9b 6a a7 bd ff 38 3d bd bb 5d eb bd
       -0.0059136664 -0.0817463 -0.046196934 -0.11492487
0000b0 3d 3b ed 3d 72 69 99 3d 43 c5 8e bd 65 1c f8 bd
       0.115835644 0.07490815 -0.069712184 -0.12114791
0000c0 07 87 13 be d0 f6 07 bd cb 49 1a be 66 3c 15 3e
       -0.14406978 -0.033194363 -0.15067212 0.14573821
0000d0 f9 2a c2 3d 04 38 80 bc 51 53 14 be 4f d7 eb 3d
       0.09480853 -0.01565171 -0.14484908 0.11515676
0000e0 fb 32 31 3c d6 a3 f6 3d 87 17 1e be 55 c9 a9 bd
       0.010815377 0.12042968 -0.15438662 -0.08290354
0000f0 0b 5a 8e 3d ed be 29 be cd 04 06 3e 31 90 fe ba
       0.06950768 -0.16576739 0.13087769 -0.0019421634
000100 a6 60 dd 3c 6e 62 bf 3d 52 8c 5b 3d 0f de 20 3d
       0.027023625 0.09344946 0.053600617 0.03927427
000110 1d 08 28 bd da 78 33 3d e3 43 80 3d ab e5 2b 3d
       -0.041023362 0.043816425 0.06262948 0.041967075
000120 fb 20 20 3e b1 9d 0b be a6 b8 c5 3c f5 b1 e0 bd
       0.15637581 -0.13634373 0.024135899 -0.109714426
000130 d8 34 41 3c 06 c8 33 be c9 82 79 bd fc 4c bb 3d
       0.011792384 -0.17556772 -0.060915742 0.09145543
000140 52 7e 19 3e 58 a6 01 3d 23 09 6d bd ce 78 0f 3a
       0.14989594 0.03165278 -0.05787004 0.00054730184
000150 94 2d 2c be c3 24 06 3d 76 c9 12 bc 1e 15 df bd
       -0.16814262 0.032749902 -0.008959165 -0.108927
000160 75 36 37 3e 8b 3a 8d 3d e5 36 9d 3c 7c d2 27 be
       0.17891867 0.06895932 0.019191215 -0.16388887
000170 d9 43 d9 bb fb 2d ee bd cc cd 88 bd de 51 20 3e
       -0.0066304025 -0.11629864 -0.06679878 0.1565623
000180 30 b4 4a 3d 38 f4 1f be 03 35 cf bd 71 16 ad 3c
       0.049488246 -0.15620506 -0.10117533 0.021128865
000190 e7 79 04 3c 76 5c 05 3e 36 1a db 3d 3a b9 a0 3d
       0.008085704 0.13023552 0.10698359 0.07847829
0001a0 b0 6f 34 bc e8 e0 c8 3c 73 ef b4 bd 84 6c 18 3e
       -0.0110129565 0.024521306 -0.08834734 0.14885145
0001b0 60 69 fa bc be 1a 56 3c 1f 94 34 3d b5 f4 4b 3d
       -0.030567825 0.013067899 0.04408657 0.049793918
0001c0 6e 23 b4 3d fd 6c 1c 3e 77 e0 5d bd 7d a7 58 bd
       0.0879582 0.1527595 -0.054169144 -0.052894104
0001d0 8b 0d 3b 3d db 8d 7b bd 56 3b 93 3c d0 55 3a 3b
       0.045667212 -0.06141458 0.01797263 0.0028432496
0001e0 b7 22 0b be 56 36 98 ba d8 96 da bc 73 3e d8 bd
       -0.13587461 -0.0011612873 -0.026683256 -0.10558786
0001f0 e1 06 f0 bc 91 79 15 3d bb 46 0d 3e 8d 0b a5 bd
       -0.029300155 0.036492888 0.13796513 -0.08058844
000200 48 15 bd bd 3b 8b 1e 3d ba d7 b1 bc ea d0 22 be
       -0.09232575 0.038707 -0.021709312 -0.15900007
000210 5f 84 c7 bc 6d 1a 79 3d bf 32 2b 3e fd 8b 8d 3c
       -0.024355112 0.060816217 0.16718577 0.017278666
000220 b7 50 27 be c0 41 fa 3d f1 2e 89 3d 9a ad 3c 3d
       -0.16339384 0.12219572 0.066984065 0.046063997
000230 65 bd 4d 3c a1 a7 f4 3d 55 24 87 bc a6 4b ce bc
       0.012557362 0.11946035 -0.016496817 -0.025182556
000240 12 82 20 be ad 12 06 be d1 c8 1d be 01 7f 08 3e
       -0.15674618 -0.13093062 -0.15408637 0.13329698
000250 98 06 aa 3d e5 49 16 be 24 57 c8 3d 96 61 1a be
       0.08302039 -0.14676626 0.09782246 -0.15076289
000260 f4 27 f6 3d 5b 76 ed 3d 41 c0 3a bd 4c d4 b1 bd
       0.12019339 0.1159484 -0.045593504 -0.086830705
000270 7c 8c ed 3d 5f 66 fc bd 9f b6 31 3e 42 c3 3b 3b
       0.11599061 -0.12324213 0.1735482 0.0028650318
000280 cc 06 e0 bc 09 e1 13 3c f3 d0 75 bd 48 d7 27 be
       -0.027346991 0.0090258205 -0.060013723 -0.16390717
000290 d9 56 b7 ba 47 eb a6 3c 7c 9d 9c bc f9 91 64 3d
       -0.0013987675 0.02037586 -0.019118063 0.055803273
0002a0 76 1d fc bd 91 a2 86 3d 9b e1 82 bd 04 94 b4 bd
       -0.12310307 0.06573976 -0.06390687 -0.08817294
0002b0 71 c3 e4 bd 0c 20 16 3e fd f0 14 3e 87 8b c5 3a
       -0.1117009 0.14660662 0.14545055 0.001507149
0002c0 d8 52 94 bd 8c aa 12 be 7d 1a f7 3b 97 47 dc 3d
       -0.07242364 -0.14322871 0.0075409994 0.10755842
0002d0 7a 3a 67 bd 10 44 10 3d dd c5 b7 3d 4a db c7 bd
       -0.056452252 0.03522116 0.08973286 -0.09758623
0002e0 1f 53 00 3e 42 c5 ee 3d 41 b4 0d be a9 4e 61 3d
       0.12531708 0.11658718 -0.13838293 0.055006657
0002f0 d1 f7 36 bd f9 21 73 bd e3 0d 22 3e a9 db f6 bd
       -0.04466993 -0.05935857 0.1582561 -0.120536156
000300 be ac 15 3e 41 fb 03 be f5 35 8a bc 3d c9 0c 3e
       0.14616677 -0.12888815 -0.016871432 0.13748641
000310 e9 b5 23 be 6a ae 88 bd 9f 1a 12 3e 37 e8 8f bd
       -0.15987362 -0.06673892 0.14267968 -0.07026713
000320 df 4e 0b 3e 0a 66 da 3d 56 4f 91 bc de 8b ea bc
       0.13604306 0.10663994 -0.017738026 -0.028631147
000330 76 2b 00 3d f6 84 5d 3d 64 35 cc 3c 40 fc f2 bd
       0.031291448 0.05408188 0.024927802 -0.11864519
000340 51 31 ab bd 3c 68 f6 3c 2f 8c c0 bd d1 ba 3d be
       -0.08359016 0.030079 -0.09401738 -0.18528296
000350 8e 70 61 bd 28 76 20 3e b9 dd b2 bc c8 b5 17 be
       -0.05503898 0.15670073 -0.021834241 -0.14815438
000360 85 05 14 be 4a 4f e2 3d a1 31 e6 3c 01 86 c5 bd
       -0.1445523 0.110502794 0.028099837 -0.096447
000370 43 24 1e be 6b fe 1b 3e 59 c6 8b bd 01 f9 5e 3d
       -0.1544352 0.15233772 -0.06824941 0.054436687
000380 77 59 27 be 46 03 0b be aa b1 69 3c 38 40 5c bc
       -0.16342722 -0.13575467 0.01426355 -0.013443045
000390 e3 05 1b bd 25 84 f8 3d 68 ac e7 bd 1b 04 3d 3d
       -0.03784741 0.121345796 -0.11312181 0.046146493
0003a0 e8 f8 bb bd 07 c5 2a 3d 94 23 c6 3d 53 63 14 3e
       -0.091783345 0.041691806 0.09674755 0.14491014
0003b0 1b cc 67 3d 10 a5 2f 3e c7 a8 54 3d b6 f8 7e 3d
       0.056591135 0.1715281 0.05191877 0.062248908
0003c0 d4 04 c1 bc 19 0d 2f be 17 7d 06 be a2 86 7f 3d
       -0.023561873 -0.1709484 -0.13133655 0.062384255
0003d0 21 0f 2d be 57 bb 9c bd a2 4f 09 3d db 34 39 be
       -0.16900302 -0.0765292 0.03352321 -0.18086569
0003e0 da 82 cd bd b5 69 0a 3d 1f 1d 26 be a6 34 ba bc
       -0.100347236 0.033792216 -0.16222046 -0.022730183
0003f0 04 9d db 3d 00 6b cd 3d 11 d8 d5 bd 1b 2d 1c 3d
       0.10723308 0.10030174 -0.10441602 0.038128953

bias f4 [100]
000000 34 22 a0 3b 1f 26 8c 3c 3e 50 bd bc dd b9 dc bc
       0.00488689 0.017108021 -0.023109552 -0.026944095
000010 8d 56 0b bd a0 5f 3e 3b 57 8d 19 bc cd c4 52 3d
       -0.034018088 0.0029048696 -0.009372077 0.051457215
000020 c5 32 8a 3c ac 62 25 bc 2d 48 78 3d 77 38 af 3c
       0.016869912 -0.010094326 0.060615707 0.02138923
000030 06 a6 a8 bc 67 18 29 bd 60 8f b3 bc 15 06 aa 3b
       -0.020586979 -0.041283038 -0.021918952 0.0051887133
000040 26 27 ae 3c 5b 42 f9 bc 88 30 e7 bc f7 fd 31 3b
       0.021258902 -0.030427149 -0.028221384 0.0027159431
000050 31 d7 41 3b 47 ef 1e 3c 51 91 18 3d 42 5f 82 3c
       0.0029577727 0.009700603 0.03724796 0.015914563
000060 5e 62 ba 3c f1 d4 0f bd 7c e5 f5 bc ea 2f 16 bc
       0.022751983 -0.035115186 -0.030016653 -0.009166697
000070 e2 56 82 bc 83 4f 55 3d 6b b4 29 3d 1a f8 07 bd
       -0.01591057 0.05207778 0.041431826 -0.033195592
000080 8a fd 41 3d d5 91 75 3b ee af d1 bb 11 57 a5 3c
       0.047360934 0.0037470956 -0.0063991463 0.020183118
000090 66 00 f5 bc be a5 01 3c 4b 09 3a bb 3b fb c4 3c
       -0.029907417 0.007913051 -0.0028386887 0.024045577
0000a0 89 59 90 3c e9 a3 01 bd f3 44 89 3c ff 7f 91 bd
       0.017620819 -0.031650458 0.01675651 -0.071044914
0000b0 54 9b 8e 3c cd fd ac bc ff 51 ee bc ee 39 7d bc
       0.01740805 -0.021117115 -0.029091833 -0.015455706
0000c0 af 77 3a 3d fc e0 ca 3c a6 69 4d bd b4 6c eb bc
       0.045524295 0.024765484 -0.050149582 -0.028738357
0000d0 4c c3 09 bd 8d 11 d4 bc 34 bb 26 3d 42 46 f5 3c
       -0.033633515 -0.025887275 0.040705875 0.029940728
0000e0 b5 99 a4 bb 01 a7 21 bd d2 6c 65 bd 1f 05 5c 3c
       -0.005023206 -0.039465908 -0.056011982 0.013428955
0000f0 dc 61 b9 bc db dc 91 bc 8a b9 41 3c d5 dc eb 39
       -0.02262967 -0.017805507 0.011824021 0.00044987226
000100 e2 02 3b 3c b9 2e 91 bc 80 9a e8 3c af a9 a7 bb
       0.011414262 -0.017722474 0.028393984 -0.0051166634
000110 80 40 74 bd 88 f9 e2 bb c3 22 3b 3d ca a9 d9 3c
       -0.059631824 -0.006926719 0.04568745 0.02657022
000120 e2 ed 8d bc 00 bf 12 3d f7 e5 f3 3c 6a b1 38 bc
       -0.017325345 0.035826683 0.029772742 -0.011272768
000130 83 70 4e 3d d2 2a d1 3b 18 a6 af bc fc b9 17 3b
       0.05040027 0.0063832784 -0.021441504 0.0023151627
000140 dc ef 22 3d 40 9d 0f bd 2e f7 48 3c 73 5d 01 bd
       0.03977953 -0.035062075 0.0122659635 -0.03158326
000150 0f e3 fd bc ce b2 32 bd 9d 32 81 3a 17 f6 43 bb
       -0.030992059 -0.043627553 0.0009857003 -0.002990132
000160 1e bc f6 3b 9c 87 70 3d 95 96 ca bc 5f 48 ce 3a
       0.0075297495 0.058723077 -0.024730006 0.0015738121
000170 c5 b5 46 3d 9b 89 96 3c a8 cf b8 3b 30 25 f6 3c
       0.048513193 0.018376162 0.005639989 0.03004703
000180 11 7a 4b 3c fb 15 ac 3c b3 00 e3 3c 30 a7 02 bd
       0.01241924 0.021006575 0.027710294 -0.031897724

weight f4 [100, 100]
000000 a1 ae 7b bd 70 95 4d bd 79 cc 11 be e0 4c 26 3d
       -0.061445836 -0.050191343 -0.14238156 0.040600657
000010 5b d4 0f 3d 64 97 97 bd d5 79 1d be 12 f7 ed 39
       0.035114627 -0.07401922 -0.15378506 0.00045388244
000020 8f 14 a1 3d 96 20 93 bc 11 88 9f 3d ac 95 44 bd
       0.07865249 -0.017959874 0.077896245 -0.0479943
000030 10 a5 a7 3c f1 d4 09 3e 56 9f 5f bd 5e 8d cf bd
       0.02046445 0.13460137 -0.054595314 -0.101343855
000040 49 ca a7 bd f4 40 4b 3c a0 77 38 be 48 40 c8 3d
       -0.0819288 0.012405623 -0.18014383 0.09777886
000050 e2 fd 16 be b6 8d 9c bd e6 49 fa 3d 74 9d 9c 3d
       -0.14745286 -0.07644217 0.12221126 0.07647219
000060 3e 9e 1a 3d e6 9a 73 bc 86 74 74 3d ae 4f e8 bc
       0.037748568 -0.014868474 0.059681438 -0.028358307
000070 8a fa 34 3e 60 66 eb bd 80 d8 74 bc 7c f1 2c 3e
       0.17673698 -0.11494136 -0.014944196 0.16888994
000080 12 be 93 3d 88 b6 05 bd 16 0d e8 3d cc e5 d3 3c
       0.072139874 -0.03264478 0.11330621 0.025866412
000090 a6 e4 0f 3e a0 d3 a0 3d 27 0b 12 be 03 79 fe 3d
       0.14052066 0.07852864 -0.14262067 0.12425425
0000a0 c3 60 14 be fd 28 50 3c 61 9e 20 bd 17 dd 10 be
       -0.14490037 0.012705085 -0.039213542 -0.14146839
0000b0 41 33 04 3e 08 dc 8c b9 c9 6e 29 3e 9d 95 bd 3d
       0.12910177 -0.00026866817 0.16546167 0.09257052
0000c0 6a 2c be bd 35 5e 54 bd ed 00 9a 3d 49 e8 22 be
       -0.09285815 -0.051847655 0.07519708 -0.15908922
0000d0 95 74 13 3e ea 4a e1 bd 36 50 1e 3e 70 c3 d0 3c
       0.14399941 -0.11000617 0.15460286 0.025483817
0000e0 d0 ef e8 3d dc 14 d4 3c 51 46 d0 3d 69 2f dd bd
       0.113738656 0.025888853 0.10169662 -0.108000584
0000f0 85 a3 9f 3d c8 8d 8f bd b4 af a7 bd 50 43 ea bd
       0.07794861 -0.070094645 -0.081878096 -0.1143862
000100 94 cb 2e be 33 d3 6b bd a3 ba 16 be 56 1e 7e 3b
       -0.17069846 -0.057574462 -0.14719634 0.0038775406
000110 32 02 c9 bd 8c 57 fc bd 8a 4d 19 be 2f ab f7 3c
       -0.09814872 -0.12321386 -0.14970985 0.030232994
000120 eb 76 90 3d 00 d4 72 3d b7 10 94 3d 2f 7d be 3d
       0.07053932 0.05928421 0.072297506 0.093012206
000130 1d de 2f 3e fc 6b f7 3d 0e a2 62 3c 92 d0 fa bd
       0.17174573 0.12081143 0.013832582 -0.12246813
000140 09 61 07 3e 54 f9 5f 3d f6 61 8c 3d 15 d5 2f be
       0.1322061 0.054681137 0.06854622 -0.17171128
000150 aa 02 22 bd aa 42 33 bb fe 2a 16 3e 2a af 14 bd
       -0.039553322 -0.0027352967 0.14664838 -0.036299862
000160 00 bf 78 3d 63 2c 03 be 65 7c bf bd 72 39 bd bd
       0.060729027 -0.12809901 -0.09349898 -0.092394724
000170 e2 c2 cb 3c 95 68 2f be 74 0e c2 bd b2 7e 8e 3d
       0.0248732 -0.17129739 -0.09475413 0.06957759
000180 52 4b 29 be 21 ed b8 bd fd 21 cc 3d c0 97 1a 3e
       -0.16532639 -0.09029604 0.0996742 0.1509695
000190 df 92 e4 bd 6c dc fe 3c 1d ee 23 3e 10 97 ba 3d
       -0.11160826 0.031110965 0.16008802 0.09110844
0001a0 9e 2e fc bd df f6 6d 3a e9 3e 15 be 3d 5c 98 3c
       -0.12313579 0.0009077619 -0.1457478 0.01859867
0001b0 fd 7a 9d bd 71 85 fb bd b9 ed e3 bd e5 37 b1 bd
       -0.07689474 -0.12281311 -0.111293264 -0.08653239
0001c0 86 95 8f 3c eb a5 e4 bd 9c 1d 17 be a3 ee 03 3e
       0.017527353 -0.11164459 -0.14757389 0.12884001
0001d0 bb d3 0d be db 31 c6 bb cf 77 83 3b ac ca cb bd
       -0.138503 -0.0060484237 0.004012085 -0.09950766
0001e0 d8 79 e0 3d 6e 4b 37 3e 76 0f 95 3d 38 00 0c be
       0.1096074 0.17899868 0.072783396 -0.13671958
0001f0 aa e7 ec bd 6c 16 ab 3d b4 e2 1b be cf 52 7d 3d
       -0.11567624 0.08353886 -0.15223199 0.06184655
000200 bb f9 c8 3d a2 d1 99 3d 17 83 e1 3b 43 c8 5a bc
       0.09813257 0.075106874 0.006882082 -0.01335341
000210 3f 96 8b bd 01 44 14 3e 87 ac ab 3d 64 a7 02 bd
       -0.068157665 0.14479066 0.08382516 -0.031897917
000220 10 e3 3c bd 6a ea 3d 3e 85 00 1e 3e e0 ce 38 3d
       -0.04611498 0.18546453 0.15429886 0.045119166
000230 b8 bf 07 bc 06 39 c7 3d 73 e6 ff bd 57 48 e1 bd
       -0.008285455 0.09727673 -0.124951266 -0.11000126
000240 e8 62 28 3c 33 17 02 3d 9a 34 15 3e 43 3d f1 bd
       0.010277487 0.031760406 0.14570847 -0.11779263
000250 7c f8 bc 3d 7d a6 9d 3d 42 71 1e 3e f4 e1 4e 3d
       0.09227082 0.07697771 0.15472892 0.050508454
000260 aa 12 18 3b 88 9a 28 b9 6a 56 17 3e 86 28 58 bd
       0.0023204484 -0.00016079296 0.14779058 -0.05277302
000270 22 62 4b 3d 29 98 e2 3d 04 2c 55 3d 16 36 94 bd
       0.049654134 0.110641785 0.05204393 -0.072368786
000280 61 8d f6 bd b7 fa e6 3d 72 67 e2 bd 99 cc 1d be
       -0.12038685 0.11278289 -0.11054887 -0.15410079
000290 59 f9 e8 bc ac d9 13 3d 7e 7a 68 39 4c b1 a0 3d
       -0.02843921 0.03609626 0.00022170876 0.07846317
0002a0 c6 f1 81 3d 26 a3 10 be eb 34 b8 bd 9c 64 16 3e
       0.06344943 -0.14124736 -0.08994468 0.14686817
0002b0 30 45 24 3e 98 54 f5 3d 01 1d 8a bc cf 76 21 3e
       0.16042018 0.119790256 -0.016859533 0.15767978
0002c0 ed 87 29 3c bb b7 f7 3c f0 0c 90 3d 92 52 33 3d
       0.010347349 0.030238977 0.07033718 0.043779917
0002d0 85 55 2a 3e 4c 28 49 bd b8 9c 24 3d 75 05 cd 3b
       0.16634186 -0.049110696 0.04018852 0.006256754
0002e0 2b 21 33 3e 0e cd da 3d 23 83 2c 3d 99 5c fa bd
       0.17493121 0.10683642 0.04211725 -0.12224693
0002f0 e5 ae 2c 3e 86 6d 9b bd f2 79 8b bd 01 97 0b 3e
       0.16863592 -0.07589249 -0.068103686 0.13631822
000300 a9 a1 13 be 68 37 10 be 4a 3f a5 3c 19 d5 05 3e
       -0.14417137 -0.14083636 0.02017178 0.13069572
000310 f0 d0 16 bd e3 b8 5f bd 5e e4 12 3e 37 ec 1d 3e
       -0.036820352 -0.05461968 0.14344928 0.1542214
000320 76 29 e9 bd 6f f1 2a 3d 24 77 0f be e5 74 2b 3d
       -0.11384861 0.041734155 -0.14010292 0.041859526
000330 68 eb 7b bc 81 e4 e8 bc b0 28 b4 bd 80 b9 01 3e
       -0.015375949 -0.028429272 -0.08796823 0.12668419
000340 d7 2f e5 bd 3c eb 18 bd 4c 9c bb 3c 59 1d b0 bd
       -0.11190765 -0.037333712 0.022901677 -0.085993476
000350 92 b6 a2 3d db 80 fb bd 5f 8e ea 3d ae 4e ac bd
       0.07944979 -0.122804366 0.114529364 -0.084134445
000360 33 f0 53 3d 09 d0 e5 bb 61 ad d3 bd 6b 14 c4 3d
       0.051742744 -0.007013325 -0.10335804 0.09574207
000370 59 21 73 bc 85 d9 97 3c ac 23 be 3d f2 1d 3d be
       -0.014839494 0.018536339 0.092841476 -0.18468454
000380 4d 69 66 3c b1 e4 01 be 00 b8 55 bc 26 7c de 3d
       0.014063192 -0.12684895 -0.013044357 0.10863523
000390 25 04 0c 3d d0 41 cb 3d 7b 42 a4 3b 05 cc 60 bd
       0.03418364 0.09924662 0.005012808 -0.05488207
0003a0 b0 6b ee 3d 18 50 d2 3d 14 6c 18 bd 6c 2f 31 be
       0.116416335 0.10269183 -0.037212446 -0.17303246
0003b0 9c 91 b1 3d 33 93 21 3e 20 ca b5 3d 29 4f e1 3d
       0.08670351 0.15778808 0.08876443 0.11001427
0003c0 7b 10 cc 3d 0f 21 06 be d0 b9 31 3c 1d 5d 03 be
       0.09964081 -0.13098548 0.010847524 -0.12828489
0003d0 88 5a 24 3e ca 2e 77 3d 75 2f 5f 3d 94 5d 94 bd
       0.1605016 0.060347356 0.054488618 -0.07244411
0003e0 9f bb dd 3d fd 55 bd bc ab 25 1f 3e 03 ce 6d bd
       0.108268015 -0.023112291 0.15541713 -0.058057796
0003f0 22 32 d8 3d 31 43 e3 3c a2 b5 93 bc c2 65 98 bd
       0.10556437 0.027742 -0.018030945 -0.07441284

bias f4 [100]
000000 43 43 4d bc c6 d6 ec 3a e8 fe 0e 3d 01 83 4c bd
       -0.0125282435 0.0018069379 0.034911066 -0.049929623
000010 86 b5 d0 bc 9a 1a 51 3b fc aa 1b bd 15 e6 be 3c
       -0.025477182 0.0031906725 -0.03800486 0.023303071
000020 1e a5 7a bc 1e 1b 50 3c e2 8f 5c 3c ff 7e d3 3c
       -0.015298156 0.012701778 0.013462039 0.025817392
000030 c2 78 90 3c 74 79 35 bc 35 01 11 3b 31 cc 88 3c
       0.017635707 -0.01107632 0.0022125964 0.016698929
000040 ca 9c 7e 3b 26 f5 83 bc fb 2d 17 3a 75 4c 39 3c
       0.0038850778 -0.016108107 0.00057670445 0.011309733
000050 92 f2 bd bc d1 e9 c4 bc 35 b1 05 bc ef 5a dd 3c
       -0.023186956 -0.024037274 -0.008159925 0.0270209
000060 12 44 a6 bc 77 89 4a 3c b9 de 19 bc d6 b8 cd bc
       -0.02029613 0.012361876 -0.00939148 -0.02511255
000070 7b 73 93 3c 35 44 78 3c 4f 9c 0e 3d d6 44 e8 bb
       0.017999401 0.015152981 0.034817036 -0.007088284
000080 4e b1 d8 3c 61 e2 dc 3b b3 4f d0 bc 09 f5 76 3c
       0.026451733 0.0067408537 -0.025428629 0.015073069
000090 20 91 bb bc fb b6 0f bd 97 50 c0 3c 95 f1 c2 3a
       -0.02289635 -0.035086613 0.023475928 0.0014873022
0000a0 e9 08 b2 bc 24 97 7c 3c d2 d1 66 bb f5 a8 91 3b
       -0.021732764 0.015416894 -0.0035220277 0.00444519
0000b0 2c 76 a0 bc cb 20 24 bc 2d ee 48 3c 87 7d b7 3c
       -0.019587599 -0.010017584 0.012263817 0.022398723
0000c0 10 45 59 3c 58 6d b6 3c 6f c2 17 bc f3 44 fc 3c
       0.013261095 0.022268936 -0.009262665 0.030794596
0000d0 64 c2 a2 3c 84 b0 a3 3c e6 9a f7 bb e6 fe bb bc
       0.019868083 0.01998163 -0.007556307 -0.022948693
0000e0 33 42 85 3c 57 a4 ef 3b 7e 43 2c bb fd 40 17 bc
       0.016266918 0.007313292 -0.0026285346 -0.009231803
0000f0 eb 18 e2 3b da aa 28 bc 01 2d fd 3c f4 49 91 bc
       0.006899943 -0.01029464 0.030905249 -0.017735459
000100 93 52 e4 bb ac 99 68 bc 09 ac 42 bc f0 e5 90 3c
       -0.0069678514 -0.0141967945 -0.011881837 0.017687768
000110 e9 9d 6c bc 1c 4f e0 3c 98 63 d0 3c 75 59 76 bc
       -0.014441946 0.027381472 0.025438115 -0.015035977
000120 6d 10 b1 bc ce 26 a1 bb 58 48 a1 3c 4e 22 26 bd
       -0.021614278 -0.004917956 0.019687817 -0.04056006
000130 fe 70 3b bd f8 09 6e bc 40 7f b4 bc 71 bf d6 3c
       -0.045762055 -0.014528744 -0.022033334 0.026214333
000140 c7 0e e3 3b 74 d3 e7 b9 46 46 8e 3c 56 04 42 bc
       0.006929252 -0.00044217298 0.017367493 -0.011841854
000150 45 b1 90 bc 84 df ed bb a2 2a 8e 3c 28 53 4f 3c
       -0.017662654 -0.007259311 0.017354313 0.012654103
000160 0b b0 39 3c a2 d3 14 3c 96 f7 dc bc 9b a7 d0 bc
       0.011333476 0.00908366 -0.026973527 -0.025470546
000170 32 6b eb 3b 2c 12 1d 3d 85 6b a0 ba d6 d5 40 bc
       0.0071844095 0.03834741 -0.0012239075 -0.011769732
000180 ea 1c cd bb c6 f4 d1 39 50 8c e2 3d eb fb 08 bd
       -0.0062595503 0.00040045957 0.11061919 -0.033443373

weight f4 [100, 100]
000000 c1 c1 50 3d ff e4 fc 3d d1 35 36 be 02 9f a6 3d
       0.050966028 0.12348365 -0.17793967 0.08135797
000010 63 3e 1d 3e 82 3a 8d 3d 9b c6 6c bc 4f 35 9c bd
       0.1535583 0.06895925 -0.014451648 -0.07627355
000020 1e 92 1f 3d b4 bd d7 bc 20 88 03 3e 5e 15 00 be
       0.038957708 -0.026335575 0.12844896 -0.12508151
000030 2c b9 0e bd 76 57 2a 3c 00 a0 7d 3c 0e 1e b4 bb
       -0.034844562 0.010396829 0.0154800415 -0.005496747
000040 a3 26 0c 3e 85 5e 63 3d e8 95 0a bd 4f 8d 1a 3e
       0.13686614 0.055510063 -0.033834368 0.15092967
000050 8a 24 3f 3e 99 9d 21 3e f8 9c b7 3b 17 f6 02 3e
       0.18666282 0.15782775 0.005603429 0.12789188
000060 c5 ca 5a 3d 63 e5 42 bd 39 db 11 3e 8b 1d ac bd
       0.053416032 -0.04758204 0.14243783 -0.084040724
000070 62 65 0b be 30 c7 c4 bd 98 e7 4c 3d 5b 52 e9 3d
       -0.13612893 -0.096083045 0.050025553 0.11392661
000080 8b 4c eb 3d f5 7e 49 3d 5a 26 f0 bd f6 a4 62 3d
       0.11489209 0.04919334 -0.11726065 0.0553331
000090 a6 3f 89 bd 20 19 d5 bd 5f 94 03 be 3a 27 89 bd
       -0.06701593 -0.10405183 -0.12849568 -0.06696935
0000a0 7e e7 a6 3c cd 34 dd bd 28 c4 0c 3e 64 a7 c8 3c
       0.020374056 -0.108010866 0.13746703 0.02449388
0000b0 5d dd 1d bc de 78 7d 3d d8 fd ca bd 3c 64 5e bd
       -0.009635297 0.061882846 -0.09911698 -0.05429481
0000c0 fb 10 3a 3a 61 90 15 3d 4c 2c 0d be 95 9e 3b 3e
       0.0007097867 0.036514644 -0.13786429 0.18322213
0000d0 e6 b4 0f be 71 03 ee 3d 69 46 7b 3e ba 2b 8d 3d
       -0.14033851 0.1162175 0.24538578 0.06893106
0000e0 72 d5 ff bc 9d 9f 51 3d cb b2 1b be 74 2f c7 bd
       -0.031229708 0.05117761 -0.15204923 -0.09725848
0000f0 25 2a 6e bd 59 19 07 3e 8e 21 60 be 7d 60 30 bd
       -0.05814566 0.13193263 -0.218878 -0.04306077
000100 2c ae 24 be 7d 76 0a 3d 24 19 10 be e4 8f 8a bd
       -0.16082066 0.033804405 -0.1407209 -0.06765726
000110 a5 9c 22 3e fe 80 dd bd 18 9a 97 bd 5e b0 8b bd
       0.15880068 -0.10815619 -0.07402438 -0.06820749
000120 99 d8 a2 3d 65 a4 fc bb 49 5e f9 bd 0b 95 33 bd
       0.07951469 -0.007710027 -0.121761866 -0.04384331
000130 24 fa e7 3d da d3 c7 3d a4 fd ca 3d cf 28 54 3d
       0.113270074 0.09757204 0.09911659 0.05179673
000140 08 1a 33 bd 36 19 24 bd b8 a6 c3 3a ca 42 f4 3d
       -0.043725997 -0.040063106 0.0014927005 0.119268015
000150 d8 b5 09 3e 51 94 ce 3c bc 44 93 3c d4 40 40 3c
       0.13448274 0.025217207 0.017977111 0.011734206
000160 0d 36 5c bc 64 cd c3 3d d2 cf 03 3d 75 67 79 3d
       -0.013440621 0.095606595 0.032180615 0.06088968
000170 13 4f 7e bd 60 34 9e 3d b9 73 c5 3d d9 f4 3e be
       -0.06208713 0.077248335 0.09641213 -0.1864809
000180 ef 79 ce 3d 42 9b 1b 3e a6 8f 09 3e 1b f1 bf bd
       0.10081851 0.15195945 0.13433704 -0.09372159
000190 54 4f 2e 3d a3 62 17 3e 4f b4 15 3e 02 05 0f 3e
       0.042556122 0.1478372 0.14619564 0.13966754
0001a0 51 05 ac bd 50 ba eb 3d 8f c9 f7 bd 18 44 35 3c
       -0.083994515 0.11510146 -0.12098991 0.011063598
0001b0 c5 fd 08 3e c4 64 b6 bc 91 0a 23 3e 86 28 0c 3e
       0.13378055 -0.022264846 0.15922 0.13687333
0001c0 d9 a6 39 3e 37 34 b2 3d 50 6a c1 bb e2 be 0c bd
       0.18130054 0.087013654 -0.005902566 -0.034361728
0001d0 99 3d 87 3d 4e 50 1f 3e 66 29 c3 bd 87 25 13 3d
       0.06603546 0.15557978 -0.095293805 0.03592446
0001e0 b8 e5 99 3d 2f 07 0c 3e 93 ef 19 3e 9a f4 00 3e
       0.075145185 0.13674615 0.15032797 0.12593308
0001f0 93 1d a5 bd 2f 5a ac 3d b6 41 20 be 62 cb a0 bd
       -0.080622815 0.08415639 -0.15650067 -0.07851292
000200 d7 fd 37 be 84 47 44 3d 07 7e 31 3e 48 a0 35 3e
       -0.17967926 0.047919765 0.17333232 0.17736924
000210 b2 3a 9d 3c ca 06 d4 bd 46 cf ce 3a 71 71 61 3d
       0.019193027 -0.103528574 0.0015778325 0.055039827
000220 8d 15 01 be 0e cb 05 be 0b 7c dc 3d f7 82 1f bd
       -0.12605877 -0.1306574 0.10765847 -0.038943257
000230 cd 64 69 bd 9a 64 1b 3e 76 cb 46 bd 42 26 27 3d
       -0.056980897 0.15175095 -0.04853388 0.04080797
000240 46 77 8f 3c 89 d6 74 bd 18 e2 2f bc 5e 11 14 bd
       0.017512929 -0.05977491 -0.010735057 -0.036149375
000250 96 13 0b bd 32 7e 19 3d 23 c4 3f 3e 50 02 ce 3d
       -0.033954225 0.037473865 0.18727164 0.10059035
000260 64 79 11 be 6d 17 24 3e a6 73 d3 bd 3f 14 41 bd
       -0.14206463 0.16024561 -0.103247926 -0.04713845
000270 e6 fd 00 3e d5 53 db bd b7 77 67 3d e0 90 a7 3c
       0.12596855 -0.10709349 0.056510653 0.020454824
000280 96 0e 20 be 31 ec 11 be 9c b0 01 3e c2 7b e8 3c
       -0.15630564 -0.14250256 0.12665027 0.028379325
000290 66 33 87 bd 41 2d 90 3d 29 c5 39 be 0c dc 5b 3d
       -0.066016 0.070398815 -0.18141617 0.05367665
0002a0 55 1d f4 bd f5 d3 71 bd e8 1b 1b 3d 88 ca 00 be
       -0.11919657 -0.05904003 0.03786841 -0.1257726
0002b0 46 ce 0e be 33 4a 10 3d 54 1a 6e bd 0c a6 2d 3c
       -0.13945875 0.035227012 -0.058130577 0.010598671
0002c0 8e d1 f7 bd f2 44 ec 3d 09 97 2f be 50 b7 8e 3d
       -0.12100516 0.11536588 -0.17147459 0.06968558
0002d0 74 41 03 3e 00 32 17 3e 7f de b5 3d a7 34 94 3d
       0.12817937 0.14765167 0.088803284 0.07236605
0002e0 85 69 25 be 74 c9 79 bc 1b 0c 8a 3d e6 ef fb 3c
       -0.16153534 -0.015245784 0.0674059 0.03075404
0002f0 08 e7 94 bd 42 2f 4e bd 4f 98 e9 bd e4 b7 e4 bd
       -0.07270628 -0.050338037 -0.11406004 -0.11167887
000300 be 24 30 3d a4 ba 15 3e 70 f4 d1 3b 55 6f f5 3c
       0.04300379 0.14621979 0.006407313 0.029960314
000310 1a 61 8d 3d da 56 78 3d e5 e9 e4 3d 5b da 08 be
       0.06903286 0.060629703 0.11177424 -0.13364546
000320 d5 d4 92 bd 5d 34 22 3e e2 93 23 3e 55 56 87 3d
       -0.07169501 0.15840288 0.15974382 0.066082634
000330 29 81 c1 b8 ea 81 b3 bd 84 c1 f6 3d 3d 58 24 be
       -9.227015e-05 -0.087650135 0.12048629 -0.16049285
000340 de 34 d1 3c 35 a1 89 bd 3d d9 d8 bd 1c f5 19 be
       0.025537904 -0.06720201 -0.1058831 -0.15034908
000350 3e af c6 bb 4d f2 c0 3c 47 fb 15 3e 2e 9e a2 3c
       -0.006063371 0.023553038 0.14646636 0.019850817
000360 30 b5 6e bd c9 20 26 3d 1b 2a fb 3b ef 13 12 3e
       -0.058278263 0.04055861 0.0076649315 0.14265417
000370 13 1c 9d bd 75 fe b0 bc 39 f4 08 3e d7 25 56 3d
       -0.0767137 -0.02160571 0.13374414 0.05228218
000380 5b b8 90 3c 65 d3 f5 3d df 51 f8 3d 18 2e 46 bd
       0.017666033 0.12003211 0.12124991 -0.048383802
000390 29 57 8a bd b3 a0 12 3e eb 38 07 be ff 4c a1 bd
       -0.06754906 0.14319114 -0.13205306 -0.07876014
0003a0 a7 7e 48 bd 41 8f ff bd fe c0 49 3d d4 8a c5 3d
       -0.04894891 -0.124784954 0.049256317 0.0964562
0003b0 15 d9 20 be 88 ff 1c be b7 d7 1f be 42 81 1e be
       -0.1570781 -0.15331852 -0.15609632 -0.15478995
0003c0 f3 ce 16 be 47 a2 1d 3d ff 10 b1 3d 67 b7 7a 3c
       -0.14727382 0.038484838 0.0864582 0.015302516
0003d0 64 f5 36 3e 5c 4b f5 bd 5a 6a 18 3e 60 93 26 3d
       0.17867047 -0.11977264 0.1488432 0.04066789
0003e0 20 3a 15 be 7c 3e 1e 3e c2 a1 9a 3b 96 97 d5 3d
       -0.14572954 0.15453523 0.00471899 0.10429303
0003f0 19 b4 20 be 6d 90 e3 3c 23 f9 e5 3d 96 f8 f8 3d
       -0.15693702 0.027778829 0.1122916 0.12156789

bias f4 [100]
000000 c9 c1 13 3c b2 a4 ff 3c bc 1f 81 bc 3b 52 b7 3c
       0.00901837 0.031206463 -0.015762202 0.022378078
000010 9f 9f 40 3c a5 19 1a 3d 51 a1 8e bc 2b 0b ac 3c
       0.011756807 0.037622113 -0.017410906 0.021001419
000020 dc e3 97 3c 5d 30 42 bc ef 02 06 bd 0b 38 df bc
       0.018541269 -0.011852351 -0.03271764 -0.027248403
000030 c5 c0 9f bc f8 e0 a7 bc 7c 7b b2 3c b5 1d 7c bc
       -0.0195011 -0.020493016 0.021787398 -0.015387942
000040 9a 1d 0b 3d 78 cf 83 bc 27 78 05 3c e6 ab 77 bc
       0.033963777 -0.01609014 0.008146322 -0.015116667
000050 12 d0 d5 3c 95 f6 f3 3c 01 65 e0 bb f8 cf f1 bb
       0.026100192 0.029780665 -0.006847978 -0.007379528
000060 59 1c c3 bc cc 7a 23 bd 5d d8 81 3c 73 75 c5 3b
       -0.023817228 -0.03991203 0.01585024 0.006025964
000070 a5 5a 75 3c ca 08 b5 bc 1f c2 87 3c 1f 62 92 bc
       0.014975225 -0.022098918 0.016572056 -0.017869053
000080 65 a6 90 bd 94 93 d4 bc a6 d5 46 bc 78 44 ba bc
       -0.07062987 -0.025949277 -0.012135899 -0.022737727
000090 43 9d 44 bc 3e 79 a2 bc 5a e6 06 3d 97 8f c0 bb
       -0.012000385 -0.019833203 0.032934524 -0.0058764922
0000a0 2a 8b a4 bc e7 e0 8d bc 0d 41 c1 3b fc e7 bb 3c
       -0.02008589 -0.017319156 0.0058976472 0.022937767
0000b0 86 57 47 bc 72 bc e1 3c 20 15 9b bc e8 59 55 bc
       -0.012166863 0.027555678 -0.018930972 -0.013021924
0000c0 32 80 b7 3c 23 f6 0d 3c c3 24 61 3c f0 9f 4b bc
       0.022399995 0.008664641 0.013741675 -0.012428269
0000d0 07 04 c6 bc 11 ab b1 3c f7 83 2b bb 85 c6 58 ba
       -0.024171842 0.021688016 -0.0026171186 -0.0008269328
0000e0 89 8c 76 3c 8a fc a9 bc 8e 4b f7 bc 09 17 6c bc
       0.015048155 -0.020750303 -0.030187394 -0.014409789
0000f0 b5 36 41 3d b8 55 5a ba 38 02 a9 bc 35 65 67 3b
       0.047171313 -0.0008328813 -0.02063094 0.0035308127
000100 32 67 39 bc 6b b5 74 3c aa 6c cd 3c b5 82 ee bc
       -0.011316108 0.014935832 0.02507623 -0.02911506
000110 58 17 c9 bc 0b 4a 07 bd 80 c3 d0 3b 59 15 9a 39
       -0.024547264 -0.033029597 0.0063709617 0.00029389074
000120 52 f1 81 3c e7 fd 2f bc 6f 18 1f 3d a1 c8 eb 3b
       0.01586214 -0.010741687 0.03884166 0.0071955477
000130 bb 3a 4b 3c d3 78 65 3c 64 4d 4d bc 36 10 82 3c
       0.012404139 0.0140058575 -0.012530658 0.01587687
000140 bc 46 22 bc dc 1a 87 bc ea c7 0f bd 2b 35 d5 3b
       -0.00990456 -0.0164923 -0.035102762 0.0065065823
000150 ac 5c b3 3c 27 fe f5 3c 52 61 a9 bb 5c b6 71 bc
       0.021894775 0.030028416 -0.005169072 -0.0147529505
000160 35 b1 a3 bc 89 6f 57 bc bb b3 55 bc 80 3d bc bc
       -0.01998196 -0.013149151 -0.013043339 -0.022978544
000170 7c 88 9a 3c 3d 69 3f bc ed ea c1 3c 58 f6 a1 3b
       0.018863909 -0.011682806 0.023671592 0.0049426965
000180 79 9f 92 3c 97 2a 04 bd 9d ab ba 3b eb 6e 7d bc
       0.017898308 -0.03226718 0.0056967274 -0.015468339

weight f4 [100, 100]
000000 bd 5a f2 3d 88 04 ab 3d 9a 4f f1 bc b4 c8 bc bd
       0.11833713 0.08350474 -0.029456902 -0.092179686
000010 98 a0 0d 3e a0 28 fe 39 b0 62 68 bd 25 fc db 3d
       0.13830793 0.00048476923 -0.05673474 0.10741452
000020 d3 a4 1b bd 5c c5 a8 bd 8c 00 e5 3d 33 7d 78 3d
       -0.037998985 -0.08240768 0.11181745 0.060666274
000030 e4 d5 ac 3d f7 04 ec 3d e8 89 bf bd b6 57 db bd
       0.08439234 0.115243845 -0.093524754 -0.10710089
000040 d4 39 a8 bd b2 1d c8 3d 14 49 ba bd 7d ed 5f 3d
       -0.08214155 0.09771289 -0.0909597 0.054669846
000050 c7 9e 7a 3d ff f5 e5 ba d8 4a 0f bd af c1 9c 3d
       0.061186578 -0.0017544626 -0.034983486 0.0765413
000060 ae e4 3d 3d 47 e9 e8 3d 21 84 f7 bd 55 3e 1d bd
       0.046360664 0.11372619 -0.120857485 -0.038389523
000070 17 70 2c bd 03 12 6b 3c c5 c7 23 be 15 30 bd 3c
       -0.042099085 0.014347556 -0.15994175 0.023094216
000080 f2 df 34 3e 5e cc 8b 3d 59 9d e9 3d ac 7f ba bd
       0.17663553 0.06826089 0.11406965 -0.09106383
000090 c8 6e e7 bd 1c ba 8a 3d 2b 51 c8 bd 9f b4 9f 3d
       -0.11300427 0.06773779 -0.097811066 0.077981226
0000a0 4c 52 1d 3d 05 aa 67 3d b5 d5 1c 3e 0f 3c 46 3e
       0.038408563 0.056558628 0.15315898 0.19358848
0000b0 df 2c 41 3c a2 95 45 3d 59 bf 53 3d 80 84 af 3d
       0.011790483 0.048238404 0.051696155 0.08570194
0000c0 85 bd 8a 3d 41 2e 54 bd 96 9a 4d 3d 2f 11 03 bc
       0.06774429 -0.051801924 0.050196253 -0.007999702
0000d0 a9 4b 56 3d 56 bc 41 bd 1f be 2b 3d 5c 09 0b 3e
       0.05231825 -0.04729875 0.04192936 0.13577789
0000e0 97 eb 14 bd 1e 8e 0d 3e b1 e1 6d bd 94 72 a2 3c
       -0.03635749 0.13823745 -0.058076564 0.019830026
0000f0 76 69 42 bd bd dc 1c be ec 81 46 bd 41 3d fd bd
       -0.047463857 -0.1531858 -0.048463747 -0.12365199
000100 15 1a eb bd 8f ec f5 bd e6 1b b6 3d c3 e3 f8 bd
       -0.11479584 -0.120080106 0.0889204 -0.12152817
000110 75 c2 23 3e 49 21 30 3e 25 7e d3 bc 35 9b ec 3c
       0.15992148 0.17200197 -0.025816986 0.028882602
000120 09 53 40 3d c9 c6 19 3e 09 7f 50 bd fa 52 84 3d
       0.04695419 0.15017237 -0.0509024 0.06461139
000130 23 02 33 3b af bc 9c 3d 92 67 0d be d4 e8 86 bb
       0.0027314506 0.07653176 -0.1380904 -0.0041171107
000140 b9 a1 c2 bc e8 58 11 3e 99 93 0c 3e 86 a0 15 3c
       -0.023758756 0.14194071 0.13728179 0.00913251
000150 b4 1a 3f bd 37 15 01 bd ec 3d 0d 3e 0f e4 95 3d
       -0.046656325 -0.031514373 0.13793153 0.07318889
000160 82 a4 94 3d 8f ab ec bd f4 ce 2a be 2b 51 00 3e
       0.0725794 -0.1155616 -0.16680509 0.12530963
000170 fa a5 00 be b3 d7 2f bd 56 89 16 be 13 fa ab bd
       -0.12563315 -0.042930316 -0.14700827 -0.08397307
000180 e4 33 fe bd 02 c2 a4 3d dc ee 37 3e f6 cb 3c bd
       -0.12412241 0.080448166 0.17962211 -0.04609295
000190 24 ac d7 3c 76 2f c3 bc da 2a fa 3d c4 58 54 be
       0.0263272 -0.023826342 0.122152045 -0.20736986
0001a0 9f 80 30 be de 33 2a 3e 6e 01 d5 bd b9 78 1d be
       -0.17236565 0.16621348 -0.10400663 -0.15378083
0001b0 0d 0d ed 3c 5a 9b b6 bd 81 f1 2c 3e 7f 17 24 be
       0.028936887 -0.0891635 0.16889001 -0.16024588
0001c0 b8 00 34 3d d0 8e 34 3d 3d be 83 3d ea 8d 7b 3c
       0.043945998 0.04408151 0.064327694 0.015353659
0001d0 91 ff 2d 3e 5f 42 df 3d 31 b6 31 be 4f 44 02 3e
       0.16992022 0.10901331 -0.17354657 0.1272137
0001e0 a8 23 2b bd eb cd 27 bb 2f 87 19 3d 11 b4 f4 3d
       -0.04178205 -0.0025604914 0.037482437 0.119484074
0001f0 05 65 15 3e 3f 0b 04 bd cd 6b 2b be 0f 47 13 3e
       0.14589317 -0.032237288 -0.16740341 0.14382575
000200 fd f1 06 be e8 ba 15 be bf 49 d9 bd 58 81 db 3d
       -0.13178249 -0.1462208 -0.10609769 0.1071803
000210 ca 96 ab 3d 7d 8e ee bd 34 bc a6 3d 57 bd 1e 3e
       0.0837837 -0.11648271 0.08141366 0.15501915
000220 76 f8 06 be ae dd a8 bd 73 16 b0 bd d4 8e ec bd
       -0.13180718 -0.08245407 -0.08598032 -0.1155068
000230 2e 4c 60 3a bd 7b f5 ba d5 d0 b7 bd c4 bb d6 3d
       0.00085562735 -0.0018728893 -0.089753784 0.10485032
000240 ab c4 e7 3d 9b a7 94 bb 48 86 03 3e fd 70 fc 3c
       0.11316808 -0.0045365817 0.12844193 0.030815596
000250 31 43 e4 bd 46 63 c6 bd 68 a4 2e 3d a6 64 8d bd
       -0.11145628 -0.09686904 0.04263726 -0.06903963
000260 ae 70 de bd 07 18 71 bd a0 b7 80 bd f8 6e 17 be
       -0.10861336 -0.058860805 -0.06285024 -0.14788425
000270 a9 16 24 be 12 ad c3 3d 34 51 b9 bd c3 ff 64 3d
       -0.16024269 0.09554495 -0.090486914 0.055907976
000280 b7 ca 88 bd ae 69 d9 bd 9b 72 41 bd 9f 37 f7 bd
       -0.0667929 -0.1061586 -0.047228437 -0.12071156
000290 71 65 2f 3e 5b 4f 9d bd 89 7b 29 3e 9c 56 26 bd
       0.1712854 -0.076811515 0.16551031 -0.04060994
0002a0 62 92 f8 3d 25 84 40 bc de 1e ad bd 6b 4f 2b 3e
       0.12137295 -0.011750256 -0.08453153 0.16729514
0002b0 21 33 c1 bd 53 40 01 be d3 11 93 bd 08 ee 98 3d
       -0.0943358 -0.12622194 -0.07181134 0.07467276
0002c0 f8 80 00 3e d1 c8 ae 3d 86 d8 84 3c a8 e7 25 3d
       0.12549198 0.085343964 0.016216528 0.040504128
0002d0 61 a4 61 bd df e9 92 3d 60 5f a5 3d 7a 37 28 be
       -0.055088405 0.071735136 0.08074832 -0.16427413
0002e0 81 54 cc 3c a4 55 de bd eb 05 30 be d3 0f 9f bd
       0.024942638 -0.108561784 -0.17189758 -0.0776669
0002f0 6d bb 5f bd ec ce b0 bd 97 31 54 3e b8 3e 99 3c
       -0.054622103 -0.08633217 0.20722042 0.018706664
000300 06 f8 15 be e3 9c ca bd 4f 08 ea bc ae 94 5d bd
       -0.14645395 -0.09893205 -0.028568415 -0.05409687
000310 ca 13 00 3d cf e0 3a 3d 51 d7 fb 3d f5 dd a8 3d
       0.031268872 0.04562455 0.12296928 0.0824546
000320 41 75 55 bd 1e 88 32 3d 42 0d f5 bd 0a e1 59 3e
       -0.052113775 0.043586843 -0.11965419 0.21277252
000330 8d fd 93 bd 5d 50 11 be 2a f1 37 3d 5b 00 f4 bc
       -0.07226095 -0.14190812 0.044907726 -0.029785326
000340 18 a2 09 3e 21 d2 56 3e 07 41 3d 3e d1 cc 2b 3e
       0.1344074 0.20978595 0.18481837 0.1677735
000350 e6 18 02 3e 67 3d 09 ba 42 0c d2 bd 64 c8 da 3d
       0.1270481 -0.0005235285 -0.10256244 0.10682753
000360 8e 93 a6 bb 48 4a 3e 3c ee e4 3f 3d 82 30 c6 bd
       -0.005083508 0.01161439 0.046849184 -0.09677221
000370 be 56 b1 bd e0 98 0d 3e bc 93 ba bd dd 4c a8 bc
       -0.08659123 0.13827848 -0.09110209 -0.020544464
000380 34 68 9e bc 07 58 33 3e 5e 88 b2 3b 20 ec dc 3d
       -0.019336797 0.17514049 0.005448385 0.10787225
000390 d1 30 32 be e2 77 dc bd 87 fa 01 be 0a 9f 81 3d
       -0.17401434 -0.10765053 -0.12693225 0.063291624
0003a0 f4 d0 98 3d c6 1e c2 3d b5 4c 82 bd 0d 03 e0 bc
       0.0746173 0.09478526 -0.06362287 -0.027345205
0003b0 8f b3 36 3e a1 44 87 bd 96 be c7 bc cc bd fd 3d
       0.17841934 -0.06604887 -0.02438287 0.123897165
0003c0 54 a3 a4 bd 97 ca c2 bb ed be be bc 48 f9 a1 3d
       -0.08038965 -0.0059445607 -0.0232844 0.07908875
0003d0 ad fd 7b bd 5a 14 33 bd 1b 66 17 be 38 f3 9f 3d
       -0.06152122 -0.04372058 -0.14785044 0.07810062
0003e0 97 01 e7 3d 00 f4 d5 bc f7 76 a4 bd be 1f 9b bd
       0.112796 -0.026117325 -0.08030503 -0.07574414
0003f0 82 21 c9 bd a8 82 b6 3c 98 45 e5 bd 57 96 82 3d
       -0.09820844 0.022279099 -0.111949146 0.06376331

bias f4 [100]
000000 24 43 4f bc 2c 90 9d bc d8 ae 47 3b 56 64 d4 bc
       -0.012650285 -0.019233786 0.0030469205 -0.02592675
000010 31 36 50 bc eb 47 c6 bc 6c b1 21 3d 5c c5 d5 bc
       -0.012708233 -0.024204215 0.039475843 -0.026095085
000020 b5 1c 2b bc bd f6 12 3c fa 0c 94 3b 64 89 5e 3c
       -0.010443856 0.00896996 0.0045181485 0.013582561
000030 30 c6 ae 3c 31 a4 3d ba 10 9c 2a 3c 79 48 12 3d
       0.021334738 -0.0007234244 0.010413185 0.035713647
000040 37 ba d5 bc 68 d3 b5 3c ba 35 d4 3b 7c 06 9a bc
       -0.02608977 0.022195533 0.0064761313 -0.01880192
000050 17 76 ca bc bf 27 d5 3c 98 46 2f 3c a2 db 8b 3c
       -0.024714513 0.026019929 0.010697983 0.017072503
000060 2f 44 6d 3c 8f a7 38 bc cd 0d f7 3c 15 23 50 bc
       0.014481588 -0.011270418 0.030157948 -0.012703677
000070 2a 74 12 3c b2 b2 69 bc aa 6f 06 bd 2c 8b fc bb
       0.0089388285 -0.014263796 -0.032821335 -0.0077070203
000080 4b 57 d7 3c 56 ef d0 39 03 be e0 ba c4 1e 37 3c
       0.026286742 0.0003985117 -0.0017146472 0.011176769
000090 73 86 cc 3c 53 2e b9 3c 54 c3 a0 3c 38 4d e2 bc
       0.024966454 0.022605097 0.01962439 -0.027624711
0000a0 1f c7 94 bc 3e e1 07 3b dc 33 74 3c 51 ce 99 3c
       -0.018161355 0.002073362 0.014904942 0.018775137
0000b0 4c 45 cb bc d3 3f c9 bc f4 b2 6b 3c 34 0a eb bc
       -0.024813317 -0.024566567 0.0143859275 -0.028691389
0000c0 c4 e9 48 3d 97 f3 d0 3b e2 85 2c 3d 02 34 a5 3c
       0.04905106 0.0063766944 0.042119868 0.0201664
0000d0 f1 04 b4 3c 66 4a 00 bd c4 c0 5f bc 27 1d 5f bc
       0.021975012 -0.031320952 -0.013656799 -0.01361779
0000e0 5f a1 db 3c 99 5f b7 3c 05 86 c1 3c bc 73 a2 3c
       0.026810346 0.022384452 0.023623476 0.019830577
0000f0 a5 8b 15 3d af eb 49 3c fc 68 7d 3c 59 03 36 bd
       0.03651013 0.012324258 0.015466925 -0.044436786
000100 dc 04 b8 3c d7 58 27 bd 9d 48 c1 3c 63 6e 00 3d
       0.022463255 -0.04085621 0.023594195 0.031355273
000110 49 d9 6d bc b9 0e af 3c be 2f 95 bc 1d d1 22 bc
       -0.014517137 0.021369325 -0.018211242 -0.009937552
000120 ad c8 dd bc 71 ba f9 3c 9d 4c 98 3c c2 9f 09 bd
       -0.027073229 0.03048441 0.01859122 -0.033599623
000130 0c be 61 3c 8a 70 3f bc 6e e7 06 bd 7b 5a a8 bc
       0.013778221 -0.011684546 -0.032935552 -0.020550957
000140 9c 9e 84 bc e0 a8 e5 bc 2f 4d 06 bd e5 9c d8 bc
       -0.016188912 -0.028034627 -0.03278845 -0.026442
000150 79 df 3d bc dd c2 96 3c 65 81 99 bc fe 7b f3 bc
       -0.011588925 0.018403465 -0.018738458 -0.02972221
000160 87 ed 0d 3c af 19 e6 bb 3e 09 1f 3d 84 c7 7a bc
       0.008662588 -0.0070221047 0.038827173 -0.015306357
000170 e6 0d 60 3b 06 74 30 3d 1e db 97 3c dc 35 ce bc
       0.0034187972 0.0430794 0.0185371 -0.025172167
000180 18 f4 de 3c b7 c4 d4 3b 6d 01 47 bd 2a ca 71 3c
       0.027216002 0.006493177 -0.048585344 0.014757672
