Kovasznay/generate_resample_point.pth (torch, 69333 bytes, 16 tensors)

weight f4 [50, 2]
0.20325243 0.19290768 0.34469464 0.030936887 -0.23179957 0.04409809 0.17367488 -0.096777886
0.24754713 0.3750225 -0.19587642 -0.3111761 -0.122191414 0.14149198 -0.25301275 -0.005502504
-0.06137257 0.021257032 -0.2176152 -0.31871605 0.22684124 -0.14883767 -0.28264683 0.10050772
-0.00010708379 0.28293246 -0.058552183 0.0675316 -0.15675123 -0.029476812 0.0056089503 0.31388885
0.11792417 0.14230835 0.3114027 0.25408533 0.13932668 -0.13995399 -0.052409716 -0.18196549
0.18310554 0.33770418 -0.05935661 0.36576146 -0.29812643 0.017202951 -0.09331834 0.1874864
0.27253225 -0.30084258 -0.05492122 0.0060099433 -0.28068465 0.12924026 -0.15062879 0.38862872
-0.16947202 -0.012721914 0.12197416 -0.2661937 0.010078183 0.18950534 -0.25149655 0.146374
-0.26604939 -0.3573278 -0.34920788 0.15621221 -0.30024847 0.10031519 -0.16863711 0.39234832
0.24364993 -0.10402257 -0.108161226 0.35050318 0.09539997 0.23674478 -0.14616153 0.29251677
-0.075875446 -0.28073424 -0.23338653 0.37024826 -0.2292404 -0.2726364 -0.2387164 -0.2325318
0.017424714 -0.24095555 0.13434301 0.11722344 0.09082818 0.12658457 -0.024048833 0.43236846
0.08172739 0.126097 -0.00018169686 0.21999736
00000000: 6821 503e 9789 453e d17b b03e 5b6f fd3c
00000010: de5c 6dbe 33a0 343d d4d7 313e 7c33 c6bd
00000020: ff7c 7d3e f302 c03e d493 48be 7952 9fbe
00000030: 7e3f fabd 46e3 103e e38a 81be 594e b4bb
00000040: ce61 7bbd 3a23 ae3c 85d6 5ebe c02e a3be
00000050: 1249 683e e768 18be 16b7 90be fed6 cd3d
00000060: 2c92 e0b8 86dc 903e 6ad4 6fbd 024e 8a3d
00000070: 6583 20be 5b79 f1bc 49cb b73b 0ab6 a03e
00000080: 3a82 f13d 48b9 113e 2d70 9f3e 7917 823e
00000090: a7ab 0e3e 1950 0fbe 92ab 56bd 2955 3abe
000000a0: 0580 3b3e 90e7 ac3e eb1f 73bd 1645 bb3e
000000b0: 07a4 98be 34ed 8c3c b01d bfbd 6ffc 3f3e
000000c0: 5989 8b3e 0a08 9abe 13f5 60bd 0fef c43b
000000d0: e6b5 8fbe 8f57 043e 6f3e 1abe 58fa c63e
000000e0: 138a 2dbe 936f 50bc 97cd f93d 8a4a 88be
000000f0: f71e 253c b00d 423e 28c4 80be 11e3 153e
00000100: a037 88be abf3 b6be 60cb b2be 18f6 1f3e
00000110: 2bba 99be 0d72 cd3d 35af 2cbe e1e1 c83e
00000120: 5e7f 793e c909 d5bd a283 ddbd 2775 b33e
00000130: 0f61 c33d 396d 723e 5eab 15be c2c4 953e
00000140: 9664 9bbd 66bc 8fbe e1fc 6ebe 2e91 bd3e
00000150: ffbd 6abe 0097 8bbe 1272 74be d11c 6ebe
00000160: 46be 8e3c 0dbd 76be 3791 093e d812 f03d
00000170: 2004 ba3d 639f 013e 0f02 c5bc 665f dd3e
00000180: b160 a73d 921f 013e e185 3eb9 fd46 613e

bias f4 [50]
-0.03998458 0.040870495 -0.0505603 -0.05394006 0.11947116 -0.07672128 -0.0056741405 -0.02136886
-0.043906257 0.13002007 -0.022616131 0.006707247 0.0014739013 -0.0551015 -0.059018586 0.017663384
0.049587216 0.08311159 -0.042377166 -0.042907763 0.05397253 -0.048525795 -0.04707072 0.023861622
0.05953157 0.17524958 0.019826958 -0.078742824 -0.03799127 0.0657018 0.041676223 -0.070896655
0.015556008 0.0038016802 0.043960847 -0.08962194 0.04111277 0.09763801 0.1673074 -0.027696097
0.036099922 0.05957354 0.06610554 0.023035035 0.14623784 -0.09591214 0.05585062 -0.06925531
0.0009729367 -0.045232527
00000000: dfc6 23bd d267 273d 5118 4fbd 41f0 5cbd
00000010: 4cad f43d 0c20 9dbd 24ee b9bb bf0d afbc
00000020: 0cd7 33bd fb23 053e 7745 b9bc 77c8 db3b
00000030: ec2f c13a 1cb2 61bd 79bd 71bd cdb2 903c
00000040: f71b 4b3d 6936 aa3d ae93 2dbd 0dc0 2fbd
00000050: 4d12 5d3d fcc2 46bd 3acd 40bd 7379 c33c
00000060: 60d7 733d a074 333e 256c a23c eb43 a1bd
00000070: bc9c 1bbd aa8e 863d b0b4 2a3d 4432 91bd
00000080: a0de 7e3c 9c25 793b 4a10 343d b58b b7bd
00000090: dd65 283d 70f6 c73d a252 2b3e ede2 e2bc
000000a0: 83dd 133d 6203 743d 5762 873d f8b3 bc3c
000000b0: 5fbf 153e 966d c4bd 9fc3 643d bad5 8dbd
000000c0: ad0c 7f3a be45 39bd

weight f4 [50, 50]
0.19904932 0.18937588 -0.055334587 -0.13547526 -0.14488834 0.21079 -0.12664321 0.15642926
0.1545158 -0.23986949 -0.19688697 -0.075203195 0.014680766 -0.041929774 0.13987148 -0.10283401
-0.22984129 -0.14793967 -0.16367438 0.016852047 -0.13598076 0.053783033 0.022474885 -0.08890539
0.15109025 -0.28810617 0.10012914 -0.1638752 0.020466873 0.049066912 0.0026279131 0.21207438
0.11538871 -0.050581194 0.116013326 -0.12620057 -0.021950113 -0.20786035 -0.110319346 0.029818289
-0.17266017 -0.16484474 -0.018356219 -0.06594516 -0.1931463 0.12077395 -0.1704807 0.2176075
0.16440728 -0.095100604 -0.09921122 -0.02817791 0.2646994 -0.03518859 -0.048585925 -0.021285648
-0.15243922 -0.19019294 -0.1531474 0.017385062 0.20391852 -0.111251555 -0.1546263 -0.1770274
-0.16004084 -0.1686437 0.14537278 -0.11449486 -0.19524167 0.072816186 0.15370037 -0.20939745
-0.19045383 0.2266035 0.06672106 0.017965874 0.10816322 -0.03142238 0.08142367 0.17662235
0.059899524 0.15201513 -0.036214035 -0.13728201 0.18907069 -0.20698062 0.21265689 0.0043793023
-0.24111164 -0.12797818 -0.0034644236 0.22211918 0.15382044 0.0585528 -0.1029014 0.14179169
-0.18486224 -0.030488709 0.072587326 0.15169726 0.018835861 0.18412249 0.06438538 -0.09161791
-0.027013958 0.03097059 0.20837954 -0.05965833 -0.18017308 -0.010426044 0.091636404 0.027733456
-0.19288972 0.1683512 -0.019951586 -0.031477254 -0.0853094 -0.14611965 0.2201689 0.15760668
-0.10967645 -0.210183 -0.00069196546 0.008739536 0.205343 0.22550061 -0.23493671 -0.036653407
-0.18095706 -0.13809556 -0.034405876 -0.13339308 -0.21390843 0.1381276 0.1862837 -0.08756989
-0.03224855 -0.16737568 -0.17844571 -0.054036185 0.03267953 0.15105636 0.16796245 0.1315793
-0.09892039 -0.17206948 0.15396611 0.13307689 -0.03284263 0.21004845 -0.027802346 -0.1522994
-0.072447345 -0.23310688 0.12602422 0.17058866 0.023050096 -0.12060606 0.011525795 0.025751222
-0.1540879 0.14271627 0.25341147 0.26786783 -0.2309157 0.1786395 0.09125806 0.08581157
0.20821562 0.024295488 -0.01172643 -0.16587643 -0.0831766 0.12942018 0.015665878 -0.11547723
0.22928265 0.2893718 -0.19607311 -0.21479923 -0.08943281 0.08048203 -0.23607455 0.1315264
-0.21245585 0.15593477 -0.07079579 0.078003444 0.21793784 0.15853857 -0.11458667 0.24375375
-0.16243185 0.20917296 -0.07485848 0.023413004 0.008534941 0.29232746 0.24715795 0.015193735
0.21171376 -0.14445402 0.020285422 -0.15718104 -0.17489661 -0.22828686 -0.015181618 -0.18721527
0.16037397 0.046967562 0.20776309 0.1584125 -0.023245635 -0.031795256 0.2671211 -0.07384561
0.13475794 0.18954465 -0.14975536 -0.23569518 -0.18125272 0.21676849 0.09997264 0.0018485799
-0.20005953 -0.07080837 0.22967614 -0.1740145 0.030606857 -0.11632155 -0.17115808 0.23298027
0.17462046 0.14640674 0.169575 -0.04791751 -0.10041739 -0.003381383 0.015400953 -0.19931103
0.11009754 0.013372849 -0.03019449 0.18831728 0.057879474 -0.008461263 0.111011505 -0.074568525
0.19283183 -0.06357287 -0.07732404 0.019287687 0.03385057 -0.055334136 0.060642105 -0.14359565
00000000: 96d3 4b3e c0eb 413e 85a6 62bd 07ba 0abe
00000010: 9c5d 14be 55d9 573e c2ae 01be fe2e 203e
00000020: 6439 1e3e 59a0 75be bd9c 49be 2204 9abd
00000030: 9887 703c 8ebe 2bbd 783a 0f3e a39a d2bd
00000040: 845b 6bbe 7f7d 17be 429a 27be 4e0d 8a3c
00000050: 8a3e 0bbe 994b 5c3d 401d b83c 0714 b6bd
00000060: 67b7 1a3e a782 93be 8210 cd3d e7ce 27be
00000070: 25aa a73c 63fa 483d 1139 2c3b 072a 593e
00000080: ea50 ec3d 3a2e 4fbd 6598 ed3d b93a 01be
00000090: b9d0 b3bc 58d9 54be 1cef e1bd 7c45 f43c
000000a0: d4cd 30be 0fcd 28be c85f 96bc 420e 87bd
000000b0: 25c8 45be 5558 f73d 7e92 2ebe 80d4 5e3e
000000c0: 625a 283e 1bc4 c2bd 412f cbbd 5cd5 e6bc
000000d0: ae86 873e e921 10bd 0902 47bd 3d5f aebc
000000e0: 0719 1cbe f0c1 42be acd2 1cbe 1e6b 8e3c
000000f0: 04d0 503e dbd7 e3bd 5b56 1ebe ac46 35be
00000100: bfe1 23be efb0 2cbe 9adc 143e 487c eabd
00000110: 6fed 47be a720 953d a163 1d3e 496c 56be
00000120: 5406 43be bf0a 683e 0da5 883d 2b2d 933c
00000130: ae84 dd3d c1b4 00bd 74c1 a63d 7ddc 343e
00000140: 3459 753d dba9 1b3e 2b55 14bd a893 0cbe
00000150: bf9b 413e baf2 53be bac2 593e 4080 8f3b
00000160: f8e5 76be b60c 03be 620b 63bb 3673 633e
00000170: 1b83 1d3e 10d5 6f3d f8bd d2bd d731 113e
00000180: 874c 3dbe 75c3 f9bc aaa8 943d 8756 1b3e
00000190: aa4d 9a3c 9b8a 3c3e 7bdc 833d 2ca2 bbbd
000001a0: 604c ddbc 09b6 fd3c 7261 553e 4b5c 74bd
000001b0: 4b7f 38be 00d2 2abc deab bb3d 4631 e33c
000001c0: e284 45be 4264 2c3e 8271 a3bc 4bee 00bd
000001d0: b2b6 aebd 64a0 15be f573 613e a563 213e
000001e0: 0c9e e0bd 363a 57be 0465 35ba 4530 0f3c
000001f0: 6f45 523e a2e9 663e 4093 70be e221 16bd
00000200: cf4c 39be ec68 0dbe 2ded 0cbd 3298 08be
00000210: d00a 5bbe 5271 0d3e 27c1 3e3e d857 b3bd
00000220: 0e17 04bd 8864 2bbe 79ba 36be 0c55 5dbd
00000230: f9da 053d 85ae 1a3e 59fe 2b3e b9bc 063e
00000240: c696 cabd fb32 30be 4ba9 1d3e 4f45 083e
00000250: fe85 06bd f116 573e bfc1 e3bc 60f4 1bbe
00000260: 465f 94bd 92b3 6ebe 7e0c 013e cbae 2e3e
00000270: 8ed3 bc3c 4f00 f7bd b0d6 3c3c 3af4 d23c
00000280: 38c9 1dbe 3724 123e 26bf 813e f925 893e
00000290: 2a75 6cbe 46ed 363e 81e5 ba3d fabd af3d
000002a0: 7a36 553e 5507 c73c 3620 40bc 83db 29be
000002b0: 7e58 aabd b986 043e ba55 803c 537f ecbd
000002c0: 12c9 6a3e 8a28 943e 64c7 48be 54f4 5bbe
000002d0: 8d28 b7bd c3d3 a43d 87bd 71be dbae 063e
000002e0: 078e 59be 5dad 1f3e 62fd 90bd 45c0 9f3d
000002f0: 192b 5f3e ef57 223e 6bac eabd 959a 793e
00000300: 8954 26be 7031 563e 674f 99bd a1cc bf3c
00000310: 23d6 0b3c f2ab 953e f916 7d3e 25ef 783c
00000320: 7ecb 583e c1eb 13be 9d2d a63c 11f4 20be
00000330: 1918 33be 08c4 69be 52bc 78bc 5cb5 3fbe
00000340: 1339 243e 0f61 403d d9bf 543e e336 223e
00000350: a16d bebc be3b 02bd 19c4 883e 5e3c 97bd
00000360: fcfd 093e fe17 423e 7859 19be 145a 71be
00000370: 509a 39be 8ff8 5d3e 75be cc3d 0c4c f23a
00000380: 68dc 4cbe fb03 91bd 3930 6b3e db30 32be
00000390: 3bbb fa3c fe39 eebd 1044 2fbe 6192 6e3e
000003a0: b5cf 323e a6eb 153e 12a5 2d3e 2745 44bd
000003b0: a2a7 cdbd 319a 5dbb 4754 7c3c 3118 4cbe
000003c0: d27a e13d cb19 5b3c 6f5a f7bc 3fd6 403e
000003d0: 0713 6d3d 1ca1 0abc 005a e33d 62b7 98bd
000003e0: b575 453e 7e32 82bd 115c 9ebd 3601 9e3c
000003f0: e5a6 0a3d 0ca6 62bd db63 783d bd0a 13be

bias f4 [50]
-0.091521926 -0.017069636 -0.026198082 -0.026843917 -0.010961855 0.028030924 0.03641237 0.036148496
0.044586945 -0.009205353 -0.028806321 -0.043314032 -0.10055976 0.03623305 0.044885192 -0.12896822
0.059554413 -0.0192704 -0.08025452 -0.0027506377 0.07007196 -0.009138729 0.0296272 0.019512804
0.17903468 -0.00027254125 0.026138058 0.0763387 0.0038494607 -0.004776454 0.047237743 0.11151849
-0.09343813 -0.021715894 -0.07213546 0.06926964 0.0096622 0.09617903 0.0033908123 -0.029901527
-0.047581337 -0.0043863542 -0.018623201 -0.08364047 -0.0072889957 0.04273416 0.054238282 -0.025199711
-0.004695515 0.022188216
00000000: d96f bbbd 9fd5 8bbc 5c9d d6bc c6e7 dbbc
00000010: 5a99 33bc 1ca1 e53c 2325 153d 7210 143d
00000020: cda0 363d 0dd2 16bc 3cfb ebbc 0e6a 31bd
00000030: 47f2 cdbd 1b69 143d 89d9 373d 3f10 04be
00000040: 54ef 733d f5dc 9dbc 7b5c a4bd 0b44 34bb
00000050: e381 8f3d 9cba 15bc beb4 f23c 51d9 9f3c
00000060: de54 373e dee3 8eb9 7b1f d63c 7757 9c3d
00000070: 3c47 7c3b cd83 9cbb 5d7c 413d ce63 e43d
00000080: 7e5c bfbd 88e5 b1bc c2bb 93bd 3edd 8d3d
00000090: 344e 1e3c 83f9 c43d 6438 5e3b 0cf4 f4bc
000000a0: a6e4 42bd 68bb 8fbb af8f 98bc b24b abbd
000000b0: 87d8 eebb 040a 2f3d f628 5e3d a06f cebc
000000c0: d6dc 99bb 10c4 b53c

weight f4 [50, 50]
-0.06828308 0.097806305 0.1359499 -0.057007268 0.03948708 -0.18938509 0.15060644 -0.09453319
-0.17077245 -0.06006645 0.119420335 0.12006432 -0.086165376 0.193442 0.09431785 -0.22537392
-0.011889055 -0.04418086 0.18612649 0.013392768 -0.19480363 -0.11205267 0.015653905 -0.08374917
0.21312644 -0.18832737 0.25080347 -0.20677796 0.023745991 0.20638792 -0.15494978 0.15626204
-0.21587196 0.1716042 0.07805258 0.14072403 -0.06143411 -0.16481042 0.010757421 -0.26002935
-0.008857093 0.041585024 -0.08446643 0.041718714 -0.26348883 0.1306926 -0.05179369 0.04023011
0.23115964 0.24457915 -0.018127369 0.019847577 0.20780608 -0.10641896 0.19603622 -0.032088883
0.109894834 0.0033375297 0.09524597 0.055609684 0.14062989 0.08223522 0.05843984 -0.21755588
-0.120936945 0.17358187 -0.11811642 0.0777304 0.07794421 -0.18173781 0.12219927 0.16128004
0.13285583 0.21778427 0.08068267 -0.15232936 -0.08757218 -0.08167556 0.22649708 -0.23219119
-0.24765374 -0.1128368 0.16054486 0.037356522 -0.21133408 -0.0040345388 0.24153884 -0.1959578
-0.113578364 -0.13127819 0.2395244 0.22482824 0.080532975 -0.22378251 0.17796609 -0.21139742
0.21096748 0.0337249 -0.013186316 0.17156142 0.059975445 0.07571213 -0.23942544 -0.13753091
-0.19504033 0.12546104 -0.13514492 0.20973141 -0.07310641 0.21219468 0.18437399 -0.07203623
-0.20734313 0.1480552 0.19915946 -0.1444493 -0.019118376 -0.020165468 0.08610646 -0.06783276
0.15798956 -0.15572421 -0.24706028 0.07914789 -0.21998642 -0.07505963 0.12265357 -0.21519826
0.24700502 0.002187663 -0.13849035 -0.0114308465 -0.14544585 -0.0137188155 0.06743943 -0.053918168
-0.14831847 -0.06890273 0.05282634 -0.12409441 0.020552488 -0.1840838 -0.017497044 0.009087373
-0.02071607 -0.2280254 0.043286085 -0.060735654 0.08988481 -0.06061347 0.068904996 0.17541212
-0.21956563 0.19772027 0.050059132 -0.07252463 0.031194095 -0.17012978 0.11781219 -0.14797154
-0.086152576 0.24990615 0.016085986 -0.15452747 0.044524428 0.23611128 -0.094269276 0.1171764
0.16368158 0.070201725 0.20124678 -0.2536542 -0.15498404 -0.029219149 0.121416844 0.053805325
0.13836408 0.041068517 0.04009547 0.073158816 0.10888791 -0.09278273 0.1061828 -0.087186
-0.026910214 -0.07175628 -0.13703206 0.12547968 0.065061316 -0.22543629 0.021289375 0.10992617
0.22954108 0.21098846 -0.01417654 -0.105285235 -0.016320135 -0.21317032 0.05133324 -0.18391171
0.14643227 -0.22092238 -0.15647739 0.079274386 0.20589294 0.16608682 -0.16190739 -0.12822817
-0.044348937 -0.26125807 0.12211245 0.25367028 0.25426352 -0.14177239 -0.10590782 0.07744895
0.052132856 -0.06782244 0.23903468 -0.13368672 -0.06706022 0.20545465 -0.05980225 -0.059105646
-0.061920423 -0.111672215 -0.14586423 -0.17415266 -0.14012276 -0.13024585 0.030310897 -0.22764382
0.14499554 0.023909524 0.15002282 -0.08342982 0.088987805 -0.16237193 0.16811141 0.1955448
-0.09574789 0.088846795 -0.06371814 -0.07230184 -0.03790299 -0.22805813 -0.25728184 -0.13665357
0.22466904 0.1719142 0.21185376 0.22728059 -0.06785236 -0.09948604 0.23447205 -0.13726987
00000000: 00d8 8bbd ac4e c83d 7336 0b3e 7480 69bd
00000010: 34bd 213d 2aee 41be 9338 1a3e 9e9a c1bd
00000020: f9de 2ebe 3d08 76bd a692 f43d 48e4 f53d
00000030: 7977 b0bd a915 463e b829 c13d 6cc8 66be
00000040: 50ca 42bc fdf6 34bd f197 3e3e 576d 5b3c
00000050: 9a7a 47be df7b e5bd 9e3c 803c af84 abbd
00000060: d13d 5a3e e4d8 40be 5069 803e 9abd 53be
00000070: f486 c23c 5b57 533e 28ab 1ebe 2803 203e
00000080: 8a0d 5dbe 03b9 2f3e 08da 9f3d f619 103e
00000090: 55a2 7bbd 10c4 28be e53f 303c 9122 85be
000000a0: 571d 11bc 0f55 2a3d bcfc acbd 3ee1 2a3d
000000b0: 02e8 86be 48d4 053e 9f25 54bd 54c8 243d
000000c0: 1db5 6c3e f572 7a3e d97f 94bc 6397 a23c
000000d0: 1ecb 543e 2ff2 d9bd b8bd 483e a26f 03bd
000000e0: 8b10 e13d 75ba 5a3b 5210 c33d fbc6 633d
000000f0: 4801 103e f06a a83d 9d5e 6f3d f8c6 5ebe
00000100: caad f7bd 72bf 313e 06e7 f1bd 1e31 9f3d
00000110: 37a1 9f3d 7a19 3abe 9c43 fa3d 9826 253e
00000120: 5c0b 083e d702 5f3e f53c a53d 3afc 1bbe
00000130: 0b59 b3bd 8445 a7bd daee 673e 87c3 6dbe
00000140: f198 7dbe fb16 e7bd df65 243e 2703 193d
00000150: f667 58be 2a34 84bb f555 773e 29a9 48be
00000160: c69b e8bd ca6d 06be e245 753e 6039 663e
00000170: 79ee a43d 3e27 65be be3c 363e 9178 58be
00000180: dc07 583e 1f23 0a3d 6b0b 58bc ccad 2f3e
00000190: d0a8 753d f60e 9b3d f12b 75be e7d4 0cbe
000001a0: a7b8 47be dc78 003e 6e63 0abe d5c3 563e
000001b0: d0b8 95bd 9049 593e 89cc 3c3e bb87 93bd
000001c0: c251 54be c89b 173e 75f0 4b3e 84ea 13be
000001d0: 249e 9cbc 0d32 a5bc 9558 b03d e7eb 8abd
000001e0: 04c8 213e 2b76 1fbe 5ffd 7cbe 4a18 a23d
000001f0: 1f44 61be ddb8 99bd cb31 fb3d ef5c 5cbe
00000200: e2ee 7c3e e55e 0f3b 6ad0 0dbe 7248 3bbc
00000210: c2ef 14be e2c4 60bc af1d 8a3d 4cd9 5cbd
00000220: cce0 17be e01c 8dbd 6f60 583d 3625 febd
00000230: b15d a83c 7780 3cbe f655 8fbc 34e3 143c
00000240: bfb4 a9bc 7e7f 69be c04c 313d f3c5 78bd
00000250: 8715 b83d d445 78bd 101e 8d3d 3c9f 333e
00000260: d0d5 60be 2f77 4a3e ce0a 4d3d cb87 94bd
00000270: c28a ff3c 8036 2ebe 8447 f13d da85 17be
00000280: c370 b0bd 66e7 7f3e c2c6 833c 733c 1ebe
00000290: 3f5f 363d 28c7 713e 4010 c1bd 2efa ef3d
000002a0: 259c 273e ecc5 8f3d a313 4e3e f7de 81be
000002b0: 23b4 1ebe ff5c efbc 65a9 f83d f962 5c3d
000002c0: 50af 0d3e 7637 283d 263b 243d 4ad4 953d
000002d0: a000 df3d df04 bebd 5e76 d93d 938e b2bd
000002e0: cf72 dcbc f5f4 92bd 2252 0cbe bf7d 003e
000002f0: de3e 853d c5d8 66be 0e67 ae3c f920 e13d
00000300: d10c 6b3e 5c0d 583e b844 68bc c99f d7bd
00000310: ceb1 85bc 5249 5abe ce42 523d 5a53 3cbe
00000320: 57f2 153e 7a39 62be 9c3b 20be 9c5a a23d
00000330: 99d5 523e aa12 2a3e 0dcb 25be 3f4e 03be
00000340: 3ba7 35bd 9ec3 85be 1816 fa3d 12e1 813e
00000350: d42e 823e c82c 11be 33e6 d8bd 8e9d 9e3d
00000360: 4389 553d 7ee6 8abd 82c5 743e 2ce5 08be
00000370: de56 89bd b462 523e 34f3 74bd c318 72bd
00000380: 45a0 7dbd 67b4 e4bd 6f5d 15be 1355 32be
00000390: 577c 0fbe 2b5f 05be 8f4e f83c 761b 69be
000003a0: b679 143e e8dd c33c 959f 193e 41dd aabd
000003b0: 3d3f b63d d444 26be 6625 2c3e e53c 483e
000003c0: 7817 c4bd 4ff5 b53d a87e 82bd fd12 94bd
000003d0: 2a40 1bbd 1288 69be 72ba 83be eaee 0bbe
000003e0: a40f 663e 470a 303e 31f0 583e 3ebc 683e
000003f0: 2ef6 8abd 56bf cbbd 7119 703e 7990 0cbe

bias f4 [50]
0.010391391 -0.0032177712 -0.03221944 -0.019687686 -0.056068525 -0.027417917 -0.06478462 -0.0053409487
0.009391961 -0.009469486 -0.062037393 -0.008704277 0.055679604 -0.041663997 0.032350015 -0.006720467
-0.020256002 0.019364355 -0.019351915 0.04307059 0.0030834377 0.00094731036 0.028945439 -0.034898777
-0.010097151 0.04865894 0.062086027 0.11380487 -0.05147943 -0.009530759 0.06483203 -0.001873954
-0.014304002 0.029195035 -0.021470416 0.009718321 -0.04059547 -0.058060367 -0.00085922045 -0.0099632535
0.04300368 -0.035292782 -0.06779598 0.017244298 -0.020190543 0.0014507588 -0.019520868 -0.051908083
-0.082919516 -0.0010920473
00000000: a740 2a3c 3ee1 52bb 88f8 03bd 1248 a1bc
00000010: 1ca8 65bd 8a9b e0bc cdad 84bd 2003 afbb
00000020: bde0 193c e725 1bbc ec1a 7ebd 629c 0ebc
00000030: 4c10 643d dea7 2abd 7381 043d 5d37 dcbb
00000040: eaef a5bc ffa1 9e3c e887 9ebc c96a 303d
00000050: 8013 4a3b ec54 783a fc1e ed3c 05f2 0ebd
00000060: 856e 25bc 994e 473d eb4d 7e3d 8712 e93d
00000070: 18dc 52bd e726 1cbc a8c6 843d 769f f5ba
00000080: 555b 6abc 6d2a ef3c bae2 afbc 9839 1f3c
00000090: 7047 26bd b5d0 6dbd 4f3d 61ba ea3c 23bc
000000a0: a024 303d 2a8f 10bd 9ed8 8abd ea43 8d3c
000000b0: a366 a5bc 6327 be3a 3aea 9fbc 929d 54bd
000000c0: b5d1 a9bd 0723 8fba

weight f4 [50, 50]
0.24317984 -0.18304493 0.2551587 -0.17022423 -0.14415988 0.22715394 0.1650431 -0.21402518
0.071524166 0.041994516 -0.23997317 0.18705815 0.09566943 0.15619214 0.12863702 -0.122337855
-0.08050794 -0.065662466 -0.0467863 -0.22710386 0.09007143 0.22360966 0.17992581 0.05578938
0.07509387 -0.14343894 -0.23816447 0.14609239 -0.04522003 0.18841527 -0.30414107 0.030857464
0.23569673 -0.066451415 -0.025998766 -0.087706394 -0.09302118 -0.06607699 -0.2208256 -0.00078248786
-0.14977922 0.15862219 -0.3028009 0.25232485 -0.15244628 0.0777436 0.112623036 -0.007886731
0.04116337 0.1758639 -0.28034702 0.1894985 0.17122349 -0.03094828 0.120546505 -0.13120823
0.09546821 0.23532559 0.064603925 0.0008109496 0.09510565 0.05307694 -0.26158035 0.043560814
0.046737343 -0.13016672 0.26733953 -0.01702926 -0.17809652 -0.026989333 -0.21695966 0.065995045
-0.12741809 0.13076945 -0.19406965 -0.10194378 -0.23448922 0.12238326 0.123549744 0.10035417
-0.23670767 0.090310305 -0.041613992 0.2555698 -0.023506852 0.012543713 -0.01846964 0.24275148
-0.11486346 -0.07391314 0.20441392 -0.05155716 0.19887733 -0.0735881 0.17101113 -0.19923358
-0.18262842 -0.16023616 0.09808728 -0.06909668 0.21635889 0.2712928 -0.25207484 -0.17743286
0.34529474 0.16011949 0.12633568 0.10371876 0.2330634 -0.10853663 0.16136731 -0.25508192
-0.031393256 -0.028497316 0.2982809 -0.059917144 0.32379147 -0.02127415 -0.22766064 0.20615658
-0.042576924 -0.039418146 0.20862536 0.14559287 -0.101953276 0.09593033 -0.06531005 -0.12863094
-0.0048235725 -0.00038942997 0.050791435 0.0795827 0.20432457 0.22294417 -0.034942456 -0.006802508
-0.0014976985 0.22612855 0.092667826 0.14301239 -0.10991243 -0.048517868 0.04267483 0.09850759
0.08317162 0.028758613 -0.11138345 0.20147532 0.26407745 0.09286137 0.058923822 0.21349525
0.233949 -0.08394411 0.14562455 -0.13692224 -0.2531573 0.09550687 0.16473708 -0.15033889
0.03373073 -0.055181146 -0.05404428 0.0916496 0.25958034 -0.11985 0.06225218 -0.1292713
0.13799725 0.0533575 0.25108847 0.24820036 -0.07888317 -0.056914885 0.008423481 -0.03519783
-0.08179884 -0.22830534 -0.10796846 0.111518875 0.2731433 0.17166549 0.064905204 0.1885809
-0.09947429 0.19597234 0.006935385 0.016465364 -0.076303214 0.023373967 -0.2051363 0.093018726
0.14246064 0.17600968 -0.22897883 0.13398756 -0.047813367 -0.013382439 -0.10669859 0.19389711
0.25904492 0.016435174 0.08612709 -0.081256725 -0.27974176 0.039736047 -0.10178467 -0.10249257
-0.13701648 0.07742914 -0.08160825 0.0752007 0.23134041 -0.054581657 -0.17117804 0.21604921
-0.22629392 -0.21811697 0.07091585 -0.05207992 -0.063855745 -0.14967448 -0.028939951 0.16669166
-0.16862999 0.22573991 0.17619857 0.20052502 -0.2541465 -0.17714413 0.21183336 -0.027551461
0.0044833818 -0.026723908 -0.22345856 -0.07996265 -0.15264288 -0.15379159 0.12390951 0.24220291
0.18192822 0.10579774 -0.09148122 -0.04981357 0.07440512 0.037211042 -0.116352536 -0.085480586
0.019524276 -0.16696933 0.17522968 0.057598285 -0.21497725 -0.23664874 -0.24044344 -0.2009199
00000000: 2304 793e 2170 3bbe 29a4 823e 434f 2ebe
00000010: a69e 13be 0b9b 683e 0f01 293e 6b29 5bbe
00000020: 437b 923d 7102 2c3d 87bb 75be 2c8c 3f3e
00000030: 56ee c33d d5f0 1f3e 6cb9 033e 458c fabd
00000040: 59e1 a4bd 0b7a 86bd fea2 3fbd ea8d 68be
00000050: 5f77 b83d eef9 643e 793e 383e 6883 643d
00000060: d1ca 993d a8e1 12be 63e1 73be 3e99 153e
00000070: a338 39bd efef 403e 61b8 9bbe cbc8 fc3c
00000080: 7c5a 713e ae17 88bd 5dfb d4bc 699f b3bd
00000090: e381 bebd 5f53 87bd 1b20 62be df1f 4dba
000000a0: b95f 19be db6d 223e b808 9bbe b930 813e
000000b0: e11a 1cbe 0938 9f3d e8a6 e63d 5937 01bc
000000c0: ec9a 283d ab15 343e a589 8fbe e50b 423e
000000d0: 3655 2f3e 3f87 fdbc 16e1 f63d 735b 06be
000000e0: d684 c33d 31f9 703e 104f 843d e895 543a
000000f0: c0c6 c23d 3567 593d dced 85be d36c 323d
00000100: a86f 3f3d 6d4a 05be bae0 883e f280 8bbc
00000110: ef5e 36be bc18 ddbc ac2a 5ebe 6928 873d
00000120: e379 02be 6de8 053e 32ba 46be e7c7 d0bd
00000130: f11d 70be 13a4 fa3d a607 fd3d 7d86 cd3d
00000140: 7f63 72be 9cf4 b83d 6f73 2abd 0bda 823e
00000150: 7191 c0bc 2584 4d3c a44d 97bc d893 783e
00000160: 893d ebbd c65f 97bd e251 513e 9a2d 53bd
00000170: 80a6 4b3e 5cb5 96bd 8b1d 2f3e e303 4cbe
00000180: f202 3bbe f314 24be fce1 c83d 8f82 8dbd
00000190: 2f8d 5d3e e4e6 8a3e f40f 81be f6b0 35be
000001a0: 79ca b03e 5df6 233e 245e 013e 806a d43d
000001b0: 2ca8 6e3e 7448 debd 793d 253e 199a 82be
000001c0: 3796 00bd 3473 e9bc 46b8 983e ae6b 75bd
000001d0: ffc7 a53e 2047 aebc df1f 69be b61a 533e
000001e0: 2465 2ebd ec74 21bd e3a1 553e 4c16 153e
000001f0: e1cc d0bd 1f77 c43d 47c1 85bd d4b7 03be
00000200: 0f0f 9ebb 682c ccb9 ae0a 503d 41fc a23d
00000210: 763a 513e 7a4b 643e d21f 0fbd 93e7 debb
00000220: 6c4e c4ba 3e8e 673e a1c8 bd3d d771 123e
00000230: c519 e1bd acba 46bd cdcb 2e3d 59be c93d
00000240: e255 aa3d 2f97 eb3c 021d e4bd 8c4f 4e3e
00000250: 2935 873e 1a2e be3d 1b5a 713d 809e 5a3e
00000260: 5490 6f3e e4ea abbd 9a1e 153e 5835 0cbe
00000270: d59d 81be 1b99 c33d d6b0 283e 70f2 19be
00000280: 3c29 0a3d a005 62bd 895d 5dbd c9b2 bb3d
00000290: b7e7 843e eb73 f5bd 24fc 7e3d b25f 04be
000002a0: 274f 0d3e 658d 5a3d ab8e 803e 3c28 7e3e
000002b0: 808d a1bd 951f 69bd a402 0a3c 9a2b 10bd
000002c0: 2686 a7bd e0c8 69be 911e ddbd 0264 e43d
000002d0: 70d9 8b3e 14c9 2f3e 05ed 843d 5a1b 413e
000002e0: 2db9 cbbd f9ac 483e 3a42 e33b 5fe2 863c
000002f0: dc44 9cbd c37a bf3c 400f 52be 9a80 be3d
00000300: 34e1 113e e23b 343e 6d79 6abe 0934 093e
00000310: f3d7 43bd 0442 5bbc ca84 dabd f78c 463e
00000320: 89a1 843e 0fa3 863c 6663 b03d ed69 a6bd
00000330: 503a 8fbe 44c2 223d 7b74 d0bd a0e7 d1bd
00000340: 0c4e 0cbe 2b93 9e3d 3a22 a7bd d302 9a3d
00000350: 80e4 6c3e 0491 5fbd 4c49 2fbe 013c 5d3e
00000360: 98b9 67be 0e5a 5fbe 543c 913d c151 55bd
00000370: cdc6 82bd 4444 19be 7a13 edbc 38b1 2a3e
00000380: 57ad 2cbe 5d28 673e 666d 343e 6e56 4d3e
00000390: 7d1f 82be 4565 35be d8ea 583e 9ab3 e1bc
000003a0: 55e9 923b 19ec dabc 52d2 64be 75c3 a3bd
000003b0: 6a4e 1cbe 8b7b 1dbe 45c4 fd3d 0a04 783e
000003c0: 644b 3a3e 7cac d83d 825a bbbd 5009 4cbd
000003d0: b661 983d 9b6a 183d 3d4a eebd 7210 afbd
000003e0: 60f1 9f3c 02fa 2abe 696f 333e 2eec 6b3d
000003f0: ff22 5cbe 0c54 72be ce36 76be f2bd 4dbe

bias f4 [50]
-0.005953248 -0.045731116 0.02239894 0.042896282 0.040359326 -0.02565739 0.03801286 0.045860913
0.03209157 -0.070660375 0.038214173 -0.010447291 0.029748315 -0.0028738289 -0.0074225087 -0.04601355
-0.03930787 0.049351547 -0.0047791502 0.035672624 -0.08590485 -0.050939377 -0.025805918 -0.019623917
-0.01292992 -0.021829994 0.077226706 0.030259587 0.012283187 0.0027340902 -0.063660294 0.015478274
-0.02483187 -0.02545086 -0.025863517 -0.02126693 -0.010895971 0.008765412 -0.015920544 0.024381218
-0.01844061 0.015848204 -0.023646267 0.0005096598 0.0023419245 -0.028417772 0.041557938 -0.059166774
0.050516035 -0.03596265
00000000: 7713 c3bb 8d50 3bbd fb7d b73c 03b4 2f3d
00000010: d24f 253d 722f d2bc 5fb3 1b3d a7d8 3b3d
00000020: 7372 033d 63b6 90bd 7786 1c3d 1d2b 2bbc
00000030: bdb2 f33c d956 3cbb 8438 f3bb b478 3cbd
00000040: 4a01 21bd d924 4a3d 6b9a 9cbb 751d 123d
00000050: e2ee afbd cfa5 50bd ef66 d3bc 56c2 a0bc
00000060: 04d8 53bc d1d4 b2bc 0929 9e3d f4e2 f73c
00000070: 6c3f 493c 6c2e 333b 5460 82bd 9698 7d3c
00000080: 356c cbbc 527e d0bc badf d3bc fc37 aebc
00000090: 0485 32bc cd9c 0f3c cd6b 82bc 1fbb c73c
000000a0: c310 97bc 18d4 813c d1b5 c1bc b19a 053a
000000b0: f97a 193b 63cc e8bc a838 2a3d dc58 72bd
000000c0: e7e9 4e3d 924d 13bd

weight f4 [50, 50]
-0.22925583 0.038889926 0.13285998 -0.01825043 0.046480697 -0.07157909 -0.26607487 0.25008968
0.009587423 0.2317196 -0.21314916 0.047825813 0.2501055 0.0068353554 -0.092628546 0.20643103
0.0902141 0.019944139 0.16370201 -0.158268 0.05343808 0.0048972266 0.15804228 0.17200574
0.15152113 -0.102004535 -0.183782 0.14569034 -0.20913771 0.21337256 0.09705251 0.22964117
-0.0152157955 -0.08200595 -0.13931452 -0.22029676 -0.061239716 0.2786813 0.25885278 -0.000950144
0.28162622 -0.1107787 -0.26914668 0.0036525321 0.3483017 0.049570847 0.20838335 0.125954
0.03958261 -0.18048072 -0.1337295 -0.057001203 0.0864622 -0.16640396 0.23433946 -0.30064073
-0.006994594 0.12257466 0.045668602 -0.23150133 0.10727015 0.027069783 -0.11494678 0.22125223
-0.0023328094 -0.02148639 0.1756958 -0.04833945 0.101695724 -0.11368079 0.29638273 0.2093622
0.034347717 0.013612172 0.039477833 -0.28490952 0.0897147 -0.030472675 0.24129853 -0.2719754
0.3091709 0.15226062 -0.04295471 -0.046739347 -0.00054156367 0.08551462 -0.028644288 -0.28107324
0.021955848 0.19761102 -0.054087766 -0.21832478 -0.032362446 0.18893625 0.14472862 0.2022353
-0.052188143 -0.15361409 0.18435986 -0.1445781 0.23545848 -0.16938484 0.1704096 -0.16188532
0.0832785 -0.07980204 -0.024591401 0.081407614 0.23246117 0.1400106 -0.15931436 -0.24355114
-0.0121633755 0.2075051 -0.12122166 0.1852153 0.08881672 0.11313625 -0.0043789865 -0.12797816
-0.09079353 -0.08450775 0.10556898 -0.19276303 0.17373355 -0.13869752 0.13057667 0.17718309
0.093945935 0.02120157 -0.03714037 0.09258597 -0.18654256 0.11609928 0.06366131 0.1519446
0.097587295 -0.018813346 -0.14002572 -0.23005731 -0.02793194 -0.24194975 0.1631831 -0.06261415
0.03307577 0.16986604 -0.20526697 0.018572133 0.037964344 -0.022308746 0.022709545 -0.11864954
-0.15396404 0.024479385 0.14543043 0.049713418 -0.010435638 -0.19367354 -0.22906801 -0.12134871
-0.210764 -0.06919295 -0.097775266 0.23036353 -0.06146532 0.009926789 -0.12185587 0.0651302
-0.029952265 0.12410152 -0.10363953 -0.13697289 0.03708016 0.047550026 -0.1306961 0.19891225
0.04842014 -0.12024141 0.2930292 -0.097543985 0.13251662 0.13627227 0.08276014 0.19469315
0.026838452 -0.12121559 -0.08157341 0.09028911 0.04505573 -0.04743778 0.22336745 0.17894019
0.06040544 0.16189535 -0.06982021 -0.22233267 0.091498345 -0.022741599 -0.24386086 -0.085943066
-0.31890625 0.2168382 0.17859057 -0.15530694 0.05486033 -0.17483856 0.13613237 -0.0067016818
0.013056939 0.0837266 -0.2424237 -0.16065164 0.09582201 -0.025993397 0.0369021 0.038317777
-0.00046253394 -0.16795924 -0.06445137 -0.15665147 -0.1388163 0.18600506 0.24671525 0.1396598
0.10459311 0.0152301565 0.016167037 0.29523945 -0.23577005 -0.193359 -0.20226209 0.096087545
-0.13537377 0.068823285 0.053784136 -0.09569284 -0.19706616 -0.0740855 0.04955098 -0.108881064
-0.1603063 0.097124115 -0.15216166 0.02107692 0.19318426 0.16166802 -0.025255574 0.051978983
0.18856469 -0.07338894 0.33245292 -0.35877493 0.010760018 -0.051306266 -0.039785367 0.079690084
00000000: 0ac2 6abe 0b4b 1f3d 720c 083e ed81 95bc
00000010: 8b62 3e3d 0f98 92bd f73a 88be c10b 803e
00000020: 9114 1d3c e747 6d3e c643 5abe 00e5 433d
00000030: d40d 803e 1efb df3b 09b4 bdbd a862 533e
00000040: 2cc2 b83d e461 a33c 80a1 273e 0211 22be
00000050: e3e1 5a3d ea78 a03b d6d5 213e 4622 303e
00000060: 5b28 1b3e c1e7 d0bd 5931 3cbe d92f 153e
00000070: 3228 56be 567e 5a3e 77c3 c63d 0e27 6b3e
00000080: ac4b 79bc bcf2 a7bd 77a8 0ebe 7995 61be
00000090: 7fd6 7abd 51af 8e3e 5a88 843e 1613 79ba
000000a0: 5031 903e f1df e2bd 98cd 89be 525f 6f3b
000000b0: 9a54 b23e cd0a 4b3d 7262 553e 16fa 003e
000000c0: 6021 223d f0cf 38be 63f0 08be 187a 69bd
000000d0: 1813 b13d cd65 2abe aff6 6f3e 95ed 99be
000000e0: e832 e5bb 6c08 fb3d 000f 3b3d af0e 6dbe
000000f0: 74b0 db3d 73c1 dd3c 3869 ebbd f28f 623e
00000100: 0ce2 18bb 3a04 b0bc 9ae9 333e 96ff 45bd
00000110: d945 d03d 79d1 e8bd 7abf 973e 0b63 563e
00000120: 31b0 0c3d 9605 5f3c 82b3 213d a9df 91be
00000130: 57bc b73d d5a1 f9bc f616 773e 5c40 8bbe
00000140: a64b 9e3e 35ea 1b3e 47f1 2fbd c271 3fbd
00000150: b9f7 0dba 4a22 af3d 6da7 eabc d5e8 8fbe
00000160: c0dc b33c 8b5a 4a3e 228b 5dbd 8890 5fbe
00000170: 7c8e 04bd 8178 413e bd33 143e c516 4f3e
00000180: 3cc3 55bd 034d 1dbe d5c8 3c3e 480c 14be
00000190: 071c 713e 3873 2dbe db7f 2e3e 44c5 25be
000001a0: eb8d aa3d 406f a3bd e873 c9bc 09b9 a63d
000001b0: 4d0a 6e3e f05e 0f3e 4e23 23be 7865 79be
000001c0: e548 47bc 387c 543e 1043 f8bd 14a9 3d3e
000001d0: 8ae5 b53d fab3 e73d 9a7d 8fbb b50c 03be
000001e0: f5f1 b9bd 6612 adbd 8d34 d83d ac63 45be
000001f0: 35e7 313e b906 0ebe e4b5 053e 7c6f 353e
00000200: ba66 c03d eaae ad3c 8020 18bd b79d bd3d
00000210: 0305 3fbe 76c5 ed3d dc60 823d 5d97 1b3e
00000220: d9db c73d 721e 9abc e762 0fbe 2594 6bbe
00000230: 86d1 e4bc adc1 77be 7819 273e d93b 80bd
00000240: 757a 073d 5df1 2d3e 8131 52be 9624 983c
00000250: 8080 1b3d d5c0 b6bc 5e09 ba3c 88fe f2bd
00000260: c0a8 1dbe fe88 c83c b7eb 143e 4ca0 4b3d
00000270: 3dfa 2abc 5b52 46be ce90 6abe ac85 f8bd
00000280: 85d2 57be 09b5 8dbd 663e c8bd 6be4 6b3e
00000290: 0fc3 7bbd f9a3 223c 928f f9bd fb62 853d
000002a0: 745e f5bc f028 fe3d f640 d4bd 9f42 0cbe
000002b0: 5ee1 173d d1c3 423d 33d5 05be a7af 4b3e
000002c0: 3254 463d 2141 f6bd ec07 963e 24c5 c7bd
000002d0: 70b2 073e f58a 0b3e 267e a93d a45d 473e
000002e0: 50dc db3c e13f f8bd f60f a7bd 7fe9 b83d
000002f0: 5b8c 383d 1e4e 42bd 70ba 643e 193c 373e
00000300: b26b 773d e5c7 253e e6fd 8ebd 2dab 63be
00000310: 7c63 bb3d 974c babc a9b6 79be eb02 b0bd
00000320: ae47 a3be d50a 5e3e 72e0 363e c808 1fbe
00000330: 3ab5 603d e108 33be 4966 0b3e c899 dbbb
00000340: c5ec 553c da78 ab3d eb3d 78be dd81 24be
00000350: 543e c43d 1bf0 d4bc a826 173d 1af3 1c3d
00000360: 4180 f2b9 82fd 2bbe 14ff 83bd 3e69 20be
00000370: dc25 0ebe 1c78 3e3e eca2 7c3e fb02 0f3e
00000380: ea34 d63d e887 793c bc70 843c a029 973e
00000390: b46d 71be e7ff 45be cb1d 4fbe 8cc9 c43d
000003a0: 6c9f 0abe 39f3 8c3d c14c 5c3d 9cfa c3bd
000003b0: b6cb 49be 23ba 97bd f8f5 4a3d 09fd debd
000003c0: 5627 24be 02e9 c63d 44d0 1bbe 81a9 ac3c
000003d0: 18d2 453e 4d8c 253e c7e4 cebc eae7 543d
000003e0: 1a17 413e f14c 96bd 4537 aa3e 59b1 b7be
000003f0: c94a 303c 8526 52bd fbf5 22bd 8e34 a33d

bias f4 [50]
0.015339939 -0.008139843 0.031741027 0.005060999 0.042748876 0.028024776 0.018251074 -0.024801355
-0.016946219 -0.018545374 0.0034104136 -0.0065460224 0.060109526 -0.035282414 0.027772425 -0.04962047
-0.0019837038 0.026055178 0.03262621 -0.041682813 -0.027192077 -0.052390277 0.0032461176 -0.0017128263
0.020486599 -0.022284634 0.0006761614 0.0026141407 -0.07811122 0.004390892 0.049928818 -0.01105563
0.002552043 -0.048626713 -0.024301218 0.033084605 -0.012272534 0.026823372 0.025323888 0.039560724
0.008515849 -0.029809179 -0.035688754 -0.07169506 -0.039750002 -0.040932044 0.05801027 0.0035018595
-0.07716066 -0.05161762
00000000: 5e54 7b3c fa5c 05bc e102 023d bdd6 a53b
00000010: 7219 2f3d 3794 e53c 4783 953c 362c cbbc
00000020: ccd2 8abc 78ec 97bc 3f81 5f3b 0480 d6bb
00000030: 6835 763d 4b84 10bd ff82 e33c d53e 4bbd
00000040: 0701 02bb ab71 d53c 10a3 053d 99bb 2abd
00000050: ebc1 debc 3097 56bd d1bc 543b ea80 e0ba
00000060: 83d3 a73c 448e b6bc 6c40 313a 0152 2b3b
00000070: c6f8 9fbd 79e1 8f3b 2982 4c3d ac22 35bc
00000080: 2d40 273b ce2c 47bd 5913 c7bc b983 073d
00000090: bd12 49bc b0bc db3c 0b74 cf3c 6d0a 223d
000000a0: 0f86 0b3c 6132 f4bc 5f2e 12bd dcd4 92bd
000000b0: e6d0 22bd 5ca8 27bd 2d9c 6d3d 747f 653b
000000c0: 6806 9ebd ff6c 53bd

weight f4 [50, 50]
-0.1509548 -0.09649401 -0.19474223 0.04047338 0.09981624 -0.23392218 -0.238997 0.033271443
0.2628812 -0.17093615 0.23841071 0.06722877 -0.17101279 0.119537175 0.12220878 -0.108294144
-0.080815904 -0.19260646 0.028393572 0.17533137 -0.025110152 0.23195012 0.15860434 0.21563013
0.07908821 0.14975196 -0.041760582 -0.14633685 -0.18887304 -0.014499256 -0.174932 0.014161817
-0.09943123 -0.08815444 0.18765959 0.18995012 -0.25359684 0.07218365 0.104287036 0.20820782
0.21076505 0.21229988 -0.079109155 0.07912387 -0.114189535 -0.119777836 0.22594053 0.21477216
-0.11299382 -0.22504322 -0.27179617 0.17514235 0.18219495 -0.031796772 -0.04261364 0.1599346
-0.2774874 0.0035865007 0.24260414 -0.18664587 -0.16038625 -0.05759201 0.03579044 0.24537969
0.034895346 0.20001258 -0.15418923 -0.2893119 0.08664439 0.18237194 0.13955964 0.19665602
0.21730268 -0.101345524 0.03773562 0.038613297 0.03908636 -0.19906837 0.09721757 0.32263008
-0.1876444 -0.110305615 -0.16959031 0.2837112 0.03513694 -0.25854918 0.21761242 0.14561015
0.11571825 -0.11637688 0.11819767 -0.03714941 0.030012654 0.30744743 0.07819624 -0.20981604
0.11422189 0.05317183 -0.028868368 0.15307046 0.23710646 -0.25576812 -0.008346903 -0.24559687
0.096101366 0.07246758 -0.115816385 0.2324349 0.059098925 -0.06683654 0.0010455421 0.21742363
0.013950861 -0.0154134 -0.008942955 0.09704921 0.26367453 -0.25082642 0.13788794 -0.014718424
0.06180034 -0.007972131 0.035827477 -0.04599773 0.29057756 -0.15233687 0.14858395 0.23463348
-0.18262313 -0.06918421 0.1378185 -0.04832731 -0.1411529 -0.12961677 -0.2835655 0.048961192
-0.07434843 0.10454149 -0.29708162 -0.23991564 0.010988258 0.19738874 0.18943782 0.079490736
0.2992999 -0.06087505 -0.20907918 -0.18254074 0.085485995 0.13908061 -0.22120377 -0.32646728
-0.123070136 0.040031463 -0.1862881 -0.33520907 -0.037596498 0.18505302 0.0027665498 -0.27150092
0.030383755 -0.2029416 0.26397437 -0.20979501 -0.23667791 -0.22340496 -0.053919338 0.23697191
-0.058714356 0.099599496 -0.31475002 -0.39415994 0.102750294 -0.178266 -0.09018822 -0.104822755
0.25281334 0.16862494 -0.31069547 0.039288834 0.3631438 -0.16319679 -0.09522999 -0.25554985
-0.0610321 0.39863116 0.20801625 -0.02936064 0.33177626 -0.02940754 0.16340417 -0.08420127
0.14106815 -0.21931988 -0.05217689 0.2090997 0.0709999 0.29019275 0.14712322 0.11311863
-0.18321575 -0.102848396 0.03289692 0.06574471 -0.08076781 -0.022505807 -0.041963797 -0.116171375
-0.014777976 0.26606256 0.16974978 -0.05886752 0.010643066 -0.16262591 -0.05015965 -0.10892998
0.07223462 -0.16456807 0.10195683 -0.25683406 -0.16200264 0.22977358 0.03090911 0.24536517
0.14057824 -0.24074486 0.18217213 -0.13582179 0.18504508 0.09788504 0.07338139 -0.17693424
0.049731974 0.27198663 -0.14733963 0.07585759 -0.0742637 0.28245103 0.15900151 0.12879592
0.20329894 0.15847336 -0.051079627 -0.045408294 0.12110499 -0.029070864 0.0902806 0.15829848
-0.26888633 -0.11034395 0.0019599432 0.2765178 0.25404465 0.07253756 -0.21474482 0.2265478
00000000: e593 1abe a79e c5bd 826a 47be 6ac7 253d
00000010: 756c cc3d 4c89 6fbe a1bb 74be a347 083d
00000020: 5d98 863e e309 2fbe f021 743e 3daf 893d
00000030: fa1d 2fbe e8cf f43d 9948 fa3d 52c9 ddbd
00000040: cf82 a5bd a13a 45be a399 e83c 118a 333e
00000050: ceb3 cdbc 5584 6d3e 2d69 223e 25ce 5c3e
00000060: 00f9 a13d 9458 193e 250d 2bbd 54d9 15be
00000070: ef67 41be 4a8e 6dbc 6021 33be f706 683c
00000080: 9aa2 cbbd 518a b4bd d629 403e 4982 423e
00000090: 72d7 81be 06d5 933d 7194 d53d 6e34 553e
000000a0: cbd2 573e 2465 593e fb03 a2bd b20b a23d
000000b0: 34dc e9bd 154e f5bd f45c 673e 3ced 5b3e
000000c0: 4e69 e7bd bb71 66be de28 8bbe 8458 333e
000000d0: 5091 3a3e 553d 02bd a48b 2ebd e5c5 233e
000000e0: d412 8ebe 7f0b 6b3b 386d 783e 1820 3fbe
000000f0: 4b3c 24be 99e5 6bbd ff98 123d d044 7b3e
00000100: 6cee 0e3d 19d0 4c3e c8e3 1dbe b020 94be
00000110: 9d72 b13d b6bf 3a3e b9e8 0e3e 3260 493e
00000120: 9884 5e3e 3e8e cfbd aa90 1a3d fa28 1e3d
00000130: 0519 203d 94d8 4bbe 011a c73d c52f a53e
00000140: db25 40be e9e7 e1bd 15a9 2dbe 9842 913e
00000150: c1eb 0f3d 8f60 84be cad5 5e3e d41a 153e
00000160: b1fd ec3d 0057 eebd 9f11 f23d fb29 18bd
00000170: 19dd f53c c069 9d3e 5a25 a03d 04da 56be
00000180: 2bed e93d b4ca 593d 5b7d ecbc 81be 1c3e
00000190: 09cc 723e 0af4 82be 73c1 08bc bf7d 7bbe
000001a0: cbd0 c43d e269 943d 2431 edbd 6a03 6e3e
000001b0: b711 723d 99e1 88bd 920a 893a 4da4 5e3e
000001c0: 2792 643c 7c88 7cbc 7985 12bc bcc1 c63d
000001d0: 5900 873e 526c 80be 7f32 0d3e 8b25 71bc
000001e0: 5a22 7d3d 8a9d 02bc d5bf 123d 1e68 3cbd
000001f0: 95c6 943e 32fe 1bbe 6426 183e c243 703e
00000200: 8f01 3bbe 73b0 8dbd 4b20 0d3e dbf2 45bd
00000210: 638a 10be 42ba 04be 7f2f 91be 888b 483d
00000220: fd43 98bd d919 d63d 151b 98be 72ac 75be
00000230: 1808 343c 4620 4a3e fdfb 413e 0acc a23d
00000240: d63d 993e 1e58 79bd da18 56be f6eb 3abe
00000250: 4813 af3d 266b 0e3e 3e83 62be b826 a7be
00000260: 320c fcbd 08f8 233d 4fc2 3ebe 86a0 abbe
00000270: c9fe 19bd 8a7e 3d3e 014f 353b 2b02 8bbe
00000280: 5ae7 f83c eccf 4fbe a627 873e 81d4 56be
00000290: b25b 72be 45c4 64be 86da 5cbd c4a8 723e
000002a0: 777e 70bd d2fa cb3d ea26 a1be 55cf c9be
000002b0: bf6e d23d 5d8b 36be 9ab4 b8bd 50ad d6bd
000002c0: c070 813e 04ac 2c3e 7a13 9fbe 54ed 203d
000002d0: fced b93e 0f1d 27be f107 c3bd 6ed7 82be
000002e0: ccfc 79bd 6219 cc3e 3602 553e ba85 f0bc
000002f0: 94de a93e 15e8 f0bc 6c53 273e b771 acbd
00000300: 2b74 103e 6495 60be 6fb7 55bd 3b1e 563e
00000310: 6568 913d 2594 943e 78a7 163e beaa e73d
00000320: e99c 3bbe 2ea2 d2bd ecbe 063d 2aa5 863d
00000330: 9869 a5bd 195e b8bc 3be2 2bbd 42eb edbd
00000340: 531f 72bc 5a39 883e e3d2 2d3e 121f 71bd
00000350: 4160 2e3c 6887 26be 3574 4dbd ae16 dfbd
00000360: bfef 933d 8884 28be bece d03d c17f 83be
00000370: 05e4 25be c449 6b3e 1a35 fd3c 0241 7b3e
00000380: bef3 0f3e d285 76be 558b 3a3e de14 0bbe
00000390: 757c 3d3e f477 c83d fb48 963d 402e 35be
000003a0: c1b3 4b3d d541 8b3e 33e0 16be 395b 9b3d
000003b0: 9117 98bd 6c9d 903e 4bd1 223e 14e3 033e
000003c0: 992d 503e d746 223e df38 51bd 0cfe 39bd
000003d0: e505 f83d 0526 eebc 09e5 b83d ff18 223e
000003e0: 78ab 89be 02fc e1bd 6472 003b be93 8d3e
000003f0: 2412 823e 928e 943d 11e6 5bbe 25fc 673e

bias f4 [50]
-0.024637869 -0.041049544 -0.021912578 0.037334412 0.044680815 0.017088847 0.027268643 0.046330824
-0.003642412 -0.003429341 0.02372338 0.07040772 0.03343953 0.013630959 0.01798988 0.029418433
-0.016761173 -0.047934204 0.00018654527 0.023834853 -0.03462303 0.018255042 0.04563927 0.02215348
0.024807563 -0.010869436 -0.013042521 0.029313229 0.011390266 0.02692898 0.01565559 0.0021565487
0.026908264 0.029586997 -0.055393096 0.05067167 -0.034572426 0.027802536 -0.022489604 -0.029647183
-0.022830773 -0.034544922 0.008971512 0.033065125 -0.010088431 -0.01712951 -0.06194021 0.056186005
-0.028212035 -0.027707007
00000000: 5bd5 c9bc 9123 28bd 0282 b3bc f8eb 183d
00000010: 3b03 373d e9fd 8b3c 7d62 df3c 64c5 3d3d
00000020: 88b5 6ebb cbbe 60bb 8957 c23c ec31 903d
00000030: e3f7 083d 6354 5f3c 835f 933c edfe f03c
00000040: ba4e 89bc a856 44bd 5d9b 4339 4f41 c33c
00000050: e1d0 0dbd 998b 953c 3ef0 3a3d 377b b53c
00000060: 3b39 cb3c b815 32bc 4cb0 55bc 4c22 f03c
00000070: 3d9e 3a3c 2a9a dc3c 2740 803c e254 0d3b
00000080: b86e dc3c 6e60 f23c dfe3 62bd 198d 4f3d
00000090: d19b 0dbd 25c2 e33c 1e3c b8bc a6de f2bc
000000a0: 9a07 bbbc fa7e 0dbd 40fd 123c 4c6f 073d
000000b0: f249 25bc 3053 8cbc 05b5 7dbd 4c23 663d
000000c0: ed1c e7bc cef9 e2bc

weight f4 [50, 50]
0.015676849 0.0509566 -0.022344664 0.101409435 -0.14029892 -0.06431942 -0.09597906 0.21789926
-0.1663788 0.14524397 0.19763494 -0.07728958 0.0038540845 -0.07359005 -0.17907923 0.1420436
0.2683267 -0.20756412 0.13506415 0.121658064 0.1104676 -0.058422815 -0.11622914 0.16114491
0.025879582 0.25643092 -0.1285636 -0.17753027 -0.026008407 0.07242973 -0.1824403 0.19569449
0.21224323 -0.24219035 -0.21416527 0.24965645 0.19493604 -0.115878776 -0.084375665 -0.03939082
-0.13476248 -0.07452981 0.319468 -0.011359616 -0.24566899 0.0582672 -0.15763253 0.031434733
0.09752244 -0.068264514 0.09734831 0.24658425 0.10968262 0.080570094 -0.15917264 -0.1551204
0.2535331 0.18394972 0.22255912 -0.0449408 0.014829189 -0.078929 0.04716657 0.08279762
0.21918555 0.09362242 0.11823508 0.19793136 -0.013317242 0.12303395 -0.031006727 -0.11487034
0.16768804 -0.0124569535 0.13991752 -0.1789133 -0.04734266 0.26324078 -0.14012328 0.0041102315
-0.10918772 0.035726722 0.053369116 -0.22788589 -0.18160567 0.09538149 -0.107718125 0.07094148
0.01334841 -0.24499527 0.1410407 0.10353824 0.22323255 -0.16955152 0.21178357 0.11406244
-0.11714652 -0.060977947 0.035619456 0.12579398 0.28162986 -0.21053578 -0.20904246 0.102217115
-0.13236313 -0.049490057 -0.0071132374 -0.39920032 -0.31076676 -0.11342807 -0.2526011 0.052080557
-0.16711369 0.08075127 -0.29768538 0.049893007 -0.28258973 -0.10801435 -0.01672662 0.15373944
0.09476333 0.026265271 0.31121606 -0.019682175 0.17308116 0.0929413 -0.11663468 -0.121388465
0.07403501 -0.33658287 -0.23037326 0.18505245 0.22522871 0.13415264 0.05038241 0.21831505
0.06319724 -0.048726577 0.017631305 -0.08627003 -0.28565502 -0.17949417 -0.18563129 0.23453066
0.007103904 0.23415092 0.09600741 0.215431 -0.23501053 0.05257347 -0.05464218 -0.1452221
0.0747409 -0.20234092 -0.0074436497 0.012347664 -0.0029434937 -0.16921392 -0.18263651 0.17253868
-0.0004325846 0.22750996 0.09387237 0.22709279 0.19899635 0.13318604 0.053245705 0.105119035
-0.24190022 0.20574853 -0.119622484 -0.099120095 0.037446775 0.08619604 0.16172688 -0.017749636
0.21848701 0.09613169 -0.034003604 0.065653436 0.17268091 -0.058595132 0.18041153 -0.12662566
0.25532627 0.051575005 0.024216892 -0.23245858 0.17701226 -0.23073862 -0.20173006 0.13118067
0.012973932 0.22583891 0.08734025 0.24575278 0.15191822 -0.012894 0.06093693 0.030691953
0.17293642 0.11370095 -0.08489917 0.070427224 -0.12095354 -0.025004508 0.17872758 -0.18450288
-0.20724343 0.018805256 0.051155247 0.14844951 -0.13365388 0.20032723 0.15849367 0.04348193
-0.1291384 0.06145291 0.1015823 0.19747609 -0.0009277479 0.16679946 -0.106739506 0.010278715
0.08091165 -0.13660993 -0.06979623 -0.121669605 0.27112463 0.24630798 0.003694597 -0.21520728
0.031528853 0.20050327 -0.05632543 -0.2515548 -0.22657348 0.09138991 -0.1295121 0.25987005
0.024516817 0.20298913 0.15885398 -0.17409532 -0.10786842 0.02417999 0.069737084 0.061649926
-0.15264654 0.14826366 0.22116701 -0.18269144 0.047819145 0.056333143 -0.21948148 -0.078983754
00000000: bc6c 803c deb7 503d 280c b7bc c0af cf3d
00000010: 85aa 0fbe e6b9 83bd ab90 c4bd fc20 5f3e
00000020: 345f 2abe d6ba 143e d060 4a3e 004a 9ebd
00000030: cf94 7c3b 61b6 96bd 8c60 37be e173 113e
00000040: 1e62 893e b08b 54be 424e 0a3e dd27 f93d
00000050: d63c e23d c34c 6fbd 8b09 eebd 2c03 253e
00000060: 6b01 d43c ea4a 833e 2da6 03be 7fca 35be
00000070: 950f d5bc 0a56 943d a1d1 3abe 2364 483e
00000080: 4a56 593e bf00 78be 244e 5bbe f1a5 7f3e
00000090: 509d 473e da51 edbd 26cd acbd 4558 21bd
000000a0: 2dff 09be 16a3 98bd 4f91 a33e af1d 3abc
000000b0: a790 7bbe 96a9 6e3d 6c6a 21be b5c1 003d
000000c0: d8b9 c73d 44ce 8bbd 8d5e c73d 9580 7c3e
000000d0: 48a1 e03d ef01 a53d 27fe 22be e2d7 1ebe
000000e0: 17cf 813e 515d 3c3e 8ae6 633e d813 38bd
000000f0: 20f6 723c 87a5 a1bd bc31 413d cc91 a93d
00000100: 2d72 603e 1dbd bf3d 3c25 f23d 85ae 4a3e
00000110: 9030 5abc 39f9 fb3d d201 febc 2441 ebbd
00000120: 6ab6 2b3e 4018 4cbc 8a46 0f3e 0c35 37be
00000130: 61ea 41bd 7fc7 863e 7a7c 0fbe 1faf 863b
00000140: d09d dfbd 2f56 123d 9399 5a3d eb5a 69be
00000150: d6f6 39be 5f57 c33d 529b dcbd c449 913d
00000160: 4ab3 5a3c 0ae0 7abe f96c 103e db0b d43d
00000170: 1397 643e ea9e 2dbe cbdd 583e 9299 e93d
00000180: 84ea efbd 03c4 79bd b5e5 113d 23d0 003e
00000190: ca31 903e b196 57be 3a0f 56be 3557 d13d
000001a0: 338a 07be 16b6 4abd 2916 e9bb fc63 ccbe
000001b0: d21c 9fbe fa4c e8bd ee54 81be 6c52 553d
000001c0: da1f 2bbe ec60 a53d 386a 98be 9c5c 4c3d
000001d0: 9aaf 90be a136 ddbd 4406 89bc df6d 1d3e
000001e0: 4713 c23d 442a d73c b657 9f3e 833c a1bc
000001f0: 303c 313e 0258 be3d 2ade eebd 849a f8bd
00000200: ab9f 973d 9754 acbe f8e6 6bbe 647e 3d3e
00000210: 5ba2 663e 4f5f 093e c95d 4e3d fb8d 5f3e
00000220: 8e6d 813d 8595 47bd 876f 903c 57ae b0bd
00000230: 6041 92be 52cd 37be 2116 3ebe ce28 703e
00000240: dec7 e83b 42c5 6f3e 889f c43d f299 5c3e
00000250: 9aa6 70be 4757 573d 7bd0 5fbd 1ab5 14be
00000260: c211 993d 7532 4fbe dce9 f3bb db4d 4a3c
00000270: a1e7 40bb 6a46 2dbe 1105 3bbe fbad 303e
00000280: 86cc e2b9 5ff8 683e 2840 c03d 038b 683e
00000290: b3c5 4b3e ec61 083e 2b18 5a3d a648 d73d
000002a0: b1b4 77be beaf 523e a2fc f4bd 7aff cabd
000002b0: ca61 193d 8d87 b03d bb9b 253e af67 91bc
000002c0: 0fbb 5f3e b1e0 c43d 5d47 0bbd 4f75 863d
000002d0: 44d3 303e 7301 70bd cdbd 383e 28aa 01be
000002e0: 20ba 823e 5040 533d 8162 c63c 9f09 6ebe
000002f0: b442 353e bf46 6cbe 5392 4ebe 3a54 063e
00000300: 9d90 543c 5142 673e 72df b23d 9ea6 7b3e
00000310: 7390 1b3e 5b41 53bc 0199 793d b16d fb3c
00000320: 3f16 313e 0bdc e83d 9edf adbd 263c 903d
00000330: 7db6 f7bd 41d6 ccbc 5d04 373e 53ee 3cbe
00000340: 9f37 54be 7b0d 9a3c 2a88 513d 2603 183e
00000350: 90dc 08be 9522 4d3e 2a4c 223e 1c1a 323d
00000360: db3c 04be 0cb6 7b3d 620a d03d 2c37 4a3e
00000370: 1c34 73ba 7acd 2a3e 3e9a dabd 0e68 283c
00000380: 02b5 a53d 79e3 0bbe 53f1 8ebd ea2d f9bd
00000390: d9d0 8a3e 2938 7c3e 0d21 723b 4c5f 5cbe
000003a0: 6624 013d bb50 4d3e 7eb5 66bd cacb 80be
000003b0: e102 68be a22a bb3d d29e 04be b00d 853e
000003c0: 7ed7 c83c 62dc 4f3e 9eaa 223e 0b46 32be
000003d0: 1eea dcbd 1d15 c63c 51d2 8e3d a284 7c3d
000003e0: 604f 1cbe 6ed2 173e 9b79 623e 7713 3bbe
000003f0: 02de 433d 95bd 663d c1bf 60be 3cc2 a1bd

bias f4 [50]
0.0004334921 0.029808428 0.05430119 -0.042773996 0.009563723 -0.04297116 -0.019793987 -0.0018061447
0.038084935 0.023233566 0.03279028 -0.009574661 0.013086092 -0.07126709 0.041773975 -0.039835393
-0.0033775403 0.03444489 0.018658733 0.019723851 -0.020406777 -0.0452074 -0.032170072 0.032869034
0.049359657 -0.011881056 0.03554485 -0.04178772 0.03762114 -0.06721278 -0.0050888006 0.037383247
0.045524668 -0.0143959215 -0.0063224453 -0.022464288 -0.0055289776 0.028249042 0.041180536 0.02492119
-0.02115272 0.03799488 -0.0050436435 0.060775463 0.02669793 -0.031231163 0.019937247 0.023100708
0.01830465 0.04266666
00000000: 5346 e339 ce30 f43c ed6a 5e3d c933 2fbd
00000010: 29b1 1c3c 8702 30bd 0027 a2bc 29bc ecba
00000020: f3fe 1b3d 5254 be3c 1a4f 063d 0adf 1cbc
00000030: 0c67 563c 7bf4 91bd 301b 2b3d 702a 23bd
00000040: b959 5dbb 1616 0d3d 33da 983c ea93 a13c
00000050: 1d2c a7bc 652b 39bd c4c4 03bd aea1 063d
00000060: 5a2d 4a3d c3a8 42bc 7a97 113d 9a29 2bbd
00000070: a018 1a3d dba6 89bd f4bf a6bb 2d1f 193d
00000080: 1378 3a3d dfdc 6bbc 842c cfbb 0707 b8bc
00000090: 6d2c b5bb 896a e73c ecac 283d 8627 cc3c
000000a0: 7848 adbc 85a0 1b3d 2645 a5bb b1ef 783d
000000b0: 9eb5 da3c 7fd8 ffbc 7053 a33c b23d bd3c
000000c0: a2f3 953c 3cc3 2e3d
