cylinder_wake/best_net_with_improved(all improvements)1.pth (torch, 417617 bytes, 24 tensors)

weight f4 [100, 3]
0	0x3dae67ed	0.08515916
1	0xbdcb3b4d	-0.0992342
2	0xbe6ee653	-0.23330049
3	0xbdbe7482	-0.09299566
4	0x3da982a3	0.0827687
5	0x3d3aa50e	0.045567565
6	0x3de29178	0.11062902
7	0xbddfa1c7	-0.109195285
8	0x3de4da86	0.111744925
9	0xbdebc1d7	-0.115115814
10	0xbc6d74d3	-0.014493185
11	0x3d79d0e8	0.060990244
12	0xbdb812eb	-0.08987983
13	0xbdb82057	-0.08990543
14	0x3ca3ea24	0.020009108
15	0x3dc44bd6	0.09584777
16	0xbdc7da75	-0.09758464
17	0xbd9b4d3c	-0.07583091
18	0xbc2a99fa	-0.010412687
19	0x3e821db3	0.25413284
20	0xbd39a748	-0.045325547
21	0x3badfa1b	0.005309356
22	0xbb5c3b80	-0.00336048
23	0x3dad032a	0.08447869
24	0x3dd1b9aa	0.10240491
25	0x3d9b0f3a	0.075712636
26	0xbd111451	-0.035419766
27	0x3c998484	0.018739946
28	0x3e8fea81	0.281086
29	0xbd9947aa	-0.07484372
30	0x3da5e3c2	0.08100082
31	0x3d520288	0.051271945
32	0xbcf37edc	-0.029723577
33	0xbedf8cef	-0.4366221
34	0xbf21df08	-0.63230944
35	0xbe60b814	-0.2194522
36	0x3db586cf	0.08863603
37	0x3e211639	0.15731134
38	0xbe15d375	-0.14631446
39	0x3dd08c03	0.10182955
40	0xbd36b6ed	-0.044608045
41	0xbe5f57fd	-0.21810909
42	0x3c9a744a	0.01885428
43	0x3d12d4e8	0.035847574
44	0xc0ae9b88	-5.4564857
45	0xbbd9007d	-0.0066223727
46	0xbe9d2bff	-0.3069763
47	0x3d9cd5a9	0.0765794
48	0xbd9ddb6e	-0.077078685
49	0xbdc65b5d	-0.09685395
50	0x3cf54b31	0.02994308
51	0x3bda0b2b	0.0066541634
52	0x3e3ad29e	0.18244407
53	0x3d6d476c	0.05792944
54	0x3dbf6642	0.09345676
55	0xbc498e1f	-0.012301951
56	0xb9fb946e	-0.0004798504
57	0xbd5df9c3	-0.05419327
58	0xbdfae94a	-0.122515276
59	0xbe0ff2e2	-0.14057496
60	0x3efbee6e	0.49205345
61	0x3ea3e2e5	0.32009044
62	0xbe2508e1	-0.16116668
63	0x3d30874c	0.04309778
64	0x3e687c00	0.22703552
65	0xbd8d1c9b	-0.06890222
66	0xbdd95955	-0.10612742
67	0x3df7811a	0.12085171
68	0x3e2633e5	0.16230734
69	0x3ebb8ed8	0.3663242
70	0xbf2ceb98	-0.6754699
71	0xbe20b560	-0.15694189
72	0x3de11942	0.10991146
73	0xbc94a1cf	-0.018143563
74	0xbd741f66	-0.059600256
75	0xbdddddaa	-0.10833295
76	0xb93fae9a	-0.00018280224
77	0x3d8cec1e	0.06880973
78	0xbda5992c	-0.08085856
79	0xbe4d737d	-0.20063587
80	0x3e03f1cc	0.12885207
81	0xbbce83b8	-0.006302323
82	0x3d978c4f	0.073998086
83	0xbe6c7ea9	-0.23095192
84	0xb71b31e9	-9.250341e-06
85	0x39bbeb66	0.00035842805
86	0x398b4182	0.00026560953
87	0xbdca0d9e	-0.098658785
88	0xbd72c335	-0.059268195
89	0x3dd28b2b	0.102804504
90	0xbdfef34a	-0.124487475
91	0xbdfcbfe6	-0.12341289
92	0x3d97cb4b	0.07411822
93	0x3c890d04	0.01672984
94	0xbe1a0269	-0.15039982
95	0x3ddd1c3f	0.10796403
96	0x3dcf80a9	0.10131962
97	0x3df2b1c7	0.118503146
98	0xbe104182	-0.14087489
99	0x3eeea2af	0.46608493
100	0x3ef775f7	0.48332188
101	0xbeb13c18	-0.3461616
102	0xbedb3062	-0.4281035
103	0x3e90c0b3	0.28272018
104	0x3dde8818	0.108658016
105	0xbdc6a3a5	-0.096991815
106	0x3e1e81a5	0.15479143
107	0x3e92911c	0.28626335
108	0xbac799b0	-0.0015228298
109	0x3d83d64c	0.06437358
110	0xbe4b116b	-0.19830863
111	0x3de02a48	0.109455645
112	0x3d3e20c4	0.046417966
113	0xbdd227a7	-0.10261469
114	0xbde25953	-0.110521935
115	0x3c047af8	0.008085959
116	0x3d9d33d2	0.076758996
117	0x3eea5a05	0.45771804
118	0xbf344a51	-0.704259
119	0xbdf1a90f	-0.117998235
120	0xbd5d80ce	-0.054077916
121	0xbe237141	-0.15961172
122	0xbd1341ef	-0.03595155
123	0xbde482ab	-0.111577354
124	0x3e6610a8	0.22467291
125	0x3dd32d5a	0.103113845
126	0xbddb9116	-0.10721032
127	0xbda57b8c	-0.08080205
128	0x3dd5749d	0.10422633
129	0x3da74f39	0.081694074
130	0x3e403c22	0.18772939
131	0xbe13c3da	-0.1443018
132	0x3ed06a1c	0.40705955
133	0x3f0c1322	0.54716694
134	0xbe2f080b	-0.17092912
135	0x3d00d3ba	0.03145192
136	0x3d603b0f	0.054743823
137	0x3dba6d73	0.09102907
138	0xbdb7ebad	-0.089804985
139	0xbc0b181d	-0.008489636
140	0xbc0b3d33	-0.008498478
141	0x3d741552	0.059590645
142	0xbd4bc968	-0.049752623
143	0x3e06071e	0.13088652
144	0xbe158df4	-0.14604932
145	0xbd7394f6	-0.059468232
146	0x3e9b7a8f	0.30366942
147	0xbb918c2c	-0.0044417586
148	0x3cce5cf9	0.025190817
149	0xbd949f34	-0.07256928
150	0x3d178753	0.03699429
151	0xbdc3bdaa	-0.0955766
152	0xbe580d8a	-0.21098915
153	0xbe963deb	-0.29344115
154	0xbf2130a8	-0.6296487
155	0xbe80a5bc	-0.25126445
156	0x3b75be26	0.003749737
157	0x3a772b2a	0.0009428734
158	0x3d572761	0.05252779
159	0xbecbd342	-0.39809614
160	0xbf170fa8	-0.59008265
161	0x3d8bf2b5	0.06833402
162	0xbece5514	-0.40299284
163	0xbe85bc83	-0.26120386
164	0xbdb91e44	-0.09038976
165	0x3de57b06	0.112051055
166	0x3d8982bf	0.06714391
167	0xbe016a89	-0.12638296
168	0x3dfa3576	0.12217228
169	0xbe2293ff	-0.15876769
170	0xbe27df9d	-0.16393895
171	0x3d8e8c5d	0.06960366
172	0xbe7e7028	-0.24847472
173	0xbe2008f3	-0.15628414
174	0xbdcbfc99	-0.099602886
175	0x3d144389	0.03619722
176	0x3d6bbc5f	0.05755269
177	0xbdb0b60f	-0.08628475
178	0x3e064e98	0.13115919
179	0x3ea0f25b	0.31434903
180	0xbda7a2c7	-0.08185344
181	0xbdef4fe3	-0.11685159
182	0xbdf9b240	-0.121922016
183	0x3b6a0190	0.0035706498
184	0x3e8535ea	0.26017696
185	0x3de89e0f	0.11358272
186	0xbdc80cf1	-0.097680934
187	0xbd85c840	-0.06532335
188	0x3d1bddaa	0.038053192
189	0xbdc2ca2e	-0.09511219
190	0xbd8ee286	-0.069768
191	0x3cb6de2c	0.022322737
192	0xbdb1336c	-0.08652386
193	0x3d8d7ce5	0.06908587
194	0x3b8e4721	0.0043419753
195	0xbec5b4d0	-0.3861451
196	0x3f04e61b	0.51913613
197	0x3e58dacb	0.21177213
198	0x3f0497be	0.5179404
199	0xbec06b4b	-0.37581858
200	0xbddaf7ca	-0.10691793
201	0x3e09b74b	0.13448827
202	0xbdf52b77	-0.11971181
203	0xbc4da666	-0.0125518795
204	0x3d9d3214	0.07675567
205	0xbdd2c426	-0.102913186
206	0xbb6b3d3f	-0.003589466
207	0x3bff7ec5	0.0077970945
208	0x3e689925	0.2271467
209	0xbe7568ec	-0.23965806
210	0xbda051d2	-0.07828106
211	0xbd9000b6	-0.070313856
212	0x3dbce36a	0.09223063
213	0x3d319288	0.043352634
214	0xbe50540b	-0.2034456
215	0xbbe32592	-0.006931969
216	0x3eeb4f9f	0.45959184
217	0x3e91deb3	0.2849022
218	0xbe6a5251	-0.22882964
219	0xbde73260	-0.11288905
220	0x3deeea25	0.11665753
221	0x3e07edea	0.13274351
222	0xbec7da94	-0.3903395
223	0x3f33a5db	0.7017495
224	0x3e4fff80	0.2031231
225	0xbdd33352	-0.10312523
226	0x3d814e10	0.06313717
227	0x3e06f589	0.13179602
228	0x3db7c774	0.089735895
229	0x3de15b25	0.110037126
230	0xbd9ca740	-0.07649088
231	0xbc61c71a	-0.01378038
232	0xbe6e102e	-0.2324836
233	0x3e317e09	0.17333235
234	0x3c90b72d	0.01766547
235	0x3e351c32	0.17686537
236	0xbd5b0e0d	-0.053480197
237	0xbdd68be6	-0.10475902
238	0x3c319df0	0.010840878
239	0xb9c7d36f	-0.00038113768
240	0x3ed98a10	0.42488146
241	0xbedc3509	-0.43009213
242	0x3e8c0e30	0.27354574
243	0x3f1a1918	0.6019454
244	0x3e432efb	0.1906089
245	0xbeda5c44	-0.42648518
246	0x3c788c62	0.015170189
247	0xbe9fa436	-0.3117997
248	0x3d831719	0.0640089
249	0xbdde8f18	-0.10867137
250	0x3dd3f51e	0.10349487
251	0x3dadb7ec	0.08482346
252	0x3dd1d50f	0.10245716
253	0x3d3a6345	0.045504827
254	0xbd4a1684	-0.04933788
255	0xbdcb052b	-0.09913095

bias f4 [100]
0	0xbe89d28c	-0.26918447
1	0x3e967413	0.29385433
2	0xbecceb57	-0.400233
3	0x3ea70240	0.32618904
4	0x3e6a739f	0.22895668
5	0xbe782c70	-0.24235702
6	0x3d1a4e66	0.037672423
7	0xbda9ba65	-0.08287505
8	0xbeae96e4	-0.34099495
9	0xbdfceaed	-0.12349496
10	0xbe4d7fca	-0.20068279
11	0xbe348e60	-0.17632437
12	0xbe64f84c	-0.22360343
13	0xbe829e91	-0.25511602
14	0x3df3e99a	0.1190979
15	0x3d480587	0.048833396
16	0x3e5c2e5c	0.2150206
17	0xbdc9fa29	-0.098621674
18	0xbe866600	-0.26249695
19	0x3e8cbcf5	0.27487913
20	0xbdf86e04	-0.12130359
21	0xbe3f285d	-0.18667741
22	0x3e858450	0.2607751
23	0x3e46c1c4	0.19409853
24	0xbe87da5e	-0.26533788
25	0x3e8831fa	0.2660063
26	0x3e765d97	0.24059139
27	0x3e08d82e	0.13363716
28	0x39ec5ed1	0.00045084071
29	0x3e7289d1	0.23685385
30	0x3edbbff7	0.42919895
31	0xbe043ff5	-0.12915023
32	0xbe840714	-0.2578665
33	0xbd640e2b	-0.055677574
34	0xbdcdc039	-0.10046429
35	0x3e639a7a	0.22226897
36	0x3dbff815	0.0937349
37	0xbe8eb216	-0.27870244
38	0x3e9ad755	0.3024241
39	0x3e361ddb	0.17784826
40	0x3e63930a	0.2222406
41	0x3ea552dd	0.32289782
42	0x3e93e947	0.28888914
43	0xbe8c6cd5	-0.27426782
44	0x3cf34128	0.029694155
45	0xbe57d2f2	-0.21076563
46	0x3e5f92db	0.21833365
47	0xbeaca3d2	-0.33718735
48	0x3eb36de6	0.35044783
49	0x3d78a8b4	0.060707763
50	0xbe03b47d	-0.1286182
51	0xbe715baf	-0.23570131
52	0xbd548015	-0.05187996
53	0xbe483d7a	-0.19554701
54	0x3e8731ad	0.26405087
55	0xbea86d05	-0.32895675
56	0xbebdf68f	-0.37102172
57	0xbe77ffe1	-0.24218704
58	0x3e91d327	0.2848141
59	0x3e7bf453	0.24604921
60	0x3ea86ef1	0.32897142
61	0xbdd8e36a	-0.10590251
62	0x3e9a4b5f	0.3013563
63	0x3e67bb09	0.22629942
64	0x3e5e7b06	0.21726617
65	0xbd8db0c3	-0.0691848
66	0xbe1964e0	-0.14979887
67	0xbec892b4	-0.39174426
68	0xbe4a8432	-0.19776991
69	0x3c5197d5	0.012792547
70	0x3e827f41	0.25487712
71	0xbe573596	-0.21016535
72	0xbd086a8d	-0.03330474
73	0x3eab372f	0.3344054
74	0xbd27be4b	-0.040952962
75	0x3e916eba	0.2840479
76	0xbe705e8e	-0.2347357
77	0x3d35ce92	0.044386454
78	0xbdee2279	-0.11627669
79	0x3e8e1fae	0.27758545
80	0x3e0eeb9d	0.13957067
81	0x3ead4fb3	0.33849868
82	0xbd892a45	-0.066975154
83	0x3e95a0aa	0.2922414
84	0xbe89e0e4	-0.2692939
85	0x3e7d79b1	0.24753453
86	0x3e68d957	0.22739159
87	0xbe3b8815	-0.1831363
88	0x3e9f4fa6	0.31115454
89	0xbccdb418	-0.02511029
90	0x3b98e682	0.0046661505
91	0x3e57f8ca	0.21090999
92	0xbce9ee1b	-0.02855592
93	0xbe786a8c	-0.24259394
94	0xbe76ae8c	-0.24090022
95	0x3e8c181f	0.27362153
96	0x3eaa6e9f	0.33287522
97	0xbdfea303	-0.12433436
98	0x3e964da1	0.293561
99	0xbe9bb62c	-0.30412424

weight f4 [100, 100]
0	0xbd42608b	-0.04745535
1	0x3e013bcf	0.12620471
2	0xbd0d1d4a	-0.03445176
3	0x3b4d5364	0.0031330222
4	0x3ddc091d	0.10743926
5	0xbc1033db	-0.008801426
6	0x3d25a96c	0.040444776
7	0x3ebc86d1	0.36821607
8	0xbd9ed336	-0.07755129
9	0xbd05b29b	-0.032641035
10	0xbe0bdda0	-0.13658762
11	0x3ddb1982	0.106982246
12	0x3df02d57	0.11727398
13	0xbdd7f6ed	-0.10545144
14	0x3d8626b0	0.06550348
15	0xbe3b5051	-0.18292357
16	0xbd10e4cd	-0.03537445
17	0x3e3d0285	0.18457992
18	0xbda99ff2	-0.0828246
19	0x3b0541a3	0.0020333312
20	0x3c78399f	0.015150457
21	0xbd81ca7c	-0.06337449
22	0xbe1fc361	-0.15601875
23	0xbcf6c536	-0.030123334
24	0x3b80883a	0.0039224895
25	0xbe0cc8c7	-0.13748465
26	0xbdee6384	-0.11640075
27	0xbe42f716	-0.19039568
28	0x3db1a4b5	0.086739935
29	0xbc47ac0d	-0.012187016
30	0xbd5871c6	-0.052842878
31	0xbd84d2ac	-0.06485495
32	0xbddf351a	-0.108988
33	0xbc33c030	-0.010971114
34	0x3d5e6f7e	0.054305546
35	0xbd9c9750	-0.07646048
36	0xbc87c3a3	-0.016572779
37	0xbc55e366	-0.013054704
38	0xbd50b4ef	-0.0509538
39	0x3da1e9ec	0.07905945
40	0x3db9c415	0.09070603
41	0x3d9da091	0.07696641
42	0xbd4239cc	-0.0474184
43	0x3d8212ea	0.06351264
44	0x3d3aa916	0.04557141
45	0x3e39fa41	0.1816187
46	0x3d722be8	0.059123904
47	0x3c49876f	0.012300356
48	0x39d96970	0.00041468022
49	0xbe815102	-0.25257117
50	0x3e085a45	0.13315685
51	0xbdd80557	-0.105478935
52	0x3e7982bc	0.24366277
53	0x3d8720f4	0.06598082
54	0x3c4bcf6c	0.01243959
55	0xbd3f367f	-0.04668283
56	0xbdaf4f79	-0.0856008
57	0x3da95f1a	0.08270092
58	0xbdedb253	-0.11606278
59	0x3d225dfc	0.03964041
60	0xbcdab91a	-0.026699591
61	0xbd8b2c44	-0.067955524
62	0x3d151eec	0.036406443
63	0x3de8517c	0.11343667
64	0x3de5a4d8	0.11213082
65	0x3b6b593e	0.0035911347
66	0xbb28baf0	-0.002574619
67	0x3da4e64a	0.08051737
68	0x3e39e2c1	0.18152906
69	0x3bd8403d	0.0065994547
70	0xbe2687e4	-0.16262776
71	0x3d56501f	0.052322503
72	0xbbce510c	-0.0062962826
73	0xbd424d24	-0.04743685
74	0x3d9eea9b	0.07759591
75	0xbe4a027f	-0.19727515
76	0xbda83347	-0.082129054
77	0x3d458adc	0.04822813
78	0xbde1ae05	-0.1101952
79	0xbdb891de	-0.09012197
80	0x3d44e4cc	0.04806976
81	0x3d4444d0	0.047917187
82	0x3cb1d14a	0.021706242
83	0x3da774ab	0.081765495
84	0xbd86f5db	-0.06589862
85	0x3de69276	0.11258404
86	0x3e0dc5ff	0.13845061
87	0xbd60a634	-0.054846004
88	0x3d3f4c3b	0.04670356
89	0xbc7e4756	-0.0155199375
90	0xbd88e2bc	-0.06683871
91	0x3d271490	0.040791094
92	0xbe25e16d	-0.16199274
93	0xbd9175dc	-0.07102558
94	0x3e2b527f	0.16730689
95	0x3d165994	0.036706522
96	0x3d845234	0.064609915
97	0xbe1e3cbb	-0.15452854
98	0xbd4e74b9	-0.050404284
99	0x3c6e836e	0.0145577025
100	0xbe0f23cd	-0.139785
101	0x3d42e2f6	0.047579728
102	0x3e07f651	0.13277556
103	0x3d15c5a2	0.03656543
104	0x3dfa54c8	0.12223202
105	0xbdb9a6c3	-0.090650104
106	0x3e0955d1	0.13411643
107	0xbe077933	-0.13229828
108	0xbe0d1ebd	-0.13781257
109	0x3d6742e4	0.056460276
110	0xbc6a1a40	-0.014288485
111	0x3c531816	0.0128841605
112	0x3c284ca8	0.0102721825
113	0x3d693843	0.05693842
114	0x3dbff2dc	0.093724936
115	0x3d388725	0.04505076
116	0xbe11dc80	-0.1424427
117	0xbd8f5375	-0.0699834
118	0x3ddd8f88	0.10818392
119	0xbdb130e3	-0.086519025
120	0x3c9456a5	0.018107722
121	0x3df15c69	0.11785204
122	0xbe091d6e	-0.13390133
123	0x3dc9775f	0.09837221
124	0x3cfda16a	0.030960757
125	0xbe2bc324	-0.16773659
126	0xbbb7d306	-0.0056098728
127	0xbd05206a	-0.032501616
128	0xbcccc5aa	-0.024996597
129	0xbd0bd657	-0.034139957
130	0xbe129e67	-0.14318238
131	0xbd691a38	-0.05690977
132	0xbd90abc0	-0.07064009
133	0xbe1b86d2	-0.15188149
134	0x3e0e30b0	0.1388576
135	0x3e3be646	0.18349561
136	0xbe2eaabd	-0.17057319
137	0x3e000f0a	0.12505737
138	0x3d121df5	0.0356731
139	0xbda73696	-0.08164708
140	0xbdac9674	-0.08427134
141	0x3dc023b2	0.09381808
142	0x3df868c3	0.12129357
143	0xbdc6e6df	-0.09712004
144	0x3d02191a	0.03176222
145	0xbd918ca0	-0.071069
146	0xbe32000d	-0.17382832
147	0x3dea842e	0.114509925
148	0x3d885d92	0.06658472
149	0x3d8ccaf0	0.06874645
150	0x3e01aa2d	0.12662573
151	0x3c973e80	0.01846242
152	0xbcb65d0c	-0.022261165
153	0x3dbe3aeb	0.092885815
154	0x3d9bd59a	0.07609101
155	0x3dd30424	0.10303524
156	0xbd27028e	-0.04077392
157	0x3cde81db	0.02716153
158	0x3dc6e4df	0.097116224
159	0xbd61f243	-0.05516268
160	0x3da714f8	0.08158296
161	0x3cdb9dbb	0.02680861
162	0x3c99522a	0.018715937
163	0x3dbfdbc0	0.09368086
164	0x3b1ed1ef	0.0024234017
165	0x3e03382c	0.12814397
166	0xbdf75ddf	-0.12078451
167	0xbe4763fc	-0.19471735
168	0x3e1d9200	0.15387726
169	0xbe7a3e78	-0.24437892
170	0xbe1522e1	-0.14564086
171	0x3e26e8f5	0.16299804
172	0x3d841662	0.06449582
173	0x3d216fc6	0.039413236
174	0xbdff25e0	-0.12458396
175	0x3dbac870	0.09120262
176	0x3c030e5e	0.007999031
177	0xbd9d2167	-0.076723866
178	0xbe469c3a	-0.19395533
179	0x3e168e7b	0.1470279
180	0x3cfe9537	0.03107701
181	0x3e4c9848	0.19979966
182	0xbe175909	-0.14780058
183	0x3d95a81a	0.073074535
184	0x3e3df29b	0.18549578
185	0xbd1b8e77	-0.037977662
186	0x3e00ef7d	0.12591358
187	0xbc62e6e2	-0.013848992
188	0xbdd9e21f	-0.10638832
189	0xbe29002e	-0.16503975
190	0x3d913232	0.07089652
191	0xbe0a26ca	-0.1349136
192	0x3e0b5b7e	0.1360912
193	0x3db80e0a	0.08987053
194	0xbe17cc02	-0.14823917
195	0xbd77ebda	-0.06052766
196	0xbdba011f	-0.09082245
197	0x3e0c9df9	0.13732137
198	0xbe2fa766	-0.17153701
199	0xbe42119f	-0.18952034
200	0x3ce7b4b5	0.02828441
201	0x3df64286	0.12024407
202	0xbe3d1d59	-0.18468226
203	0x3d9beb7f	0.07613277
204	0x3e220477	0.15822016
205	0x3d32d86b	0.043663424
206	0x3c173d03	0.009230855
207	0xbe029b4f	-0.12754558
208	0xbd1398f0	-0.036034524
209	0xbdf06f07	-0.11739927
210	0xbf025704	-0.50914025
211	0x3e6bbccf	0.23021244
212	0xbec9aaa7	-0.3938801
213	0xbdd87e15	-0.10570923
214	0x3db5e070	0.08880699
215	0x3e334ab3	0.17508964
216	0x3e05707c	0.1303119
217	0xbe9d8daa	-0.30772144
218	0xbe0bba58	-0.13645303
219	0x3e21bb0a	0.15794006
220	0xbe965113	-0.2935873
221	0xbec1aee3	-0.3782874
222	0xbcf80cce	-0.030279543
223	0xbdcfe134	-0.10150376
224	0xbe8b5acf	-0.2721772
225	0x3d9b2236	0.075748846
226	0x3dcf8287	0.10132318
227	0x3d6b6353	0.05746777
228	0x3bc305ec	0.0059516337
229	0x3e239311	0.1597407
230	0x3df3f6d8	0.11912316
231	0x3e5746ca	0.21023098
232	0xbeb206ad	-0.34770718
233	0xbe8f76aa	-0.2802022
234	0x3cf0039d	0.029298598
235	0xbddef05a	-0.10885687
236	0xbb9f45bd	-0.0048606084
237	0xbea87f3c	-0.32909572
238	0x3e34a988	0.17642796
239	0xbe6ff37f	-0.2343273
240	0x3e16e8ec	0.1473729
241	0xbd5fa7d6	-0.05460342
242	0x3e9df883	0.30853662
243	0xbd96744e	-0.07346402
244	0xbde7b0b6	-0.11313002
245	0xbea562e4	-0.3230201
246	0x3e47bd90	0.19505906
247	0xbdb4d224	-0.08829144
248	0x3e4af8e9	0.19821514
249	0xbdffacdb	-0.124841414
250	0x3d176c71	0.036968652
251	0x3e8c5c16	0.27414006
252	0xbdd043a3	-0.10169151
253	0x3e8fec60	0.28110027
254	0x3e330a1f	0.1748433
255	0xbd8cfed7	-0.06884544

bias f4 [100]
0	0xbb4897d0	-0.0030608065
1	0x3d8c0e5e	0.06838678
2	0xbd48cae8	-0.04902163
3	0x3d2dc1c3	0.042421114
4	0x3e301750	0.17196393
5	0x3bf2023f	0.0073855217
6	0xbcb1ff04	-0.021728046
7	0xbde319c7	-0.11088901
8	0x3d8d9758	0.06913632
9	0xbc54fabc	-0.012999233
10	0xbd76f6fb	-0.060294133
11	0xbd4d7c48	-0.050167352
12	0x3cff89d0	0.031193644
13	0xbd455786	-0.048179172
14	0xbd61e9b8	-0.055154532
15	0x3d98e944	0.07466367
16	0xbd83de4c	-0.06438884
17	0xbd5c68a0	-0.053810716
18	0x3caa1366	0.020761203
19	0xbd68222c	-0.056673214
20	0x3e270a2a	0.16312471
21	0xbd82df5a	-0.06390257
22	0x3c945f76	0.018111926
23	0xbd166c0c	-0.036724135
24	0xbddbe10a	-0.10736282
25	0xbd27b045	-0.040939588
26	0xbd1065f0	-0.035253465
27	0x3dc8dc78	0.09807676
28	0xbccc417d	-0.024933571
29	0x3d842b3c	0.06453559
30	0xbcf1577d	-0.029460663
31	0x3d95999b	0.073046885
32	0xbde4954c	-0.111612886
33	0xbd882b37	-0.066488676
34	0x3ddc13b5	0.10745946
35	0x3b6f013e	0.0036469246
36	0x3cea4336	0.028596502
37	0x3cb02249	0.021500723
38	0xbd0899ca	-0.03334979
39	0xbd0b3ef0	-0.03399557
40	0xbe024357	-0.12721
41	0x3e03e117	0.12878834
42	0xbde54644	-0.11195043
43	0xbd79324c	-0.060838982
44	0x3cb493db	0.02204316
45	0xbcb7163d	-0.022349471
46	0xbd77d1d1	-0.06050283
47	0xbd2f994c	-0.042870805
48	0x3e533591	0.20625903
49	0x3da66444	0.08124593
50	0x3d8dc9f1	0.06923283
51	0xbdb159fc	-0.08659741
52	0x3d583429	0.05278412
53	0xbdc25492	-0.09488787
54	0x3dd091df	0.10184073
55	0xbd94a3b3	-0.07257786
56	0xbdab8662	-0.08375241
57	0xbdae1694	-0.085004
58	0xbdc87a38	-0.097889364
59	0xbdf382f9	-0.118902154
60	0xbe17e059	-0.14831676
61	0x3dd43fb1	0.10363711
62	0xbd8a5aed	-0.06755624
63	0xbe135a3d	-0.14389892
64	0x3dfacf29	0.12246544
65	0xbd85eeec	-0.06539711
66	0xbd76c7d3	-0.06024916
67	0xbd18168e	-0.037130885
68	0xbdb145e6	-0.0865591
69	0x3da39b77	0.07988637
70	0xbc83d23b	-0.016091457
71	0x3e033b89	0.1281568
72	0xbc6b5a01	-0.01436472
73	0xbdb0e752	-0.08637871
74	0xbdb04b6b	-0.08608135
75	0xbdf06308	-0.11737639
76	0xbd782fd1	-0.060592476
77	0xbc06e30c	-0.008232843
78	0x3ce0d131	0.0274435
79	0xbe042f74	-0.12908727
80	0xbd07fcd3	-0.033200096
81	0xbe848416	-0.25882024
82	0x3d0e9a88	0.03481534
83	0x3dd89ebb	0.105771504
84	0xbdc69b1c	-0.096975535
85	0x3dc761d1	0.09735454
86	0x3d27d36d	0.040973116
87	0x3d4539d0	0.048150837
88	0xbdadf176	-0.08493321
89	0x3dfd323a	0.123630956
90	0x3c55f8bd	0.013059792
91	0x3e4a5ac8	0.19761193
92	0x3e075e07	0.13219462
93	0xbd2ce725	-0.042212624
94	0x3d975ca6	0.07390718
95	0x3d3d78f9	0.046257947
96	0x3d64b00c	0.055831954
97	0x3d882abb	0.06648775
98	0xbe12ae6b	-0.14324348
99	0x3c8a0eb0	0.016852707

weight f4 [100, 100]
0	0xbd141f25	-0.036162514
1	0x3c9647d0	0.01834479
2	0x3e2953d2	0.16535881
3	0x3e1e8eaf	0.15484117
4	0xbd1660af	-0.0367133
5	0x3e00f247	0.12592421
6	0xbdd1b1c2	-0.10238983
7	0xbe0b4e2a	-0.13604036
8	0x3dbe2d94	0.09286037
9	0xbc387ed8	-0.011260711
10	0xbd31ba72	-0.0433907
11	0xbd7d2764	-0.061805144
12	0xbea62124	-0.3244716
13	0xbc86791c	-0.016415171
14	0xbe195df7	-0.14977251
15	0x3ac4e792	0.0015022627
16	0xbd9bdbac	-0.076102585
17	0x3b830c40	0.003999263
18	0xbe595693	-0.21224432
19	0xbe14e762	-0.1454139
20	0x3ddf9613	0.10917296
21	0x3be1d821	0.0068922197
22	0xbc9b0f5b	-0.01892822
23	0x3dad9249	0.08475167
24	0x3e6ce2b2	0.23133352
25	0x3daa7e4e	0.08324872
26	0x3e3d02b6	0.18458065
27	0x3e60fca9	0.21971382
28	0x3cc08a0f	0.023503331
29	0xbd07ca6d	-0.033152033
30	0xbee3d3d4	-0.4449755
31	0xbe161c50	-0.14659238
32	0x3dc07df9	0.093990274
33	0x3d6e432a	0.05816952
34	0x3c32ad9a	0.010905648
35	0xbdfcaa46	-0.123371646
36	0x3d800d4c	0.06252536
37	0x3dc85180	0.0978117
38	0x3d330b15	0.04371174
39	0x3ca0b7b5	0.019618848
40	0xbd2c0c18	-0.04200372
41	0x3d247bd2	0.040157147
42	0xbd01b6a6	-0.031668328
43	0xbd9483c6	-0.07251696
44	0xbd9d4f07	-0.07681089
45	0x3c34dc13	0.011038798
46	0xbdf09fed	-0.117492534
47	0x3e44134c	0.19147986
48	0xbdf00f6f	-0.11721694
49	0x3e069050	0.13140988
50	0xbda9bf46	-0.08288436
51	0x3e7d3878	0.24728572
52	0xbe52d49e	-0.2058892
53	0xbd23851a	-0.039921857
54	0xbabd728e	-0.0014453696
55	0x3eca4489	0.39505413
56	0x3e8f9813	0.2804571
57	0xbe614dc0	-0.22002316
58	0xbd8bf021	-0.0683291
59	0x3e27b6e7	0.16378365
60	0x3e2960fb	0.16540901
61	0xbdfc52f0	-0.123205066
62	0xbda00f85	-0.0781546
63	0xbc3d6aec	-0.011561137
64	0x3d9a4589	0.07532794
65	0x3d24a748	0.040198594
66	0x3dde326c	0.10849461
67	0x3d284713	0.041083407
68	0xbe5e1015	-0.21685822
69	0x3e1d9bd4	0.15391475
70	0xbe176165	-0.14783247
71	0xbd87e7a2	-0.06635977
72	0xbd382a08	-0.04496196
73	0xbe15187b	-0.1456012
74	0x3e1b0511	0.15138651
75	0xbd8e03e4	-0.06934336
76	0xbe33837d	-0.17530628
77	0x3d6096dd	0.054831374
78	0xbe2a7222	-0.166451
79	0x3e4f7009	0.20257582
80	0xbd727028	-0.05918899
81	0x3cb2bd64	0.021818824
82	0xbdf4d66f	-0.119549625
83	0xbe5630f2	-0.20917109
84	0xbdd3d8ae	-0.10344063
85	0xbd7264fd	-0.05917834
86	0xbdd4f9c9	-0.10399205
87	0xbc3a2be2	-0.011363002
88	0xbe492865	-0.19644316
89	0xbe970ce9	-0.29502037
90	0xbe8bd464	-0.2731048
91	0xbc656eac	-0.014003437
92	0x3d3343d1	0.043765847
93	0x3b03576c	0.0020041121
94	0xbdfe4083	-0.124146484
95	0xbd340d10	-0.04395777
96	0x3e57e56f	0.21083616
97	0x3d5de600	0.054174423
98	0xbc836f19	-0.016044186
99	0x3e1c4532	0.15260771
100	0xbdc7ff78	-0.09765524
101	0xbd6ffe02	-0.05859185
102	0xbe1b6c9e	-0.15178153
103	0x3eae8fc4	0.3409406
104	0xbd851a93	-0.06499209
105	0x3da13e9e	0.078732714
106	0xbe2cd417	-0.16877781
107	0x3e0747ba	0.13210955
108	0xbe8cbfe7	-0.2749016
109	0x3e2ff5dc	0.17183632
110	0x3ce0dd8c	0.027449392
111	0xbdc1e926	-0.09468298
112	0xbe0d41b6	-0.13794598
113	0x3db9dd44	0.09075406
114	0xbd1d3b5b	-0.038386684
115	0x3d8c53b0	0.068518996
116	0xbc322aa7	-0.010874427
117	0x3dcb68b6	0.099320814
118	0xbe298e1f	-0.16558121
119	0x3d44e6db	0.048071723
120	0xbccde368	-0.02513285
121	0xbe6aeccd	-0.22941895
122	0x3d2fd43f	0.042927023
123	0xbe65f1db	-0.22455542
124	0x3c2263e2	0.009911509
125	0xbc489c87	-0.01224435
126	0xbc61f49c	-0.01379123
127	0xbe49474f	-0.19656108
128	0x3cc69b51	0.024243983
129	0x3c6a1aec	0.014288645
130	0xbe724a58	-0.23661172
131	0xbcf56b41	-0.02995837
132	0xbe487b99	-0.19578399
133	0x3dee4aac	0.11635336
134	0xbe1954cb	-0.14973752
135	0xbe692bc4	-0.22770602
136	0xbb82d5ee	-0.0039927876
137	0xbcd96947	-0.026539458
138	0x3e686419	0.22694434
139	0x3c712045	0.014717166
140	0x3de6147b	0.11234375
141	0xbd686509	-0.05673698
142	0x3ddf1cda	0.10894175
143	0xbed814a1	-0.4220324
144	0x3e155315	0.14582475
145	0x3c26f731	0.010190771
146	0xbdcb15a0	-0.09916234
147	0x3d29bcb2	0.04143972
148	0xbe091e01	-0.13390352
149	0xbaf78b71	-0.0018886161
150	0x3e264a2f	0.16239236
151	0x3c6247f2	0.013811098
152	0xbe85420f	-0.2602696
153	0xbe3a4944	-0.18192011
154	0x3db75cb9	0.08953232
155	0x3e5899ad	0.21152373
156	0x3e81f40e	0.2538151
157	0x3d1db724	0.038504735
158	0xbd968cfd	-0.0735111
159	0x3e33dc85	0.1756459
160	0xbde48b55	-0.11159388
161	0x3e2dcfbf	0.1697378
162	0x3db424f4	0.08796111
163	0x3c62d648	0.013845034
164	0xbd406f42	-0.046981104
165	0x3e1a95fa	0.15096274
166	0xbdd3600d	-0.103210546
167	0xbc9b031a	-0.018922377
168	0xbe4d2590	-0.2003386
169	0x3dffbd52	0.12487282
170	0x3d10acd9	0.03532109
171	0xbeb5fabc	-0.35542858
172	0xbdaefbbd	-0.08544109
173	0xbda01fde	-0.07818578
174	0xbe4828ae	-0.19546768
175	0x3c815f1d	0.015792424
176	0xbe917686	-0.2841074
177	0xbcc0f9e8	-0.023556665
178	0xbd09881e	-0.033577077
179	0x3e816976	0.25275773
180	0xbbcf8879	-0.0063334075
181	0x3e7274c1	0.2367735
182	0xbc8035f5	-0.015650729
183	0x3e1c5fce	0.15270922
184	0x3e1bac90	0.15202546
185	0x3e34e4a5	0.17665346
186	0x3c3606a3	0.011109981
187	0xbe082b4c	-0.13297766
188	0xbe6bba08	-0.23020184
189	0xbe402f9a	-0.18768159
190	0xbe7a0846	-0.24417219
191	0x3db4c3ae	0.088263854
192	0xbdd91a55	-0.106007256
193	0x3df0bfef	0.117553584
194	0xbd49323a	-0.049120165
195	0x3d8094a2	0.062783495
196	0xbd12b8a9	-0.035820637
197	0xbb9a8de8	-0.0047166236
198	0x3e0252d1	0.12726904
199	0xbc2e1d67	-0.010627127
200	0xbd888781	-0.0666647
201	0x3e1071bc	0.14105886
202	0xbdc29eae	-0.09502922
203	0x3d18cba8	0.037303597
204	0xbdc4af03	-0.09603693
205	0xbe0eced2	-0.13946083
206	0x3d884b18	0.06654948
207	0x3d920cb5	0.0713133
208	0x3ca96450	0.020677716
209	0xbdf1f46b	-0.11814197
210	0xbdd54aeb	-0.1041468
211	0xbd3c41f6	-0.045961343
212	0x3dd01d63	0.10161855
213	0x3dc9a20c	0.09845361
214	0xbd20ae5f	-0.039228793
215	0xbdb43b57	-0.08800381
216	0x3db87b06	0.0900784
217	0xbd0ae00e	-0.03390508
218	0xbe0ee95e	-0.1395621
219	0x3da50342	0.08057262
220	0x3df5ea5f	0.12007593
221	0xbd34eaeb	-0.044169348
222	0x3e5debcf	0.21671985
223	0xbb59a15c	-0.003320775
224	0x3dd431be	0.1036105
225	0xbe45b7c4	-0.19308382
226	0x3c2ea07e	0.0106583815
227	0xbdeae5b9	-0.11469597
228	0xbbeb53d3	-0.0071816235
229	0xbdd6d649	-0.104900904
230	0xbcd1cb57	-0.025609655
231	0xbd25a28d	-0.040438224
232	0x3d875ff0	0.066100955
233	0x3d0e14e0	0.034687877
234	0xbc458ded	-0.0120577635
235	0xbd74f23b	-0.05980132
236	0xbcd9fd36	-0.026609998
237	0x3d02e413	0.03195579
238	0xbc40b421	-0.011761696
239	0x3c8ffd73	0.017576909
240	0xbdf53757	-0.11973446
241	0xbd4f9c64	-0.050686255
242	0xbbaebfca	-0.0053329216
243	0x3e5574db	0.20845358
244	0xbdae4b70	-0.08510482
245	0xbd246a13	-0.040140223
246	0x3e576ef2	0.21038416
247	0xbd956c9b	-0.072961055
248	0x3da91e92	0.08257784
249	0x3d82cafe	0.06386374
250	0xbc2835c7	-0.010266728
251	0x3e07da27	0.13266812
252	0xbdf476a9	-0.11936695
253	0xbd942679	-0.072339006
254	0xbe46b33c	-0.1940431
255	0xbe31238b	-0.17298715

bias f4 [100]
0	0x3d8ed542	0.069742694
1	0x3cada8ae	0.021198597
2	0x3c7011ea	0.014652709
3	0xbb07ecec	-0.0020740582
4	0xbe2a7a72	-0.16648272
5	0xbd438261	-0.04773176
6	0xbdd5fb94	-0.10448375
7	0xbdcd20f8	-0.10016054
8	0x3d2ea354	0.04263623
9	0x3ca81d6e	0.020521846
10	0x39dae24a	0.000417488
11	0x3d15a58b	0.036534827
12	0x3cc5e38f	0.02415636
13	0x3c2f89ed	0.010714036
14	0xbbd2f786	-0.0064381985
15	0xbcd3084a	-0.025760788
16	0x3df630ec	0.1202105
17	0xbd31f7c3	-0.043449175
18	0xbd224149	-0.039613042
19	0xbd13da52	-0.03609688
20	0xbe146099	-0.14489974
21	0xbdcfa2f9	-0.101385064
22	0xbe050d25	-0.12993295
23	0xbc2043da	-0.009781802
24	0x3c234e35	0.0099673765
25	0x3d576f47	0.052596357
26	0x3c4c8fcc	0.012485456
27	0x3d90910f	0.07058918
28	0x3d8b8334	0.068121344
29	0x3c88db75	0.016706208
30	0x3d88f279	0.06686873
31	0x3cd2ab08	0.02571632
32	0x3d858a6e	0.06520544
33	0x3d9fcf1b	0.07803174
34	0xbd2b724c	-0.04185705
35	0x3e0f55d2	0.13997582
36	0x3b7a72f8	0.00382155
37	0x3d33b991	0.04387814
38	0xbe5adc22	-0.21373037
39	0xba258104	-0.00063134753
40	0x3e4e43d3	0.2014306
41	0xbd9055e2	-0.07047631
42	0xbc408b75	-0.011751999
43	0x3ca2c99d	0.019871527
44	0x3dd9c301	0.10632897
45	0xbc5e5ebb	-0.01357239
46	0x3ecaafc9	0.39587238
47	0xbd19fef3	-0.037596654
48	0xbbe02128	-0.00683989
49	0xbc9c7e7c	-0.019103281
50	0x3c568b23	0.013094696
51	0xbd39fc79	-0.045406792
52	0x3ca02ea7	0.019553496
53	0x3d58e799	0.052955244
54	0x3d98f70f	0.07468998
55	0x3dde8867	0.108658604
56	0xbd964863	-0.073380254
57	0x3d3ba903	0.04581548
58	0xbc98b01e	-0.018638667
59	0xbc33026e	-0.010925872
60	0xbd91adf8	-0.0711326
61	0x3c44e7d1	0.01201816
62	0xbc8a0cb5	-0.016851762
63	0x3ad5c652	0.0016309714
64	0x3e0edb3b	0.13950817
65	0xbc9dc2fd	-0.019258017
66	0x3cce0ed9	0.025153564
67	0x3c092131	0.00836973
68	0x3b44f7c4	0.0030054906
69	0x3ccbe84f	0.024891047
70	0x3daebd89	0.08532245
71	0xbcc8fbb5	-0.024534086
72	0xbcf722ec	-0.03016802
73	0x3ceeb229	0.029137688
74	0x3e3e5207	0.18585978
75	0xbda87288	-0.0822497
76	0xbe1d0cef	-0.15336965
77	0x3db70ae5	0.08937625
78	0xbd93cfdd	-0.07217381
79	0xbd0de8f1	-0.03464598
80	0xbb06aead	-0.0020550892
81	0x3c8f28eb	0.017475566
82	0xbdeb0285	-0.1147509
83	0x3e0df3df	0.1386256
84	0x3d3fd9da	0.04683862
85	0x3d87c10c	0.06628618
86	0x3e794201	0.24341585
87	0xbd5833f1	-0.05278391
88	0xbc7157a5	-0.014730369
89	0x3caae25b	0.020859888
90	0xbd89fa59	-0.06737203
91	0xbd21e648	-0.039526254
92	0xbc45a1a7	-0.012062467
93	0xbd414460	-0.047184348
94	0xbd3c5729	-0.04598156
95	0x3da1fdad	0.07909713
96	0xbd133641	-0.035940412
97	0xbcd0684d	-0.02544036
98	0x3da237f2	0.07920827
99	0xbbf55681	-0.0074871187

weight f4 [100, 100]
0	0xbe7b4b7d	-0.24540515
1	0x3bfd6743	0.007733257
2	0xbdce3ee4	-0.10070589
3	0x3db33614	0.08750549
4	0x3e8df2e9	0.27724388
5	0x3de8631a	0.11347027
6	0x3d9b89ef	0.07594668
7	0x3c788d40	0.015170395
8	0xbb0baf5a	-0.0021314234
9	0xbe03cf72	-0.12872103
10	0xbd877c0d	-0.06615458
11	0x3e258f75	0.16168006
12	0xbb9b005c	-0.0047302675
13	0xbc909da2	-0.01765329
14	0xbdf6b0e8	-0.12045461
15	0x3d2d8566	0.042363547
16	0xbe38b234	-0.18036729
17	0xbcedd91a	-0.029034186
18	0x3e7ead72	0.24870852
19	0xbe50f5d4	-0.20406276
20	0xbe30d50c	-0.17268771
21	0xbd9b327d	-0.07577989
22	0x3df3f08a	0.119111136
23	0x3d3b965d	0.045797694
24	0x3e954139	0.29151323
25	0xbd321d44	-0.04348494
26	0xbe2dc92e	-0.16971275
27	0x3daf9dd0	0.08575022
28	0x3de38a72	0.11110391
29	0x3d85876a	0.06519969
30	0x3e4196e2	0.18905213
31	0xbdba8280	-0.09106922
32	0xbe32fd69	-0.17479481
33	0xbe1578ad	-0.14596815
34	0xbea69d64	-0.32541955
35	0x3dcb249a	0.099190906
36	0x3e04812c	0.129399
37	0xbdf7b6dd	-0.12095425
38	0x3d1ab149	0.03776673
39	0x3e5d8d65	0.21635969
40	0xbebb42aa	-0.36574298
41	0x3e0b7f38	0.13622749
42	0xbe0e6925	-0.13907297
43	0x3e8a3e11	0.27000478
44	0x3dbb9bad	0.09160552
45	0xbd906353	-0.070501946
46	0xbcaddff9	-0.021224963
47	0x3e6a7767	0.22897111
48	0x3d8f5f3b	0.07000586
49	0xbcfffb96	-0.031247895
50	0xbd9e2b25	-0.07723073
51	0xbdf22214	-0.11822906
52	0xbdd067ad	-0.101760246
53	0x3e336b69	0.17521442
54	0xbe78ca4d	-0.24295922
55	0xbdbf909d	-0.09353755
56	0xbe3a9b5c	-0.18223327
57	0xbdc94ed0	-0.098294854
58	0x3dc17fde	0.09448217
59	0x3d9dd837	0.07707255
60	0xbdc97ef6	-0.09838669
61	0xbe96cee1	-0.2945471
62	0x3e4448d5	0.19168408
63	0xbd0c11bf	-0.03419661
64	0xbde72af9	-0.11287493
65	0x3d8c370e	0.06846438
66	0x3e85cf4e	0.26134723
67	0x3d9964b5	0.074899115
68	0x3c805a1b	0.015667966
69	0x3d1a042f	0.037601646
70	0xbdf85e58	-0.1212737
71	0xbe31ece2	-0.1737552
72	0xbd830706	-0.06397824
73	0xbdb2a7f2	-0.08723439
74	0xbca1e3ba	-0.019761909
75	0xbce29e46	-0.027663361
76	0x3e9ef572	0.31046635
77	0x3d625350	0.055255234
78	0x3e1b041c	0.15138286
79	0x3d168ea1	0.036757115
80	0xbe14c895	-0.14529641
81	0x3e1b546e	0.15168926
82	0xbe914bf0	-0.28378248
83	0xbe40bae6	-0.18821296
84	0x3e1c9d2c	0.15294331
85	0xbdec16f3	-0.11527815
86	0x3d9f381a	0.077743724
87	0x3e84df7b	0.25951752
88	0xbe80e345	-0.25173393
89	0xbcc5efbd	-0.024162168
90	0xbe06d2e8	-0.13166392
91	0xbe0f6cce	-0.1400635
92	0xbdecbfe0	-0.11560035
93	0xbe478c19	-0.19487037
94	0xbd900ec2	-0.07034065
95	0x3d83c677	0.064343385
96	0x3d9fe911	0.07808126
97	0xbe8cbe95	-0.27489153
98	0x3e02fc96	0.12791666
99	0xbd954d88	-0.072901785
100	0xbe599aa8	-0.21250403
101	0xbd7f6147	-0.06234863
102	0xbe1b506e	-0.151674
103	0xbe74dd58	-0.23912561
104	0x3dfbca40	0.122944355
105	0x3d7041b9	0.058656428
106	0xbdf0315e	-0.11728166
107	0x3e1e3abc	0.15452093
108	0xbdb3a5c9	-0.087718554
109	0x3e22c2b5	0.15894587
110	0xbb8b3b8f	-0.0042490433
111	0x3cd321d6	0.02577297
112	0x3dac5a4c	0.0841566
113	0xbe852f86	-0.2601282
114	0xbcdb2ad0	-0.026753813
115	0x3d360696	0.044439875
116	0x3caf4f4d	0.021400118
117	0xbca3cf95	-0.019996444
118	0x3dee4f99	0.11636276
119	0x3c5408ed	0.012941581
120	0x3d9b8ac9	0.075948305
121	0x3d03d07b	0.032181244
122	0x3df9ac84	0.12191108
123	0x3d6b9a57	0.057520237
124	0x3e078f4b	0.13238256
125	0xbdbfd250	-0.09366286
126	0x3ddafcf0	0.10692775
127	0xbde42997	-0.11140745
128	0xbdd34943	-0.10316708
129	0xbe8156fc	-0.25261676
130	0x3d7a6c6d	0.06113856
131	0x3e10bef2	0.1413534
132	0x3dd15db9	0.10222954
133	0xbcf2fd47	-0.029661788
134	0x3eb91e4c	0.36155927
135	0x3d2e5531	0.042561714
136	0xbe1821e1	-0.14856674
137	0x3d3bd26b	0.045854967
138	0xbe2dbd1a	-0.16966668
139	0xbdc3373b	-0.09532019
140	0xbd0f004f	-0.034912404
141	0xbdd761fc	-0.10516736
142	0x3db79eb3	0.08965816
143	0xbd008798	-0.031379312
144	0x3dcc420f	0.09973537
145	0xbd6fa3cd	-0.058505822
146	0x3dec52e4	0.11539248
147	0x3e06d7d5	0.13168271
148	0x3ddab05a	0.10678168
149	0xbe7529ab	-0.23941676
150	0xbbdec3d4	-0.006798247
151	0xbe0d8cbf	-0.13823222
152	0x3df3232f	0.11871945
153	0x3dc06ac6	0.093953654
154	0x3daff74b	0.08592089
155	0x3d9549b9	0.07289452
156	0xbd4b0124	-0.049561635
157	0xbe1ac5aa	-0.15114465
158	0xbe346a40	-0.17618656
159	0xbddd5a8c	-0.10808286
160	0xbe1c73ea	-0.15278593
161	0xbdf16cd8	-0.117883384
162	0x3e230b28	0.15922225
163	0xbd3f9de8	-0.04678145
164	0x3d5a66b8	0.053320616
165	0x3d4a07c6	0.04932382
166	0xbe310204	-0.17285925
167	0x3d829be4	0.0637739
168	0x3c1173c9	0.008877703
169	0xbde49fd1	-0.11163295
170	0xbdd8fcd1	-0.10595096
171	0x3dbc72e1	0.09201599
172	0x3de26c8b	0.11055859
173	0x3d5e85f8	0.05432698
174	0x3e26599b	0.1624512
175	0x3e89905d	0.26867953
176	0xbd02a079	-0.03189132
177	0xbe7c0c25	-0.24614008
178	0xbe38e055	-0.18054326
179	0x3e6ee880	0.23330879
180	0xbd4d11aa	-0.050065674
181	0xbd7140cc	-0.058899686
182	0xbe489610	-0.19588494
183	0xbe76ca09	-0.24100508
184	0xbe0c4864	-0.1369949
185	0x3caa4625	0.0207854
186	0x3e36cd80	0.1785183
187	0x3dbad5d7	0.09122818
188	0xbdcb8184	-0.099368125
189	0x3cd9d367	0.026590062
190	0x3d96bd4f	0.073603265
191	0xbe27fe6f	-0.16405652
192	0xbd9eb78f	-0.07749855
193	0x3e904c19	0.28183058
194	0x3e775b48	0.24155915
195	0xbd8a278f	-0.067458265
196	0xbd6f7cff	-0.058468815
197	0x3e35ff01	0.17773058
198	0x3d8955c9	0.06705815
199	0xbe482edc	-0.19549125
200	0x3e5ce6a6	0.2157236
201	0x3e680f03	0.22661977
202	0x3e0067f1	0.1253965
203	0x3e86e99e	0.2635011
204	0xbe013e04	-0.12621313
205	0xbd9973f9	-0.07492823
206	0x3c88d746	0.016704213
207	0x3e36cbf1	0.17851235
208	0x3dd1de99	0.10247535
209	0xbe6bd289	-0.23029532
210	0xbd767f9e	-0.0601803
211	0xbe04e026	-0.12976131
212	0xbd93efb1	-0.07223452
213	0x3f1ef67c	0.62094855
214	0xbcc05668	-0.023478702
215	0x3da52bf3	0.08065023
216	0xbd9609ba	-0.07326074
217	0xbe1d0869	-0.1533524
218	0x3e1a9f4d	0.15099831
219	0x3dd6da25	0.104908265
220	0x3d7f1e44	0.062284723
221	0xbe0c6b2d	-0.1371276
222	0xbdce23d2	-0.10065426
223	0xbd092d9a	-0.033490755
224	0xbe1b96be	-0.15194222
225	0x3dda087d	0.1064615
226	0x3e14e457	0.1454023
227	0xbd4cb762	-0.049979575
228	0xbdf55b11	-0.1198026
229	0xbd6df5af	-0.05809563
230	0xbdcfb73c	-0.10142371
231	0xbdcd0595	-0.1001083
232	0x3dd32090	0.10308945
233	0xbe8de579	-0.27714136
234	0xbbf157e0	-0.007365212
235	0x3f157b22	0.5839101
236	0xbbecd7ca	-0.0072278725
237	0x3eddca93	0.43318614
238	0xbe6ab991	-0.2292235
239	0xbc77bb43	-0.01512033
240	0xbb263d25	-0.0025366035
241	0xbe36b7e5	-0.17843588
242	0xbe52c722	-0.20583776
243	0xbdca06ae	-0.09864555
244	0x3c3e470b	0.011613618
245	0xbe450d7e	-0.19243428
246	0x3e00d101	0.12579729
247	0x3dcc1694	0.09965244
248	0xbd18dba6	-0.037318848
249	0x3c00129e	0.007816939
250	0xbdbea862	-0.0930946
251	0x3e54a64f	0.20766567
252	0x3de4662e	0.11152302
253	0xbdeb829a	-0.1149952
254	0x3d35c743	0.044379484
255	0xbe22ddf5	-0.15904982

bias f4 [100]
0	0xbce4d64f	-0.027934222
1	0x3d0e931f	0.034808274
2	0x3d1d1179	0.03834674
3	0x3da1d4c5	0.07901911
4	0xbdcc6885	-0.09980873
5	0x3d7a0cf6	0.061047517
6	0x3cc2197e	0.023693796
7	0x3d8a4be7	0.067527585
8	0xbd08ab33	-0.033366393
9	0x3d904e5a	0.070461944
10	0xbcd84384	-0.026399381
11	0x3cd3f5c7	0.025874032
12	0x3d19590d	0.03743844
13	0xbe24eb9c	-0.16105503
14	0xbdbcabeb	-0.09212478
15	0xbd5a2455	-0.053257305
16	0x3ccc4f1b	0.024940064
17	0x3c2e68fb	0.0106451465
18	0xbe6dd70f	-0.2322657
19	0x3d977d54	0.07396951
20	0xbc99af66	-0.018760394
21	0x3d09ce38	0.03364393
22	0xbc8a29fa	-0.01686572
23	0x3da54740	0.080702305
24	0x3c6acbe7	0.014330841
25	0xbd95d4a4	-0.073159486
26	0x3cae0791	0.021243842
27	0xbdf57e08	-0.11986929
28	0xb9e4bea0	-0.00043629576
29	0x3d3be34c	0.045871064
30	0x3c69ca83	0.014269474
31	0x3da1ec6e	0.079064235
32	0xbabb5abd	-0.001429401
33	0x3ce54a06	0.027989399
34	0xbda79b3f	-0.08183908
35	0x3d2b8bd8	0.041881412
36	0x3df2a46b	0.118477665
37	0xbbe060e4	-0.0068474878
38	0xbd6b988a	-0.05751852
39	0xbdca9473	-0.09891596
40	0xbd19c706	-0.03754332
41	0x3dbb6799	0.09150619
42	0x3cea23d3	0.028581535
43	0x3c03816a	0.00802646
44	0x3c823f6a	0.015899379
45	0xbcd6cdae	-0.026221123
46	0xbe806269	-0.2507508
47	0x3d060869	0.032722864
48	0xbd46e11b	-0.04855452
49	0xbd2b7206	-0.041856788
50	0xbd0f228a	-0.03494505
51	0xbdb2d597	-0.08732145
52	0xbe69f32e	-0.22846672
53	0xbde52866	-0.11189346
54	0x3a924cf0	0.0011161845
55	0xbc81d3ee	-0.015848126
56	0x3e3e8ab9	0.18607606
57	0xbc875e28	-0.01652439
58	0xbd2eec96	-0.042706095
59	0xbd14c995	-0.036325056
60	0x3d29da3a	0.041467883
61	0xbbc54b4d	-0.0060209394
62	0x3ca24036	0.019806009
63	0x3d9d93e7	0.07694226
64	0xbd9c36fb	-0.07627674
65	0x3ca92dee	0.020651784
66	0xbc856c56	-0.01628701
67	0x3e1746ad	0.14773054
68	0x3ddc74ee	0.1076449
69	0x3d115dc3	0.03548981
70	0x3d849195	0.0647308
71	0xbdad82a7	-0.084721856
72	0x3cbf75a3	0.023371523
73	0xbbfce6ff	-0.0077179666
74	0x3e02b2dc	0.12763542
75	0xbd171c9d	-0.036892522
76	0x3caf218b	0.0213783
77	0x3c2623c4	0.010140363
78	0xbe1a330c	-0.15058535
79	0xbd53d5f3	-0.05171771
80	0xbe588cc3	-0.21147446
81	0xbd505688	-0.050863773
82	0xbe05a2de	-0.1305041
83	0x3d208a26	0.03919425
84	0x3d1a46be	0.03766512
85	0xbd604655	-0.054754574
86	0xbd4644b3	-0.04840536
87	0xbcd7b41d	-0.026331002
88	0xbb25bd22	-0.0025289734
89	0xbd102e20	-0.03520024
90	0xbd8059ec	-0.06267151
91	0x3d4c7ff4	0.049926713
92	0x3d155c88	0.036465198
93	0x3c9f4355	0.019441286
94	0x3e22a88c	0.15884608
95	0xbe1752c7	-0.14777671
96	0xbde77e92	-0.11303438
97	0x3d0083c3	0.031375658
98	0xbd9fde80	-0.078061104
99	0xbd84755b	-0.06467696

weight f4 [100, 100]
0	0x3cf9066e	0.030398574
1	0x3e1196b3	0.14217643
2	0xbe14e29f	-0.14539574
3	0x3c257a20	0.010099918
4	0x3e82f4bc	0.25577343
5	0xbdbd06cb	-0.09229811
6	0x3d8400b0	0.06445444
7	0xbe00b26c	-0.12568063
8	0x3cbc4df0	0.022986382
9	0x3df7a9ae	0.12092911
10	0x3dafce9a	0.08584328
11	0x3e7c47c0	0.24636745
12	0xbc12603e	-0.008934079
13	0xbc842992	-0.016133104
14	0xbe7a9756	-0.24471793
15	0x3e6b4c20	0.22978258
16	0x3e561160	0.20905066
17	0x3d982211	0.07428373
18	0xbd0527c2	-0.03250862
19	0xbe410556	-0.18849692
20	0x3d5da2c0	0.05411029
21	0xbcd75042	-0.026283387
22	0xbdb2290b	-0.086992346
23	0xbe426251	-0.18982817
24	0x3db54f37	0.08853
25	0x3de7cabc	0.113179654
26	0xbda013b6	-0.078162596
27	0x3c7faa4b	0.015604566
28	0xbde98228	-0.114017785
29	0xbd290c10	-0.04127127
30	0xbe1d13e1	-0.15339614
31	0x3c0fba36	0.0087724235
32	0xbd123977	-0.035699334
33	0x3e365b12	0.17808178
34	0xbc649ddd	-0.013953653
35	0x3e101d4d	0.14073677
36	0xbd43957f	-0.047749992
37	0xbd48dd3a	-0.049039103
38	0x3e3a0796	0.18166956
39	0xbe1f92a1	-0.15583278
40	0x3c2c9427	0.010533369
41	0xbe1f1819	-0.15536536
42	0xbd8c475f	-0.068495505
43	0xbdf8af49	-0.12142808
44	0x3e0f1ab2	0.13975027
45	0xbe2dd07f	-0.16974066
46	0x3e21c5a5	0.15798052
47	0x3e1af8ba	0.15133944
48	0x3e3fed2b	0.18742816
49	0xbda984db	-0.08277293
50	0x3bc6d68a	0.0060680555
51	0x3e2a0447	0.16603194
52	0x3e2615a0	0.16219187
53	0x3e42f119	0.19037284
54	0x3baa7a3e	0.0052025607
55	0x3d81f8f9	0.06346316
56	0x3e0e45fe	0.13893887
57	0x3de7e1f3	0.11322393
58	0xbe672b33	-0.22575073
59	0xbe2edbfa	-0.17076102
60	0xbe0a4ea9	-0.13506569
61	0xbdf5c321	-0.120001085
62	0x3e80b244	0.25136006
63	0xbe05396d	-0.13010187
64	0xbdd32276	-0.10309307
65	0x3d1e064e	0.03858023
66	0xbdb7b7ea	-0.08970626
67	0x3d85e675	0.06538097
68	0xbe3c7e8b	-0.18407647
69	0x3e21a66b	0.1578614
70	0x3e49a273	0.19690876
71	0x3de21295	0.110387005
72	0x3e8b0f96	0.2716033
73	0xbd26bb9e	-0.04070627
74	0x3dc7d865	0.09758071
75	0x3dbc3b80	0.09191036
76	0xbe1a7a5c	-0.15085739
77	0xbd93d40f	-0.07218181
78	0x3cd3043d	0.025758857
79	0xbc5a7009	-0.013332375
80	0xbdaf28c1	-0.08552695
81	0x3e179254	0.14801913
82	0xbe2022f8	-0.1563834
83	0x3e08e3f2	0.13368204
84	0xbe3beb35	-0.18351443
85	0xbd1151d7	-0.03547844
86	0xbe63faad	-0.22263594
87	0xbdfff687	-0.12498193
88	0x3cf61b8d	0.030042434
89	0xbe00e821	-0.1258855
90	0xbcc212e4	-0.023690648
91	0xbe7465f8	-0.23867023
92	0xbde2f9ef	-0.11082827
93	0xbbdd42fb	-0.0067523695
94	0xbdadfb24	-0.08495167
95	0xbe008dda	-0.12554112
96	0x3e652392	0.2237685
97	0xbde3b7d4	-0.11119047
98	0xbdec30bc	-0.11532733
99	0xbdfd9abc	-0.12383029
100	0x3cb1b3c7	0.02169217
101	0x3dae62c5	0.085149325
102	0xbe0486fe	-0.1294212
103	0xbccb296d	-0.024800027
104	0xbdd931b3	-0.106051825
105	0xbde1e649	-0.110302515
106	0xbe35f9bc	-0.17771047
107	0x3c1b84b7	0.009492091
108	0xbe195696	-0.14974436
109	0xbd934ef4	-0.071927935
110	0xbdb3d77c	-0.08781335
111	0xbe0ae5bf	-0.13564204
112	0x3e2ab3bf	0.1667013
113	0xbe426dc1	-0.1898718
114	0xbdc5c5d3	-0.096568726
115	0xbdd3d0d9	-0.10342569
116	0xbecbe248	-0.39821076
117	0x3e1518f9	0.14560308
118	0x3d420a94	0.04737337
119	0xbeaf5ed3	-0.34252033
120	0x3cbfbabd	0.023404473
121	0x3e1826c8	0.14858544
122	0xbde54920	-0.11195588
123	0x3d8d4faf	0.06899964
124	0x3dd9ac27	0.106285386
125	0xbe0d2217	-0.13782535
126	0xbcd04f8e	-0.02542856
127	0xbe02fb98	-0.12791288
128	0x3d301a97	0.042994108
129	0x3d629c61	0.055324916
130	0x3e1d8e22	0.1538625
131	0xbdb0f054	-0.08639589
132	0x3e165d7f	0.14684103
133	0xbd969c78	-0.07354063
134	0x3e4a580b	0.19760148
135	0xbcf1e18d	-0.029526496
136	0x3e5886cc	0.21145171
137	0x3cc92f68	0.024558738
138	0x3e51f8af	0.20505022
139	0x3d0021b4	0.03128214
140	0x3b193bb4	0.0023381533
141	0xbd40ffe4	-0.047119036
142	0x3e2f60ab	0.1712672
143	0xbc1c8aa1	-0.009554536
144	0xbeccb2d5	-0.39980188
145	0x3eb3c726	0.35112876
146	0x3e064330	0.13111567
147	0x3ce197e7	0.027538253
148	0x3d91be35	0.07116357
149	0xbe67073c	-0.22561353
150	0x3db463dd	0.0880811
151	0x3e4dfcbd	0.20115943
152	0x3ea42573	0.3205982
153	0x3e481a8f	0.19541381
154	0xbdd080b6	-0.101808
155	0xbd2bfaa8	-0.04198709
156	0xbd8a0777	-0.06739705
157	0xbe9858e5	-0.2975532
158	0x3e553337	0.20820318
159	0xbd9f5fc2	-0.07781936
160	0xbe1a9abf	-0.15098093
161	0xbd520d7d	-0.051282395
162	0xbe328594	-0.17433769
163	0x3dbf543f	0.093422405
164	0xbd6b99c5	-0.057519693
165	0x3ccb8b4d	0.024846697
166	0x3d5de443	0.054172765
167	0x3e062022	0.13098195
168	0x3e18bb02	0.14915088
169	0xbe938b1e	-0.28817075
170	0xbce163cf	-0.027513413
171	0x3dbe8d87	0.09304338
172	0x3e13bb19	0.14426841
173	0x3d013d59	0.031552646
174	0x3de830fa	0.113374665
175	0x3da3a057	0.07989567
176	0x3d930d8d	0.07180319
177	0x3db7305d	0.089447714
178	0x3d61feeb	0.05517475
179	0xbe5e9fc2	-0.2174063
180	0xbe24f26d	-0.16108103
181	0x3db2c7e6	0.08729534
182	0xbd9bce68	-0.07607728
183	0xbd06bcf3	-0.03289504
184	0x3e327050	0.17425656
185	0xbd1df883	-0.038567077
186	0xbde2a424	-0.110664636
187	0x3e5e934a	0.21735874
188	0xbd53a7e7	-0.051673796
189	0xbd917281	-0.07101918
190	0xbe1dc6a4	-0.15407807
191	0x3c526420	0.0128412545
192	0x3d3b043a	0.045658328
193	0x3e5c1a15	0.21494325
194	0x3d7ea24a	0.06216649
195	0x3e1c4506	0.15260705
196	0xbd56fb98	-0.052486032
197	0xbd834ea1	-0.06411482
198	0xbdc8ebd2	-0.09810604
199	0x3d120553	0.03564961
200	0x3d678ae3	0.056528937
201	0xbc061485	-0.008183603
202	0x3e49ab92	0.19694355
203	0x3debb29a	0.11508675
204	0x3d394fe8	0.04524222
205	0x39e6527f	0.00043930483
206	0xbdf54871	-0.11976708
207	0x3eae6798	0.3406341
208	0xbe611e86	-0.219843
209	0xbd8b0364	-0.06787756
210	0x3cede207	0.029038442
211	0xbd87a255	-0.06622759
212	0x3e09b1ae	0.13446686
213	0x3de82810	0.11335766
214	0x3dd08037	0.10180705
215	0x3e68ec30	0.22746348
216	0x3e74931b	0.23884241
217	0x3d9ea8c1	0.07747031
218	0x3e32fdcc	0.17479628
219	0x3eb44eb3	0.35216293
220	0xbd77eaa7	-0.060526516
221	0xbe3908c6	-0.18069753
222	0x3de573b9	0.11203713
223	0xbe83bf12	-0.25731713
224	0x3e439752	0.19100693
225	0xbd5c0473	-0.05371518
226	0x3d191ef8	0.03738305
227	0xbe5d04e7	-0.21583901
228	0x3cdedca0	0.027204812
229	0xbcdd05c2	-0.026980285
230	0x3dd6887e	0.104752526
231	0xbdf6322a	-0.12021287
232	0xbe0bdba2	-0.13658002
233	0x3d37690f	0.044777926
234	0xbd1a183c	-0.037620768
235	0x3e219d1b	0.15782587
236	0x3d2766d7	0.04086956
237	0x3e42767b	0.18990509
238	0x3d632e3b	0.05546401
239	0x3e3271ad	0.17426176
240	0xbe68f1ed	-0.22748537
241	0x3dc4cb74	0.09609118
242	0xbdcec6b1	-0.10096491
243	0xbdfff939	-0.12498707
244	0x3e2ca693	0.16860418
245	0xbdb57d24	-0.08861759
246	0x3dfd8577	0.12378972
247	0x3e0736bc	0.13204473
248	0x3e1aec36	0.1512917
249	0xbe72b642	-0.23702338
250	0xbdc5f9d0	-0.096667886
251	0xbdd60018	-0.10449237
252	0xbdf01bae	-0.117240295
253	0xbd05e6e8	-0.032690912
254	0x3d012268	0.031526953
255	0x3df52c46	0.11971335

bias f4 [100]
0	0xbd94c9b1	-0.07265032
1	0xbcabc23b	-0.02096664
2	0x3a8471fa	0.0010104768
3	0xbcdf7dae	-0.027281608
4	0xbdc914b2	-0.098184004
5	0x3d293d87	0.041318443
6	0xbcfccc38	-0.030859098
7	0xbcdb35c4	-0.026759036
8	0xbd06ccb4	-0.032910064
9	0x3c794b1e	0.015215663
10	0x3d3b4b40	0.04572606
11	0x3d0e520f	0.034746226
12	0xbd16d72d	-0.0368263
13	0xbc6f7cd3	-0.014617163
14	0x3d18989c	0.037254915
15	0x3babddfe	0.0052449694
16	0x3e1ef3e3	0.15522723
17	0xbd1f5a99	-0.03890476
18	0x3d3f0463	0.046635043
19	0x3bfbf1b8	0.007688727
20	0xbdb9b104	-0.09066966
21	0x3d4eaaaa	0.050455727
22	0xbde90f03	-0.113798164
23	0xbaa711bd	-0.0012746375
24	0x3c83a80b	0.01607134
25	0x3cefb33c	0.02926027
26	0xbccc3e30	-0.024931997
27	0x3e090642	0.13381293
28	0x3c9b2386	0.018937837
29	0x3cd4289b	0.025898268
30	0x3e9c5ae5	0.30538097
31	0xbd2a2403	-0.04153825
32	0x3d373fdd	0.04473864
33	0xbdb67fed	-0.08911119
34	0x3bbdf208	0.0057966746
35	0x3d16faad	0.036860157
36	0xbe207efa	-0.15673438
37	0xbd052aba	-0.03251145
38	0x3cffd074	0.031227328
39	0x3cb25607	0.021769537
40	0x3d8cef97	0.06881636
41	0x3e1003f9	0.14064015
42	0x3d374e74	0.044752553
43	0xbd6a97fc	-0.05727385
44	0x3ccc0586	0.024904978
45	0x3d201319	0.039080713
46	0xbd6bce16	-0.057569586
47	0xbccce12f	-0.02500972
48	0x3b1956da	0.0023397715
49	0x3ce097d0	0.02741614
50	0x3d73158e	0.059346728
51	0x3ba0897b	0.0048992014
52	0xbc829f2d	-0.015945042
53	0x3ca77c8b	0.020445129
54	0xbd10904d	-0.035293866
55	0x3cfcff9a	0.0308836
56	0x3d4876bb	0.048941355
57	0xbda2e6d5	-0.07954184
58	0x3c17eb3e	0.009272395
59	0xbca57b70	-0.020200461
60	0x3c69e805	0.014276509
61	0xbd933564	-0.07187918
62	0x3b7bd8c9	0.0038428775
63	0x3bb6abdc	0.0055746865
64	0xbd7bde5b	-0.06149135
65	0x3d81f159	0.063448615
66	0x3d8218c9	0.06352384
67	0xbcbf0d1d	-0.023321683
68	0x3dcf0c22	0.10109736
69	0xbcbceaac	-0.023061119
70	0xbda94c05	-0.08266453
71	0x3ca8c131	0.020599933
72	0x3d371fb7	0.04470798
73	0x3d58b118	0.052903265
74	0x3d5ecb8f	0.054393347
75	0x3d9e82e1	0.07739807
76	0x3be51f71	0.0069922735
77	0xbd3260f3	-0.04354949
78	0xbd5d4c34	-0.05402775
79	0x3b15d151	0.0022860358
80	0x3bca53fb	0.006174562
81	0x3db05916	0.08610742
82	0x3c923011	0.017845185
83	0xbd109872	-0.035301633
84	0xbd325eb1	-0.043547336
85	0xbc9d10e9	-0.019173102
86	0x3beabf5a	0.007163924
87	0xbcd95234	-0.026528455
88	0x3e1b0da4	0.15141922
89	0x3da5bf37	0.08093112
90	0xbd870f59	-0.06594724
91	0x3ca5b67c	0.020228617
92	0x3da70b17	0.08156412
93	0xbc4f6815	-0.012659092
94	0x3cc3e9c3	0.023915177
95	0xbe07fb1f	-0.13279389
96	0x3bceaff9	0.0063075987
97	0x3b439a84	0.0029846737
98	0xbc8219cc	-0.015881442
99	0x3d84cc45	0.06484274
