cylinder_wake/best_net_with_improved(DE).pth (torch, 417591 bytes, 24 tensors)

weight f4 [100, 3]
000000 4e 22 ba 3d 82 ac 06 be ba ea 69 be 50 41 c8 bd
       0.09088574 -0.13151744 -0.22843447 -0.09778082
000010 93 e1 e8 3d bf 25 8c 3d 90 ff c3 3d 6f 83 14 be
       0.1137115 0.06843137 0.09570229 -0.14503263
000020 b1 58 10 3e 31 f7 ea bd 60 32 50 bc 98 46 5c 3d
       0.14096333 -0.11472929 -0.012707323 0.05377826
000030 64 ef c4 bd 8d eb d9 bd c5 71 01 3d a2 a8 d0 3d
       -0.09615973 -0.10640631 0.03160264 0.10188414
000040 c1 b0 d6 bd 58 91 ad bd a7 85 8a bc fd 37 8b 3e
       -0.10482932 -0.08474988 -0.016909434 0.27191153
000050 2a 34 cc bd bf e6 3c 3b ab a6 a5 3c 6f 0d bf 3e
       -0.09970887 0.0028824059 0.020221075 0.37314937
000060 f5 f8 eb 3d f4 43 bf 3d ef 8a 7d bd ac e7 44 3c
       0.11522094 0.09339133 -0.061900076 0.0120181255
000070 26 7c a3 3e ef a3 a4 bd 77 7d aa 3d 82 b0 97 3d
       0.31930655 -0.0803908 0.08324712 0.07406713
000080 11 f4 37 bc be b8 cd be 97 c0 3a bf 91 fc c0 bd
       -0.011227624 -0.4018001 -0.7295012 -0.09423173
000090 10 17 c0 3d c7 2a 35 3e 86 f2 2a be 57 a6 d3 3d
       0.09379399 0.176921 -0.16694078 0.10334461
0000a0 a3 d3 0c bd ab c0 6c be 0b 63 0f bb 52 5f 15 3c
       -0.03438152 -0.23120372 -0.0021879103 0.009116964
0000b0 44 19 12 bc 21 6b 1c bc e7 13 a1 be ae d4 c7 3d
       -0.008917157 -0.009547026 -0.31460497 0.09757362
0000c0 a9 ea 98 bd c4 42 0d be b9 74 a5 3c 04 e6 09 3a
       -0.07466633 -0.13795 0.02019726 0.000526041
0000d0 81 d3 4f 3e 4e 22 aa 3d d1 a3 cb 3d 72 a5 de 3b
       0.20295526 0.08307324 0.09943355 0.006794625
0000e0 cf b9 48 3d f1 7c 6b bd c9 69 a6 bd 02 56 5d be
       0.049005326 -0.0574922 -0.08125646 -0.2161484
0000f0 56 b4 0b 3f 20 f0 b4 3e 4c 76 78 be a1 0f 4f 3d
       0.54572046 0.3533945 -0.24263877 0.050552014
000100 e9 7d 8a 3e cc d8 8b bd 52 18 db bd 22 be 1a 3e
       0.27049187 -0.0682846 -0.10697998 0.15111592
000110 b4 fc 26 3e aa f1 af 3e 94 85 3b bf a7 67 2c be
       0.16307336 0.34364063 -0.732507 -0.16836415
000120 39 14 e8 3d f6 a0 12 bd ec e5 52 bd 38 2a e8 bd
       0.11331982 -0.035798036 -0.0514888 -0.113361776
000130 e5 8c 9e 3b ce 78 96 3d 3e 0d b2 bd e2 61 5f be
       0.0048385733 0.073472604 -0.08693932 -0.21814683
000140 ba a9 16 3e 58 9b 66 bc 38 c6 d5 3c 94 ad 71 c0
       0.14713183 -0.014075123 0.026095495 -3.7762194
000150 b5 16 89 35 bf 00 03 39 b8 ee af 38 4a 97 cf bd
       1.0213904e-06 0.00012493411 8.389115e-05 -0.10136278
000160 dc 92 9e bd b7 92 d9 3d c4 61 fd bd 8b bf 06 be
       -0.07742855 0.10623687 -0.12372163 -0.13159005
000170 e2 79 8a 3d 9c b0 a4 3c 7b 5f eb bd 82 96 05 3e
       0.067615286 0.020103745 -0.11492821 0.13045695
000180 2f 54 d9 3d c2 b3 29 3e b5 0a 1f be 77 d7 d2 3e
       0.1061176 0.16572478 -0.15531428 0.41180012
000190 ac 21 27 3f 3e 93 a8 be 21 36 ea be 15 8c 73 3e
       0.65285754 -0.32924837 -0.45744422 0.23783906
0001a0 da 97 ee 3d 76 64 b8 bd 15 0f 60 3e 0c 4b a5 3e
       0.11650057 -0.090035364 0.21880753 0.3228382
0001b0 27 13 03 3b bc 75 dc bc 88 47 44 3c 3f f9 e1 3d
       0.002000043 -0.026911609 0.011979945 0.11033868
0001c0 86 5b 3d 3d a1 fa d7 bd 85 46 ed bd 90 b8 a0 bb
       0.04622986 -0.105458505 -0.11585716 -0.004904814
0001d0 fb 41 78 3d 06 98 e8 3e 5c 5c 45 bf b6 6a 1a be
       0.0606098 0.45428485 -0.77094054 -0.1507977
0001e0 3a a3 22 bd eb 2f 4c be 50 c2 3c bd 71 12 d8 bd
       -0.039706446 -0.19940154 -0.04608375 -0.105503924
0001f0 ab 4b 7e 3e dd 58 ce 3d 89 7e d2 bd b4 94 04 be
       0.24833553 0.10075543 -0.10278041 -0.1294735
000200 1e ce cf 3d e1 4a d3 3d f4 ad 8b 3d 12 af 4d be
       0.101467356 0.103170164 0.06820288 -0.20086315
000210 a1 55 d0 3e ba 8d 17 3f ce 89 50 be 08 2a a3 3d
       0.4069033 0.5920063 -0.20365068 0.07967001
000220 a3 5b c7 3d c9 13 7c 3d 3a ff b4 bd 3e 3a e2 bc
       0.09734275 0.061542306 -0.08837743 -0.027615663
000230 fd ca 3d bd 31 19 90 3e f3 ba 29 bd 2a 3d 86 3e
       -0.046336163 0.2814422 -0.041438054 0.2621854
000240 ab ff 0b be 74 4c 20 bd c3 02 8a 3e 83 5f 4c 3c
       -0.13671748 -0.03913541 0.26955232 0.012473944
000250 d7 c7 f0 3c b3 c9 e7 be b8 e9 51 3d d7 4b b7 bd
       0.029392166 -0.45271072 0.051248282 -0.08950012
000260 24 f4 86 be f2 f0 9d be c4 c1 27 bf ad 9f a3 be
       -0.2635814 -0.3084789 -0.6553004 -0.3195776
000270 b9 8c af bb c6 cf 31 bb 47 15 07 3f 03 9b c3 be
       -0.0053573516 -0.00271319 0.5276684 -0.38204202
000280 a1 59 25 bf c9 ee 6f 3c f7 ec c8 be ad b9 17 be
       -0.6458989 0.014644333 -0.3924329 -0.14816923
000290 e2 e1 a9 be 00 96 ea 3d 28 1e aa 3d 92 0e 03 be
       -0.33180147 0.114543915 0.08306533 -0.12798527
0002a0 b6 19 fc 3d cb 89 00 be cd 72 15 be ab 49 8a 3d
       0.123095915 -0.12552564 -0.14594574 0.06752332
0002b0 9f 5b 8d be e2 61 63 be d6 a3 d0 bd 24 7b b2 3c
       -0.27608964 -0.22205308 -0.10187499 0.021787234
0002c0 bf b2 84 3d d6 e7 b3 bd 1a 47 11 3e b6 8c a5 3e
       0.064794056 -0.087844536 0.1418728 0.32333916
0002d0 58 99 99 bd 67 b4 e2 bd ab 32 25 be ae 91 ff 3a
       -0.07499951 -0.11069565 -0.1613261 0.0019498372
0002e0 cb 7a 95 3e 2a a7 09 3e 68 c4 cd bd ad af c8 bd
       0.29195246 0.13442674 -0.10047227 -0.097991325
0002f0 ef c2 7c 3d 2c 42 ca bd c5 a9 b4 bd 64 9f 2e 3d
       0.06170934 -0.098759025 -0.088214435 0.042632475
000300 57 08 a9 bd ca 2f b7 3d cb 19 3f 3b a0 93 a3 be
       -0.08253544 0.08944662 0.002915966 -0.31948566
000310 78 24 21 3f f0 90 59 3e 69 b7 0d 3f f7 8b f8 be
       0.6294627 0.21246696 0.55357987 -0.48544285
000320 69 8e 22 be 78 fe f2 3d 17 2f 07 be c2 24 1c bb
       -0.15874638 0.11864942 -0.13201557 -0.002382562
000330 b5 d4 8d 3d bb 28 0e be 04 1e 1a bc 33 5a 18 3d
       0.06925336 -0.13882725 -0.00940657 0.037195396
000340 8e a3 5d 3e b6 f4 bc be 3b 07 83 bd 77 f1 50 bc
       0.21644422 -0.3690545 -0.063978635 -0.012752882
000350 af 21 56 3e 49 58 02 3d 65 7b 5a be 00 59 1e 3c
       0.20911287 0.031822477 -0.21336134 0.009664774
000360 7a 5e c4 3e e5 1d c4 3e ac e7 7e be 30 80 f0 bd
       0.3835333 0.38304058 -0.24893063 -0.117432
000370 c6 38 11 3e 0e 30 15 3e c8 9e b3 be 87 18 48 3f
       0.14181814 0.14569113 -0.35082078 0.78162426
000380 b7 10 37 3e b9 cc d7 bd d6 18 98 3d 7e 1b 09 3e
       0.1787747 -0.105370946 0.07426612 0.13389394
000390 ba 06 c3 3d f0 bf e1 3d 99 55 92 bd fe 69 56 3b
       0.09522767 0.11022937 -0.07145233 0.0032716985
0003a0 12 e0 8a be c8 52 0a 3e 65 fc 97 3b 56 6f 52 3e
       -0.27124077 0.13508141 0.004638242 0.20550284
0003b0 c1 c1 72 bd 3c 1d dd bd 4f 22 75 3c 67 90 a3 bc
       -0.05926681 -0.10796592 0.014961793 -0.019966317
0003c0 57 1e e7 3e 7e 58 1c be 53 36 c1 3e 90 b3 15 3f
       0.45140335 -0.15268132 0.3773676 0.58477116
0003d0 51 f1 a1 3e f2 09 f4 be 95 2a 8b 3c 39 2a ac be
       0.31629422 -0.47663838 0.016988078 -0.33625963
0003e0 17 30 81 3d 28 c4 e0 bd b2 c9 e9 3d 2c 8f 36 3d
       0.063080005 -0.10974914 0.114154235 0.044570133
0003f0 39 48 da 3d b1 ac a5 3d a1 5e 2f bd de ac d4 bd
       0.10658307 0.08089579 -0.042814855 -0.10384534

bias f4 [100]
000000 46 86 a1 be f8 eb a8 3e 40 a8 d5 be 7b dc ab 3e
       -0.31547755 0.3299253 -0.41729927 0.3356665
000010 75 2b 84 3e b9 3a 91 be e4 4c 91 3d c2 0e 39 be
       0.25814405 -0.28365114 0.07094744 -0.18072036
000020 57 16 c5 be ad 3c ab bd 54 d4 75 be 17 95 35 be
       -0.38493606 -0.08361182 -0.24006778 -0.17732655
000030 c6 61 86 be 08 93 9e be 41 99 94 3c 59 ed 7f 3d
       -0.2624647 -0.3097155 0.018139483 0.06248221
000040 67 60 7a 3e 3c 31 b6 bd 6e 31 9d be d4 67 97 3e
       0.24450837 -0.088961095 -0.30701774 0.29571402
000050 d6 71 5f be 7f 7c 40 be 46 1b 9b 3e 6d 89 64 3e
       -0.21820769 -0.18797491 0.30294245 0.22318049
000060 36 e5 96 be 4c 3d 9a 3e 51 f1 88 3e 2b f2 f8 3d
       -0.2947175 0.3012489 0.2674661 0.12155565
000070 0e b2 e7 b8 72 62 8f 3e 92 91 e5 3e ac d1 25 be
       -0.000110481036 0.28004795 0.44837624 -0.16193265
000080 c5 7a 96 be 7c 82 f3 3b 9a c4 63 ba 21 46 88 3e
       -0.2939054 0.0074313264 -0.00086886587 0.26616004
000090 2d 49 46 bc 62 18 9d be c0 23 ae 3e b8 bd 39 3e
       -0.012102407 -0.30682665 0.3401165 0.18138778
0000a0 4f 65 68 3e d2 89 b1 3e c8 15 a3 3e 2f 98 a4 be
       0.22694896 0.3467546 0.31852555 -0.32147357
0000b0 0f 05 6b 3d 89 8d 98 be 63 17 84 3e 19 47 d5 be
       0.05737787 -0.29795483 0.25799093 -0.41655806
0000c0 cf b3 de 3e 1e 82 d2 3d 65 59 3c be f2 00 4b be
       0.43496558 0.10278724 -0.18393476 -0.1982458
0000d0 00 dc 10 be 74 ca 3a be 20 ea b3 3e 9d 0b ba be
       -0.14146423 -0.18241292 0.3513956 -0.36336985
0000e0 c6 45 cd be 65 1b 79 be e6 03 a7 3e 0f 21 94 3e
       -0.40092295 -0.24326856 0.32620162 0.28931472
0000f0 46 a4 ad 3e 4d 95 b2 bd c4 01 ab 3e 54 54 85 3e
       0.33914393 -0.08719883 0.33399785 0.260409
000100 1f 50 83 3e 79 a7 fd bd dc a2 25 be 91 92 d9 be
       0.25647065 -0.123854585 -0.16175407 -0.42494634
000110 95 72 7b be 46 08 10 be cd ff 8d 3e 6a db 13 be
       -0.24555428 -0.14065656 0.27734223 -0.14439169
000120 85 7e 3e 3a cd 27 bb 3e 0b 7d d2 bd 8c 84 9e 3e
       0.00072667777 0.36553803 -0.10277756 0.309605
000130 9f 10 8a be f2 b7 44 bc 1f 28 7c bd 6f 61 9e 3e
       -0.26965806 -0.012006747 -0.0615617 0.3093371
000140 02 a6 bb 3d 90 6a 6d 3e 7d f9 8a bd e7 31 ab 3e
       0.09162523 0.23185182 -0.06785867 0.3343651
000150 bc 5a a1 be e6 45 91 3e de c4 89 3e 7e 62 51 be
       -0.31514537 0.2837364 0.2690801 -0.20447728
000160 38 ef b1 3e ac 19 cf bd 36 8b 66 3d 36 46 9f 3e
       0.34752822 -0.101123184 0.056285106 0.31108254
000170 82 8e 49 bd 50 3e 92 be 5b b0 93 be 70 a8 94 3e
       -0.04920817 -0.28563166 -0.28845486 0.29034758
000180 f8 e6 b3 3e fe f9 1c bd d9 86 a8 3e c7 18 88 be
       0.35137153 -0.03832435 0.3291538 -0.26581404

weight f4 [100, 100]
000000 ba b4 a9 3d 8a 25 24 3e 09 6f 17 be 5e 87 36 3d
       0.08286424 0.16029945 -0.1478845 0.04456269
000010 1f 8c eb 3d 34 5b af bc 40 e8 d4 3d b2 fa 2e 3e
       0.11501335 -0.021405794 0.10395861 0.1708782
000020 c0 69 f2 bd 89 8d 31 bd d2 8f 0a be f8 25 af 3d
       -0.118365765 -0.04334787 -0.13531426 0.08552164
000030 da 87 17 3e f3 4c c4 3c 59 08 89 3e e1 b6 46 be
       0.14797917 0.023962473 0.2676418 -0.194057
000040 55 4c 4f bd de d5 d7 3d cf 41 ff bd 79 b5 84 3c
       -0.050609905 0.10538839 -0.12463724 0.016199814
000050 c3 b4 92 3c 8c 0e 9a bd 17 27 66 be 9f 29 73 bd
       0.01790846 -0.07522306 -0.22475849 -0.059365865
000060 81 df e2 bc 20 d0 f9 bd 11 0a fd bd 51 a3 9f be
       -0.027694466 -0.121979 -0.12355436 -0.31179288
000070 72 e9 1b be c0 8b 02 bd 0e 06 84 39 1e 2b 8a be
       -0.15225771 -0.031871557 0.00025181513 -0.2698602
000080 a4 f0 c6 bd eb fe 2a 3a 31 5a 85 3d 86 a2 44 be
       -0.09713867 0.0006522971 0.06511343 -0.19202623
000090 81 d7 2e 3d 32 31 6a bc 5a 43 96 bc 2a 98 4a 3d
       0.04268599 -0.014293956 -0.018342663 0.04946152
0000a0 49 00 08 3e d5 22 d3 3d d3 31 44 bd c9 89 11 3e
       0.13281359 0.10309378 -0.04789908 0.14212717
0000b0 1b dd 48 3d 31 62 10 3e 6d 04 98 3d e8 28 20 bd
       0.049038988 0.14099957 0.07422719 -0.03910151
0000c0 b5 79 c2 bd 47 5e 20 be 16 70 82 3e 57 e9 ca bd
       -0.0949587 -0.15660964 0.2547614 -0.09907787
0000d0 3c e7 49 3e e9 79 20 3d 85 3f 5d ba 6c 96 46 bd
       0.19717115 0.039178763 -0.0008439946 -0.048483297
0000e0 38 09 98 bd 96 09 14 3e e2 7c c2 bd 38 99 03 be
       -0.07423633 0.14456782 -0.09496476 -0.12851417
0000f0 7e 94 5d bc 02 f5 e8 bd 2f b0 3e 3d a6 68 f2 3d
       -0.013524173 -0.113748565 0.04655474 0.11836366
000100 09 43 19 3e 18 b5 3b 3d 77 3c 17 bd de e4 2b bd
       0.14966978 0.045827 -0.0369229 -0.04196631
000110 bf 06 0f 3e aa 56 9a 3c b2 5a 9a be e1 1c ce bc
       0.13967417 0.018840153 -0.3014732 -0.025160255
000120 fa 4d 39 bc c9 2e a1 bd ce 4d d8 3d 4d 6a 72 be
       -0.011310095 -0.07870252 0.10561715 -0.23673363
000130 48 c3 86 bd 7f 00 a8 3c 15 6d 97 bd 7e 75 46 bd
       -0.06580216 0.020508049 -0.073938526 -0.048451893
000140 b6 c4 82 3d 66 2b 72 3d 64 df ec ba 6b 09 06 3e
       0.06385176 0.05912342 -0.0018071947 0.1308953
000150 4e e6 b3 bd e0 5d f8 3d 24 11 25 3e 6f 2d 08 bc
       -0.087841615 0.1212728 0.1611982 -0.008311613
000160 1f c3 d7 3d f5 0b 46 3c c6 b3 01 3c 0a 3e de 3c
       0.10535263 0.012087812 0.0079163965 0.027129192
000170 06 38 0f be 90 13 5c bc 31 1f 94 3e 6a 36 b3 3d
       -0.13986215 -0.013432398 0.28930047 0.08750613
000180 5e 70 78 3d 5c 70 07 be 2b 1f 8d 3c 2d d9 ee bc
       0.060654037 -0.13226455 0.017226776 -0.029156292
000190 58 8d 08 be 6c f2 bb 3c b9 21 14 3e 82 cb e4 3c
       -0.13335168 0.022942744 0.14465989 0.027929071
0001a0 78 c4 10 3e 46 ff 96 bd bc d4 09 3e 0b 43 17 be
       0.14137447 -0.07372908 0.13460058 -0.14771669
0001b0 ce 23 fa bd 5d a0 94 3d 1c 5e 17 bd f4 f5 7f bc
       -0.122138605 0.07257149 -0.036954984 -0.015622605
0001c0 2d d3 c4 3a f3 e7 88 3d 63 fa b1 bc ea 78 07 3d
       0.0015016549 0.06684866 -0.021725839 0.033074297
0001d0 c8 b4 d9 bd fc 97 9e bd 79 7b b5 3d 4c f9 5d bd
       -0.106301844 -0.077438325 0.08861441 -0.054192826
0001e0 4b 6c c3 3a 18 5f e4 3d e9 5d 09 be ad 15 f5 3d
       0.0014909593 0.1115095 -0.1341473 0.11967025
0001f0 26 68 04 3d 15 3e 2e be 9c 20 66 bb d8 92 3f 3d
       0.032325886 -0.1701587 -0.0035114652 0.0467709
000200 40 06 58 be b1 85 b6 bc 37 ed 14 be 1b 62 42 bd
       -0.21096134 -0.022280546 -0.14543615 -0.047456842
000210 d0 1b 8c bd 6d 0a 2c be f1 7a 18 3e 09 ab 70 3e
       -0.06841242 -0.16800852 0.14890648 0.23502745
000220 8d a1 74 bd 53 c9 00 3e 9d 2f f8 3c 66 ce 99 bd
       -0.05972438 0.12576799 0.030296141 -0.075100705
000230 00 7b 1f bd 1a 60 aa 3d 05 60 05 3e 01 63 96 bd
       -0.03893566 0.08319111 0.1302491 -0.07343102
000240 d4 97 26 3d 13 1a ae bd 6b 7c 18 be 17 71 bf 3d
       0.04067214 -0.08501067 -0.14891212 0.09347742
000250 e7 06 9b 3d 1c f2 09 37 4d 95 0c 3e 04 c9 6d bd
       0.07569676 8.222207e-06 0.13728829 -0.05805303
000260 d7 02 b4 3b 5c ea b8 3d e8 e9 9d 3b 69 97 f4 3d
       0.0054935026 0.090290755 0.0048191436 0.11942942
000270 26 1c 0a bc 43 1b 60 bc 5b f0 96 3d bb a2 14 bd
       -0.008429563 -0.013678375 0.07370063 -0.036288004
000280 e7 6f cd 3d f1 e8 0e 3c 88 1a 87 3c f3 bd db 3d
       0.10031109 0.00872253 0.016492143 0.10729589
000290 13 1c cb bb e5 1c f8 3d f6 86 d6 bd f0 be 13 be
       -0.006198415 0.12114886 -0.104749605 -0.14428306
0002a0 0a 6d 37 3e b7 0a 46 be e9 19 18 be b6 49 58 3e
       0.17912689 -0.19340025 -0.14853634 0.21121868
0002b0 ba 3b 15 3d 06 14 de 3c 5e 3f 23 be 28 80 9c 3d
       0.036433913 0.027109157 -0.15942141 0.07641631
0002c0 bd 2a 6c ba 75 2c e3 bd a1 79 49 be 99 59 23 3e
       -0.0009009054 -0.11092464 -0.19675304 0.15952148
0002d0 7f f7 b4 3c 34 d7 e4 3d 7e 18 28 be b8 10 4f 3d
       0.022090672 0.11173859 -0.16415593 0.050553054
0002e0 36 11 2c 3e 64 8a a5 bc ac 35 05 3e a5 1f 6a bc
       0.1680344 -0.020207591 0.13008755 -0.014289771
0002f0 c2 83 de bd a5 62 bf bd 8c 2b 39 3d 8a c6 d5 bd
       -0.108649746 -0.09344987 0.045207545 -0.10438259
000300 cc 1a b4 3d 13 d6 c0 3d ad 6d 27 be ce 03 3c bd
       0.087941736 0.094158314 -0.16350432 -0.045902066
000310 89 17 d1 bd 74 8c fd 3d 7c e9 46 be 5d 3a 50 be
       -0.10209567 0.12380305 -0.19425005 -0.20334764
000320 c8 fa 03 3d 40 36 a3 3e 7f 2f ea be de 32 b5 3d
       0.032221586 0.31877327 -0.45739362 0.08847593
000330 24 fb 67 3e 7f 58 20 bd 49 ba 77 3e 6e 96 5b be
       0.22654396 -0.039146896 0.24192156 -0.21444103
000340 fc 82 bc 3b df eb 49 3d 1c 91 26 bf e2 5b 83 3e
       0.0057529192 0.04929721 -0.6506517 0.2565604
000350 78 18 2d be b8 23 b4 bd 64 51 e8 b8 51 d9 1a bd
       -0.16903865 -0.08795875 -0.00011077782 -0.037804905
000360 97 bc a6 3d 2e 1e 8e be 51 b0 a8 be cb a8 47 3e
       0.081414394 -0.277574 -0.3294702 0.19497983
000370 d8 0e 17 bf 31 d5 5a be 99 88 a5 bb 29 93 9a be
       -0.59007025 -0.21370389 -0.005051684 -0.301904
000380 85 f6 cb be 9c 26 78 3d 08 37 09 be 19 4d 80 3e
       -0.39836517 0.060583696 -0.13399899 0.2505882
000390 f7 be 07 bd 95 cd 67 3d 8a 46 25 3e 35 41 03 3c
       -0.033141103 0.056592543 0.1614019 0.008011152
0003a0 ed 0c 14 be b2 a7 9a be 72 7f 8e 3e ba 22 01 be
       -0.14458056 -0.30206066 0.27831608 -0.12610903
0003b0 dd 3c 84 3b d6 5a 86 be 6f 40 d9 3e 93 dd eb be
       0.004035576 -0.26241177 0.4243197 -0.46067485
0003c0 17 eb b5 3d d1 d6 01 3e 74 ba 65 3e a4 c2 1c 3e
       0.088827305 0.12679602 0.22434407 0.15308625
0003d0 50 02 53 be d7 1f 98 be e8 d0 91 3e a4 aa e1 be
       -0.20606351 -0.29711792 0.28479695 -0.440755
0003e0 9d 13 4d 3e 62 ed e5 3d 3a 72 ca 3d 3b da 9a 3e
       0.20027013 0.11226918 0.09885068 0.30244622
0003f0 36 31 61 be 4a c4 b6 3e 98 7e ae 3e af 18 45 3c
       -0.21991429 0.35696632 0.34080958 0.012029811

bias f4 [100]
000000 8d 9b 5c 3d 18 f4 55 bb 17 26 0c be bf 7e da bb
       0.053859282 -0.0032646712 -0.13686405 -0.0066679413
000010 0b 9d 3c 3e a2 c3 88 3d b7 44 4a 3d e4 3e f9 bd
       0.18419282 0.06677939 0.049381938 -0.121701986
000020 3a b5 b7 bc 9f e7 43 bd 22 c3 c9 3c 39 13 80 bd
       -0.022425283 -0.047828313 0.02462918 -0.062536664
000030 9e 40 b2 3c 31 39 84 bc 64 14 07 bd 80 0d 8d bd
       0.021759328 -0.016140552 -0.03297843 -0.068873405
000040 7d ff a4 bd 9f 9c 1a be eb 74 5a bd 2f 96 ee 3b
       -0.08056543 -0.15098809 -0.053334158 0.007281087
000050 ec fb e5 3b 73 eb a8 bb 6d dc 45 3c ae 32 90 bd
       0.007018557 -0.005155021 0.012076479 -0.070409164
000060 77 35 f0 bd 21 a6 81 bd de 47 a5 bd dd ce ed 3d
       -0.117289476 -0.06330515 -0.08070348 0.11611722
000070 fc 36 ba bc d4 24 15 3d f2 95 81 3b 1e 5e 8b 3c
       -0.022731297 0.036412075 0.0039546425 0.017012652
000080 f6 66 08 be f2 ea 94 bd 51 97 ea 3d 13 f5 e9 3c
       -0.13320526 -0.07271375 0.114546426 0.028559243
000090 32 52 71 3c 43 08 31 bb b9 29 49 bc 8e e7 11 3c
       0.01472907 -0.002701298 -0.012278014 0.008905305
0000a0 a1 cd 08 3d e5 d0 17 3e a5 a0 05 be 17 a0 37 bd
       0.033399228 0.1482578 -0.13049562 -0.044830408
0000b0 c7 3e c9 3d e5 4b c7 3d 05 bd 24 bd 1f 04 58 bd
       0.09826427 0.097312726 -0.040219326 -0.052738305
0000c0 ed 3c c0 bc 9c 7b c1 3d 43 4c 5a 3d 58 1b 0a bd
       -0.023466552 0.09447405 0.053295385 -0.033717483
0000d0 e0 65 c3 bb 04 48 0e be b8 2d 18 3e be 8d 6f bd
       -0.005963072 -0.1389466 0.1486119 -0.058484785
0000e0 f4 b3 c7 bd f7 0c 16 3e 38 d7 4a bd ea cf c6 bd
       -0.0975112 0.14653383 -0.049521655 -0.09707625
0000f0 64 5d 1f be 4d f9 f1 3d eb e1 b2 bd 03 b2 c8 bd
       -0.1556297 0.118151285 -0.08734497 -0.09799578
000100 33 1f aa 3d 9a cc 84 3c ef 5b e1 bd bd 63 44 bd
       0.08306732 0.016210843 -0.11003863 -0.04794668
000110 41 98 29 bd 0e 9a 8c 3d 1e 7a a5 3d 9c 63 ea 3d
       -0.041404966 0.06865321 0.08079933 0.1144478
000120 8a b5 6e 3d d7 04 db bd 6d 0c f1 bd c2 53 a9 bd
       0.058278598 -0.106942825 -0.11769948 -0.08267929
000130 01 6c 61 3d 09 56 79 bd 90 b4 d8 3c 0b 29 29 be
       0.05503464 -0.060873065 0.026453286 -0.16519563
000140 1e ed a8 bd 42 70 44 be ff ad cc 3c 6c aa d1 3d
       -0.082483515 -0.19183448 0.024985312 0.102375835
000150 44 d4 ea bd 8c 59 4d 3d 75 26 4a 3c 54 15 73 3d
       -0.11466268 0.050134227 0.01233827 0.059346512
000160 c2 c7 73 bd 50 2c b3 3d 47 2f 88 bc 5f 45 f5 3d
       -0.059516676 0.08748686 -0.016624106 0.11976122
000170 04 b0 43 bc 34 26 ed bd 49 5c d4 3d db 58 5c 3d
       -0.011943821 -0.11579552 0.103691645 0.053795677
000180 8a 31 79 3d 49 54 9e 3d 50 ea 37 be e4 77 84 bc
       0.06083826 0.0773092 -0.17960477 -0.01617045

weight f4 [100, 100]
000000 8f 86 d5 bc e4 35 84 3c 95 3d 7f 3d 77 ff d0 3d
       -0.02606514 0.016138978 0.06231459 0.10204976
000010 3d a1 59 3c 84 19 42 3d cf a4 e2 bc 57 b8 10 be
       0.013283071 0.047387615 -0.027666477 -0.1413282
000020 31 de 68 3d 44 bb 42 bd 79 f6 29 3d 09 94 2e b8
       0.056852523 -0.04754187 0.04149482 -4.16227e-05
000030 de bb 40 be e7 56 0e bd 31 88 e1 bd 4f 0f 40 3a
       -0.18821666 -0.034750845 -0.110123046 0.00073265
000040 03 38 05 bd 9a 09 83 3e ca ec f2 3b a8 40 2e 3c
       -0.03252412 0.25593263 0.0074134814 0.010635532
000050 46 f5 7a bd 0f 5a 6b 3d 51 c4 8f bc ef a9 52 3c
       -0.061269067 0.057458933 -0.017549666 0.012857898
000060 a7 63 89 3e 3a 80 d9 3c 00 8d 13 3e 10 27 f2 3d
       0.2683384 0.026550401 0.14409256 0.11823857
000070 e2 b7 78 3c 3e e6 a3 3c f4 f3 4e be 82 d5 bb bd
       0.01518056 0.020007249 -0.20210248 -0.09171583
000080 f0 fc 94 3d 99 c7 21 3e 9b 08 2a bd 41 3d fc bc
       0.072748065 0.15798797 -0.041512113 -0.030790927
000090 e4 2b bb 3c 1f df da 3c 3b b8 0e bc a3 7c fc 3a
       0.022848077 0.02671772 -0.008710916 0.0019263219
0000a0 a0 a8 fe bc f4 43 80 3a 2a 8e 99 bc b5 cf e2 bc
       -0.031086266 0.0009785877 -0.018744547 -0.027686933
0000b0 69 20 f3 bd 95 f7 ba bc 0f be 43 bd 7a e2 28 3e
       -0.11871416 -0.022823134 -0.047788676 0.16492644
0000c0 76 88 d8 bd 55 fc ad 3b 8e 1b bb bc 81 8a ab 3e
       -0.10572903 0.0053096213 -0.022840288 0.33504108
0000d0 8a ee 93 bd ab f5 2e 3b d3 35 cd 3c 86 a6 d6 3e
       -0.07223232 0.0026696722 0.02505008 0.41923922
0000e0 5c cf 73 3e d4 f3 9a bc 6f 2d 28 bd c7 ab 9e 3e
       0.2380957 -0.018915094 -0.041058954 0.3099043
0000f0 6c aa 53 3e ac 3a cb bd 9d 37 f3 3c 13 1f da bc
       0.2067048 -0.099233 0.029689604 -0.026626145
000100 28 a4 86 bd bd 19 b9 bd 74 4a cf 3d b9 b7 8a 3c
       -0.06574279 -0.09038112 0.10121623 0.016933309
000110 ba 9b 35 be 11 67 a3 3d e7 1d f4 bc 16 45 23 be
       -0.17735186 0.07978643 -0.029799415 -0.15944323
000120 5e 00 d0 3c 81 90 1f be 58 f0 47 3e 08 fd 1f bb
       0.0253908 -0.15582468 0.19525278 -0.0024412293
000130 95 f4 3c be 17 bb 96 3c b7 23 29 be 94 3d 78 3e
       -0.18452676 0.018399758 -0.1651753 0.2424224
000140 77 50 0d 3c e5 90 8c bd 70 8b 9c bc 6c 99 88 be
       0.008625141 -0.06863574 -0.019109458 -0.26679552
000150 20 c6 8c bd 65 56 9c bd 0f cb 8c 3c 71 3d e5 3c
       -0.06873727 -0.07633666 0.01718667 0.0279834
000160 40 53 0d be 9f e6 c9 be 0c 9d 4f be ab e8 87 3d
       -0.13801289 -0.39433762 -0.20274752 0.06636175
000170 f9 e0 50 bd 42 0a eb 3c f3 ef 14 be 9b 40 31 bb
       -0.0509958 0.028691415 -0.14544658 -0.0027046565
000180 20 40 92 3d 0f e5 69 3d 8d 6d 52 bd 55 86 7e 3c
       0.07141137 0.057103213 -0.051374007 0.015534957
000190 d1 33 8a bd dd 6b b8 bc 2b 18 85 be 2d 0a 2b 3e
       -0.067481644 -0.02251237 -0.25995 0.167031
0001a0 94 d1 f7 bd 8e 9b 9b 3d b7 22 44 bd fd 28 35 3d
       -0.12100521 0.07598029 -0.04788467 0.044228543
0001b0 eb 17 9b be 5e 2b 27 3e e9 be 2e 3c 6b 5c 01 3d
       -0.30291685 0.16325137 0.010665634 0.031582277
0001c0 db 8d 65 bd b2 4d d3 3c 2d a0 a1 3b 13 58 04 bd
       -0.056043487 0.025793884 0.0049324245 -0.032310557
0001d0 fb 38 83 bd 7e 42 02 3f 22 c7 40 bd 66 4f bc bd
       -0.064073525 0.5088271 -0.047064908 -0.091948316
0001e0 b6 ff cb bd 8f 37 44 bd 9d eb 65 3c 29 53 9f be
       -0.09960882 -0.047904547 0.014033225 -0.31118134
0001f0 cb d4 a4 bc e6 3b d9 3c e5 10 66 bc 4b b9 f5 bd
       -0.020120999 0.02651782 -0.014042114 -0.119982325
000200 48 df 3c 3c 44 ce 15 b9 33 e1 36 3d 59 c0 fe bc
       0.011527844 -0.00014286587 0.04464836 -0.031097578
000210 8f 04 3f be 50 bc 98 3e 72 82 fe bd 2d c2 1b 3d
       -0.18654083 0.2983117 -0.12427224 0.038026977
000220 7d e5 91 bc 6d 60 52 bc 7c 02 fa 3c 77 79 50 3c
       -0.017809624 -0.0128403725 0.030518763 0.012724272
000230 77 49 70 3d 5a 11 87 bd 28 65 84 bc 01 71 05 bf
       0.05866381 -0.065951064 -0.016161516 -0.52125555
000240 24 58 18 3d 77 eb 43 3d 6f 62 a3 3d 5e 21 44 bd
       0.037193432 0.04783198 0.07977759 -0.047883384
000250 9b e9 05 bd 7e 3e 6c bd 71 5e 1f 3e 18 2d 59 3b
       -0.032693487 -0.057676785 0.1556337 0.003313845
000260 7f 9e 93 bd 00 56 26 bd d5 1e b6 3d fa 6c 2d 3e
       -0.07207965 -0.04060936 0.088925995 0.16936103
000270 c6 5a a6 3e 46 01 ac bc 73 b9 09 bc 51 5d 8b 3e
       0.3249113 -0.020996701 -0.008406031 0.27219632
000280 c2 bc da bd 66 a8 56 3e 3a c2 c9 bb 35 32 88 bc
       -0.10680534 0.20962676 -0.006157187 -0.016625503
000290 8f bb 94 3c 33 bc 28 3e e6 c2 17 be 4a 9e c4 bd
       0.018155841 0.16478042 -0.14820442 -0.09600504
0002a0 8d 36 bb bd 66 6a 81 3e 67 36 18 3c 1b 92 e4 be
       -0.09141264 0.25276488 0.009290314 -0.4464272
0002b0 4b c2 54 bd 19 6c af bd 53 7c 8e be 27 62 2b 3c
       -0.051943105 -0.0856554 -0.27829227 0.010460413
0002c0 04 18 a2 be 46 db e6 bd cc ff e4 bd 98 ba 82 3e
       -0.31658947 -0.11272292 -0.11181602 0.25532985
0002d0 89 ae 33 bc 71 99 ec 3d 3f 5f d2 bd bb 0e ea 3d
       -0.010966905 0.11552704 -0.10272073 0.11428591
0002e0 4b 19 21 3e 50 bd 0b 3e 44 17 8f bd 5d c4 d4 bd
       0.15732305 0.13646436 -0.069868594 -0.10389016
0002f0 c2 3b 4b bd e1 64 38 be f9 3e 9f bd fe 1d 51 3e
       -0.049617536 -0.18007232 -0.07775683 0.20421597
000300 07 01 b4 bd d9 02 e8 3b 52 ad 9b 3d 09 b6 0f 3c
       -0.087892585 0.0070804176 0.076014176 0.008771428
000310 f5 16 71 bc 43 6c 2f bc 74 5b 4e bd 15 f0 2e 3c
       -0.014714946 -0.010706964 -0.050380185 0.010677357
000320 ba 18 68 3d 92 15 e0 3c 2c d2 e9 bc e9 af c2 3d
       0.056664206 0.027354036 -0.0285426 0.095062084
000330 2c 67 38 bd 04 5c 2f be cb 7a 99 3d 5d 9f 6f 3d
       -0.045020267 -0.17124945 0.07494124 0.05850159
000340 cf 04 b3 3d f0 c1 0b be 3a 91 4a 3d 29 09 a0 bd
       0.087411515 -0.136482 0.049454905 -0.07814247
000350 8a 3f ec 3d 5d 94 2d bd 63 0b c0 3d 27 a7 79 3d
       0.115355566 -0.04237782 0.09377172 0.060950425
000360 75 b1 bf 3d 6b 8e 35 bd 93 aa ce 3c 3e 4c 3f bd
       0.09360019 -0.044325273 0.02522782 -0.04670357
000370 2e 55 3b 3e f2 ad 52 bd b5 07 ce 3d 54 5a ed 3d
       0.18294212 -0.05143542 0.10060064 0.11589494
000380 c6 b3 2e 3e 05 6b a8 ba 7d 88 2a bd 08 20 3a be
       0.17060766 -0.0012849277 -0.04163407 -0.18176281
000390 d3 66 b0 bc 51 02 af 3d bd 9d af 3d 4e 1d a8 bd
       -0.021533405 0.08545364 0.08575008 -0.082087144
0003a0 d1 b4 97 3c a7 1b 30 bd 37 60 36 bd 2e 83 60 3d
       0.018518837 -0.04299512 -0.04452535 0.054812603
0003b0 0d aa 26 bc fc cc 0b 3e c1 3e 1e 3e a1 a3 be 3d
       -0.010172379 0.13652414 0.15453626 0.093085535
0003c0 bf a2 b9 bd 68 f4 40 3d 6c 33 fa bc e0 62 25 3e
       -0.090642445 0.047108084 -0.030542098 0.16150999
0003d0 6d c5 da bd 5e f4 f9 bb 03 c5 52 3e 13 19 8b bd
       -0.10682187 -0.007628008 0.20582967 -0.06791892
0003e0 cb c3 8c 3d 08 6e 1b 3e d3 20 b2 bd 43 bd fe 3d
       0.06873282 0.15178692 -0.08697667 0.124384426
0003f0 84 7d 92 bd 60 4c 70 bd 58 39 06 be 9b 50 06 be
       -0.071528465 -0.058666587 -0.13107812 -0.13116686

bias f4 [100]
000000 67 7b 80 3d 6a 3b e1 3d e1 71 a6 3d a9 b9 67 bd
       0.06273537 0.109976605 0.081271894 -0.056573544
000010 79 40 49 be 82 2e 5c bd f0 13 b7 3d 8d 29 9a 3c
       -0.196535 -0.05375529 0.0893935 0.018818641
000020 c1 cf 67 3d 23 23 7c 3d 49 05 05 bd e5 a6 4c 3e
       0.056594614 0.061556946 -0.032475743 0.1998554
000030 5c c7 cb 3d 7a f6 a1 3c 33 ab 4f 3c 37 ba 32 3d
       0.09950134 0.01977085 0.012675094 0.04363462
000040 73 b0 01 be 52 2c c6 bd 44 28 4b 3e 27 36 94 3b
       -0.12664966 -0.09676422 0.19839579 0.004523057
000050 ca 94 d9 bd 62 f4 0d be 47 66 4a be 01 14 fa bd
       -0.106240824 -0.13862756 -0.19765578 -0.12210847
000060 70 74 38 bc dd 59 52 bd 44 a3 a3 3d 1d 81 83 3d
       -0.01125823 -0.05135523 0.07990125 0.06421111
000070 63 6f 96 3b f1 da e5 3c 71 9f 2d 3d e6 a8 e1 3c
       0.004590915 0.028058501 0.042388383 0.027546357
000080 96 98 9e 3d 57 05 dc 3c 53 4b 30 bd f7 d7 21 3d
       0.07743947 0.026858015 -0.043040585 0.0395126
000090 91 b1 18 3d 9d 7d 58 3d 09 3a 9b be f1 3f d6 bd
       0.037278716 0.05285417 -0.30317715 -0.104614146
0000a0 aa 00 9d 3e 0f 60 b4 bb 5f f3 bd bb 02 15 9b 3d
       0.3066457 -0.005504615 -0.0057968344 0.07572366
0000b0 af 1e a6 3d ef 3f f9 bb 6c 09 30 bd 2e 22 68 bd
       0.08111321 -0.0076064984 -0.042977735 -0.05667322
0000c0 e1 62 ba bd 54 de 53 bc d6 6a a9 bd 31 65 24 bd
       -0.09100891 -0.012931425 -0.082723305 -0.040135566
0000d0 aa 21 47 bd 70 ae 23 bc dd 7a 99 3c 9d 01 3c 3e
       -0.04861609 -0.00999032 0.018735344 0.1835999
0000e0 50 e0 bc ba 41 80 df 3c d3 8a b8 bb 5b 76 8f 3c
       -0.0014410112 0.027282836 -0.0056317835 0.017512491
0000f0 29 8e 87 bd cd be 04 3e 02 70 1e 3b eb 0a 8c 3b
       -0.06618912 0.1296341 0.0024175649 0.0042737625
000100 b7 a3 97 3c 50 f2 86 bd 78 3e dd 3c c9 24 ca 3b
       0.018510683 -0.06589186 0.027007326 0.006168936
000110 8f 3a 08 be 37 d9 c2 3c 4f 21 0f 3e 8b 38 73 bb
       -0.13303588 0.023785217 0.1397755 -0.003711256
000120 31 3e 82 bd dc 26 9a bd e7 80 3b 3d f4 9d b9 bc
       -0.06359518 -0.07526943 0.045777228 -0.022658326
000130 81 2c b0 3c 78 bc bc 3d 40 b0 0f be 5e bf 40 bd
       0.021505596 0.09215635 -0.14032078 -0.047057502
000140 a3 41 ce bb 3b 79 a3 3d 50 b8 95 bd cd fc 40 3d
       -0.0062944456 0.07982107 -0.073105454 0.04711609
000150 94 40 70 3c f9 52 8a bd 1d b5 16 3e 72 0a 06 3d
       0.014663834 -0.06754107 0.14717527 0.032724805
000160 f1 4b a1 bd 6f 19 5f bd 00 96 9d bc 26 33 01 be
       -0.07875813 -0.054467615 -0.019236565 -0.12617168
000170 99 ae 0d 3d 15 c3 8e bb b9 8f b1 bd 35 c4 5d 3c
       0.034590337 -0.0043567517 -0.08669991 0.013535549
000180 05 8a b6 3c a3 d4 83 3d ba 93 fe 3d 07 ca 7c bb
       0.02228261 0.064370416 0.1243052 -0.0038572566

weight f4 [100, 100]
000000 a5 b2 88 bc bf e9 05 3d 94 bc fc 3c b4 a5 cb 3c
       -0.016686747 0.03269362 0.03085164 0.024859287
000010 bb 81 47 3e 61 17 e3 3d 8d fa 0c bd 50 a6 7f 3d
       0.19483082 0.110884435 -0.03441863 0.062414467
000020 53 fc f5 3c df df 1a be 2f 48 f5 bd bf 78 ab 3e
       0.030027544 -0.15124463 -0.119766586 0.3349056
000030 8d 7c a6 bd 40 55 cc be 30 6a c7 be 70 a7 c8 3e
       -0.08129225 -0.3990879 -0.38948202 0.39190245
000040 c7 38 12 be 7a ac 22 be a4 ba b4 3e 30 48 0d 3e
       -0.14279471 -0.15886107 0.35298645 0.13797069
000050 03 1d be be e1 42 84 3e 86 1f 6d 3c 55 26 3f 3e
       -0.3713151 0.25832275 0.014472848 0.18666966
000060 d6 64 4c 3e cd 8f 61 be dc e4 14 3e 6b 7e 5a 3d
       0.19960341 -0.22027512 0.14540428 0.053343218
000070 72 84 89 be 70 96 af bd 79 ca a8 bd 94 c8 4a 3b
       -0.2685886 -0.085736156 -0.082417436 0.0030942308
000080 10 cb b7 3d 7f f3 cb 3d 28 bb 25 be b1 50 ff 3d
       0.08974278 0.099585526 -0.16184676 0.124665625
000090 85 80 13 3e 06 8d ed bd 4c a0 03 be da 24 97 3e
       0.14404495 -0.11599164 -0.12854117 0.29520303
0000a0 06 b6 45 be fc b7 76 bb 23 4a 5b be 7f 90 03 be
       -0.19307718 -0.0037646284 -0.21415 -0.1284809
0000b0 6a 70 05 3f a1 33 02 be db 0a 37 bd da 48 68 3e
       0.52124655 -0.12715007 -0.044688087 0.2268404
0000c0 19 3f 76 3c 04 01 25 be 2a fd e8 3e 37 1e ae be
       0.015029692 -0.16113669 0.4550565 -0.34007427
0000d0 28 47 60 be d1 54 23 3e 5f 83 38 bf e8 92 e9 bd
       -0.21902144 0.15950324 -0.72075456 -0.11404973
0000e0 69 59 85 3d 2d 07 b8 bd 41 70 f1 3d 0c f5 71 3e
       0.06511194 -0.08985744 0.11788989 0.23628634
0000f0 98 92 b0 be d6 09 90 be 44 27 90 3e 04 33 fc 3d
       -0.34486842 -0.28132504 0.28154957 0.12314418
000100 8b a4 80 be c3 9b bd bc ea 5d 49 3e 4c 45 46 3e
       -0.25125536 -0.023145562 0.19664732 0.19362372
000110 16 fe 4b 3d 24 6d 33 bd 10 77 22 3d be ce 80 3e
       0.049802862 -0.043805256 0.039664328 0.25157732
000120 7a 0c aa 3d f0 a7 32 be 73 a3 9b be a2 d9 67 bd
       0.08303161 -0.17446876 -0.3039814 -0.056604035
000130 76 02 a8 3e 0b 51 0e be b4 2d bb bb 46 13 c1 3d
       0.32814378 -0.13898103 -0.0057122353 0.09427504
000140 4e 09 93 bd 4e 0b fb 3d 3d 6c a9 be 96 ea ff 3c
       -0.07179509 0.122580156 -0.33090392 0.031239789
000150 3e d4 25 be 48 45 2d 3d b2 41 0c 3f d1 0c d2 bd
       -0.16194245 0.0423024 0.54787743 -0.10256351
000160 1f 60 2d be 40 57 a7 bd 64 dd 19 3e 3d 98 b7 3b
       -0.16931199 -0.081709385 0.1502586 0.005602865
000170 05 ca ad bd 66 5c bd bd 91 68 2a 3d 7e f8 65 3d
       -0.08485798 -0.09246139 0.04160363 0.056145184
000180 ab 57 09 bc 0d ac 3d be 38 a2 1d 3e 4c 11 80 bd
       -0.008382718 -0.18522663 0.15393913 -0.06253299
000190 80 a1 cc be 42 68 e4 bd 80 a3 27 bd ac e7 73 be
       -0.39966965 -0.11152698 -0.04092741 -0.23818845
0001a0 13 23 49 3d 3f 10 9c 3d db 72 91 bd ed 29 99 3d
       0.049105715 0.07620286 -0.07101985 0.074787
0001b0 ae 42 ba bc e2 82 f2 3d af 2f 6e 3c d3 31 9e 3d
       -0.022736873 0.1184137 0.014537736 0.07724347
0001c0 4a aa 97 3d 4e 9d 53 be 2f dc fd bb d3 fd e8 3c
       0.07405527 -0.20665476 -0.007747195 0.028441345
0001d0 ed 93 cf bc c9 9b e7 bd b5 24 5e bc 63 ab 8d 3d
       -0.025339091 -0.113090105 -0.013558556 0.06917455
0001e0 ab ca 67 bd 49 c1 1b 3d e1 f7 25 3e fe 9b fb 3d
       -0.056589764 0.038026128 0.1620784 0.122856125
0001f0 95 fd e6 3d a4 1a f4 bc 94 ed 06 3e e6 95 46 bd
       0.11278836 -0.02979786 0.13176566 -0.048482798
000200 9f b4 dc 3a 6d de b2 be 21 3c 41 3d 35 50 1b 3e
       0.0016838497 -0.34935322 0.047176484 0.15167315
000210 5f 0b 06 3e 30 29 1b 3e 3d 41 ba 3e e1 f2 59 3d
       0.13090275 0.1515243 0.36377898 0.053210143
000220 d8 5c 3c be 40 9a 13 3e 37 e4 44 bd 6d c5 4d bd
       -0.18394792 0.1441431 -0.048069205 -0.050237108
000230 6f 00 09 bd ec 97 96 bd 35 3b 69 3e 6e 27 bf 3d
       -0.03344768 -0.073531955 0.22776492 0.093336925
000240 55 f7 69 bb 67 d8 8e bd f1 1c b1 3d f4 d3 b1 bd
       -0.00357004 -0.06974869 0.08648098 -0.08683005
000250 d6 b0 1d 3d be 67 50 be 8c b6 2c 3e 4b 54 11 be
       0.038498722 -0.20352075 0.16866511 -0.14192311
000260 a6 fe 99 3d 57 55 8b 3c 88 40 77 bc ea 0b 4d 3e
       0.075192735 0.017008467 -0.015091069 0.20024076
000270 c6 ea a6 bd c6 21 38 be f2 34 57 be 90 eb a9 bc
       -0.08150248 -0.17981634 -0.21016291 -0.020742208
000280 2e 9a 20 be fe 18 08 be 94 4f 08 3e 65 82 38 bd
       -0.15683815 -0.13290784 0.13311607 -0.04504623
000290 7d 35 39 3d 2d 80 5e 3e a7 8f 89 bc 13 0f 5e 3d
       0.045217026 0.21728583 -0.016792132 0.054213595
0002a0 b8 2a a7 bd 72 3e 10 be 79 d0 d8 bd ad 1d a7 3d
       -0.08162445 -0.14086321 -0.10586638 0.08159957
0002b0 b6 97 04 3e aa 21 9b 3d 5e 26 a7 3c 6f 09 7e 3e
       0.12948498 0.0757478 0.020404037 0.24808286
0002c0 94 10 48 bd 0f 93 9d bc 45 9d 1b be 7c f6 7f 3e
       -0.048843935 -0.019235162 -0.15196712 0.2499637
0002d0 e2 f9 c9 3c 1a 13 1c 3d 7d c6 3f be 12 1e 29 be
       0.024655286 0.038104154 -0.18728061 -0.16515377
0002e0 df d5 e7 bd cd 76 32 3d 11 92 5b 3d f4 7d af 3d
       -0.113200895 0.04357033 0.053606097 0.085689455
0002f0 43 7f 26 be 82 c6 8b 3b 1e f0 a8 3d 9d 63 ac bd
       -0.16259484 0.0042656073 0.08248924 -0.08417437
000300 bf 4f 9a bd 77 37 4d 3e 56 30 89 3e 67 22 01 be
       -0.075347416 0.2004069 0.2679469 -0.1261078
000310 da 18 d4 bc 3e ab 1d 3e 02 17 78 3d c0 b3 a4 be
       -0.025890756 0.15397355 0.060568817 -0.32168388
000320 4f 72 74 3e e4 1b 14 3e 6f db 69 3e 80 d5 57 3e
       0.2387173 0.14463764 0.22837614 0.21077538
000330 3b c8 68 be b5 78 77 bd 48 8c 20 3e bc 4c 86 be
       -0.22732632 -0.06041785 0.15678513 -0.2623042
000340 b1 06 bd be 9f c6 1d 3c 63 6b a3 be d1 22 9f 3d
       -0.36919168 0.0096298745 -0.31917867 0.077703126
000350 c0 72 ce 3e 1a 0b e7 bd d4 54 8c 3e 31 7f 8b be
       0.40321922 -0.11281414 0.2740847 -0.27245477
000360 bc 5a 15 bf a1 dd 2a 3e 0b 28 88 bf 9b 91 6b be
       -0.58341575 0.16686107 -1.063722 -0.23004763
000370 1a ca db ba c1 61 4f be ef fb ed bc 5a b5 a1 bc
       -0.0016768605 -0.20252134 -0.029050795 -0.019739795
000380 67 bd 10 be e6 e0 20 bd 7f b0 0c 3e 59 82 94 bd
       -0.14134751 -0.03927698 0.13739203 -0.07251424
000390 f4 b0 c0 3e a0 c8 e2 bd 57 5b 44 be 4d 26 ff 3d
       0.37635005 -0.110734224 -0.19175468 0.12458477
0003a0 a2 28 72 3e 8d d3 e0 bd 2e e3 0b 3d 0e 6a 11 3f
       0.23648313 -0.1097785 0.034152202 0.5680245
0003b0 13 65 4a bd f3 b5 4a 3e 75 38 d9 be a5 63 9e 3e
       -0.049412798 0.1979597 -0.42425886 0.30935398
0003c0 f7 3d cc 3e c3 6a 08 3d a3 a5 ed bd 77 f7 60 be
       0.39891025 0.03330494 -0.11603858 -0.219694
0003d0 54 f6 d0 bd d4 9d b3 bd 98 c0 13 be ed d2 9c be
       -0.10203233 -0.08770338 -0.14428937 -0.30629674
0003e0 2c 3e 44 3d cd e3 a2 bd 9e 09 ab bd ff 74 84 3e
       0.047910854 -0.07953606 -0.08351444 0.2587051
0003f0 d8 37 47 3d 84 04 6b be 38 95 b5 3e b3 a8 e4 bd
       0.04863724 -0.22950941 0.35465407 -0.11164989

bias f4 [100]
000000 e5 ab 8c 3d a7 d4 76 bb 59 e5 70 3e 6e f8 fd bb
       0.06868724 -0.0037663372 0.23524989 -0.0077505624
000010 e9 51 ee bd f3 29 85 3d 5e 5c dc ba 29 b9 0a 3d
       -0.11636717 0.06502142 -0.0016812196 0.03386799
000020 a4 aa 85 bb 55 4d b4 3d 0c 2b a7 bc a9 b0 38 3d
       -0.00407918 0.088038124 -0.020406269 0.04509035
000030 73 be 1f 3d 78 1f 99 be 0d d1 b3 bd d1 bf e2 bd
       0.038999986 -0.2990682 -0.08780108 -0.11071742
000040 9f d9 1c bd 62 9d 49 bd fa 78 18 be de c6 15 3d
       -0.038293477 -0.049222358 -0.14889899 0.036566608
000050 3b 75 10 3d 22 cf e9 3c 6e c5 48 3d c3 c2 87 3e
       0.03526805 0.028541151 0.04901641 0.2651578
000060 b2 41 97 3c aa b6 17 bd 20 dc f1 bd 68 f4 ed bd
       0.018463943 -0.037039436 -0.11809564 -0.116188824
000070 c3 d8 e2 bd b6 47 69 3e 53 b8 34 be 81 2b 83 bd
       -0.110765 0.22781262 -0.17648439 -0.06404782
000080 b6 08 d8 3d 5a 2d 85 bc 4f af 8f bd de db f0 3d
       0.105485365 -0.016256977 -0.07015859 0.11760686
000090 27 67 a6 3e ed d1 8b 3d e6 ea 0d be bb 8a a6 bd
       0.32500574 0.068271495 -0.13859138 -0.081319295
0000a0 0b 40 0b bd f9 20 0d 3d 9b 3b 13 bd d1 ce 86 3c
       -0.033996623 0.034455273 -0.035945516 0.01645604
0000b0 f3 83 57 3d e6 d3 a1 bd 5f e3 e4 bd 89 1d 52 3b
       0.05261607 -0.079017445 -0.1117618 0.0032061061
0000c0 33 f5 b0 bd c0 f9 bf bd 8b 51 bf 3d 02 6a 7a be
       -0.08640518 -0.09373808 0.09341725 -0.24454501
0000d0 d3 8b 93 bd 28 5f 1e bd 24 c2 2f 3d b7 37 b9 bd
       -0.07204404 -0.038664967 0.042909756 -0.0904383
0000e0 44 3e 73 3d c5 8c 8f 3c 67 21 74 bd b2 2f 9a bd
       0.059385553 0.017523179 -0.059602167 -0.075286284
0000f0 04 74 09 3d fd 31 ae bd a0 55 4e 3d 60 af 87 3c
       0.033557907 -0.08505628 0.050374627 0.016563118
000100 66 41 53 bd d9 44 da 3c a0 52 a8 3c 0f c9 0b 3e
       -0.05157604 0.026644157 0.020547211 0.13650917
000110 07 02 7c 3e db 49 ab 3c b2 fc 73 3c 3a ef be bd
       0.24610148 0.02090924 0.01489179 -0.093229726
000120 7e 0e cf ba 15 62 8e bd 39 c6 e3 3d 65 49 26 bd
       -0.0015797166 -0.069523014 0.11121792 -0.04059734
000130 b6 0d f2 3c 4a 23 d0 bd 08 73 ad bd e0 69 0c 3e
       0.029547554 -0.10162981 -0.08469206 0.13712263
000140 fa f0 92 bd 65 45 98 bd d3 a4 b6 bd 0d 16 3e 3c
       -0.07174869 -0.07435111 -0.089181565 0.011601937
000150 bd 29 11 3d 5a 62 72 ba 6f a8 a2 bb f8 97 5c bd
       0.035440195 -0.0009246223 -0.0049639265 -0.053855866
000160 b2 b7 2f bd 16 bc ee bc 00 5e e8 3c 9d 0b 6e 3c
       -0.042899795 -0.02914242 0.028365135 0.014529136
000170 4d 23 56 3d 7d f5 4e 3d de 8b a7 3d e9 6e 13 be
       0.05227976 0.050527085 0.081809744 -0.14397778
000180 63 ae 13 bd 51 5d 94 3d 17 ab 86 ba 55 4f e0 bd
       -0.03605498 0.07244361 -0.0010274377 -0.109526314

weight f4 [100, 100]
000000 f8 64 58 3d c3 42 c6 3d b8 56 29 be 64 41 ea 3d
       0.052830666 0.096807025 -0.16536987 0.114382535
000010 bd 28 f9 3d 77 b1 9e 3d a0 fd 52 3e cd 89 bc bd
       0.12165973 0.077486925 0.20604563 -0.09205971
000020 f3 72 9b bd 77 6f 18 3e 27 88 2c 3e 80 de 88 3e
       -0.07590284 0.1488627 0.16848813 0.26732254
000030 ce 85 c9 bc 8b 16 06 3e 8c 8b f4 bd 37 bf 80 3e
       -0.024599936 0.13094537 -0.11940679 0.25145885
000040 67 c2 a3 3d 85 cd 26 3e cc bc 0d be a1 a8 10 be
       0.07996064 0.16289337 -0.13841552 -0.14126827
000050 75 e1 90 3b d1 ab 4a bd 55 bc 7b be 00 47 81 bc
       0.004421408 -0.049480263 -0.24583562 -0.015780926
000060 ff 0d 87 bd 85 ec 1c bd 24 e6 5b 3d fe 9c f6 3d
       -0.065944664 -0.0383115 0.053686276 0.12041663
000070 5b ec b1 bc 46 41 72 bd 98 88 fa bd 84 4d 0f 3e
       -0.021719148 -0.05914428 -0.122330844 0.13994414
000080 5d d8 53 be ee 2c 21 3e 72 99 e8 bd 16 86 22 3d
       -0.20688005 0.15739796 -0.11357392 0.039678656
000090 4e 65 e5 3c 46 93 99 bd 5c f6 34 3e a1 4c ba bd
       0.028002407 -0.07498793 0.17672104 -0.09096647
0000a0 ca 64 e3 bd 24 ff 74 bd 7d 7d a6 bd d7 ab 74 bd
       -0.11103208 -0.059813634 -0.08129404 -0.05973419
0000b0 fe 5e 7e bd 5c eb ca bd 5d 07 05 3e a8 30 7a 3d
       -0.06210231 -0.099081725 0.1299109 0.06108156
0000c0 18 70 9a 3e 99 0a 1e be 0b ff 50 bd 4e bf 01 be
       0.30163646 -0.1543373 -0.051024478 -0.12670633
0000d0 a1 ec 32 3e a1 20 7f 3e 30 c9 a7 3d 43 fb 2f bc
       0.1747308 0.2491479 0.0819267 -0.010741058
0000e0 18 78 44 3e 3b f9 42 3e 79 00 38 be 90 59 31 bc
       0.19186437 0.19040386 -0.1796893 -0.010824576
0000f0 b5 88 3e be d3 7a 04 bd 62 78 09 3e 58 9d 70 bd
       -0.18606837 -0.032343697 0.13424829 -0.058743805
000100 64 c7 2a be 13 ab a9 3d 9e 8a 9b bd a2 d3 08 be
       -0.16677624 0.08284583 -0.075947985 -0.13361982
000110 ce 07 e3 bd 9e 1c 1c 3e 73 e7 4f 3d b0 a3 20 3e
       -0.11085473 0.15245292 0.050757837 0.15687442
000120 3d 57 26 3e 00 6d f4 bd da 64 85 3d d9 5c 24 3d
       0.16244216 -0.119348526 0.065133765 0.04012761
000130 58 0c 00 be 76 d0 23 be d7 23 ad 3c ba a5 d3 bc
       -0.12504709 -0.1599749 0.021135254 -0.02583586
000140 76 f3 57 be 4e 9e 05 3e 94 2d f8 bd c8 b7 58 3d
       -0.21088967 0.1304867 -0.12118068 0.052909642
000150 3e b4 59 be e2 cb 3a 3d 77 29 2c be 4f 12 eb bd
       -0.21260163 0.045604594 -0.16812693 -0.114781015
000160 4f 12 b7 3d 28 30 0f be 99 d7 81 bd 22 18 ad be
       0.08939039 -0.13983214 -0.0633995 -0.33807474
000170 48 0a f3 bd 8c 0a 05 be 7b 73 35 bd 62 a3 2d bd
       -0.11867195 -0.12992305 -0.044299584 -0.042392142
000180 51 ce 04 3e f5 3a 2e be c8 52 0b bd d2 77 93 bd
       0.12969328 -0.17014678 -0.034014493 -0.07200588
000190 e0 90 90 be 8a 2c 65 3e b7 82 34 be ac f4 9d 39
       -0.2823553 0.22380272 -0.17627989 0.00030127668
0001a0 e5 5f 7d be 80 ab b7 bd c4 57 35 be e6 d0 b9 bd
       -0.24743612 -0.08968258 -0.17709261 -0.09073047
0001b0 19 89 91 bd 92 61 3e bc 45 de 3d be d3 33 0a be
       -0.071062274 -0.011619942 -0.1854182 -0.13496332
0001c0 1d 64 c7 3d 10 62 7b be 1a 6b 19 3c 2d 62 11 be
       0.09735892 -0.24549127 0.009363914 -0.14197607
0001d0 71 4e a8 be 09 f9 e5 3d 79 63 67 3d 18 02 4c be
       -0.32872346 0.1122914 0.05649135 -0.19922674
0001e0 f8 09 be 3d fa 0e 1f 3e 66 dd d2 bd 23 e7 67 3d
       0.09279245 0.15533057 -0.10296135 0.056616914
0001f0 43 a5 0e 3d 1b eb 7a be ac ab 11 bd c4 24 13 bd
       0.034825575 -0.24503748 -0.03556411 -0.035923734
000200 a7 58 6f bd 1c 57 04 3e ee 70 bb 3d d5 2a bc bd
       -0.058434155 0.12923855 0.09152399 -0.09187857
000210 3c a2 2b 3e 1b 4f 33 be e2 9d 94 3e dc 7d 28 be
       0.16761106 -0.17510645 0.29026705 -0.16454262
000220 0d fa 6a 3e 50 ca 37 bd 8c b6 44 3e 72 0b 05 be
       0.2294695 -0.044870675 0.19210261 -0.12992647
000230 90 95 3d 3d 5e 80 be 3d 74 9b ca 3d 5c 24 7f 3d
       0.046285212 0.09301828 0.098929316 0.062290534
000240 e3 0b ce be 7a 3e 98 3e 91 e3 13 3e 61 54 bd bc
       -0.40243444 0.29735166 0.14442278 -0.023111524
000250 40 ce bc 3d b1 5d 77 be 26 67 0f 3e f9 09 01 3e
       0.092190266 -0.24156834 0.14004192 0.1260146
000260 96 75 a3 3e c4 a1 53 3e 43 fa ef bd 0e 75 9d 3c
       0.31925648 0.20667177 -0.117176555 0.019220855
000270 b8 99 8f 3d 21 4b 50 be e4 30 f0 3d c3 88 de bd
       0.070117414 -0.2034116 0.11728075 -0.10865929
000280 d9 d8 a3 bd 17 ab ba bd 2c dd 48 be 29 6b 34 bd
       -0.08000345 -0.09114664 -0.1961562 -0.04404751
000290 72 a0 db bd a8 f7 a3 bb 88 c3 a8 bd 6f 35 28 3e
       -0.10723962 -0.005003888 -0.082404196 0.16426633
0002a0 36 86 b0 3d 98 3c 90 be f5 6c 34 be 5a f1 7d 3d
       0.08619349 -0.2817123 -0.17619689 0.06199775
0002b0 ea 43 fd 3d 56 26 b6 3d ef 72 b1 3d 73 1d b2 3d
       0.12366469 0.08894031 0.086645 0.08697023
0002c0 d8 b1 78 3d 32 0e b0 3d 8c ae d1 3d af bd 55 be
       0.06071648 0.085964575 0.1023837 -0.2087314
0002d0 c0 22 9e bd 51 38 39 3d 38 cf 0f bd 70 65 85 bd
       -0.07721472 0.045219723 -0.03510973 -0.06513488
0002e0 54 8e eb 3d af 27 c5 bd 6c 7e 93 bd dd 42 6a 3e
       0.11501756 -0.0962671 -0.072018474 0.22877069
0002f0 33 a3 14 be a4 6f 99 bc 76 41 9e be 15 0e 79 bc
       -0.1451538 -0.018729992 -0.30909318 -0.015201111
000300 f2 9a dd 3c ee ae 5e 3e 35 f2 7f bd 35 50 9d 3e
       0.027051423 0.21746418 -0.062486846 0.30725256
000310 89 9a e4 bd f7 cd 36 3d f4 8f 2c be 79 a4 e0 3c
       -0.11162288 0.044630017 -0.16851789 0.027422177
000320 25 2d 18 3d fb 67 95 bd 85 2f 3a 3e 20 cc 30 bc
       0.03715243 -0.07295223 0.1818219 -0.010790855
000330 9c 74 0b 3e cc 72 57 bc 17 58 0c be 1b 4a bd 3e
       0.13618702 -0.013149928 -0.13705479 0.369706
000340 1b 65 cc be 1b 4e 6e 3d 69 a0 93 3b f5 75 22 be
       -0.39920887 0.058179956 0.0045052064 -0.1586531
000350 5f 32 f0 3d 47 b0 c5 3d 56 e3 80 3d 3f 2d 6d 3e
       0.117283575 0.09652763 0.06293361 0.23161791
000360 76 ac 86 3e 43 89 09 bb 4e 60 75 3d b7 df 93 3e
       0.26303452 -0.0020986355 0.059906296 0.28881618
000370 46 b7 03 bd 26 98 e3 bd 04 fb 26 3e 32 72 bb 3c
       -0.032157205 -0.111130044 0.16306692 0.022881601
000380 23 24 9b 3e b7 a1 72 bc 18 6b 4f 3d 83 b5 86 be
       0.30301008 -0.014809064 0.050639242 -0.26310357
000390 1d 4f 16 bd 1a e4 ef 3d 34 4c 38 3e 36 1c 9a bd
       -0.036696542 0.11713429 0.17997819 -0.07524912
0003a0 3f 65 f1 bc 08 d9 85 bd 55 1b b5 bd 93 90 8d 3c
       -0.029467223 -0.06535536 -0.08843104 0.017280852
0003b0 e1 3b c4 3d 89 55 58 3e a1 34 da 3d 7a d6 30 3e
       0.095817335 0.21126379 0.106545694 0.17269316
0003c0 8d 50 ab be 35 65 0c 3e 58 22 8f bd b3 c5 3c be
       -0.33459893 0.13710482 -0.069889724 -0.18434791
0003d0 1f c2 15 3e e1 71 96 bc d5 e1 ce 3d 03 36 81 3e
       0.14624833 -0.018364849 0.10101668 0.2523652
0003e0 6a 82 1d 3e 99 c9 ad be f4 23 6d bd b1 a5 17 be
       0.1538178 -0.3394287 -0.057895616 -0.148093
0003f0 ed a9 6a bd 44 f8 1a 3b 73 dd c5 3d e9 86 1c 3e
       -0.05729096 0.0023646513 0.09661379 0.15285839

bias f4 [100]
000000 43 44 87 bd ce 25 71 3b 2d 4d 20 3d 8a 46 0e bd
       -0.06604817 0.0036796215 0.0391361 -0.03473524
000010 b7 42 11 be 71 ba 89 3e 6e f2 9f bc 17 f8 9f bd
       -0.14185606 0.26900056 -0.01952478 -0.07810991
000020 d0 f1 04 bb 68 ba ec 3c bf 16 b3 3c 5a 65 30 3d
       -0.0020285733 0.02889748 0.021861432 0.043065406
000030 28 36 a2 bd 3d bf be bd 57 04 0e 3c d7 a5 f0 bc
       -0.07920486 -0.093138196 0.008668027 -0.029375954
000040 fd 75 a4 bc 9c 88 11 bd ca b9 94 3d f6 e9 f9 3c
       -0.020075792 -0.03553067 0.07261999 0.03050707
000050 82 b4 55 bd 37 16 09 3e 45 44 cf bd b9 e7 13 3d
       -0.0521741 0.1338738 -0.10120443 0.03610966
000060 9e 1d a7 bd 61 9d c7 3c dc 32 59 bd 92 6e 59 3d
       -0.08159946 0.024367036 -0.05302702 0.053083964
000070 2b f1 03 bc 8c 58 cf 3d 6e 50 45 3d 72 a3 62 bc
       -0.008053104 0.10124311 0.048172407 -0.013832914
000080 fc 9b 84 bc 69 5a f4 3d b0 07 83 3d 2e 7b 64 3d
       -0.01618766 0.11931307 0.06397951 0.055781536
000090 ed d9 97 bd f8 0a 35 3c b4 db 99 3c a1 48 a1 3c
       -0.07414613 0.011049978 0.01878152 0.019687952
0000a0 26 ea 96 3d 62 4b 3f 3e 2c 59 94 3d 20 26 6a 3d
       0.07368879 0.186811 0.07243571 0.057165265
0000b0 c8 17 1d 3e 14 17 75 bd a9 de 34 bd 7b a3 be 3d
       0.15341103 -0.059836462 -0.044157658 0.09308525
0000c0 2f 7c 9c bc 72 83 9b 3c c3 f4 1d 3d a0 67 6e 3d
       -0.019102184 0.018983576 0.0385635 0.058204293
0000d0 d8 f9 9e bd af 53 c8 3c 9a 41 0b bd 7a d3 86 bb
       -0.07762498 0.024453966 -0.03399811 -0.0041145654
0000e0 b0 31 3e 3b 1e ce b4 bd e7 33 37 bd ac 77 08 3d
       0.0029021315 -0.08828376 -0.044727232 0.033317253
0000f0 59 f6 23 bd b5 35 f8 bd b5 cb 41 bc f9 ff 10 bc
       -0.040029857 -0.12119619 -0.011828353 -0.008850091
000100 92 60 d0 bb 2a fd 34 3c 80 25 9c bd c7 6e b9 bc
       -0.0063591683 0.011046687 -0.0762434 -0.02263583
000110 8c 75 a6 3d b7 fd 71 3c bd 25 86 bd d5 a8 9a 3d
       0.08127889 0.014769963 -0.06550167 0.075517334
000120 00 ce 4a bd 49 1f 1d 3d e7 30 44 3e 7d 39 88 bc
       -0.049512863 0.038359914 0.1915928 -0.016628975
000130 4b 1a ef bc 1b e1 5e bc 8e 7d cd 3a 54 bd b9 3d
       -0.029187342 -0.013603474 0.0015677677 0.090693146
000140 55 9c d1 bd 59 1b b6 3d 45 fc 76 bd b4 32 bf bc
       -0.10234896 0.08891935 -0.060299177 -0.023339607
000150 c7 f1 a9 3d 62 7b 05 3a 37 b9 14 3c 51 2f 37 3c
       0.082980685 0.0005091933 0.009077362 0.011180715
000160 36 67 1d 3e 06 f6 81 bc c2 ca c3 3d b1 84 ed bd
       0.15371403 -0.015864383 0.09560157 -0.115975745
000170 9d b2 e8 bc 1b 33 a0 3c bd a8 82 bd e9 87 41 3e
       -0.028405482 0.019555619 -0.063798405 0.18899502
000180 e2 24 ce 3c 5b 46 f0 bb 88 33 50 bd 21 b9 b4 3d
       0.025164071 -0.007332606 -0.050830394 0.08824373
