cylinder_wake/best_net_with_improved(adaptive resampling).pth (torch, 335041 bytes, 20 tensors)

weight f4 [100, 3]
00000000: 27b4 ee3d 9633 4dbd 32e0 7dbe e437 0f3e
00000010: 3d4a 28be 3fed 51be 4802 e6bd 8ddb 203e
00000020: 808b 643d 6af3 493d d191 583e dfd1 39be
00000030: 5e7a f23e adeb 0a3f 9dad b2be 80b8 bb3d
00000040: 3988 543d 19bf c9bc b62f df3d 3c2a e43c
00000050: 057c 253d 5327 863d 4c57 69be f017 133d
00000060: 7ef7 ddbd 3072 a23d 6020 163d deb4 6f3c
00000070: 47cc 7bbe f945 53bd b2c8 f1bd 20d6 d33d
00000080: baca 243e 5600 fa3d 7c1c afbd eaf0 ddbd
00000090: 1aa9 6cbd cce4 98bd 29df abbc 4d95 09bf
000000a0: e760 ecbe 61d6 073f 25a5 e13d c77a a2bc
000000b0: 4738 d3bd 9687 b23c 8db1 86bb 4770 94c0
000000c0: edb4 d9bd 7df9 3c3d 1390 623d 7fe4 86bd
000000d0: d149 81bd ce20 acbc f1b2 bbbd 15c8 edbd
000000e0: cef4 903d 30c4 ae3d 39cc 9ebd b7fa 0bbe
000000f0: 892e f5bd 7b5a 953d fa66 d93c 6c38 c83e
00000100: 7267 0abf fffb b23e 87e0 a2bb 69ad ab3b
00000110: 09e6 7fbd bac1 2ebd 89ee 36be ad0a 83bd
00000120: 7904 a9bd 2d89 b93e d9d4 3e3e fa33 a03d
00000130: 777a 603d 0498 95bd d5b9 a8bd c473 3a3d
00000140: d55e 343e b0b4 adbd 8df3 9abc 2935 043e
00000150: f3dc 803c 6d95 a33e cdfc b03d d15e 593c
00000160: 6a68 413e 4ca0 96bd 9505 02be 3233 f83d
00000170: 4a65 2c3e 4532 da3d 5750 02bd 42b2 90bd
00000180: 8e23 063f eafd 10bf 5a65 adbe 36ef c73d
00000190: f987 4ebc 4458 c4bd e98e ed3c 159d 823e
000001a0: d975 f0bd 549a ba3d 81b7 f3bd b793 c43c
000001b0: e1ad 643c 5c71 933e 67f5 20be b53d 90bd
000001c0: 1bc0 273d 0504 3b3c ea0a ddbd 58bf ffbb
000001d0: a2fa 283e 3b37 d33d b7cf b63d 1eb9 cbbc
000001e0: e454 0b3d 3934 35be 735b d9bd 3dea e1bd
000001f0: d49c 0f3d 8952 8e3d 79e3 b93d 9b3a 9abd
00000200: c930 7dbd 4d11 bdbd 1d51 77bd 1189 73bd
00000210: 0db6 a83c 9282 6c3e 8bc4 293e 25fc d73d
00000220: 8254 eebd e3b0 1ebd e210 a3bd 309a 8bbc
00000230: 5e77 ab3c baa8 d4bd a624 e3bc b49f c13c
00000240: 0892 c13e a99b 073f 3aad 1fbe 565e e7be
00000250: 878f 0dbf a495 603d 9a72 f2bd 237f 443e
00000260: ef0d 573e 0936 36bd b5ae 98be e868 fd3d
00000270: 8368 8c3d fbb3 773e 9c68 68be 4005 cabd
00000280: d882 383c da36 c5bb 4ddb 0c3f 7adf 903d
00000290: 2982 91be 594b 803d 4355 e83d 2378 84bd
000002a0: 55c8 c3bd 7f00 f6bb ecef f63d 0a3c c83d
000002b0: 4db0 733e bd21 edbd 06a0 a13d c83b fdbd
000002c0: 6936 4bbd ee3e 1fbe 1ef7 2ebd bfe1 293e
000002d0: 5937 113f 33d1 893e 1eef d5be 7557 87bd
000002e0: 1a66 aabe 6085 af3b 2059 f4bb fda6 443c
000002f0: ae55 0e3e e48d bb3d bc0b 7fbc ac2e 94be
00000300: 8a30 d43c 2cfe 7dbe a086 04bd 5c12 243f
00000310: d51b 983d 039c 06bf f248 f6be f1a0 50bd
00000320: 5b01 c73c 57b2 853d 098f 573e 853e ef3d
00000330: 416d abbb cd19 b03c 8e20 11be 3eb1 243f
00000340: 7d15 1fbc 47f6 10bf 48da 563d 8dfd 483b
00000350: 6db5 eb3c 739c 1f3f e1ef 13be c7ff 02bf
00000360: bfc7 cb3d 90e9 4bbd 18c5 0fbc 69ce 313c
00000370: 6603 1fbe 9dd9 0b3e 4022 3dbd 8dd9 1fbe
00000380: 9476 f03c 0c04 c03d fa64 233e 3a93 d9bd
00000390: f628 97be 9b00 fc3d d09c 07be 0788 2ebf
000003a0: 111b c73d 7678 0c3f 76cc 0e3f a086 8d3e
000003b0: fd74 00bf a92b a83d 1fc2 ca3c 01ad 413c
000003c0: 434a 553d 36f9 423e 88f5 14bd 5d8c 6bbc
000003d0: ae33 8ebe c944 80bd 1cb4 0bbf 28a2 553e
000003e0: ace5 303d 7a2f adbd 1360 643c 9690 65bd
000003f0: 9fd2 dc3d 00c1 70bc 97bf 32be 0f80 e5bd
0.11655455 -0.050098024 -0.24792555 0.13986164 -0.1643457 -0.20500658 -0.11230904 0.15708752
0.0557971 0.049304403 0.21149375 -0.18146466 0.47358984 0.5426586 -0.3489808 0.0916605
0.051887725 -0.024627255 0.10897772 0.02785217 0.040401477 0.06550469 -0.22787207 0.0359115
-0.10838221 0.07931936 0.03665197 0.014630524 -0.24589644 -0.051580403 -0.11805858 0.103435755
0.16092959 0.12207095 -0.08550355 -0.10836966 -0.057778455 -0.074655145 -0.020980434 -0.5374344
-0.4616768 0.5306149 0.11017827 -0.019833935 -0.103134684 0.021793168 -0.004110521 -4.6387057
-0.10630212 0.046136368 0.05531318 -0.06586551 -0.063129075 -0.021011736 -0.0916499 -0.11610428
0.07077943 0.085335135 -0.07753796 -0.13669859 -0.119717665 0.072926484 0.02653836 0.39105546
-0.54064095 0.34957883 -0.0049706134 0.005239178 -0.062475238 -0.04266522 -0.17864431 -0.063985206
-0.08252806 0.3623747 0.18635882 0.07822414 0.05480429 -0.07304385 -0.0823857 0.04552056
0.176143 -0.08481729 -0.018914962 0.12910904 0.015730357 0.3194994 0.08641968 0.013267235
0.18887487 -0.07354793 -0.12697442 0.1211914 0.16835514 0.106541194 -0.0318149 -0.0706525
0.52398 -0.5663744 -0.33866388 0.09762423 -0.012605661 -0.09587148 0.028998809 0.2551047
-0.11741228 0.09111467 -0.11900235 0.023996217 0.013957472 0.28797424 -0.15718614 -0.0704302
0.04095469 0.011414533 -0.10793097 -0.0078047924 0.16501859 0.10313269 0.08926337 -0.024868544
0.034016505 -0.17695703 -0.10613146 -0.110310055 0.035061672 0.06949336 0.0907659 -0.07530709
-0.061814103 -0.092318155 -0.06038009 -0.05945689 0.020594621 0.23096684 0.16578881 0.1054614
-0.11637212 -0.03874291 -0.079622045 -0.017041296 0.020930942 -0.103837445 -0.027727436 0.023635723
0.37806726 0.52971894 -0.15593424 -0.4518916 -0.5529713 0.05483021 -0.11838265 0.19189124
0.21001409 -0.044485126 -0.2982079 0.12373525 0.068558715 0.24189751 -0.22696155 -0.098642826
0.011261664 -0.0060185017 0.55022126 0.07073875 -0.28419617 0.062643714 0.113443874 -0.06468227
-0.09559695 -0.0075073834 0.1205748 0.097770765 0.23797722 -0.11578701 0.0789185 -0.12364918
-0.049612436 -0.1555135 -0.042716138 0.16590022 0.5672508 0.2691742 -0.41783994 -0.06608478
-0.33281022 0.0053564757 -0.0074569136 0.012002704 0.13899872 0.09157923 -0.015566763 -0.28941858
0.025902051 -0.2480399 -0.03235495 0.64090514 0.074271835 -0.52581805 -0.48102528 -0.050934736
0.024292639 0.06528156 0.21050657 0.116818465 -0.00523153 0.021496678 -0.14172575 0.6433295
-0.009709713 -0.5662579 0.052454263 0.0030668706 0.028773034 0.623481 -0.14446975 -0.51171535
0.09950208 -0.04978329 -0.008775018 0.010852435 -0.1552864 0.13657232 -0.04617524 -0.15610333
0.029353417 0.09375772 0.15956488 -0.10623784 -0.29523438 0.12304803 -0.13243413 -0.6817631
0.097219594 0.5487131 0.5578073 0.27641773 -0.5017851 0.082114525 0.024750767 0.0118210325
0.052072775 0.19040379 -0.03636697 -0.014376727 -0.27773803 -0.0626312 -0.545717 0.20862639
0.043187782 -0.08456321 0.0139389215 -0.05604609 0.1078236 -0.014694452 -0.17455898 -0.11206066

bias f4 [100]
00000000: 0d26 67be 398b ebbe ee9a bd3e 2735 2abe
00000010: d326 8bbd bf8d 6dbe 6629 abbe 0819 56be
00000020: 1c11 8a3e 472c 01bd 03ac a93e b834 b3be
00000030: 3b96 613e 8235 7b3e befd 7cbe 9b05 bc3d
00000040: 3a00 ae3e 58ef 433e be00 6c3e 4e82 62be
00000050: a5b1 ae3e 759d 183e 3b75 663d 2157 473e
00000060: 70dd 5b3e 56a0 52be 1e40 493e 7cef 293e
00000070: 7f3f 1ebe 2aae a4bd acb3 d03e 6d55 74be
00000080: 96c2 af3d 81ff 43be fc88 25be 89f7 8abe
00000090: f6a7 58bd 8d31 753e 32c4 5d3e a788 8fbe
000000a0: 35b1 1cbe cf4a 803e 5b66 45be d5cf 783e
000000b0: a6ec 75be a7b3 96be 495c 3b3e 2ca6 863e
000000c0: 04f9 813e ba66 6c3e 4152 ad3e 00e4 4e3e
000000d0: 57f1 61be 339f 6e3e 1f40 26bf f382 69be
000000e0: 77a0 463e 937b adbe b76c 46be b5fb 1a3f
000000f0: 571d cbbe 2190 983e 99ba 29bb fd52 73be
00000100: dd24 dabd 941f cabd 1539 f83e 2d25 9bbe
00000110: f6e7 bd3d 3f44 14be 2922 6abe b9d9 11bf
00000120: 65eb 8dbe e54b debd 2bb3 303e 26ed 6abe
00000130: 66d5 b23e b9db 0a3e 4c9c 0cbf a5b4 75be
00000140: 473c 21be 9ee8 133e 97ff 8e3e 5ce5 8b3e
00000150: 70bf 8bbe 61cb bf3e 6872 41bf 5730 aabd
00000160: 5e43 f5bd 31d5 39be ae48 3d3d 2301 d8be
00000170: 2a55 6d3e 570f 46be 0106 ec3e 50ae 46be
00000180: 108c 523e 0862 9a3e f570 41be 3c8e ae3c
-0.22573109 -0.46004656 0.37032264 -0.16621839 -0.067945145 -0.23198603 -0.33430022 -0.20907986
0.26966178 -0.031536367 0.33139047 -0.3500116 0.22029965 0.2453213 -0.2470617 0.09180757
0.33984548 0.19134271 0.23047158 -0.2212002 0.34119907 0.14903815 0.056264143 0.19466831
0.2147119 -0.20568976 0.19653365 0.16595262 -0.1545391 -0.08041032 0.4076208 -0.23860712
0.08582036 -0.19140436 -0.16165537 -0.2714198 -0.052894555 0.23944683 0.21656874 -0.28033945
-0.15301974 0.25057074 -0.19277327 0.24298032 -0.24016055 -0.2943394 0.18296923 0.26298654
0.25385296 0.23086062 0.33851817 0.20204163 -0.2206472 0.23302917 -0.6494159 -0.2280386
0.1939715 -0.33883342 -0.19377409 0.60540324 -0.39670822 0.29797462 -0.0025898574 -0.23762126
-0.10651562 -0.09869304 0.4848105 -0.303018 0.09272759 -0.14479159 -0.22864594 -0.56972843
-0.27718654 -0.108543195 0.17255847 -0.22942027 0.34928435 0.1356038 -0.5492599 -0.23994692
-0.1574565 0.14444205 0.27929375 0.27323425 -0.27294493 0.37459853 -0.75565195 -0.08310001
-0.1197574 -0.18147732 0.04621189 -0.42188367 0.23177019 -0.19341789 0.4609833 -0.19402432
0.20561242 0.30152917 -0.18890746 0.021308057

weight f4 [100, 100]
00000000: 3b40 b83e ac9f b43e 7333 57be 0dc4 35bd
00000010: 2c96 533c 0fa6 003e e0b0 773e d6a5 cdbc
00000020: 2e4f 79be ec3c 043e f03e 9cbe d2b4 a93d
00000030: 0737 babd 7b03 2b3e 4787 153e b7a1 09be
00000040: 858e b3be 2b47 b03d 5014 22bd babe 713d
00000050: f95b d0be a0d6 e63d a814 a8bd 935b 2d3d
00000060: 0a0c 80be 0b86 17bd de38 d0bd 43a8 8ebd
00000070: 3dbd a7bd 4792 853d 5ec2 c1be 0002 463e
00000080: 64ee 27be 4767 293e b7b5 823d 528d 7e3e
00000090: ffb8 e23b b507 fa3c 1045 1cbe 3c23 513e
000000a0: d898 183d 9645 a7be d6ba 923a 24fe 00bd
000000b0: d80a 27be 80b7 f03d 27fc 0fbd 7997 9bbe
000000c0: 32a2 1abe 7bc2 473d c415 b1be 2bbe 063c
000000d0: ef6f 043e 5104 1cbc 2eac 0dbe 70f6 e73d
000000e0: e69c e1bd 25de 47bc 3f42 8e3e 5edf 20bf
000000f0: 3459 05bd b78d 02be 3537 97bc a38d 0d3e
00000100: 68f7 113e 0c44 41be f565 b5bb 6672 703e
00000110: 42f9 10be 6e95 61be 4ef9 dd3c bb1f 8c3d
00000120: 85f1 6c3d 5404 313e d918 dfbb 8bf8 683e
00000130: 7060 0a3c c877 673e 4b4e 133e 78fc 653e
00000140: 6482 33be 0d22 68bd d57a be3d 5161 43be
00000150: 8963 213e 1b3b 24be bcca b33d 3896 cf3d
00000160: bf51 403d 88cd e0bc b9a7 66bd 678c ec3d
00000170: b156 54bd a927 f93c ea95 a23a 4ca8 223e
00000180: 40a3 3bbe 8219 36ba 497e 033e 5b40 8a3d
00000190: 93c1 ba3d 4fde 763b eda2 33be 9290 f93d
000001a0: 802a f0bd 938a 663e 3f62 c13d 8411 563e
000001b0: 87d2 66be f3c2 88bc 2f12 193d 88f2 a13d
000001c0: 791d 323c 554f 863e b252 393e b3ba 47be
000001d0: acc7 0fbe 122e c0bd c1f5 893d 54bc e23d
000001e0: a5c5 97be e700 a53d 117d c7bd 8e21 853d
000001f0: 8195 28be b4e6 173c 0267 8fbd 6604 c0bd
00000200: 41bd e13d 90e1 fbbc 0a2b fa3c f995 4d3e
00000210: b1cb ffbd 5f13 7c3e 01c6 3fbe bda4 b1bc
00000220: 477e 19be 87d9 f3bd 87f5 9ebe c5b9 333e
00000230: 0ce9 25be db09 3dbe bd8e 133e 07d6 41be
00000240: bd2d ae3d 88d2 0c3e 149f 48bc 7eab f4bd
00000250: 5486 7ebe 1ba4 f93d 9882 07be 3ce3 1b3e
00000260: 5fc6 f9bb 5726 59be c1ca 43be f9a3 db3c
00000270: c7f0 bcbd d32c 763e 2150 a13d deff 97be
00000280: 20a0 f8bd 133b a33d 76f2 663d 3984 383e
00000290: 4b45 073e 1d44 5f3d ac71 84bd 0ce4 573d
000002a0: b2f3 02be 8e3a 58be a582 fdbd 47fa 4ebc
000002b0: c8d9 393b 73dd 76bd 5022 d2bd ee83 513e
000002c0: 447f 67bd 0be9 723e d2ba 7dbe 7296 6c3e
000002d0: 1285 253d 7b62 023e f129 90bc 4624 39bc
000002e0: 8660 7d3e c9cb fcbd 309b 8ebe 7edc 18be
000002f0: f57b 04bc 71e5 dc3d 76b4 843c bd5d 21bd
00000300: 189f 5dbd 6439 9e3b 714a b7bd 6044 00bd
00000310: b477 4dbe a5c4 83bd 5019 4fbe f0f6 5dbd
00000320: 8ae6 823d b188 873d f82e 003e 5337 3cbe
00000330: 5062 e43d 1ccc a7bd 0944 3b3e 8168 dbbd
00000340: b872 c33b cb19 053e 26c1 503e fc34 293d
00000350: 83a0 85bd bc2c 1a3e 341f 2cbe 76ee 05be
00000360: afe1 a83d 79f8 1d3e 051a 303d eb1d c0bd
00000370: 3c91 21be 03cb 023e 1796 ce3d 0436 1dbe
00000380: a27f 3bbd 1fdb 98bd 53f2 193e a4ef 0d3e
00000390: 56bc 10bd bbd6 4cbd d26d d7bc 1212 30be
000003a0: fcec 18be dfbf 20bd cc67 a0bd 877f a4bd
000003b0: 1b94 22be 6d53 ce3d d13f 88bd 4301 573e
000003c0: ea76 b9bc 56f7 1bbe d14d 21bd 2aa0 023d
000003d0: fe2d 5a3e 1f30 0e3e 96f2 0abd d74e 35be
000003e0: 9607 88bd e401 1dbe 66ed 86bc be87 c03d
000003f0: cc04 f3bd 6da6 15be e87f 2c3d 575b bfbd
0.35986504 0.3527807 -0.2101572 -0.04437642 0.012914222 0.12563346 0.24188566 -0.02510349
-0.24346611 0.12913865 -0.30516768 0.08286442 -0.09092527 0.16700546 0.14602385 -0.13440596
-0.3506967 0.08607324 -0.039570153 0.05901978 -0.4069517 0.11271405 -0.08207065 0.04232366
-0.25009185 -0.036993068 -0.101670966 -0.06965687 -0.08190391 0.06522041 -0.37843603 0.193367
-0.16399533 0.16543303 0.063823156 0.24858597 0.006919026 0.030521253 -0.1526072 0.20423597
0.03725514 -0.32670277 0.0011194597 -0.031492367 -0.1631273 0.1175375 -0.03515258 -0.30389002
-0.15100935 0.048769455 -0.34586918 0.0082240505 0.12933324 -0.0095225135 -0.13835213 0.11326301
-0.11016254 -0.0121989595 0.27784917 -0.6284083 -0.032555774 -0.12749372 -0.018458942 0.13823561
0.14254534 -0.18873614 -0.005535836 0.2348114 -0.14157584 -0.22029659 0.027096417 0.068419896
0.05784752 0.17286807 -0.006808382 0.22751062 0.008445844 0.22604287 0.14385335 0.2245959
-0.17530209 -0.0566731 0.09300772 -0.19080092 0.15760626 -0.16038172 0.08778903 0.10136074
0.04695296 -0.027441755 -0.056312297 0.11550217 -0.051840488 0.03041442 0.0012404297 0.15884513
-0.18323994 -0.000694655 0.12841143 0.06750556 0.091189526 0.0037669127 -0.1754262 0.12185778
-0.11726856 0.225138 0.09442567 0.20905119 -0.22541247 -0.016694522 0.037370857 0.07907587
0.010871285 0.262324 0.18097952 -0.19504814 -0.14041013 -0.09383787 0.06736327 0.11071077
-0.29642978 0.08056813 -0.097406514 0.06500541 -0.16463281 0.0092713125 -0.07002069 -0.09375839
0.110224254 -0.030747205 0.0305381 0.20076741 -0.12490023 0.24616764 -0.18727876 -0.021684999
-0.14989577 -0.119067244 -0.31046697 0.17551334 -0.16202182 -0.18460791 0.14409919 -0.18929301
0.08504818 0.13752186 -0.012244958 -0.11946772 -0.2485593 0.12189504 -0.13233411 0.15223402
-0.0076225246 -0.21206032 -0.19120313 0.026811587 -0.09225612 0.24040537 0.078766115 -0.296874
-0.121399164 0.07970252 0.056383573 0.18019189 0.13210027 0.054508317 -0.06466994 0.052707717
-0.12788275 -0.21116087 -0.12378434 -0.012632913 0.0028358568 -0.060269784 -0.10260451 0.20460483
-0.056517854 0.23721711 -0.24778298 0.23104265 0.04041011 0.1273288 -0.017598124 -0.011300152
0.24743852 -0.123435564 -0.27852774 -0.14927861 -0.008086194 0.1078595 0.016199332 -0.039396036
-0.0541068 0.004828619 -0.089497454 -0.031315207 -0.20065194 -0.06433991 -0.202245 -0.054190576
0.06391628 0.06617869 0.12517917 -0.1838048 0.11151564 -0.08193228 0.18287672 -0.10713292
0.0059646033 0.1299812 0.2038618 0.041310295 -0.06524756 0.15056127 -0.16808778 -0.13079247
0.08246171 0.15426816 0.042993564 -0.093807064 -0.15778059 0.12772755 0.10087221 -0.15352637
-0.045776017 -0.07463669 0.15033846 0.13860947 -0.03533586 -0.05000947 -0.026297484 -0.17194393
-0.14934152 -0.039245483 -0.07832298 -0.080321364 -0.1587681 0.10074506 -0.06652797 0.20996575
-0.02263971 -0.1523107 -0.039380852 0.031891026 0.21306607 0.13885544 -0.033922754 -0.17705856
-0.06642072 -0.15332752 -0.016470622 0.09400891 -0.11866149 -0.14614268 0.04211417 -0.093435936

bias f4 [100]
00000000: b78b 2dbe bd45 79bc af34 bebd 590b a9bd
00000010: f773 f7bd 6e3c 343d 2209 2fbe 2ed8 c8bd
00000020: d78f cc3c 3ff5 29bd 788a 963e 5353 a33b
00000030: 7e69 3fbe e2d6 ca3d 35ff 6cbd 019a 8c3e
00000040: bc60 1cbd dc19 61bd d028 453d 43b1 cdbc
00000050: 86a8 fcbd 437a 433e db7f 943d 200c 84bd
00000060: f0f2 16be 81ed 04be c7a0 0a3d 6b7a 63be
00000070: c21f 2bbc f20b 1abd 0324 54be 4f3e 1f3c
00000080: 1e07 a43d 5efa b5bd 6c0f 443e d9dd f63d
00000090: 776f 5d3d 6817 24be c889 133e ef7b 8cbb
000000a0: 62c9 cbbd 26b8 92bd ab57 2abe 598c c03c
000000b0: 3b90 16bd d06a 36be 7c3c c23d 84e5 df3d
000000c0: 7125 6d3d f491 d23d 4f8f ecbd 33fb 03be
000000d0: 2556 093c d8de 513e 2775 c8bd f3d3 99be
000000e0: af40 e83c 1b55 bb3d 139e 0dbe 9ee1 943d
000000f0: 9c42 0abe 81cc 95bd f869 b6bc 08f8 d53d
00000100: 9fb7 24be d89c 04be 8f93 6bbd dde6 8abd
00000110: 896a 193e c561 063d f4be 033e 9479 babd
00000120: 524b 0ebe d8c4 2abe 8f90 b6bd 9ea8 73be
00000130: db3d 82bc c73d bfbe 759d 8f3d 915f 78bd
00000140: bc19 3ebc ac19 d0bd 1408 29bd f040 3c3e
00000150: e84e 3d3d f0ae 0bbe c884 173e 8f55 1ebd
00000160: 5cfd ae3c 8761 863c 94d6 84bd 02b1 60be
00000170: 177b 0d3e 32c9 203d f8b9 cf3d 40c3 4dbb
00000180: b0c2 883e c37f c53d c020 34be a4c5 6dbd
-0.16947828 -0.015214381 -0.09287392 -0.082541175 -0.120826654 0.044002943 -0.17093328 -0.09806858
0.024970932 -0.04149365 0.29402518 0.0049842983 -0.18692586 0.09904267 -0.057860572 0.27461246
-0.03817819 -0.054956302 0.048134625 -0.025108939 -0.12336831 0.19089608 0.07250949 -0.06447625
-0.14741111 -0.12981226 0.033844735 -0.22214667 -0.010444583 -0.03760905 -0.20716862 0.009719445
0.0800917 -0.088856444 0.19146508 0.12054033 0.05406138 -0.16024554 0.14408028 -0.004287235
-0.0995052 -0.0716403 -0.16635005 0.023504423 -0.036758643 -0.17814183 0.09484193 0.109324485
0.057897035 0.102817446 -0.115507714 -0.12888794 0.008382355 0.20495164 -0.0978797 -0.30044517
0.028351156 0.09147092 -0.13829832 0.072695956 -0.13501972 -0.07314397 -0.022267327 0.10447699
-0.16085671 -0.12950456 -0.05751377 -0.06782315 0.14982046 0.032808084 0.12865812 -0.091052204
-0.1389592 -0.16676652 -0.08914291 -0.23794791 -0.015898636 -0.3735182 0.070124544 -0.060638014
-0.011602815 -0.101611465 -0.04126747 0.18384147 0.04621783 -0.13640952 0.14796746 -0.038655814
0.021361046 0.016403927 -0.0648624 -0.21942523 0.13816486 0.039254375 0.101428926 -0.0031396896
0.26711035 0.09643509 -0.17590618 -0.058049813

weight f4 [100, 100]
00000000: d107 c2bd fbbf 193c e592 05be 60db cebb
00000010: 8ea4 d2bd 3d71 a9bd a4d3 93bd c877 d93d
00000020: f277 60be e4ce 2fbe 9752 7d3d 35ab ddbd
00000030: 5f5a 2e3e a4e0 53be df31 023e c43c aabd
00000040: 8d39 9c3d b1ee 233d 5e63 92bd 4b8f 5a3d
00000050: 5d8f 93bc 40c6 06be 0f54 b23d 4cbe c9bd
00000060: a66a 083e 5d3b fcbd 317b b8bd adfb 4d3e
00000070: 9c8a 9cbd 260d 293e e72a 823e 2890 0f3c
00000080: 489a d03d 387a 7e3c 57ba 30bd 3ecb 98be
00000090: 8b3a d03b 61e3 903e 995a a83d 4112 bc3d
000000a0: 4de0 0a3e 71e0 6fbc 8ca9 e33d cad5 77be
000000b0: 5f5b 473e 2b4b 763d 9c3e b2bd 7d06 b9bd
000000c0: 916e c93d 123d abbd e6c4 493e 9be3 2a3d
000000d0: b2e5 3c3e 7a31 27bd b974 afbd 5c3c c4bd
000000e0: 6f64 af3c b652 22be 0243 18be 7db7 d73c
000000f0: 0cbd 453d 0d6f 513d b0de a73d 8536 c2bd
00000100: e892 463e 36bd 4ebc c912 b9bd 802f 843d
00000110: 8f82 cbbc d324 17bd 670f c1bd 720f cdbd
00000120: 518c ea3d 0388 9cbd 541d 4abe 024e d73e
00000130: b5cc 4e3e 8ba9 f03c ffa9 91bd 32de ed3d
00000140: 2d2a abbd 5f1d 28be 912f 79bd 177f b8bd
00000150: 5242 b1bd 49f1 24bd 697f 8f3d 3598 c1bd
00000160: d8a4 4f3d 3c6e 14bc a8e9 c23c c6e9 093e
00000170: 08ec 283d 67f2 27bd 0dfb 573e 6964 4dbe
00000180: e22d 40bd 963c 00be a8ac 1c3e d9e2 c1bd
00000190: 5926 e7bd 7a6b 8abd f9be 133e 7228 f63d
000001a0: 16d7 2abd be49 ebbd 8540 bd3d f3cd be3d
000001b0: 5ba5 d53d 58bb 38bd bafb 8d3e 8b5f 11be
000001c0: b1d4 4c3e 3e5b c5bd d5e4 c53d fa6f 5a3e
000001d0: 383a 033e 8eef b5bd 6bd9 1d3e 1c7a 9fbd
000001e0: e927 41be 8e64 d23c d177 82be e53b dabd
000001f0: d9ac 6dbe 1fc3 fcbc 63be 58be 3c45 8a3d
00000200: 4f7b f3bd 0c79 7d3d 898a abbd 3ffe 283e
00000210: 04fe 59be fb5a 8ebd ae93 d63d 1637 fe3d
00000220: ffd8 30bd a860 24be 08e8 a9bd 9904 ae3c
00000230: cfc6 5c3e de8f 10be 16b6 0e3d 4f5e 8cbe
00000240: ab4a 11be 6695 8a3d 00d3 303e 7d1d a83c
00000250: 52e9 bbbd e0a9 a9be 5179 993d 0dcd 823c
00000260: 4c85 cfbc d1d1 b0bd 8f3f c53d dc51 003f
00000270: f594 a4ba 07a7 60bd 8ae3 87be 0dac 24be
00000280: 6e0b 193e a914 2d3e 22d1 e43c 6a3f 3dbc
00000290: 9195 e9bb b509 a0bd b847 343d eebc d33d
000002a0: 9d3e 083e d86d 0ebe 8a5e aabd 71e7 2e3e
000002b0: 2a84 debd e9a7 403e 4296 c4bd 9f65 723d
000002c0: d2d4 583d 23ed c8bc 4257 f73c f3e0 8d3d
000002d0: c653 473e f42a 573e 2a64 44bd 4015 173e
000002e0: 0d0a 4ebd 9fd2 16bd 2cb0 203e 5936 3e3d
000002f0: 993b 2bbe 85f0 b0bc e6b3 3bbd 2c29 27be
00000300: 5eed 1e3d 75c3 923d 8e1f 71bd 4de0 dc3c
00000310: 8b15 b6bc 856c 913d 399f 2fbe fbfd 97bd
00000320: 3328 923d f25a d03d 73f3 f33c 6fc4 fc3d
00000330: faa3 a63d 73ca fdbd 8a83 9d3d 72c5 9b3d
00000340: 6e60 573e 5984 313e b482 293b 46da dfbd
00000350: 04a8 62bc a799 be3d be73 913c c948 e33a
00000360: 0b03 b53d 54ff d43d 2485 83bd dbe2 6ebc
00000370: 2908 053e e6f7 9f3d c145 223e 2f72 aa3d
00000380: bcf4 2fbc 55b1 81bc a295 123d df33 0cbd
00000390: c7eb 703e 5b35 69bd 28a4 e33a ed0e 68be
000003a0: 4a9b fd3c 41d2 ae3d 9862 29bd 3e50 893c
000003b0: b166 25be 766d 063e 7cd0 1fbd fdb2 fabc
000003c0: 32a3 a23d 4a4b 0ebd 60dd a83e fe22 07be
000003d0: dae6 8fbe 0556 91bd ead6 553d b8d5 47be
000003e0: 5db9 ecbd 53c7 ee3d b590 9b3e 16a4 393e
000003f0: 03f3 dbbd 07f9 9fbd 63e2 ca3d 3bff 353e
-0.09474147 0.009384151 -0.13044317 -0.0063127726 -0.102852926 -0.082735516 -0.072181016 0.106185496
-0.21920756 -0.17168766 0.061846342 -0.10823671 0.17026661 -0.20691162 0.12714337 -0.083123714
0.076281644 0.040022556 -0.07147859 0.05335931 -0.018012697 -0.13161564 0.08707439 -0.098507494
0.13321933 -0.1231601 -0.09007872 0.20115538 -0.07643625 0.16508922 0.25423357 0.008762397
0.10185677 0.015532069 -0.043146458 -0.2984256 0.006354635 0.28298476 0.08220405 0.09183169
0.13562126 -0.014640913 0.11116323 -0.24202648 0.19468449 0.06013028 -0.08703348 -0.09034441
0.09835542 -0.083612576 0.19704017 0.041720968 0.18446997 -0.04081867 -0.08567185 -0.09581825
0.021410195 -0.15851864 -0.14869311 0.026332611 0.048275992 0.051131297 0.08196771 -0.09483055
0.19391978 -0.012618354 -0.09036786 0.064543724 -0.024842529 -0.036900353 -0.09426766 -0.100127116
0.114525445 -0.0764313 -0.1973775 0.42051703 0.20195277 0.02937772 -0.07112502 0.11614646
-0.08357654 -0.16417454 -0.06083638 -0.090086155 -0.08655228 -0.04026917 0.070067234 -0.09452859
0.050694317 -0.009059485 0.023793057 0.13468084 0.041240722 -0.041002657 0.21091862 -0.20057835
-0.046918757 -0.12523112 0.15300238 -0.09467096 -0.11286611 -0.06758781 0.14428319 0.12019433
-0.04170903 -0.114886746 0.09240822 0.093166254 0.1043193 -0.04510054 0.27731115 -0.14196603
0.2000301 -0.09636544 0.09662787 0.21331778 0.12815177 -0.08883582 0.1541497 -0.077869624
-0.18862881 0.025682714 -0.25482038 -0.10655955 -0.23210467 -0.03085476 -0.21166377 0.06751487
-0.118887536 0.061883017 -0.08376033 0.16503237 -0.21288306 -0.06950947 0.104773864 0.124128506
-0.043175694 -0.16052496 -0.082962096 0.021242427 0.21560214 -0.14117381 0.03484162 -0.27415702
-0.1418864 0.06766777 0.1726799 0.020521874 -0.09175362 -0.33137417 0.074938424 0.015966916
-0.025332116 -0.08633769 0.096312635 0.5012491 -0.00125566 -0.05484679 -0.26540786 -0.16081257
0.14945766 0.16902412 0.027931754 -0.011550764 -0.0071284254 -0.078143515 0.04401371 0.1033877
0.13305135 -0.1390909 -0.08318813 0.17080475 -0.10865052 0.18814053 -0.09598972 0.059178945
0.052937336 -0.024527138 0.030192975 0.06927671 0.19465551 0.21012479 -0.047947086 0.147542
-0.050302554 -0.036821958 0.15692204 0.04643855 -0.16721953 -0.021599064 -0.04582586 -0.163243
0.03880059 0.07166187 -0.058867984 0.026962424 -0.02222707 0.071007766 -0.17150582 -0.0742149
0.07136574 0.101735964 0.029779172 0.12342154 0.08136745 -0.1239213 0.07691105 0.07606019
0.21032879 0.17335643 0.0025865259 -0.10930304 -0.013834003 0.093066506 0.017755385 0.0017340417
0.08838471 0.104002625 -0.06421879 -0.014580454 0.12991394 0.07810955 0.15846922 0.0832256
-0.010739502 -0.015831629 0.035787232 -0.034229156 0.23527442 -0.05693565 0.0017367648 -0.22661944
0.030957837 0.085361965 -0.041353792 0.016761895 -0.16152455 0.13127694 -0.039017186 -0.030602926
0.07941283 -0.03473977 0.32981396 -0.13196942 -0.28105813 -0.07096485 0.05220691 -0.19515121
-0.11558793 0.11659112 0.3038384 0.18129 -0.1073971 -0.0781117 0.09906461 0.17773144

bias f4 [100]
00000000: be11 ceba 99ff 243d 55f2 c5bd 95bf 87bd
00000010: 9571 a8bc 94e1 6c3b 1469 23bc ce3b a6bd
00000020: 99e2 c73b 9189 973d 6ca2 c2ba 8c2e 28bc
00000030: 5cad c13e f95b f63c b750 78bd 0aa6 83bd
00000040: 2569 74bb b17d 79bd e9df 9ebd 0a6a 19bd
00000050: 7036 0e3e bacf 86bd 7c67 bcbd a659 d8bd
00000060: c7ed 8d3e 6301 0d3d dd71 5c3e 1a6f 9a3d
00000070: 0032 70bc 32ad 25bc 2dee d1bd 10b7 2a3e
00000080: 368d 14bd c0dc 8c3d ac46 dabb 75f7 2fbe
00000090: fbe4 82bd 667e 333e 7d51 993d 1818 b73d
000000a0: 68fb 48bd 1140 0abe ddeb 073e 3d6c 2a3e
000000b0: f4be efbd 2e39 8abe 737f 54be f286 45be
000000c0: fb61 9fba d6ed 42be 60df 4b3c 1538 f2bc
000000d0: 16d1 263e 335d 983c b44c 02be 2a7c ca3d
000000e0: 3941 8abd 64c4 12bd 7d37 47be dfe0 f33d
000000f0: 9474 8abd d571 30bd 2481 89bd a11e 31bd
00000100: 45fc 973d 877c 34bf 86e5 e4bd 43e3 33bb
00000110: 2104 643e 0890 843d c041 993c 8f9b b93a
00000120: 768e 02be 0050 f7bc 8654 073d 6d39 313c
00000130: c662 5cbd faeb 123e 7967 afbd 64e9 2c3e
00000140: 317c 85bc 63e5 8dbd 47c0 c4bd adab babd
00000150: 1e31 9bbd b991 49bb 1431 6f3e 5cfe 7f3d
00000160: 92e5 643d 38bd f3bb 1537 2dbd 8347 693c
00000170: d96f aa3d eed7 0bbd cc8d 01bd 1fdf 3a3d
00000180: baa5 1abc e571 833e caeb 63bd 1dce 5e3c
-0.001572184 0.04028282 -0.09665362 -0.06628338 -0.020561973 0.0036145197 -0.009973783 -0.081168756
0.0061000106 0.073992856 -0.0014849431 -0.010265004 0.37827575 0.030073153 -0.06062385 -0.06428154
-0.0037294116 -0.060910884 -0.07757551 -0.037454642 0.13887954 -0.065825894 -0.091994256 -0.10563974
0.27720472 0.03442515 0.2152781 0.07540722 -0.014660358 -0.010112094 -0.102505066 0.16671395
-0.03626748 0.06878042 -0.006661257 -0.17184241 -0.06391331 0.17528686 0.07486246 0.089401424
-0.049067885 -0.13501002 0.13273568 0.16642852 -0.11706343 -0.2699675 -0.20751743 -0.19289759
-0.0012159938 -0.1903604 0.0124433935 -0.029567758 0.16290697 0.018599128 -0.12724572 0.09886964
-0.067507215 -0.035831824 -0.19454761 0.11908125 -0.06760517 -0.04307731 -0.06714085 -0.0432421
0.074211635 -0.70502514 -0.111765906 -0.002744869 0.222672 0.06472784 0.01870811 0.001416074
-0.12749657 -0.030189514 0.033039592 0.010816914 -0.053805135 0.1434783 -0.08564658 0.16885906
-0.01629457 -0.06928518 -0.096069865 -0.09114776 -0.07577728 -0.0030757023 0.23358566 0.062498435
0.055882998 -0.007438328 -0.04228886 0.014238241 0.083221145 -0.034141473 -0.03162937 0.04562294
-0.009438926 0.25672832 -0.055644788 0.013598946

weight f4 [100, 100]
00000000: 46ef 80bd 89a6 f8bc 65a1 80bc 5289 be3c
00000010: 720f 7cbe a19a e1bd 6b15 9d3e 50ab 8fbe
00000020: 9032 823e 6697 233d fef9 1cbe bfdc 14be
00000030: 431c 5ebb 143a 65bb b4a0 233e 42ff ee3c
00000040: 26cf d7bd be7e fd3a 4794 f43c 6d45 3f3e
00000050: bf48 9cbd fdad f9bc eced 9d3d c209 9a3e
00000060: 4e5e 623d 1073 083e a2c9 383e c463 e03d
00000070: fcab 46bd 42d4 203e ece3 6ebe b62e 503d
00000080: 551f 88be eaa3 b9bc 28ee 2139 0e4a 3b3e
00000090: 7345 43be 7102 04be 65c9 98be 83a2 17bf
000000a0: 3758 5cbe ce63 c53d 9366 df3e 07e7 473e
000000b0: 696c fc3d adac 68be c2cd 003e c9e6 c8bd
000000c0: 99a9 b6be 6750 37bd a61c f93d 0b03 e63e
000000d0: e1c1 87be e765 f53d e2b7 613d 4327 f33d
000000e0: 17a3 6bbe 8280 50be 79e3 3d3d 99a8 2abd
000000f0: 67d7 c73d 7a9f d83c 5b44 7fbc 7551 6abc
00000100: af3f e63e 5b53 1fbe 184a 433e 8b7c 033e
00000110: 04a0 173d d2b2 aebd 9757 92bd 9bb9 973c
00000120: ae86 32be 6760 2ebd 9096 3dbd 4d2b 863e
00000130: efb3 f43b 19b1 ab3d 610a cd3d 64cf 1a3e
00000140: cb8e e0bd f023 e93d c0df 1b3d e79d 073d
00000150: 36d4 d23d 9c53 3cbc bde8 653c 83e6 823d
00000160: 5245 37be b4bc 2f3e 86e1 35be 0372 8c3c
00000170: 6daf 853e 7890 a3bc 136a d6bd a932 5d3d
00000180: 44df f13d d5df 453e f09b 04bd 4654 ddbd
00000190: 80ab 3bbe 1963 083d de25 363d 6391 31be
000001a0: f303 8e3d 969f 003d 245e e6bd 4168 9d3d
000001b0: 066f 68be 7c40 8bbc 4ec2 093d 125c ee3d
000001c0: 8ca0 a43d 890e 953e 5c12 a53d f596 f2bd
000001d0: f1c5 3e3d e8e0 6fbe 0ace 51be 0554 e4bd
000001e0: 5171 f3bd 5173 54be 94bf 1a3e df65 883e
000001f0: d554 ce3d 522b b33d 7dd5 083e 6c4f ccbc
00000200: c87e 433e 9ed9 183e d04a 1f3e 8dbf 693e
00000210: 44f5 173e 6db1 6fbd 9f64 4abe b03f 29bd
00000220: 4d76 b93d 2c14 a0bd 5c92 933e 0836 4e3e
00000230: 9750 e83c 6a45 843d df4b 13bf ca65 813d
00000240: 1bbd 49be 8d65 28be 5409 313e 6a88 62bc
00000250: 8e68 e33d c33c 43be cd82 bcbd d54d 3abe
00000260: d31d 003f 6d5b f83c 3870 3eba 0a95 0e3e
00000270: 55d2 6fbd 9ed6 e83d 7650 3bbe ac49 2abd
00000280: 733c 14be d031 6bbd 8fc0 603d e9fd c4be
00000290: 70fe a2be 79a7 eabd 9b95 b13d c886 01bb
000002a0: 13d6 1f3e dd54 1e3e 6873 95bc ca64 2d3e
000002b0: 11e8 b4bd f8dc 443c 314e c23d e7eb 25be
000002c0: accb 5abe 12cd 0c3e 06db edbd 7e66 233e
000002d0: af6e a13d 3391 eabd 41e6 9fbd 023b 213e
000002e0: 28d6 6dbd bb93 a5bd fda0 163e 8899 733d
000002f0: e025 9cbd 7cd6 ecbd 0002 32bd 7329 9c3e
00000300: 9fc1 0d3d 3eac 3ebe 4b55 b4bd 64e2 bebd
00000310: 20dc 7bbe 50e6 0e3e 6ac6 163d 8abf 073e
00000320: d766 20be 8565 debc 01ad 023e a7f7 7fbe
00000330: f2ee 3dbe 1d6d d43d 4dd2 6d3c 61fa f43d
00000340: 2db0 273d 4841 b6bd 2732 473e 86ca 9ebc
00000350: c186 9a3d dc4b 2ebd 356f 3fbe 5e86 383d
00000360: c817 3abe bf33 29bb 992a 043e d75c 2bbc
00000370: b081 f23d a12f 1dbe f6d5 bebd 91ef 8e3e
00000380: 1bec 07be 866b 69bd 783f 4c3e b46c 3a3e
00000390: 98b7 fcbd f948 35be 582a 01be 6e9a 44be
000003a0: 6bb2 00be 3e40 2c3e 7cfc 693d 1223 2e3c
000003b0: 2d34 50bd e05c e1bd d44a a63d c3c7 8b3e
000003c0: 3ff3 033e 6507 96be 505a d7bd 71a2 c53d
000003d0: 3315 b0bd a873 6cbe 40d5 3abe 0d02 a7be
000003e0: ca38 8b3d 5965 21be cf63 96bc d6a1 8bbe
000003f0: d977 14be 1356 773c b946 823d 77d9 693d
-0.06295638 -0.030352848 -0.015701959 0.023258839 -0.24615267 -0.11015821 0.30680403 -0.2806039
0.254292 0.039939307 -0.1532974 -0.14537333 -0.0033891357 -0.0034977244 0.15979272 0.02917445
-0.10537557 0.001934014 0.02985586 0.18678828 -0.07631063 -0.030478472 0.077113956 0.3008557
0.055265717 0.13325143 0.18045667 0.10956529 -0.04850386 0.1570597 -0.23329133 0.050825797
-0.26586404 -0.022661168 0.00015442877 0.18289968 -0.19069462 -0.12891556 -0.29841152 -0.5923235
-0.21518026 0.09638177 0.43632945 0.19521724 0.12325365 -0.2272212 0.1257849 -0.09809644
-0.35676268 -0.044754412 0.121636674 0.44924197 -0.26515105 0.11982327 0.055107005 0.11872723
-0.23011433 -0.20361522 0.046359513 -0.041664694 0.097578816 0.026443232 -0.015580262 -0.014301647
0.44970462 -0.15559141 0.19071233 0.12840478 0.037017837 -0.08530201 -0.07145613 0.01852112
-0.17434189 -0.042572405 -0.046286166 0.2620491 0.007467739 0.08383388 0.10011745 0.15118176
-0.109647356 0.11383808 0.03805518 0.03310957 0.10294382 -0.011494543 0.01403254 0.06391623
-0.17897537 0.17161828 -0.17761812 0.017144209 0.26110402 -0.019966349 -0.10469451 0.05400339
0.11810163 0.19323666 -0.032375276 -0.108070895 -0.18327141 0.033297632 0.044469707 -0.17340617
0.06934347 0.031402193 -0.11248425 0.076859005 -0.22698602 -0.016998522 0.03363257 0.11638655
0.080384344 0.29112652 0.080601424 -0.11845199 0.04657549 -0.23425639 -0.20488754 -0.11148838
-0.11886848 -0.20747115 0.15112144 0.2664022 0.10074774 0.08748497 0.1336269 -0.024940215
0.19091332 0.14926764 0.15555882 0.22826977 0.14839655 -0.058518816 -0.19764946 -0.041320503
0.09055767 -0.078163475 0.288226 0.20137799 0.02835874 0.06458552 -0.57537645 0.06318243
-0.19701044 -0.16444989 0.17288715 -0.013826469 0.111039266 -0.19066148 -0.09204636 -0.18193753
0.5004551 0.030317033 -0.00072646467 0.13924041 -0.058550198 0.1136906 -0.18292412 -0.041574165
-0.14476185 -0.05742055 0.05487114 -0.38474968 -0.31834745 -0.11457724 0.08671113 -0.0019764174
0.15609007 0.1546206 -0.018243507 0.16932979 -0.08833326 0.012015574 0.0948757 -0.16203271
-0.21366757 0.13750103 -0.11614041 0.15957066 0.07882439 -0.11453476 -0.07807589 0.15745166
-0.058065563 -0.08084818 0.1470985 0.05947259 -0.076244116 -0.11564347 -0.04345894 0.30500373
0.03460848 -0.18620393 -0.08805331 -0.09320524 -0.2459569 0.13955045 0.036810316 0.1325666
-0.1566423 -0.027148018 0.12761308 -0.24996816 -0.18548182 0.10372374 0.014515472 0.119618185
0.0409395 -0.0889917 0.19452725 -0.01938368 0.075452335 -0.042552814 -0.18694766 0.045050018
-0.18173134 -0.0025818197 0.12906875 -0.010459146 0.11841142 -0.153502 -0.093181536 0.2791715
-0.13273661 -0.056987308 0.19946086 0.1820553 -0.12339705 -0.17703618 -0.12613809 -0.19199535
-0.12568061 0.16821381 0.057125553 0.010628479 -0.05083101 -0.110040426 0.08119741 0.27300844
0.1288576 -0.29302517 -0.105152726 0.09650124 -0.085977934 -0.23090994 -0.18245411 -0.32618752
0.06797941 -0.15761317 -0.01835814 -0.2727191 -0.14498843 0.015096205 0.063611455 0.057092156

bias f4 [100]
00000000: 3b5f 943c a559 c43d 4afa cc3d a4f4 7abd
00000010: 1d4a e3ba 47d5 1fbd 45f1 023c 2765 c93c
00000020: 0450 9ebd cf19 14be d864 193d e311 bc3c
00000030: b1f5 fcba 1a95 a9bc 0e30 b9bc aca5 28bc
00000040: 9772 a0ba 69e8 66bd 9ae3 89ba abe4 863d
00000050: bcb3 0d3e 3e13 db3c 22d3 9bbb ce91 ef3d
00000060: 39dd bf3d d178 053e a364 673d f78d 47bc
00000070: 8907 dabd 2cc7 ee3c 120c 06bd 4b7c f73d
00000080: 569a 8d3d e150 c0bd ea84 a2be eae8 eebc
00000090: 9b60 da3c 03a4 083e 188e 5d3e 2648 2cbe
000000a0: 5d55 36be 5787 143d df3b efbc 86fe 3b3c
000000b0: 8d0e 13bd e857 443d aa5c 89be 42fa 82bc
000000c0: 4a03 01bd 39d7 c93d 3f7f ca3c 26f1 663d
000000d0: 07a7 59bd 0b6f a6bd 7e9b 163e 4d87 1dbd
000000e0: 5022 373d 5a41 14bd d434 203e c3ff 6bbe
000000f0: 48af 353c 4f66 58bd e46e 313d 9b66 5ebc
00000100: e740 70bd 16ec 62bd 67e2 293e 0dbc 4bbd
00000110: 91fe c8bd 18ec 563d ad95 52be f028 1f3d
00000120: f1c9 8ebd c508 833a 0757 89bd 344f 523e
00000130: f48d 423d 01d6 f03c 1b00 2d3e ebb6 77bd
00000140: 632e 333d 116c 15bd f0a0 943d 5a42 dd3d
00000150: 577a 1c3c 0261 663d 4198 0e3d eb90 033e
00000160: 7269 f83d 3f16 ccbd 87d2 af3d 7b7b 753d
00000170: ffcf 61bd 0b30 babd a150 d53d 110a a4bd
00000180: fce1 c43d 0bf4 83bc 94be ec3d 2ee9 aebd
0.018111816 0.09587411 0.10008676 -0.061268464 -0.0017340813 -0.039021757 0.007992093 0.024584366
-0.077301055 -0.1446297 0.037449688 0.022957748 -0.0019299296 -0.02070098 -0.022605922 -0.0102934055
-0.0012241182 -0.056373987 -0.0010520101 0.06586584 0.13838094 0.026742574 -0.0047553936 0.11697732
0.09368367 0.13034369 0.05649246 -0.012179843 -0.106459685 0.029147707 -0.032726355 0.12084254
0.06914203 -0.093904264 -0.3174203 -0.029163796 0.026657393 0.13343816 0.21636236 -0.16824397
-0.17806001 0.036261883 -0.029203353 0.011474257 -0.03590255 0.047935396 -0.2682851 -0.015988473
-0.031497277 0.098555036 0.024718879 0.05638232 -0.053137805 -0.081266485 0.14707753 -0.03845911
0.044710457 -0.036195137 0.15645152 -0.23046784 0.011089154 -0.052831944 0.043318644 -0.013574268
-0.058655646 -0.05540093 0.16590272 -0.049739886 -0.0981418 0.05247125 -0.2056491 0.0388574
-0.06972111 0.000999712 -0.06706052 0.20538026 0.04749866 0.02939892 0.16894571 -0.06047718
0.04374541 -0.036480013 0.07257259 0.10803671 0.0095506525 0.056244858 0.03481317 0.1284825
0.12129487 -0.099651806 0.08585077 0.059932213 -0.05513 -0.09091195 0.10415769 -0.080097325
0.096134156 -0.01610758 0.115597874 -0.08540569

weight f4 [100, 100]
00000000: 9751 ef3c 7867 ee3c 4f07 0dbe 339a dc3d
00000010: a3f8 3dbe b210 e0be 51b0 ba3d f982 de3c
00000020: 5cd0 e93c 70e2 ba3d 3f8e 863e 298d a53e
00000030: 1b8f 563e 3284 aa3b 765c 87bd 5dd3 c23e
00000040: 6cde 81bd 67f3 8abd 91b6 053e 520b 2cbe
00000050: 6ac7 c73b d5b1 9a3e 0662 70be 5e06 8d3e
00000060: a26a 1c3d 3b4a 923d 550f 033d d67f 423e
00000070: 9232 0cbe 8c49 2ebe b2fb 06be 706f 693e
00000080: 5c50 bc3d e042 793d 3646 ccba ad18 c2bd
00000090: a76a ec3c 31ec fcbd 12e1 7f3e b884 ff3d
000000a0: db4f 723c 48c8 de3d 307c babd 65b7 053e
000000b0: 49a0 50bd 9901 0fbc ab28 9abd 107c 073e
000000c0: aec3 583e e9af aebc 0c05 15be 5687 c9bd
000000d0: 0bcb cfbb c4a8 a63d 6630 ac3c 1edb e63d
000000e0: a160 ed3d 5662 dfbd 1558 1bbe 6804 95bc
000000f0: 2d9e a63d a859 68be 76bc 7b3d 8205 e73c
00000100: 3758 433e 6a18 07bd 49eb 84bc 48cb 6b3d
00000110: c94c f0bd 448f 213e 052a 853d 366a d4bd
00000120: 607e 19be e8fb 12bc 99e3 c8bd 3448 35be
00000130: 583d 1d3d b9c7 a53d e018 f13d 383c 5cbc
00000140: 425d 45be 89f7 213e c643 3dbe 1e2c 073d
00000150: 233d 1fbc fb76 16be e55a ac3d 39d1 a9ba
00000160: 6008 2ebd c34d 08be c8bb 463c 4ab9 1bbe
00000170: f4d7 0abd 127c c03d 6a77 9a3c e4fb de3d
00000180: 387d a13d 7930 fb3c 4b54 a13e 8802 b3bd
00000190: dee6 05be 7a35 e83d 418c 623c 9f7f 043e
000001a0: f814 5b3c 403f 58be 177a 523e 6821 d13c
000001b0: 4a4f a2bd add0 053e 1ff7 cf3d f0a7 d8bd
000001c0: 4426 7a3c 63eb 773e 1d70 e43d 0ad4 2e3e
000001d0: 5c38 c03d 9aa9 76be 3112 97bd 5792 41bd
000001e0: 0a6e 2a3e d5df afbe ec50 8c3d 3cf3 ed3d
000001f0: 798f 70be 3cc4 863c 4691 80be d0ba 273d
00000200: f778 11be 63a2 413d 1073 02be 2d5e 263e
00000210: 544c c9bd 1391 b43d cdbe 2f3d 4786 96bd
00000220: de00 7fbe c446 26be 40ee 92be 6afd 07be
00000230: b18e 043e 1e1b 15bd f762 773d 8157 8b3c
00000240: 2c00 1a3e 5d63 5bbc 0ddf 9f3d 27f6 693e
00000250: 0411 34be dc91 3d3e 09d2 403c 7a24 e13d
00000260: 2871 b73d afb7 863e 5009 14be 7a12 913c
00000270: 230b 19bd e000 05be 97f5 043e 0f23 53be
00000280: 1176 0a3e 73a0 a63e eb25 6b3c 0a3f 41bc
00000290: 5090 423e 803c 25bd 4f88 073e 8c2a 983e
000002a0: dfd4 e2bd 7b65 8dbd d3b4 21be e263 69be
000002b0: 1244 083e 9b68 fc3d 2988 293c b886 533e
000002c0: 8c4c 8abe 8cf1 88bd b61e d0bd aec1 dbbc
000002d0: c497 e3bd f8aa 243e 979d 1fbe 2594 3bbd
000002e0: 9e21 e8bd 285b 64be f45a 603e d6cc 4f3d
000002f0: 1d5d d03d 3c7e 1bbe 9176 0c3e 5310 773d
00000300: 2d88 36be ea84 87bb da68 113e c841 09be
00000310: d974 48be bbe7 743d f504 16be 8432 223d
00000320: 8d12 88be d361 b8bd 8fa7 353e 827d 5f3d
00000330: 6813 a13e 3b67 d73e 7074 6dbe 370b 9bbd
00000340: c9f1 16be 4431 be3d c2fc a93e 96bd 523e
00000350: 5750 103c 33c4 733d 5a66 0a3c 0abc 933e
00000360: 88d4 a73d 06bc 36be 2709 56be ce1d 6d3e
00000370: e39c 6fbe 1824 12be 136e b63c b018 8c3d
00000380: 8538 e03d 6b99 6fbe 0594 a03e 0959 c2bd
00000390: 14d6 a73d 7630 823d 1b43 773e 207c 093d
000003a0: c078 0cbe 4329 7dbd dde3 373e bd81 163e
000003b0: 522c f8bd a214 683e de8b fcbb c31c 733c
000003c0: 8960 fc3d 0808 02bd 782c 19be 0f69 8ebb
000003d0: 4fd1 9ebd 4996 acbd aadc 2c3e 21b7 1e3e
000003e0: f509 53bd b03d 583e fe0a bcbc 7778 763d
000003f0: 6513 e4bb 647b ca3c 903d b2bd 0e55 9e3d
0.02921371 0.029102072 -0.1377232 0.10771599 -0.18551879 -0.43762738 0.09115661 0.027162062
0.028541736 0.09125221 0.262804 0.3233426 0.20953028 0.005203747 -0.066094324 0.38051882
-0.06341252 -0.067847066 0.13057925 -0.16801193 0.00609677 0.302138 -0.23474893 0.2754392
0.03818763 0.071430646 0.031997044 0.18994078 -0.13691166 -0.17020243 -0.13181952 0.22796416
0.09195015 0.060854793 -0.0015584889 -0.09477363 0.02885945 -0.123497374 0.24988201 0.12476486
0.014789547 0.10878044 -0.09105718 0.1305824 -0.05093411 -0.008728408 -0.07527288 0.1323092
0.21168396 -0.021324115 -0.14552706 -0.098402664 -0.0063413433 0.08137658 0.021019172 0.11272262
0.11590696 -0.10907428 -0.1517032 -0.018190578 0.081356384 -0.22690451 0.061459027 0.028200869
0.1907662 -0.032982267 -0.016225474 0.05756691 -0.117333956 0.15777308 0.06502155 -0.10371821
-0.14989614 -0.008971192 -0.09809036 -0.17703325 0.03838858 0.08094735 0.11772323 -0.013442092
-0.19273856 0.15817083 -0.18482885 0.033001058 -0.009719166 -0.14693825 0.08415774 -0.001295603
-0.042488456 -0.13310914 0.0121297315 -0.15207401 -0.033897355 0.093986645 0.01885577 0.10887888
0.07885212 0.030662762 0.31509623 -0.08740717 -0.1307635 0.11338325 0.013827384 0.12939309
0.013371699 -0.21117878 0.20554386 0.025528625 -0.079252794 0.13067885 0.101545565 -0.105789065
0.015267912 0.24210887 0.111541964 0.17073074 0.0938575 -0.24088135 -0.073765166 -0.0472587
0.16643539 -0.34350458 0.06851372 0.11618659 -0.2349223 0.016450994 -0.25110835 0.040949643
-0.142063 0.047274005 -0.12739205 0.16246863 -0.098290116 0.08816733 0.04290657 -0.0734983
-0.24902675 -0.16237932 -0.28697395 -0.13280264 0.12945057 -0.036402814 0.060397115 0.017009499
0.15039128 -0.013390389 0.078062154 0.22847806 -0.17584616 0.18512672 0.011768826 0.109932855
0.0895713 0.26312014 -0.14456677 0.017709006 -0.037364136 -0.12988615 0.1298431 -0.20618843
0.13521601 0.32544288 0.014352302 -0.011794815 0.19000363 -0.0403409 0.13235591 0.2971996
-0.11075758 -0.069041215 -0.15791635 -0.22792009 0.13307217 0.123246394 0.0103474045 0.2065686
-0.27011526 -0.066866964 -0.10162108 -0.026825752 -0.11112931 0.16080844 -0.1558746 -0.04579558
-0.11334537 -0.22300398 0.21909696 0.050732456 0.1017401 -0.15184873 0.13717104 0.060318302
-0.17825384 -0.0041357176 0.14200154 -0.13404 -0.19575824 0.059791308 -0.14650328 0.039598957
-0.26576653 -0.090030335 0.177397 0.054563053 0.31460118 0.42070946 -0.23188949 -0.075704984
-0.14740671 0.092867404 0.3320065 0.20580134 0.008808217 0.059513282 0.008447254 0.288544
0.08194834 -0.17845163 -0.20901929 0.23155901 -0.23399691 -0.14271581 0.022269284 0.06840646
0.1094828 -0.23398368 0.3136293 -0.09489638 0.08195129 0.063568994 0.24146692 0.03356564
-0.13717937 -0.06180693 0.17958017 0.14697929 -0.121178284 0.22664121 -0.007707103 0.0148384
0.123231 -0.03174594 -0.1495837 -0.00434602 -0.07754766 -0.08427102 0.16881052 0.15499546
-0.051523168 0.21117282 -0.02295446 0.060173478 -0.00696032 0.02471704 -0.08703148 0.07731067

bias f4 [100]
00000000: 0391 1e3e b4e6 b43d a296 15bb f999 8abc
00000010: d79d 413d b656 29be 6617 dd3c d40d e83d
00000020: 27da 703d 1bc2 a4bb 1572 d9bd 83f5 47bd
00000030: a9fb 75bd dff2 063e 727d febd e8af b73d
00000040: 53e7 be3d 6cf1 acbc 967a 5cbd 09c8 a5bd
00000050: ba2b 873c babf 6fbe f6c2 9b3d d26c e03d
00000060: 786a 97bd 916c 36bd 97cb 383d eb34 7abd
00000070: f0ad 203e 5b59 0f3d 266e 6fba 6356 683c
00000080: d78e 963d 3634 39bd 9db4 0c3e 70bc 87be
00000090: c512 c73d 63ff 5d3d 91c5 c43d d5fb 113d
000000a0: dbda 96bd 19c8 833d f3de 34bc 8729 a33d
000000b0: d733 94bc 7664 b03c 3bd4 733d ac4e cf39
000000c0: af0a 1e3d 9634 1e3e f67c 2d3d 8f8b c5bc
000000d0: 972c 503e badf 12bd 1502 d2bd 5930 4abe
000000e0: d045 e8bc a4ba bfbd a026 17bc a75b e5bd
000000f0: ee64 4c3d 1837 9f3d ebfc 46be 26d8 dcbd
00000100: 013a 6cbb 0c58 093e 6917 e93b 8760 5a3d
00000110: 460c a9bd e704 6c3e a888 443d 19d3 44bd
00000120: 999c bb3c ebed d93d e247 c23c 71db 553d
00000130: f678 58bd 6aad 0d3e 01bf f43c 5ff9 0cbe
00000140: a111 efbd 40b9 d9bb 0ec8 e03c f181 a4bd
00000150: 9774 983d 782a 0b3e ccd1 5b3e 2873 603d
00000160: d7d6 f2bd b490 fabd 50d5 cabd f7c7 d43c
00000170: f3ef 353e fc01 7cbc 53d9 3ebb 31c7 5d3b
00000180: d607 a63b e5af c23d aad7 f43d 9d36 983d
0.15485005 0.08833066 -0.002282538 -0.016919123 0.04726967 -0.16536984 0.026988696 0.113307625
0.058801796 -0.005028022 -0.106174625 -0.048818123 -0.060054455 0.13178585 -0.124262705 0.08969098
0.09321465 -0.021111213 -0.053827845 -0.08094794 0.016500343 -0.23412982 0.07605545 0.10958256
-0.07393354 -0.04453713 0.045116033 -0.061085623 0.15691352 0.034997325 -0.000913354 0.014180752
0.07351463 -0.045215808 0.13740773 -0.26510954 0.09720377 0.054198634 0.09607995 0.035640556
-0.07365962 0.0643465 -0.011039483 0.07966905 -0.018091125 0.021532279 0.05952857 0.00039540732
0.038584407 0.15449747 0.0423555 -0.024114398 0.2032951 -0.035857894 -0.10254303 -0.19745006
-0.028353602 -0.09361771 -0.0092255175 -0.11199122 0.04990094 0.0777418 -0.19432418 -0.107834145
-0.0036045315 0.13412493 0.0071133864 0.053314712 -0.08254294 0.23048745 0.047981888 -0.04805288
0.02290182 0.106410824 0.023715917 0.05221123 -0.052849732 0.13835683 0.029876234 -0.13767003
-0.11673284 -0.006644398 0.027439144 -0.08032597 0.07444113 0.1359042 0.2146675 0.05479732
-0.11857384 -0.12234631 -0.099039674 0.025974257 0.17767315 -0.0153813325 -0.0029121235 0.003384065
0.005066852 0.095062055 0.11955197 0.07432292

weight f4 [100, 100]
00000000: b310 623e bfea 9c3d 9f88 07be 3cf0 28be
00000010: 5bb2 d2bd 032e 37be dc34 ce3e b4fe 823e
00000020: 3de8 363e 88fa 763e e6c5 c6bd 2f6c c3bd
00000030: 30b8 18bd 64df 9c3c 782e 0f3c 2759 8f3e
00000040: 68f8 08be b98b b3bd 28ad a3bd 1d1c 9cbd
00000050: fcbf 6ebe b90b adbd ec02 97bd 97b3 04be
00000060: c665 a8bd a505 1cbd 2dd0 ff3c f78c ad3d
00000070: 17a9 073e 8a17 463e 0a61 d6bc 0b2c 3bbd
00000080: 6ed3 b0bd a42c 31bb 0eeb 473e d60f 19be
00000090: f3ef 38bd f411 1b3e 1436 c73d 5036 c6bd
000000a0: 790f 04be 8136 0fbe bffa 2d3e 3373 fd3b
000000b0: f9b7 ffbd 3097 04be 6058 9a3d 45ab 4a3a
000000c0: f273 5bbe b952 c1bd 633b a2bd 1a0f 3e3d
000000d0: d940 02bd d57d 613e d4e3 9f3c bbe1 9dbc
000000e0: 9df6 0a3e f499 183d 122c 5a3d bd20 cd3d
000000f0: 8c90 363c 000a 703d ce9c 81bd 2d5c 9ebb
00000100: 0c94 e63d a909 cfbd f7b2 12bd a9f0 eb3b
00000110: 4a6e 9fbd 6355 713e 2a75 75b9 2c20 05bd
00000120: 39af ee3c 5ed6 3c3e 39f4 a7bd 9383 4bbd
00000130: d766 403d f06c 64be adb8 d9bd 61bf a8bd
00000140: 2652 ecbe a2cd 8f3d 351e 09be e9fe 83bd
00000150: 091d 123e 5b0a 393e 55c4 a13d 99fa 1fbe
00000160: 8ac6 9d3d c23c 2a3d 11f4 3cbe c157 79be
00000170: b6c6 a2bc 2891 fbbd fe39 0e3d 93f1 e7bd
00000180: a427 433e 8fe0 c43d a7c5 adbd 637b da3b
00000190: c4ab 5d3d 99be 31be eb5b 94be b89b 0dbe
000001a0: f126 5f3e c6d8 8d3b 0fb7 373d 149f 4ebe
000001b0: 533d 593d 80ab 813e eb2f f7bc 4638 dd3a
000001c0: 9fe4 a83d d3fa 8d3d c500 273e b87b d6bd
000001d0: a330 453d 9c88 1fbd 5e8f 6ebd 5edb 383e
000001e0: 2d0a cbbc c7df 553b 7901 f4bd f566 8cbc
000001f0: 793a 70be c016 afbd 83ca b83d ace2 9e3e
00000200: afba 303e 3b7f 963d c710 0fbe 2a19 8b3e
00000210: 7b29 9cbe 82ea f4bd af1c e1bd 4e83 36be
00000220: 3c59 68be 0d83 65be f900 0bbd 571b 033d
00000230: a3b3 2ebe 27e0 dbbd 9d48 e63d 530b 14be
00000240: 6c4d 3dbe 16cc c43d 2672 1b3c a89c 26be
00000250: 855e 873d cbbb d6bd 2aaf 2dbb 3e3c d3bd
00000260: e4ce 84be b532 a73c b088 0cbe f3db 0e3e
00000270: 9d1e 20bd f180 8e3d 7a15 2abc 4b9a 74be
00000280: abfd 83be 5582 23bd 9337 92bd 3c2e 2bbd
00000290: fd59 e3bd ee04 2dbe ff95 72bd 244c 35be
000002a0: 47cc 9dbd 327f 32bd 1709 29be 486e d73c
000002b0: 087a 053b 4964 2f3e d731 b5bd f254 ea3d
000002c0: a2ee 883d 6d14 7c3d 395e 283e f073 90bd
000002d0: b905 c23d 6659 88be d57c c1bd 7687 d6bb
000002e0: 0d6f 73be cbf7 2cbe bb6e e73c 5e11 5b3e
000002f0: 1e63 f7bd ac38 98bd a806 b03d 3a2b 8d3d
00000300: fa61 e53c af92 bbbd 7ea9 a9be 6cda f2bc
00000310: 8d45 f9bd ac93 3fbd edbb 1bbe 7b84 94bc
00000320: 90c6 d5bd e5d9 353d eb46 1d3e ee45 83bd
00000330: bed9 e2bd 602d 79bd b2d4 56be f20a 273e
00000340: 3873 4a3e d03f f0bd cc03 abbd 4cef 613d
00000350: 42c5 57bd a3d0 5f3d f170 90be ca61 c03b
00000360: b994 bdbd 0937 20bd 100e 6b3d 9cf9 97bd
00000370: d45c 53be 2d42 15be e84d 533e 3d30 fb3c
00000380: 0686 a1bd c7b0 1f3e c326 ab3c 6434 f2bd
00000390: 3393 193e 01dc 29be 17ee af3d 3b1d 83bd
000003a0: 100a e0bc 90af 323e dcee 68bd a068 1f3e
000003b0: 7ef1 0b3e c162 6cbe 195d a13d c176 d6bd
000003c0: 93c3 b23a d699 b73d c491 573e 23df a1bd
000003d0: 4622 183c 5c03 e43d 778d 7a3c 72c8 a7bd
000003e0: aa8a 47be 89d3 6fbe bc34 70be 665a 97bd
000003f0: 3b96 09be b1fc 353d 0604 c6bd 94c5 c8bd
0.22076683 0.07661962 -0.1323571 -0.16497892 -0.10287925 -0.17888646 0.40274704 0.25584948
0.1786203 0.24119008 -0.09705715 -0.09542119 -0.03728503 0.01914949 0.008739106 0.27997705
-0.1337601 -0.08766884 -0.07992011 -0.0762255 -0.23315424 -0.084495015 -0.07373604 -0.12959133
-0.08222537 -0.03809132 0.031227196 0.084741525 0.13248096 0.19344917 -0.026169319 -0.0456963
-0.08634077 -0.0027034665 0.1952326 -0.14947447 -0.04515071 0.15143567 0.097271115 -0.09678328
-0.12896527 -0.13985635 0.16990183 0.00773468 -0.12486262 -0.12948298 0.075363874 0.00077312096
-0.21430948 -0.09439606 -0.07921483 0.04640112 -0.031800125 0.22020657 0.019517817 -0.019272676
0.13570638 0.037256196 0.053264685 0.1001601 0.011142861 0.058603287 -0.06328736 -0.0048327656
0.112587065 -0.101092644 -0.035815205 0.00720032 -0.07784708 0.23567729 -0.00023408668 -0.032501385
0.029136287 0.1844115 -0.08200879 -0.049686026 0.046973076 -0.22307181 -0.10630927 -0.08239628
-0.46156424 0.07021643 -0.1339043 -0.06445105 0.14268889 0.18070357 0.078987755 -0.15622939
0.07703884 0.04156185 -0.18452479 -0.24349882 -0.019870143 -0.12283546 0.034723274 -0.113253735
0.1905809 0.09613144 -0.08484965 0.006667541 0.054118887 -0.17357863 -0.28976378 -0.13828933
0.21792199 0.00432882 0.044852313 -0.20177871 0.053037 0.25326157 -0.030174216 0.0016877733
0.08246731 0.069326065 0.16308887 -0.10472816 0.048142087 -0.03894864 -0.058242194 0.18052432
-0.024785126 0.0032634602 -0.119143434 -0.017138937 -0.23459806 -0.08549261 0.09023001 0.31032312
0.17258714 0.07348486 -0.13971244 0.27167636 -0.30500397 -0.11958791 -0.10991799 -0.17823526
-0.2269029 -0.22413273 -0.033936474 0.032008495 -0.17060713 -0.10736113 0.11244319 -0.14457445
-0.18486565 0.09609239 0.009487664 -0.16270697 0.06609825 -0.104850374 -0.002650211 -0.10314225
-0.25939095 0.020409921 -0.13724017 0.13951091 -0.039091695 0.06958187 -0.010381097 -0.23886983
-0.2577947 -0.039919216 -0.07139506 -0.04179214 -0.11101148 -0.16896412 -0.05922508 -0.17704827
-0.077049784 -0.043578334 -0.16507374 0.026297703 0.0020366926 0.171281 -0.08847397 0.11441983
0.066861406 0.061542917 0.16442193 -0.07053363 0.09473748 -0.26630706 -0.09447638 -0.00654691
-0.23772831 -0.168914 0.028251043 0.21393344 -0.12079452 -0.07432684 0.085950196 0.068930104
0.02800082 -0.09158837 -0.33137125 -0.029645167 -0.12171469 -0.04677169 -0.15208407 -0.018129578
-0.104382634 0.044397254 0.15359084 -0.064098224 -0.11076687 -0.06083429 -0.20979574 0.16312769
0.19770515 -0.11730921 -0.083503336 0.055159852 -0.052678354 0.05464233 -0.28211167 0.0058710324
-0.09256882 -0.039114986 0.057386458 -0.07420656 -0.2064088 -0.14576025 0.20635188 0.03066265
-0.07886891 0.15594779 0.020892506 -0.11826399 0.14997558 -0.16587831 0.08590334 -0.0640206
-0.027348548 0.17449784 -0.05686842 0.15567255 0.1366634 -0.23084547 0.07879085 -0.10471869
0.0013638608 0.08964889 0.21051699 -0.07903888 0.009285515 0.11133453 0.015292517 -0.08192529
-0.1948649 -0.23420538 -0.23457617 -0.07390289 -0.13436215 0.04443044 -0.09668736 -0.0980331
