cylinder_wake/best_net_no_improved.pth (torch, 334343 bytes, 20 tensors)

weight f4 [100, 3]
0	0x3ef642f3	0.48097953
1	0x3f27953d	0.65462095
2	0xbedf59af	-0.4362311
3	0x3f354016	0.7080091
4	0xbe562042	-0.20910743
5	0xbe94b1b8	-0.2904184
6	0xbe3463e4	-0.1761623
7	0x3e950ed9	0.2911289
8	0x3f3782b1	0.71683794
9	0xbf0487a4	-0.5176947
10	0x3f300a94	0.6876614
11	0x3e9b7d99	0.3036926
12	0x3ee23f28	0.4418881
13	0x3eb81821	0.3595591
14	0xbe332402	-0.17494205
15	0xbe2945fa	-0.165306
16	0x3e5ca14c	0.21545905
17	0x3e0ea981	0.13931848
18	0xbef936ea	-0.4867471
19	0xbe25684e	-0.1615307
20	0xbeb22143	-0.34791002
21	0xbe0bb7b9	-0.13644303
22	0xbd55e599	-0.052220915
23	0x3e6bd37a	0.2302989
24	0xbf1dd255	-0.61649066
25	0x3ebecbfb	0.37265
26	0xbe66109a	-0.2246727
27	0xbe9bbe17	-0.30418465
28	0xbdc3cbde	-0.09560369
29	0xbef8d9ab	-0.48603567
30	0x3f289bed	0.65862924
31	0xbf77d1fc	-0.96804786
32	0x3eeb04b5	0.4590203
33	0xbc66e120	-0.01409176
34	0xbde94485	-0.11390022
35	0x3df35783	0.11881926
36	0x3cf3d394	0.029763974
37	0x3f2ed037	0.6828646
38	0xbd5df6e4	-0.05419053
39	0xbe10d461	-0.14143516
40	0x3e2049cc	0.15653151
41	0x3c553e13	0.013015288
42	0x3cb5279a	0.02211361
43	0x3f40504d	0.7512253
44	0x3e3d889e	0.18509147
45	0xbf023fbf	-0.5087852
46	0x3e37d4aa	0.17952219
47	0x3e82196e	0.25410026
48	0x3d8df677	0.06931775
49	0xbf09f084	-0.5388262
50	0xbeb8afad	-0.3607153
51	0xbe5d727e	-0.21625707
52	0xbebc17bb	-0.36736855
53	0x3ec095d1	0.376143
54	0x3dd9d5cc	0.10636482
55	0x3e345653	0.17611055
56	0xbabcaee4	-0.0014395383
57	0xbbfa2beb	-0.00763463
58	0x3ed93ae2	0.42427737
59	0xbec0291a	-0.37531358
60	0x3e04e06b	0.12976234
61	0xbe52904b	-0.20562856
62	0x3da350ad	0.07974372
63	0xbdea3510	-0.11435902
64	0x3e35746b	0.17720191
65	0x3d790085	0.06079151
66	0x3f593fcf	0.8486299
67	0xbf28a193	-0.6587154
68	0xbe9b2d80	-0.3030815
69	0xbef136cf	-0.47112128
70	0x3f0e4c95	0.55585605
71	0x3e81bdd2	0.25340134
72	0x3f01391e	0.5047778
73	0xbe8bb7d3	-0.27288684
74	0xbefda662	-0.49541003
75	0xbebd0f7a	-0.3692587
76	0xbf184467	-0.59479374
77	0x3f2023b8	0.625545
78	0x3e1fb167	0.15595017
79	0x3f004c3b	0.5011632
80	0xbe0875c7	-0.13326178
81	0xbedd6ea7	-0.43248484
82	0x39ffdbde	0.00048801204
83	0x3ba73ada	0.005103451
84	0x3e6d989d	0.23202749
85	0xbd2172b2	-0.039416023
86	0x3d153c70	0.03643459
87	0xbedd940c	-0.43277013
88	0xbe69245f	-0.2276778
89	0x3ee33844	0.44378865
90	0xbd370338	-0.044680804
91	0xbd8d94cb	-0.06913146
92	0x3db6f51c	0.0893347
93	0x3f1673c8	0.5877042
94	0xbed0f697	-0.40813133
95	0xbf03b354	-0.5144551
96	0x3f111933	0.56679076
97	0xbe4ac25d	-0.19800706
98	0xbe795a7e	-0.24350926
99	0xbf336951	-0.70082575
100	0xbe68d2bc	-0.22736639
101	0x3f1e030d	0.61723405
102	0xbdc232bd	-0.09482334
103	0xbec68f7c	-0.38781345
104	0x3d81b80f	0.063339345
105	0xbed1f01d	-0.41003504
106	0xbf58b6c0	-0.84653854
107	0x3921091a	0.00015357547
108	0xbec88105	-0.39160934
109	0xbef21f79	-0.47289637
110	0x3f0d2b0b	0.55143803
111	0x3d5468b7	0.051857676
112	0x3e076f9a	0.13226166
113	0xbeb44f16	-0.35216588
114	0xbdbeaa17	-0.09309786
115	0x3d25536a	0.040362753
116	0x3da7aecd	0.081876375
117	0xbf2c4b11	-0.6730204
118	0x3e89fde4	0.26951516
119	0xbf10cd2f	-0.56563085
120	0x3dab1655	0.08353869
121	0xbe9b1db2	-0.30296093
122	0xbcefd171	-0.029274674
123	0xbee6b073	-0.45056495
124	0xbf47cd6f	-0.7804784
125	0xbea660bb	-0.32495674
126	0xbe84aa33	-0.25911102
127	0xbf56c5c4	-0.83895516
128	0x3eca7829	0.395448
129	0xbc929aeb	-0.017896136
130	0x3f22907e	0.6350173
131	0x3d8aaa05	0.0677071
132	0xbf1d5300	-0.6145477
133	0x3f423fcb	0.7587859
134	0xbe0cd0e2	-0.13751557
135	0xbddcc68d	-0.10780058
136	0xbf01f5f9	-0.5076595
137	0xbfd72087	-1.6806802
138	0x3c906f6e	0.017631259
139	0x3d2ee123	0.042695176
140	0xb6643333	-3.400445e-06
141	0xbf00f2d1	-0.5037051
142	0x3f290f4d	0.6603897
143	0xbf5699c8	-0.838284
144	0x3c41fa22	0.0118394215
145	0x3e6cea61	0.23136283
146	0x3ec80b11	0.39070943
147	0x3ed3b6f8	0.41350532
148	0x3f66dc65	0.90180045
149	0xbe314cb8	-0.17314422
150	0x3dd6fa5c	0.10496971
151	0xbe029033	-0.1275032
152	0xbdf0b9de	-0.11754201
153	0xbf05ef01	-0.52317816
154	0x3f817d74	1.011641
155	0xbec5980c	-0.38592565
156	0x3ec2be93	0.38036022
157	0xbd8479ec	-0.06468567
158	0x3e962415	0.29324403
159	0xbe8812d0	-0.26576853
160	0x3f00fee1	0.50388914
161	0x3e4b7bc9	0.19871439
162	0x3dc4d080	0.09610081
163	0xbf3abed5	-0.72947437
164	0x3d7f92b1	0.062395755
165	0xbe0262b4	-0.12732965
166	0xbdd736dd	-0.10508511
167	0x3e960477	0.2930028
168	0x3bfd584a	0.007731472
169	0xbefe3c41	-0.49655345
170	0xbe9968a8	-0.2996266
171	0xbd20613f	-0.03915524
172	0x3ec31ec1	0.381094
173	0xbd91d6d3	-0.071210526
174	0xbeb20a2d	-0.34773389
175	0xbe4fd705	-0.20296867
176	0xbf1003aa	-0.5625559
177	0xbd03cf63	-0.0321802
178	0x3e51a403	0.20472722
179	0xbf1080d4	-0.56446576
180	0x3dfad923	0.12248447
181	0x3e04ead9	0.12980212
182	0xbc59dea2	-0.013297709
183	0xbd3f659c	-0.04672776
184	0x3ec2085b	0.37897
185	0x3e971f98	0.29516292
186	0x3e661dc4	0.22472292
187	0xbe473188	-0.19452488
188	0xbe8a722e	-0.27040237
189	0x3de5333e	0.11191414
190	0xbad42dda	-0.0016187981
191	0xbd7a0218	-0.061037153
192	0x3ed7e817	0.42169258
193	0x3f2dff08	0.6796727
194	0xbe2f2696	-0.17104563
195	0xbdf51f3f	-0.1196885
196	0xbcb666a3	-0.022265738
197	0x3b8e14bd	0.0043359683
198	0x3d9a4eca	0.07534559
199	0x3b85a8e9	0.0040789736
200	0xbf92f1ec	-1.1480079
201	0xbe32eee9	-0.1747395
202	0x3f6512d5	0.8948186
203	0x3e724820	0.23660326
204	0x3e322246	0.17395887
205	0xbe296f53	-0.16546373
206	0xbea16b1a	-0.31527025
207	0xbf007067	-0.5017151
208	0xbf07e7ef	-0.5308828
209	0x3e97647e	0.29568857
210	0x3efc33c5	0.49258247
211	0x3e031ff9	0.12805165
212	0xbf339c07	-0.70159954
213	0xbecb5d74	-0.39719737
214	0xbe26561c	-0.16243786
215	0x3f10b6cb	0.5652892
216	0x3e0a871a	0.135281
217	0xbd12910b	-0.035782855
218	0x3dab67cc	0.08369407
219	0xbdb75aff	-0.08952903
220	0xbe9c7316	-0.30556554
221	0x3e8e483a	0.2778948
222	0x3cabb911	0.02096227
223	0x3db54f09	0.088529654
224	0xbdb0a787	-0.08625703
225	0x3ecc0fe9	0.39855888
226	0x3f6c2161	0.9223843
227	0x3e8b0290	0.27150393
228	0xbed294bc	-0.411291
229	0xbf6863e7	-0.9077744
230	0xbde515b1	-0.11185778
231	0x3efc3012	0.49255425
232	0xbe9b0205	-0.30274978
233	0x3e08f1ef	0.1337354
234	0x3eeaf377	0.45888874
235	0x3ed06491	0.40701726
236	0xbea04831	-0.31305078
237	0xbe4674b8	-0.19380462
238	0xbf8c5fbb	-1.0966715
239	0xbeaaf243	-0.33387956
240	0x3dcf0421	0.101082094
241	0xbe98b194	-0.2982298
242	0xbe7043c0	-0.23463345
243	0xbea46fb9	-0.32116488
244	0xbed223ae	-0.41042846
245	0xbfaf00b5	-1.3672091
246	0xbee6c034	-0.45068514
247	0x3c06b183	0.008221033
248	0xbc9c5bf4	-0.019086815
249	0x3eb61206	0.35560626
250	0xbe86b6d7	-0.2631137
251	0xbf6d1116	-0.92604196
252	0xbdc272d5	-0.09494559
253	0xbe12c3f9	-0.1433257
254	0xbd0ac2b6	-0.033877097
255	0xbf1fdefe	-0.62449634

bias f4 [100]
0	0xbeb52d70	-0.3538623
1	0xbf1f6662	-0.622656
2	0x3e2899fe	0.16464993
3	0x3db86ca5	0.09005097
4	0xbf6b28e8	-0.91859293
5	0x3f370cbb	0.715038
6	0x3e14200f	0.14465354
7	0x3ebcd71d	0.36882868
8	0xbede802c	-0.43457162
9	0x3edd45b9	0.43217257
10	0x3eea2d59	0.45737723
11	0x3dbd6138	0.09247059
12	0xbf457be8	-0.7714219
13	0x3ef48f4c	0.47765577
14	0x3f04a2a0	0.51810646
15	0x3ef95444	0.48697102
16	0x3e1712d9	0.14753284
17	0x3f71fc58	0.9452567
18	0xbeb2adc4	-0.34898198
19	0x3e08bcc4	0.13353258
20	0xbf13426e	-0.5752324
21	0x3e496eb3	0.19671135
22	0x3f0c79e8	0.54873514
23	0x3f024d66	0.5089935
24	0xbf68b124	-0.90895295
25	0xbe8748da	-0.2642277
26	0xbf2a95c7	-0.6663479
27	0xbf86f021	-1.0542032
28	0xbf66c16c	-0.9013889
29	0x3eb04594	0.34428084
30	0x3e911019	0.28332594
31	0xbe824859	-0.25445822
32	0xbf72a219	-0.9477859
33	0xbdff9fd2	-0.12481655
34	0x3f0289a0	0.5099125
35	0xbe1df3b4	-0.15424997
36	0x3f000fc5	0.5002406
37	0x3d6106df	0.054938193
38	0x3d9e9071	0.07742394
39	0x3d82f2b8	0.06393951
40	0xbe3b33b6	-0.18281445
41	0x3d1b4f6a	0.037917532
42	0xbec09959	-0.37616995
43	0xbf0afe39	-0.54294163
44	0xbf36e29d	-0.71439534
45	0xbef6b7a1	-0.48186973
46	0x3e7044a2	0.23463681
47	0x3dd39f2e	0.103330955
48	0xbe915d4a	-0.28391486
49	0x3eea4f7f	0.45763776
50	0xbd1c8b99	-0.03821907
51	0x3e93483f	0.28766057
52	0x3f8429a7	1.0325211
53	0x3f3da73d	0.7408331
54	0xbf4b308b	-0.79370946
55	0x3e9f845f	0.3115568
56	0x3eb5af67	0.35485384
57	0x3d9e000a	0.07714851
58	0x3e0af57c	0.13570207
59	0x3ed100b3	0.40820846
60	0xbeebc92c	-0.4605192
61	0xbdb2df1d	-0.08733962
62	0xbf616689	-0.8804708
63	0xbe188db2	-0.14897802
64	0x3e923781	0.2855797
65	0x3ead35eb	0.338302
66	0xbeb3e7f2	-0.35137898
67	0xbe7206f9	-0.23635472
68	0xbf377dc5	-0.71676284
69	0x3ec72612	0.38896233
70	0x3dfd4fea	0.12368758
71	0x3f2d96af	0.6780805
72	0xbf074fc2	-0.52856076
73	0x3e218616	0.15773806
74	0xbf2e8fb1	-0.68188006
75	0xbf1692eb	-0.5881793
76	0x3e59e720	0.21279573
77	0x3f29b432	0.6629058
78	0x3ea430ec	0.32068574
79	0xbee0f171	-0.43934205
80	0x3deb1ac3	0.11479714
81	0xbe921a9a	-0.2853592
82	0x3f1969c3	0.59927005
83	0x3f1d0e01	0.61349493
84	0x3e64f704	0.22359854
85	0x3f7140d3	0.9423954
86	0xbf49aaba	-0.78776133
87	0x3db753d6	0.08951537
88	0x3ece05d0	0.4023881
89	0x3d32f5d7	0.043691482
90	0xbea13c67	-0.31491396
91	0xbf16026e	-0.5859746
92	0x3f68f572	0.9099952
93	0x3ede89db	0.4346455
94	0x3ec0b283	0.37636194
95	0xbeafd12a	-0.34339267
96	0xbf90bd20	-1.1307716
97	0x3ecb142b	0.39663824
98	0xbd0ddb7a	-0.034633137
99	0xbd985c8b	-0.07439526

weight f4 [100, 100]
0	0x3d149eea	0.036284365
1	0x3e4dbd2a	0.20091692
2	0xbe44f165	-0.1923271
3	0xbdafa4fa	-0.08576389
4	0xbcefc875	-0.02927039
5	0xbdc9b6b2	-0.098492995
6	0xbcee21b1	-0.0290688
7	0x3c983754	0.01858107
8	0xbd277b49	-0.04088906
9	0x3e1a64df	0.15077542
10	0xbcdb271e	-0.026752051
11	0x3c3c8417	0.011506102
12	0x3de41d63	0.111384176
13	0x3d39ca7b	0.045359116
14	0xbd52ec1c	-0.051494703
15	0xbd9fab35	-0.07796327
16	0xbdfe6499	-0.12421531
17	0x3d6c7fa2	0.057738908
18	0xbe0b9fd6	-0.13635191
19	0xbe257d28	-0.16161025
20	0x3e282067	0.1641861
21	0xbb47b7d4	-0.003047456
22	0xbbac8cb6	-0.0052657975
23	0x3d12fb61	0.035884265
24	0x3e30d92c	0.17270344
25	0xbd10ecdd	-0.03538214
26	0xbd78ab12	-0.06071002
27	0xbd5581d5	-0.05212577
28	0xbdb3ff2e	-0.08788906
29	0xbd6695e8	-0.056295305
30	0x3d293246	0.04130771
31	0x3de21ace	0.11040269
32	0xbc8a0d27	-0.016851975
33	0xbc25d914	-0.010122556
34	0xbd30df49	-0.04318169
35	0x3dee81c5	0.11645845
36	0xbe1d6965	-0.15372236
37	0xbd8ff784	-0.07029632
38	0x3cc90edb	0.024543216
39	0x3c506505	0.012719397
40	0x3d9bbf04	0.07604793
41	0x3e16fd26	0.14745006
42	0x3c1353cf	0.0089921495
43	0x3e23085f	0.15921162
44	0x3dd43b86	0.10362916
45	0xbe40e6c7	-0.18838035
46	0xbe07d0b2	-0.13263205
47	0x3df64485	0.12024788
48	0x3e7cb266	0.24677429
49	0xbdb25121	-0.0870688
50	0xbd34cf44	-0.044142976
51	0xbe2889cb	-0.16458814
52	0xbe1ec0e2	-0.15503266
53	0x3d6dab2e	0.058024578
54	0x3d75d5b1	0.060018245
55	0x3dc90943	0.0981622
56	0xbe356eaa	-0.17717996
57	0x3d6b74c8	0.05748442
58	0x3dc25d72	0.094904795
59	0xbe4dd055	-0.20099004
60	0xbd848f8d	-0.06472693
61	0x3da72ac7	0.08162456
62	0xbcb7b597	-0.022425456
63	0xbe0d23a4	-0.13783127
64	0x3b281df8	0.0025652628
65	0x3d3cae06	0.0460644
66	0xbf525d99	-0.8217407
67	0xbcaa28eb	-0.020771464
68	0xbb958203	-0.0045626177
69	0x3c782ecd	0.015147877
70	0x3e2ee0cf	0.17077945
71	0xbd6e412a	-0.058167614
72	0x3e04f902	0.12985614
73	0x3d334b09	0.04377273
74	0xbc5c60e6	-0.013450837
75	0x3ca229e9	0.019795375
76	0xbcd35d86	-0.025801431
77	0xbdb7398f	-0.08946525
78	0xbd27a6e8	-0.04093066
79	0x3dd8b561	0.1058147
80	0x3d3ccbb2	0.046092696
81	0xbdd2a35b	-0.10285064
82	0xbcd276e3	-0.025691455
83	0x3dc79fe4	0.097472936
84	0x3cabbea3	0.020964926
85	0xbc8fdb20	-0.017560542
86	0xbb926c01	-0.0044684415
87	0xbcecc63d	-0.028903121
88	0x3d8be8e6	0.06831531
89	0x3dd4fdea	0.10399993
90	0x3d4e7167	0.050401118
91	0x3d61fd25	0.055173058
92	0xbc30b673	-0.010785687
93	0xbd98745e	-0.0744407
94	0x3c9579ea	0.01824661
95	0xbc66ff86	-0.0140990075
96	0xbce1d990	-0.027569562
97	0x3e11b9ce	0.14231035
98	0x3d4f8683	0.05066539
99	0x3d92197f	0.07133769
100	0x3d335278	0.04377982
101	0xbd3d7140	-0.04625058
102	0x3e3565d1	0.17714621
103	0x3e1d2f4d	0.15350075
104	0x3e3bd2f6	0.18342194
105	0x3e4db4d8	0.20088518
106	0xbd19a30f	-0.03750902
107	0xbccb1406	-0.024789821
108	0x3c3c4d60	0.011493057
109	0x3c170a0f	0.009218707
110	0xbdac17a5	-0.08402947
111	0xbe21ec77	-0.1581286
112	0x3f0c7453	0.54864997
113	0x3ca4f087	0.020134224
114	0xbda0f1d8	-0.07858628
115	0xbd1d873d	-0.03845905
116	0xbe21b262	-0.15790704
117	0xbe698702	-0.22805408
118	0x3e190548	0.14943421
119	0x3e585e87	0.2112981
120	0xbe1e49ff	-0.15457915
121	0x3e6b4ebd	0.22979255
122	0xbdd4e7a4	-0.103957444
123	0x3e011a8b	0.12607782
124	0x3db96be9	0.09053785
125	0xbdcc2e25	-0.09969739
126	0x3e7c6369	0.24647297
127	0x3d9f277a	0.077712014
128	0x3d1d27ca	0.038368024
129	0xbd0e3f24	-0.034728184
130	0xbd37a1c8	-0.04483202
131	0xbdc0b216	-0.09408967
132	0x3d134375	0.035953004
133	0x3de57904	0.112047225
134	0xbe838983	-0.2569085
135	0x3c3af963	0.0114119975
136	0xbe3fbb75	-0.18723853
137	0xbd3a4b80	-0.04548216
138	0xbc0b7871	-0.008512602
139	0x3de4e28b	0.11176022
140	0xbecdcb50	-0.40194178
141	0xbbd368aa	-0.006451686
142	0xbd83defe	-0.06439017
143	0x3f042ef3	0.5163414
144	0x3e32aa60	0.17447805
145	0x3d486fcd	0.048934747
146	0xbc108324	-0.008820329
147	0x3e2e59b9	0.17026414
148	0x3e80f9d8	0.25190616
149	0xbd06f3b9	-0.032947276
150	0xbe4597db	-0.1929621
151	0x3e321dbd	0.17394157
152	0xbd88b57d	-0.06675241
153	0x3df34350	0.11878073
154	0xbdcc6d88	-0.09981829
155	0xbd50cd58	-0.05097708
156	0xbe8b8a1e	-0.27253813
157	0x3ec6b54a	0.38810188
158	0x3da58684	0.080822974
159	0x3e040f3a	0.12896433
160	0x3e0d3b48	0.13792145
161	0x3ea6c15b	0.32569394
162	0x3b93d256	0.004511158
163	0xbe825bfa	-0.25460798
164	0xbd8c9d07	-0.06865888
165	0xbb874057	-0.004127543
166	0xbcc039b2	-0.023465011
167	0x3e4706d8	0.19436204
168	0xbe0ca8ca	-0.13736263
169	0xbe0c6ee7	-0.13714181
170	0xbd5a4522	-0.053288586
171	0xbe32e5ad	-0.17470427
172	0xbe56a559	-0.20961513
173	0xbd03bb38	-0.032160968
174	0x3e08c5d2	0.13356712
175	0x3d94ea58	0.0727126
176	0xbd95ab96	-0.07308118
177	0x3c4c4468	0.012467481
178	0xbd881fac	-0.06646666
179	0xbcbdf044	-0.023185857
180	0xbe01ca80	-0.12674904
181	0xbd422fae	-0.047408752
182	0x3cdd8c70	0.027044505
183	0x3cda0f0e	0.026618507
184	0xbc60b3eb	-0.013714771
185	0x3caf5576	0.021403056
186	0x3c0afac9	0.008482643
187	0x3dbd98e6	0.09257679
188	0x3c896180	0.016770124
189	0x3d423ee7	0.04742327
190	0xbe1997c2	-0.14999297
191	0x3e620b94	0.22074729
192	0xbdfab2ba	-0.12241121
193	0xbc1f8cf3	-0.009738195
194	0xbdbef022	-0.093231454
195	0xbdde0b3a	-0.10841985
196	0x3d7e9b3c	0.06215976
197	0xbe3e91c2	-0.1861029
198	0xbc0542c6	-0.008133596
199	0x3cc0d0e8	0.023537114
200	0xbe6023b1	-0.21888615
201	0xbcc4f4b4	-0.024042465
202	0xbd5f04a7	-0.054447796
203	0xbb96460d	-0.0045859874
204	0xbc71db35	-0.014761736
205	0xbf19813c	-0.5996282
206	0x3c65f21b	0.014034773
207	0xbe780f34	-0.2422455
208	0x3e1f6f66	0.15569839
209	0x3e2105d9	0.15724887
210	0x3d0cf00d	0.034408618
211	0xbba43f9a	-0.0050124647
212	0xbcf8c219	-0.03036599
213	0xbcfe8bfa	-0.031072605
214	0xbdaabb4b	-0.083365045
215	0x3d124169	0.03570691
216	0x3c60cd68	0.013720848
217	0xbea3661a	-0.31913835
218	0xbd815f7a	-0.06317039
219	0xbdcf7953	-0.10130563
220	0x3ee454f0	0.44596052
221	0xbd8a0c2a	-0.06740601
222	0xbe13347e	-0.14375493
223	0xbd66128f	-0.056170043
224	0xbd827719	-0.06370372
225	0x3d730a19	0.0593358
226	0xbc84b900	-0.016201496
227	0x3da21465	0.07914046
228	0xbd992d75	-0.07479373
229	0x3ddd31cf	0.10800516
230	0xbd12a6b5	-0.035803515
231	0xbdad59b6	-0.08464377
232	0xbccc2b3b	-0.024922958
233	0x3e40af9c	0.1881699
234	0x3da1a6da	0.078931525
235	0x3de5f08b	0.112275206
236	0xbd2c6803	-0.04209138
237	0xbe217dd4	-0.15770656
238	0xbdb2d38b	-0.08731755
239	0x3d538e41	0.051649336
240	0x3e840a64	0.25789177
241	0x3d5d30b9	0.054001544
242	0x3e36b459	0.17842235
243	0x3d6678b1	0.056267444
244	0xbd865597	-0.06559294
245	0x3d20b4d3	0.039234947
246	0x3ca61cc7	0.020277394
247	0x3d006ce3	0.031353842
248	0xbd595a7f	-0.05306482
249	0xbe526f32	-0.2055023
250	0x3e0aafa0	0.13543558
251	0xbd2ea443	-0.04263712
252	0x3d26b603	0.040700924
253	0xbc00473c	-0.007829484
254	0x3f0f5473	0.55988234
255	0xbce88150	-0.028381974

bias f4 [100]
0	0x3b8bb438	0.004263427
1	0xbdb8a941	-0.090166576
2	0x3b4aade1	0.0030926394
3	0xbc77a22d	-0.015114349
4	0x3dd50db9	0.10403008
5	0xbce05587	-0.027384533
6	0x3d1bf2b2	0.03807325
7	0x3dc86a0c	0.09785852
8	0xbdae92af	-0.085240714
9	0x3cf1f8da	0.029537607
10	0x3da0b9c6	0.078479335
11	0x3c3a5d22	0.011374744
12	0xbd3d38d0	-0.04619676
13	0x3d1f1964	0.038842574
14	0x3ee34ee4	0.44396126
15	0x3d836f78	0.06417745
16	0x3c019b73	0.007910597
17	0x3d4e0989	0.050302062
18	0xbe11a6b6	-0.14223751
19	0xbd4dc3e4	-0.050235644
20	0x3da0612d	0.07831035
21	0x3e011d6a	0.12608877
22	0xbd1aa536	-0.037755214
23	0xbd801f22	-0.06255938
24	0xbd6a5078	-0.057205647
25	0x3c60ac5a	0.013712967
26	0x3e105225	0.14093836
27	0x3da5a4ce	0.080880746
28	0x3db8dfa6	0.090270326
29	0xbcf25974	-0.02958367
30	0x3cfd3d45	0.030913005
31	0xbdb369b3	-0.08760395
32	0x3d3ebb58	0.046565384
33	0xbd113f52	-0.035460778
34	0xbd89089a	-0.06691094
35	0xbd307388	-0.04307893
36	0xbd9ab9d6	-0.07554977
37	0x3d2e328b	0.04252867
38	0x3e28d381	0.16486932
39	0x3e2926ef	0.16518758
40	0xbcb35ec5	-0.021895776
41	0xbd09d5f3	-0.033651303
42	0x3b688ebd	0.003548547
43	0xbda45a36	-0.08025019
44	0x3e730434	0.23732072
45	0x3dbab751	0.09116996
46	0x3dc58c1f	0.096458666
47	0x3c967c18	0.01836972
48	0x3ddc05df	0.10743307
49	0xbd4c6b94	-0.049907282
50	0x3de6f665	0.11277465
51	0xbd47d195	-0.048783857
52	0x3da57319	0.08078594
53	0x3d9391a9	0.07205517
54	0x3aff4342	0.0019475
55	0x3da4fc1b	0.08055898
56	0x3dbf3e17	0.093380146
57	0xbc93a615	-0.01802353
58	0xbd43ed6d	-0.04783385
59	0xbebda98b	-0.37043414
60	0xbdd6e39c	-0.10492632
61	0x3d37defc	0.04489039
62	0xbd28ce27	-0.041212227
63	0x3dbdff20	0.09277177
64	0xbc882393	-0.016618526
65	0xbd367b50	-0.044551194
66	0xbd3d8503	-0.046269428
67	0x3e0b3516	0.1359447
68	0xbde172ca	-0.110082224
69	0x3dc524b8	0.09626144
70	0x3e1f9ca3	0.15587096
71	0xbd340b3f	-0.043956038
72	0xbe1b8994	-0.151892
73	0x3dc72cea	0.097253636
74	0xbd4f3aca	-0.050593175
75	0xbd8eb0b1	-0.06967295
76	0x3d82c4f1	0.0638522
77	0xbd922b87	-0.071372084
78	0xbde38b57	-0.11110561
79	0xbda0f7f0	-0.0785979
80	0xbc29c566	-0.010362005
81	0xbcd803a7	-0.02636893
82	0x3d949715	0.07255379
83	0x3dd3aa51	0.1033522
84	0xbd917922	-0.071031824
85	0xbdb42d27	-0.087976746
86	0x3e656317	0.22401081
87	0x3cf8f07a	0.030388106
88	0xbba9d86b	-0.0051832697
89	0xbc984a96	-0.018590253
90	0xbdb5479b	-0.08851548
91	0x3c686020	0.014183074
92	0xbd0dff02	-0.034667023
93	0x3d677e3f	0.056516882
94	0xbd8bd6b1	-0.068280585
95	0xbbd1ab65	-0.0063986056
96	0x3a6cd4c9	0.0009034393
97	0xbdd66323	-0.104681276
98	0x3d4f0836	0.05054494
99	0x3ce91e97	0.02845697

weight f4 [100, 100]
0	0x3a7d4028	0.0009660744
1	0x3eb7bdc5	0.3588697
2	0x3e20ab1c	0.15690273
3	0xbd574bd7	-0.05256256
4	0xbd054c66	-0.032543562
5	0xbd5e254c	-0.054234788
6	0xbd9353ce	-0.07193719
7	0xbde90409	-0.11377723
8	0x3dfcf6c5	0.12351755
9	0xbd9be3c7	-0.076118045
10	0xbe4c4947	-0.19949828
11	0xbd6c7dba	-0.05773709
12	0x39abfb94	0.00032803102
13	0xbb76521b	-0.003758556
14	0xb9fff4df	-0.00048819833
15	0x3dd2c8ad	0.10292182
16	0x3db650cb	0.08902129
17	0xbe1e9c16	-0.1548923
18	0x3afbe128	0.0019216882
19	0x3e2d27a4	0.16909653
20	0xbdb5a393	-0.0886909
21	0xbd559d42	-0.052151926
22	0xbd5d2346	-0.053988717
23	0x3ca13a0d	0.019681001
24	0x3e5594ea	0.20857587
25	0x3dc99aac	0.098439544
26	0x3e698fdb	0.22808783
27	0x3e0141d4	0.12622768
28	0x3d890431	0.066902526
29	0x3e050e57	0.12993751
30	0x3d63494c	0.055489823
31	0x3dbc38a9	0.091904946
32	0x3bf09570	0.007342033
33	0xbddf92e1	-0.10916687
34	0xbde71ce1	-0.11284805
35	0x3d174270	0.036928594
36	0x3b7c7998	0.0038524624
37	0xbd2a9186	-0.04164269
38	0xbd16aa44	-0.03678347
39	0x38ef40a0	0.000114084454
40	0xbb146c72	-0.0022647646
41	0xbc475e3e	-0.012168465
42	0xbdc18342	-0.094488636
43	0xbc5f4de9	-0.013629415
44	0xbdd354b6	-0.10318892
45	0xbd63c4ff	-0.055607792
46	0xbd10f5e3	-0.035390746
47	0xbe2cf261	-0.16889335
48	0xbcc6aa4f	-0.024251131
49	0xbd3789a2	-0.04480899
50	0x3b015784	0.0019736001
51	0xbd528db4	-0.05140467
52	0x3bf86f0c	0.007581597
53	0xbcaca079	-0.021072613
54	0x3d55edc9	0.052228723
55	0x3ae1e5c1	0.001723461
56	0x3db26b99	0.08711929
57	0xbe3df059	-0.18548717
58	0xbda1b5c3	-0.078959964
59	0x3ddf1e1f	0.10894417
60	0x3cba79b6	0.022763114
61	0x3df6ba38	0.12047237
62	0x3d8329ed	0.06404481
63	0xbdaae2fd	-0.08344076
64	0x3e27f1c0	0.16400814
65	0xbdc14578	-0.09437078
66	0xbcbbdc26	-0.022932123
67	0xbe43b1e5	-0.1911083
68	0x3dfe9a1b	0.12431737
69	0xbda79a1d	-0.08183692
70	0xbd153706	-0.036429428
71	0xbe79f293	-0.24408941
72	0x3e0dd755	0.13851674
73	0x3dc002c3	0.09375527
74	0x3d2ec5d8	0.042669147
75	0x3dfc3017	0.1231386
76	0x3d0d4a22	0.034494527
77	0x3e17b11d	0.14813657
78	0xbd80180a	-0.06254585
79	0xbe14cfe8	-0.14532435
80	0xbdede190	-0.11615288
81	0x3e1096af	0.14119981
82	0x3ce6566f	0.028117387
83	0xbe06bfab	-0.13159053
84	0x3d812a9a	0.06306954
85	0xbe534d15	-0.20634873
86	0xbbbef958	-0.005828064
87	0xbcba2a8a	-0.022725362
88	0xbb73138f	-0.0037090515
89	0x3e182e78	0.14861476
90	0xbd6f6faf	-0.05845612
91	0xbdf6ea5c	-0.12056419
92	0xbba685c2	-0.005081863
93	0x3dc42f78	0.095793664
94	0xbdc335e2	-0.09531762
95	0xbdf9eb56	-0.1220309
96	0x3e3081b0	0.17236972
97	0x3b11b056	0.0022230349
98	0x3d8be65b	0.06831046
99	0xbb9630ac	-0.004583439
100	0xbd7957b0	-0.06087464
101	0x3dc64133	0.096804045
102	0xbe2490a7	-0.16070805
103	0x3d30f2d8	0.043200344
104	0xbd2a2166	-0.041535757
105	0xbde2a7c1	-0.11067153
106	0x3e0c67b1	0.1371143
107	0x39a28bec	0.00031003298
108	0x3db14c57	0.08657139
109	0xbbdaec07	-0.0066809687
110	0xbcf79df6	-0.030226689
111	0xbd9671e0	-0.07345939
112	0xbe580e9e	-0.21099326
113	0xbbd7d57f	-0.00658673
114	0xbd343cf0	-0.044003427
115	0x3cf23f7f	0.029571293
116	0xbe07f783	-0.13278012
117	0xbe01fb4d	-0.1269352
118	0x3d33b07a	0.043869473
119	0xbe11fb31	-0.14255978
120	0x3dfe4979	0.124163575
121	0x3d8c17f8	0.06840509
122	0x3c8e663f	0.01738274
123	0xbdf5301b	-0.11972066
124	0xbddbacab	-0.10726293
125	0xbde7f246	-0.11325507
126	0xbbffa939	-0.0078021553
127	0xbdde3a9e	-0.10851024
128	0xbe022017	-0.12707554
129	0xbdb9ddd2	-0.09075512
130	0x3d07dedc	0.03317152
131	0x3dff4d20	0.12465882
132	0xbcb3f256	-0.02196614
133	0x3e0794df	0.13240384
134	0x3c823d1b	0.015898278
135	0xbe2226db	-0.15835135
136	0x3d522b68	0.051310927
137	0x3d85cbdb	0.06533023
138	0xbcd86883	-0.026417023
139	0x3d469d66	0.04848995
140	0xbd4333a2	-0.047656663
141	0x3e540b86	0.20707521
142	0x3d9945c3	0.07484009
143	0x3d61cb68	0.055125624
144	0xbcd5605b	-0.026046922
145	0x3c42d75d	0.011892167
146	0x3d2f9c12	0.04287345
147	0x3e174bbb	0.14774983
148	0xbde12ea9	-0.10995228
149	0xbeaf7111	-0.3426595
150	0xbdd34963	-0.10316732
151	0xbc09061d	-0.008363274
152	0x3b665e5d	0.003515146
153	0xbdc171f8	-0.09445566
154	0xbd06f5b3	-0.03294916
155	0x3d9b5683	0.0758486
156	0x3c5738ca	0.013136098
157	0xbd053259	-0.03251872
158	0x3e1faaf8	0.15592563
159	0x3d3ad2af	0.04561108
160	0xbc5cfd75	-0.013488163
161	0xbe009182	-0.12555507
162	0xbd9ae416	-0.07563035
163	0x3cc7fb88	0.024411932
164	0x3a8b9852	0.0010650253
165	0xbd3956ab	-0.04524867
166	0x3a72c811	0.00092613796
167	0x3e454f7d	0.19268604
168	0xba1e7083	-0.0006043987
169	0xbcff6ed6	-0.03118078
170	0x3db66330	0.08905637
171	0xbd6e938c	-0.05824618
172	0xbce84bf5	-0.028356532
173	0xbcd3aa97	-0.02583818
174	0xbd9efdb9	-0.077632375
175	0x3d3f4a32	0.046701618
176	0x3e47903e	0.19488618
177	0x3cd9caba	0.026585925
178	0xbbecff23	-0.007232563
179	0xbe23afa3	-0.15984969
180	0x3deee47e	0.11664675
181	0xbe4baf3b	-0.19891064
182	0x3d887c20	0.066643
183	0xbdd02374	-0.10163012
184	0xbe077fe3	-0.13232379
185	0x3e5acd86	0.21367463
186	0x3dd04292	0.10168947
187	0xbcdf90b0	-0.027290672
188	0x3dcba3ac	0.09943327
189	0xbcc2e4cc	-0.02379074
190	0xbd406621	-0.046972398
191	0x3cfd9d12	0.030958686
192	0x3d5b7881	0.05358172
193	0xbbd38419	-0.0064549563
194	0x3e0d5efb	0.13805763
195	0x3da72880	0.08162022
196	0xbd8f71c9	-0.07004125
197	0xbe17e06b	-0.14831702
198	0xbcf366c9	-0.029712098
199	0x3bb64616	0.005562554
200	0xbc9e5fd6	-0.019332808
201	0xbac47e68	-0.0014991285
202	0x3deb1bd8	0.1147992
203	0x3e338609	0.17531599
204	0x3d5892b8	0.052874297
205	0x3d1e3d6b	0.03863279
206	0x3d3c846a	0.046024717
207	0x3b74cdf9	0.0037354215
208	0x3cb6b284	0.02230192
209	0x3e2e3aa3	0.17014556
210	0xbc732c84	-0.014842156
211	0x3ca57afa	0.020200241
212	0xbdf964a5	-0.121773995
213	0xbd42ad6e	-0.047528677
214	0x3b2801eb	0.0025635909
215	0x3d2cdac1	0.042200807
216	0x3d94d46a	0.07267077
217	0x3de0c16d	0.10974393
218	0x3cc51da0	0.024061978
219	0xbdbd77c5	-0.0925136
220	0xbcbc568a	-0.022990484
221	0xbdddb4b3	-0.10825481
222	0xbd727bfe	-0.05920028
223	0xbe4d50c8	-0.20050347
224	0x3e561c70	0.20909286
225	0xbc8f04e0	-0.01745838
226	0x3ddbdff6	0.107360765
227	0x3dc2ba76	0.09508221
228	0x3e081a0c	0.13291186
229	0xbc9a9a39	-0.018872367
230	0x3d31976a	0.04335729
231	0xbe37f56b	-0.17964713
232	0xbd297316	-0.04136952
233	0xbde70eec	-0.11282143
234	0x3e114ae6	0.14188728
235	0xbd5db6f5	-0.05412956
236	0x3d78d7ec	0.060752794
237	0xbdd4a00d	-0.1038209
238	0xbcaafae7	-0.020871593
239	0x3d2c6043	0.04208399
240	0xbd0e0af6	-0.034678422
241	0xbe40d82d	-0.18832465
242	0x3d9e17b3	0.07719364
243	0xbbd40a2c	-0.006470939
244	0x3d7255cb	0.05916385
245	0xbb8aba92	-0.0042336667
246	0xbe466f18	-0.19378316
247	0xbde0c34c	-0.1097475
248	0x3e2b7ede	0.16747615
249	0x3e2909c6	0.16507635
250	0xbd8d9fd0	-0.069152474
251	0x3df0e3b1	0.11762179
252	0x3dd53f21	0.104124315
253	0x3e57609a	0.21032944
254	0xbda5b491	-0.08091081
255	0x3d2dec63	0.042461764

bias f4 [100]
0	0x3d61a8f9	0.055092786
1	0xbd94455b	-0.07239791
2	0x3decabdc	0.11556217
3	0xbda8d328	-0.082434
4	0xbdca61c5	-0.09881929
5	0xbe555d33	-0.20836334
6	0xbd9b26fc	-0.07575795
7	0xbdb1e4a7	-0.0868619
8	0x3e08cc0f	0.13359092
9	0x3d33177f	0.04372358
10	0xbcc86565	-0.024462411
11	0xbdf56c83	-0.119835876
12	0xbdcfa549	-0.101389475
13	0x3e4f219d	0.20227666
14	0x3d74d7ef	0.059776243
15	0xbe36cf98	-0.17852628
16	0x3d5025eb	0.05081741
17	0xbe05f1b9	-0.13080491
18	0x3e12e5c9	0.14345469
19	0xbd883eb8	-0.06652588
20	0x3d45dc11	0.048305575
21	0x3e04bec8	0.12963402
22	0xbe28ad83	-0.1647244
23	0xbcf2e3f9	-0.029649721
24	0xbd4bbc39	-0.04974005
25	0xbd4e56a2	-0.05037559
26	0xbd9e9615	-0.077434696
27	0xbe041ee9	-0.12902416
28	0xbce14fb5	-0.027503828
29	0x3e1a9cfd	0.15098949
30	0xbc15b9b3	-0.009138512
31	0xbe006b9e	-0.12541053
32	0xbdf77749	-0.12083299
33	0x3e2d5ed7	0.1693071
34	0xbbf3c06b	-0.0074387095
35	0x3dc97896	0.09837453
36	0x3dbc390c	0.09190568
37	0xbd868f49	-0.06570298
38	0x3d45c772	0.04828591
39	0xbda6c006	-0.08142094
40	0xbe34b088	-0.17645466
41	0x3d4c30f9	0.04985139
42	0x3c905ece	0.017623331
43	0xbc72a0e5	-0.014808868
44	0x3dfb669c	0.122754306
45	0xbd48cbeb	-0.049022596
46	0x3dafea8e	0.0858966
47	0xbdab7b45	-0.08373121
48	0xbdf7016a	-0.120608166
49	0xbd1a860d	-0.037725497
50	0x3e02655e	0.12733981
51	0xbde1571e	-0.110029444
52	0xbd48a5bc	-0.04898618
53	0x3cd0b282	0.025475744
54	0x3becb55c	0.007223768
55	0x3e21306f	0.15741132
56	0xbcb5a8f1	-0.022175284
57	0x3e3f8e0b	0.18706529
58	0xbcea267e	-0.028582808
59	0x3e04868f	0.12941955
60	0xbd9b89e8	-0.07594663
61	0xbd892712	-0.06696905
62	0x3e768b15	0.24076493
63	0x3d9711ea	0.07376464
64	0x3d007a91	0.03136689
65	0x3e0acd65	0.13554914
66	0x3d62d8fc	0.055382714
67	0x3ccd20a7	0.025039984
68	0x3e657bbc	0.22410482
69	0x3e1bc099	0.15210189
70	0xbd900eb0	-0.070340514
71	0x3de8789a	0.11351128
72	0xbd0e33df	-0.034717437
73	0x3e39f469	0.18159641
74	0xbd6415a4	-0.0556847
75	0xbdf727e6	-0.12068157
76	0xbcb20abe	-0.021733638
77	0xbd41a4b8	-0.04727623
78	0x3c3df8df	0.01159498
79	0xbe1cf65d	-0.15328355
80	0xbd3a7c38	-0.04552862
81	0x3d18ad91	0.0372749
82	0x3de1a373	0.110175036
83	0xbcbe39d3	-0.023220932
84	0xbe017184	-0.12640959
85	0xbc81f056	-0.015861671
86	0xbdc2e937	-0.095171385
87	0x3e34228d	0.17591305
88	0x3d891474	0.06693354
89	0xbccf5399	-0.025308417
90	0xb994bb73	-0.0002836842
91	0x3b9ae09f	0.004726484
92	0x3e3294a7	0.17439519
93	0xbd42ef3d	-0.047591437
94	0x3e25bee6	0.16186103
95	0xbd852aea	-0.06502326
96	0x3d2b2057	0.04177889
97	0xbe200561	-0.15627052
98	0xbdedb9f6	-0.11607735
99	0xbde2beb0	-0.11071527

weight f4 [100, 100]
0	0x3d13c2dc	0.036074504
1	0x3d37c023	0.04486097
2	0xbe2c091b	-0.16800348
3	0x3c357ef9	0.011077636
4	0x3cdae48c	0.026720308
5	0xbd67f7c5	-0.056632776
6	0xbe054474	-0.13014394
7	0x3d9d9cec	0.07695946
8	0xbda00249	-0.07812936
9	0xbc22d6a1	-0.009938867
10	0xbdc2365c	-0.094830245
11	0x3de9fbe7	0.11425
12	0x3c97b226	0.018517565
13	0x3d59c377	0.053164925
14	0x3dd07744	0.10178998
15	0xbc9c7759	-0.019099878
16	0x3d9d7d50	0.07689917
17	0x3c358009	0.011077889
18	0xbd7c5b0d	-0.06161027
19	0x3d491213	0.049089503
20	0x3e39e179	0.18152417
21	0xbdc59505	-0.09647564
22	0xbe4321de	-0.19055888
23	0xbbfdca6a	-0.007745077
24	0xbcb47f5b	-0.022033384
25	0x3d498959	0.04920325
26	0x3e0ef523	0.139607
27	0x3e44a181	0.19202234
28	0x3ca7952c	0.020456873
29	0x3dc02915	0.09382836
30	0xbd43676e	-0.04770606
31	0xbe57f4d8	-0.21089494
32	0xbda8f210	-0.08249295
33	0xbe33d8a2	-0.17563108
34	0xbe1bbcd0	-0.15208745
35	0xbd82d265	-0.06387786
36	0xbd410ec1	-0.04713321
37	0xbe145f7f	-0.14489554
38	0x3c448bb8	0.011996202
39	0xbd6dcc9b	-0.058056455
40	0x3d7b295b	0.061318737
41	0x3e8964d9	0.26834753
42	0xbeccb4e1	-0.3998175
43	0x3e269428	0.16267455
44	0x3d3326fc	0.04373835
45	0xbd7c8db3	-0.061658572
46	0xbe1779d6	-0.1479257
47	0xbb775997	-0.0037742609
48	0xbe0f8c9f	-0.14018486
49	0x3e3b1469	0.18269505
50	0xbe5e2232	-0.21692732
51	0x3c8e34ed	0.017359221
52	0xbe2e8534	-0.17043
53	0x3e53039e	0.20606849
54	0x3ebc3937	0.367624
55	0x3e2cb487	0.1686574
56	0x3e8736f3	0.2640911
57	0x3e0e65aa	0.1390597
58	0xbdf99b32	-0.12187804
59	0xbd359648	-0.044332772
60	0xbe3ed4ea	-0.18635908
61	0xbdd8d4b9	-0.105874486
62	0xbce69035	-0.028144935
63	0xbe059d9b	-0.13048403
64	0x3cd0357b	0.025416126
65	0x3c14869a	0.009065295
66	0x3e2e7e23	0.17040305
67	0x3df02ca3	0.11727264
68	0xbd778431	-0.060428802
69	0x3dc1f7ba	0.09471078
70	0xbe81bd16	-0.25339574
71	0xbdabf900	-0.08397102
72	0x3d331b3e	0.043727152
73	0xbdb1132f	-0.08646237
74	0x3d7d9072	0.061905332
75	0x3db544ad	0.088509895
76	0x3e320467	0.17384492
77	0xbdf050e1	-0.117341764
78	0x3e104b8c	0.14091319
79	0xbea9dc78	-0.33176017
80	0xbd03d394	-0.0321842
81	0xbc765e00	-0.01503706
82	0xbd74454c	-0.0596364
83	0xbb931756	-0.004488866
84	0xbd877567	-0.066141896
85	0x3dd09850	0.10185301
86	0x3dff1a95	0.12456242
87	0xbe297116	-0.16547045
88	0x3e9a0fb6	0.30090111
89	0xbd1eb602	-0.038747795
90	0x3c05e001	0.0081710825
91	0x3de84efd	0.11343191
92	0x3e2287e7	0.15872155
93	0xbdc2743f	-0.094948284
94	0x3d8dbb09	0.0692044
95	0xbe51f4f5	-0.205036
96	0xbd7c8fcc	-0.061660573
97	0x3dd474f4	0.103738695
98	0x3dc2dd2f	0.09514844
99	0xbdd1a928	-0.10237342
100	0xbdffb698	-0.12485999
101	0xbe1c18c2	-0.1524382
102	0x3d15470e	0.036444716
103	0x3d763959	0.060113285
104	0xbc95e331	-0.01829681
105	0x3d72d300	0.059283257
106	0xbcec9b26	-0.028882574
107	0xbc5abba2	-0.013350399
108	0x3c94bddb	0.018156936
109	0xbdf0f43c	-0.11765334
110	0x3d95650f	0.07294666
111	0xbe06f128	-0.13177931
112	0xbd8a0c1c	-0.06740591
113	0x3d9c15be	0.076213345
114	0xbccc982d	-0.024974907
115	0x3e399a56	0.1812528
116	0x3d8105b9	0.0629992
117	0xbe771a30	-0.24131083
118	0xbe16ac40	-0.14714146
119	0x3d978395	0.07398144
120	0xbe79879b	-0.24368136
121	0x3dc3a757	0.09553402
122	0xbd7b8d1b	-0.061413866
123	0x3b596b50	0.0033175536
124	0xbcd52027	-0.026016308
125	0xbe843532	-0.25821835
126	0xbcd4305a	-0.025901962
127	0xbe50f12d	-0.20404501
128	0x3dc45e35	0.09588281
129	0xbd91b4ce	-0.07114564
130	0xbd9bb4f3	-0.07602873
131	0x3df8e58e	0.12153159
132	0xbbe4a155	-0.00697724
133	0x3e3ed9e9	0.18637814
134	0x3dbb2e9f	0.09139752
135	0xbdc18a08	-0.094501555
136	0x3d3afe01	0.045652393
137	0x3d7547a2	0.059882767
138	0xbd54d3ea	-0.05195991
139	0x3cad18ce	0.021129992
140	0xbc8ce430	-0.017198652
141	0xbea4fb2a	-0.32222873
142	0x3df5c101	0.11999703
143	0xbe9e39b8	-0.3090341
144	0x3d655604	0.055990234
145	0x3e212656	0.1573728
146	0x3e28c826	0.164826
147	0x3e031caa	0.12803903
148	0xbdc27cf3	-0.094964884
149	0x3c5d0d29	0.013491907
150	0xbcee3e85	-0.029082546
151	0xbe1cf399	-0.153273
152	0x3dad7854	0.084702164
153	0xbd9b7fae	-0.07592712
154	0xbe80bc98	-0.25143886
155	0xbd6c246e	-0.05765193
156	0xbe430b6a	-0.19047323
157	0xbdfe111e	-0.124056086
158	0x3dea1073	0.11428919
159	0x3d259dcd	0.040433694
160	0x3e33c626	0.17556056
161	0x3e0d2a22	0.13785604
162	0xbddbd7be	-0.10734509
163	0x3da38aec	0.079854816
164	0xbe95bbff	-0.29244992
165	0xbdca384e	-0.098740205
166	0xbc78c7ac	-0.015184324
167	0x3d483108	0.048874885
168	0x3e4b644d	0.1986248
169	0x3dcc0307	0.09961515
170	0x3b3a1c46	0.00283982
171	0xbcffdbc3	-0.03123272
172	0xbe0cb234	-0.13739854
173	0x3c7a4c3e	0.015276967
174	0x3b55733e	0.003256991
175	0xbd57f37f	-0.05272245
176	0xbe268916	-0.16263232
177	0x3e5b9ac2	0.21445754
178	0x3d94161d	0.0723078
179	0x3dd443ff	0.10364532
180	0x3d841003	0.064483665
181	0xbe90d8b2	-0.28290325
182	0x3e801bd0	0.2502122
183	0x3d615762	0.055014975
184	0xbc8bf88d	-0.017086292
185	0x3d2055e5	0.039144415
186	0xbe800a67	-0.25007936
187	0x3e6602d2	0.22462013
188	0xbea2e968	-0.318187
189	0x3e88403b	0.26611504
190	0x3d2c5a8d	0.042078543
191	0xbe6aa381	-0.22913934
192	0xbb2b0678	-0.0026096385
193	0xbd21a7aa	-0.039466538
194	0x3e1319ed	0.14365359
195	0x3ddbb61e	0.107280955
196	0x3d7ee2fb	0.062228184
197	0xbdc37324	-0.09543446
198	0x3de96f2a	0.11398156
199	0x3d963a95	0.073353924
200	0x3df38f1c	0.1189253
201	0xbc8b15db	-0.016978195
202	0xbd8071c3	-0.06271698
203	0x3e59903e	0.2124643
204	0x3c3d04e0	0.011536807
205	0xbe3d5e34	-0.18492967
206	0x3e94c547	0.2905676
207	0xbdc3dfa5	-0.09564141
208	0xbdc180f8	-0.09448427
209	0x3d9f11e9	0.07767088
210	0xbdaad91e	-0.08342193
211	0xbd8547d6	-0.06507842
212	0x3ea12169	0.31470802
213	0x3cd92f8b	0.026511928
214	0xbd10d722	-0.035361417
215	0x3dc7f69c	0.09763834
216	0xbdeeb5a2	-0.116557375
217	0xbdb47cba	-0.08812852
218	0xbdccb7dd	-0.09996007
219	0x3da5d09c	0.0809643
220	0xbe0f0d38	-0.13969886
221	0xbd828211	-0.063724644
222	0xbe0d4ed2	-0.13799599
223	0x3df53648	0.11973244
224	0xbdb1f2e9	-0.086889096
225	0x3decc3f1	0.1156081
226	0x3df2037f	0.11817073
227	0xbddc7eb4	-0.10766354
228	0x3b4e5cfe	0.0031488533
229	0x3dc7e52f	0.0976051
230	0x3da5e6f2	0.0810069
231	0x3ce109b8	0.027470455
232	0x3cbc6158	0.022995636
233	0x3d81df8e	0.06341468
234	0xbe44e6e0	-0.19228697
235	0xbe4efa03	-0.2021256
236	0xbe6a6ab4	-0.22892267
237	0xbc749f41	-0.014930547
238	0xbd7fa1ed	-0.062410284
239	0x3da2be80	0.07946491
240	0x3e8a9391	0.2706571
241	0xbe738496	-0.23781046
242	0x3d8036f0	0.062604785
243	0x3be35acb	0.0069383136
244	0xbb50a6ec	-0.0031837774
245	0x3df87ccc	0.12133178
246	0x3e060a5b	0.13089888
247	0x3e2ef7c2	0.170867
248	0xbd4351c9	-0.04768542
249	0x3eb76109	0.3581622
250	0xbe041807	-0.1289979
251	0x3defd0bf	0.11709737
252	0x3e3a6580	0.18202782
253	0x3d0d8d64	0.03455867
254	0xbce3b34a	-0.027795453
255	0x3da358cb	0.0797592

bias f4 [100]
0	0xbdba376c	-0.09092602
1	0x3c62aa96	0.013834616
2	0xbd6ca116	-0.05777081
3	0x3e86a56b	0.2629808
4	0x3cbe6e6b	0.02324601
5	0xbcf4cd7b	-0.029883137
6	0xbd883b28	-0.06651908
7	0xbcc265f9	-0.023730265
8	0xbdd600ca	-0.10449369
9	0xbd7a85e4	-0.061162844
10	0xbd8c54db	-0.068521224
11	0xbe25fbb8	-0.16209304
12	0x3d05264d	0.03250723
13	0x3d07d48d	0.03316169
14	0xbe6f9f32	-0.23400572
15	0xbdabbdcb	-0.083858095
16	0x3d3ff1e8	0.04686156
17	0x3d9432c1	0.07236243
18	0xbd87ecd3	-0.066369675
19	0xbdf9caf1	-0.12196911
20	0xbe1ecf9d	-0.15508886
21	0x3b6aac54	0.0035808282
22	0x3c410e1f	0.011783152
23	0xbd34f202	-0.04417611
24	0x3dee55bc	0.11637446
25	0xbdbeab65	-0.09310035
26	0xbe34ed55	-0.1766866
27	0xbad29849	-0.0016067113
28	0x3e34cc9b	0.17656176
29	0x3e626465	0.2210861
30	0x3da7ae9f	0.08187603
31	0xbe4303cc	-0.19044417
32	0xbd4b1ee8	-0.04959002
33	0x3df6207a	0.12017913
34	0x3d345b1c	0.0440322
35	0xbbc6d3e1	-0.0060677384
36	0x3e3d88fb	0.18509285
37	0xbdebdace	-0.11516343
38	0xbe74be57	-0.23900734
39	0xbdb17b28	-0.08666068
40	0x3d5a9a5e	0.053369872
41	0xbd0b59d0	-0.0340212
42	0xbdb1bd1e	-0.08678649
43	0x3e0c4bbd	0.13700767
44	0x3e791beb	0.24327056
45	0x3d221dc7	0.03957918
46	0xbe1e4d45	-0.15459163
47	0xbdd7bdb5	-0.105342306
48	0xbe82f3f9	-0.2557676
49	0xbe19da0b	-0.15024583
50	0x3d15150e	0.036397032
51	0xbdd67435	-0.104713835
52	0xbcdabc65	-0.026701162
53	0x3dfcb2ad	0.12338767
54	0xbe00ce63	-0.1257873
55	0xbd5b39d2	-0.05352194
56	0x3e950bb9	0.29110506
57	0x3e030519	0.12794913
58	0x3e8626f2	0.26201588
59	0x3df926d6	0.121656105
60	0x3e24b2ec	0.16083878
61	0xbd400450	-0.046879113
62	0xbd8b17af	-0.06791627
63	0xbcf369f0	-0.0297136
64	0xbd0c88c5	-0.03431012
65	0x3e5560c7	0.20837699
66	0x3e22f6d4	0.1591447
67	0xbe15b7e8	-0.14620936
68	0x3d35459b	0.044255834
69	0xbe58b3e5	-0.21162374
70	0x3e4046a4	0.18776947
71	0x3e5fdd6f	0.21861814
72	0xbd1e2a22	-0.0386144
73	0xbe197619	-0.14986457
74	0x3c6e5309	0.014546164
75	0xbdb15524	-0.086588174
76	0xbdba9dbb	-0.09112116
77	0x3e800c28	0.25009274
78	0xbdab89da	-0.083759025
79	0x3ca4f06d	0.020134175
80	0x3e3da07e	0.18518254
81	0x3bdd892e	0.006760738
82	0xbb92e091	-0.004482337
83	0xbe89ff33	-0.26952514
84	0x3e273f8a	0.16332832
85	0xbda74b91	-0.0816871
86	0x3c8754e7	0.016519977
87	0x3d1a7450	0.03770858
88	0x3c919959	0.017773317
89	0x3cc54d1b	0.024084618
90	0x3d80f29b	0.06296273
91	0x3dd9fdbb	0.10644098
92	0x3d230edc	0.039809093
93	0xbd6f4131	-0.05841178
94	0xbce36f6b	-0.02776309
95	0xbe208978	-0.1567744
96	0xbe04af47	-0.12957488
97	0x3d0aed94	0.03391798
98	0xbd8132da	-0.06308527
99	0xbdfcc228	-0.1234172

weight f4 [100, 100]
0	0xbe327d33	-0.17430572
1	0xbcae3022	-0.021263186
2	0xbeb3bb23	-0.3510371
3	0x3bb51b0e	0.005526907
4	0x3dada8a4	0.08479431
5	0xbdf7cbe9	-0.1209944
6	0xbdbdde3a	-0.09270902
7	0xbdb95b81	-0.09050656
8	0x3c293207	0.010326869
9	0x3dee966f	0.11649787
10	0x3da4b664	0.08042601
11	0x3d8f1b00	0.06987572
12	0xbd8e6e8e	-0.069546804
13	0x3ec3db44	0.38253224
14	0xbe73e972	-0.23819521
15	0xbe723339	-0.23652352
16	0x3edf7070	0.4364047
17	0xbe349439	-0.17634667
18	0x3dec46e5	0.115369596
19	0x3b75c173	0.0037499338
20	0x3e12338c	0.14277476
21	0x3dc2be33	0.09508934
22	0x3c718ff7	0.014743797
23	0x3dfd6952	0.12373604
24	0x3d8fb5ef	0.07017123
25	0xbd2db16b	-0.042405527
26	0xbe1f7160	-0.15570593
27	0x3d4e5dde	0.050382487
28	0x3ea3887b	0.31940064
29	0x3ad7125c	0.001640867
30	0x3d13fb88	0.03612855
31	0xbc0a7e87	-0.008453018
32	0x3cb506d0	0.022097975
33	0x3e893c4a	0.2680381
34	0x3ccf2299	0.025285052
35	0x3cdef736	0.027217489
36	0xbe9d1fcd	-0.30688325
37	0xbe3e5059	-0.18585338
38	0x3d91316c	0.070895046
39	0x3d4c9b04	0.049952522
40	0xbcefce14	-0.02927307
41	0xbe81c2c1	-0.25343898
42	0x3dda1cfa	0.10650058
43	0xbdb986f4	-0.090589434
44	0x3d6a8c1c	0.057262525
45	0x3d1b8487	0.037968185
46	0xbdb69676	-0.08915417
47	0xbd0fe697	-0.035132017
48	0x3d235cf9	0.039883588
49	0x3e16cf50	0.14727521
50	0x3e81b314	0.25331938
51	0x3dd19ee1	0.10235382
52	0x3e2ee0da	0.17077962
53	0x3cb4c0a0	0.022064507
54	0x3c988e9d	0.01862269
55	0x3d85e132	0.06537093
56	0xbcbce66f	-0.023059098
57	0xbc920980	-0.017826796
58	0xbddd92b9	-0.10819001
59	0xbdf07606	-0.11741261
60	0x3dc6d977	0.09709447
61	0xbdb45224	-0.088047296
62	0x3d9221d1	0.07135356
63	0xbbcff3c7	-0.006346199
64	0xbe3daa43	-0.18521981
65	0xbe25be9a	-0.1618599
66	0x3d5331ef	0.051561292
67	0xbd87d996	-0.06633298
68	0x3d138373	0.03601403
69	0x3d653ffa	0.055969216
70	0xbd2ca40c	-0.042148635
71	0xbe115e01	-0.14196016
72	0x3e7e48e4	0.24832493
73	0x3d9cc19b	0.07654115
74	0xbe0aba01	-0.13547517
75	0xbd5d2eb2	-0.05399961
76	0xbc0d58aa	-0.008627096
77	0xbbc010aa	-0.0058613615
78	0x3e84f49c	0.25967872
79	0x3e6f1570	0.23348022
80	0xbe894480	-0.26810074
81	0x3e7e8d4f	0.24858592
82	0x3d537d73	0.05163331
83	0x3e16bd5d	0.14720674
84	0x3b0c5b5f	0.0021416766
85	0x3e9ea45c	0.3098477
86	0x3e9a7159	0.30164602
87	0xbd9ed508	-0.07755476
88	0x3db06fed	0.08615098
89	0xbb95698e	-0.0045597022
90	0xbbb4b920	-0.0055152327
91	0x3d1bd779	0.038047288
92	0x3e1e5c85	0.15464981
93	0xbe219f1b	-0.1578335
94	0xbab32175	-0.0013666587
95	0xbd9b762f	-0.07590901
96	0x3db59495	0.088662304
97	0x3d66caf0	0.05634588
98	0xbcf956a7	-0.030436827
99	0x3df94d6b	0.121729694
100	0xbd5eba19	-0.054376695
101	0x3e71c1e5	0.23609121
102	0xbb9dcffb	-0.004816053
103	0x3d0e4cce	0.034741215
104	0xbdb41188	-0.08792406
105	0x3cb7fa93	0.02245835
106	0x3c853605	0.01626111
107	0x3e245d29	0.16051163
108	0x3df3f297	0.11911505
109	0xbd8af36e	-0.06784712
110	0xbdf7e639	-0.12104458
111	0x3d594067	0.053039934
112	0xbd7e30f7	-0.062058415
113	0x3d0421ae	0.032258682
114	0x3e2cc738	0.16872871
115	0x3d4808ff	0.048836704
116	0xbe099a5b	-0.13437788
117	0x3c9a1eb1	0.018813463
118	0xbd85066a	-0.06495364
119	0xbdd3ddc0	-0.1034503
120	0xbdd0e9b7	-0.102008276
121	0x3deb8405	0.1149979
122	0xbde187ea	-0.11012252
123	0x3db777c3	0.089583896
124	0xbddef8bf	-0.10887288
125	0xbdb41bae	-0.08794342
126	0x3c93927d	0.018014187
127	0xbd97c8cd	-0.074113466
128	0x3e315c66	0.17320403
129	0xbe443a3b	-0.19162838
130	0x3db414e2	0.087930456
131	0x3e163e36	0.14672169
132	0x3e415129	0.18878616
133	0xbe614bbd	-0.22001548
134	0xbda4499c	-0.080218524
135	0xbce55b3e	-0.02799761
136	0x3da4fe22	0.080562845
137	0xbe217ffd	-0.1577148
138	0xbdb38591	-0.0876571
139	0xbda0f036	-0.078583166
140	0x3ccf058e	0.025271203
141	0xbcb030cc	-0.021507643
142	0x3e7ca53d	0.24672408
143	0x3e0e2123	0.13879828
144	0xbbbb10af	-0.005708776
145	0xbe0251db	-0.12726538
146	0x3c4d9d36	0.012549689
147	0x3b83989d	0.0040159957
148	0xbe15b7f8	-0.1462096
149	0xbda51b41	-0.08061839
150	0x3e4a34dc	0.19746727
151	0x3d099e19	0.03359804
152	0xbc90cff6	-0.017677289
153	0x3e025055	0.12725957
154	0x3dd4566b	0.103680454
155	0x3de24fa1	0.11050344
156	0xbe386518	-0.18007314
157	0xbd192256	-0.03738626
158	0xbde1a13b	-0.110170804
159	0x3e8eb17a	0.2786978
160	0xbdb2c832	-0.087295905
161	0x3d705f90	0.058684886
162	0x3e247e3b	0.16063778
163	0x3dbf5b95	0.0934364
164	0x3e40f1bd	0.18842216
165	0xbea53397	-0.32265922
166	0x3ca5c604	0.020236023
167	0x3d2f7500	0.04283619
168	0xbe6baf07	-0.23015986
169	0x3e0f3210	0.13983941
170	0xbe1cac4b	-0.153001
171	0x3c3c5065	0.011493777
172	0xbd8c74c6	-0.0685821
173	0x3b3ef955	0.0029140313
174	0x3e378c69	0.17924656
175	0xbdbd94f3	-0.092569254
176	0xbd429f4c	-0.0475152
177	0xbda391f6	-0.07986824
178	0x3d90ab13	0.0706388
179	0xbda95fc4	-0.08270219
180	0xbd0430ac	-0.03227298
181	0xbdea60f5	-0.11444274
182	0xbd3f69a3	-0.046731602
183	0x3dba1087	0.090851836
184	0xbd1fc007	-0.03900149
185	0xbc22c555	-0.009934743
186	0x3d554a5a	0.05207286
187	0xbddf9e86	-0.10918908
188	0xbeb26457	-0.34842178
189	0xbe064453	-0.13112001
190	0xbe57cb9c	-0.21073765
191	0xbdd379b9	-0.10325951
192	0x3db594f9	0.08866305
193	0x3d7dc296	0.06195315
194	0xbdfdfc04	-0.12401584
195	0xbdc5f436	-0.0966572
196	0xbe1a5590	-0.15071702
197	0x3db6623a	0.08905454
198	0x3e2e4c8d	0.1702139
199	0x3e4f609c	0.20251697
200	0xbd327ff0	-0.043579042
201	0xbc5f23d6	-0.013619384
202	0x3c175fd5	0.009239157
203	0xbcb3128a	-0.021859426
204	0xbd23b245	-0.039964933
205	0x3cecba22	0.028897349
206	0xbd2d2aa6	-0.042277
207	0x3df165a2	0.11786963
208	0x3d7d08e5	0.06177606
209	0x3e930372	0.28713566
210	0xbe47ba13	-0.19504575
211	0xbdb036d8	-0.086042106
212	0x39fea89f	0.00048572288
213	0xbe0642e8	-0.1311146
214	0x3d964819	0.0733797
215	0xbd8e23b3	-0.06940403
216	0x3def9fd1	0.117004044
217	0xbd45ffae	-0.04833954
218	0xbc3341f4	-0.010941017
219	0xbcbcff4a	-0.02307095
220	0xbdc99071	-0.09842003
221	0x3e0349a4	0.1282106
222	0xbe87cd87	-0.26523992
223	0xbdcdd40f	-0.100502126
224	0xba76474b	-0.0009394779
225	0x3cf4449b	0.02981787
226	0xbd77fdfc	-0.060544953
227	0xbdb6a664	-0.08918455
228	0xbd4c98d5	-0.04995044
229	0xbddd99ef	-0.10820376
230	0xbd668432	-0.056278415
231	0x3d6e1fac	0.058135673
232	0x3e100556	0.14064535
233	0x3cf88ed6	0.030341547
234	0xbd9b3204	-0.07577899
235	0xbd73961a	-0.05946932
236	0x3e0a3436	0.1349648
237	0x3db21e0c	0.08697137
238	0xbc016823	-0.007898363
239	0xbddf4c69	-0.10903246
240	0xbe8a49de	-0.2700948
241	0xbd861551	-0.065470345
242	0xbd80ccea	-0.06289084
243	0xbdcacaca	-0.0990196
244	0xbd850129	-0.06494362
245	0xbd2a6085	-0.041595954
246	0x3d8ceaf3	0.068807505
247	0x3d40638a	0.046969928
248	0x3d618f60	0.055068374
249	0xbde8ac24	-0.11360958
250	0xbe233180	-0.15936852
251	0x3decd504	0.11564067
252	0xbbd052af	-0.006357513
253	0x3e4772c4	0.19477373
254	0x3e4523db	0.19251959
255	0xbe012111	-0.1261027

bias f4 [100]
0	0xbd4d28a6	-0.050087593
1	0xbddb0a2b	-0.10695299
2	0xbd9d3b61	-0.07677341
3	0x3df665ca	0.120311335
4	0x3cfc8ca9	0.03082879
5	0x3dbe3f1f	0.09289383
6	0xbd945c85	-0.07244209
7	0x3e2f12d3	0.17097025
8	0xbe6348ab	-0.2219569
9	0x3dc10f10	0.09426701
10	0xbd8c1bba	-0.06841226
11	0xbc31871f	-0.010835438
12	0x3e162f4c	0.1466648
13	0xbe177e65	-0.1479431
14	0xbdfc9beb	-0.123344265
15	0x3df02a73	0.117268465
16	0x3d0ef737	0.03490373
17	0x3d69d623	0.057088982
18	0x3de3a330	0.1111511
19	0xbd824d3b	-0.06362387
20	0x3c835214	0.016030349
21	0x3e346af3	0.17618923
22	0x3e2d3637	0.16915213
23	0xbd6257e1	-0.05525959
24	0x3d998337	0.0749573
25	0xbe59de74	-0.21276265
26	0x3e1f3609	0.15547957
27	0xbd804d8c	-0.06264791
28	0xbe05be08	-0.13060772
29	0xbe0ae577	-0.13564096
30	0x3d6fdb8c	0.058558986
31	0x3e453399	0.19257964
32	0xbe5536f4	-0.20821744
33	0x3d28b680	0.04118967
34	0xbe6172a7	-0.22016393
35	0xbd977ac1	-0.0739646
36	0x3d9f28c7	0.077714495
37	0xbd5cc0e3	-0.05389489
38	0xbd5a0762	-0.053229697
39	0x3d6bba95	0.057550985
40	0xbda8cda1	-0.082423456
41	0x3d57181e	0.052513234
42	0xbde2d646	-0.11076026
43	0xbe572a9a	-0.21012345
44	0xbe4690e3	-0.19391207
45	0x3b59dcfd	0.0033243292
46	0xbcd3df9b	-0.02586346
47	0xbd9a3893	-0.07530322
48	0x3dfce4a6	0.12348299
49	0xbd8d73ca	-0.06906851
50	0x3cd1459d	0.02554589
51	0x3e2e0cd1	0.16997077
52	0x3e654f1c	0.22393459
53	0xbe200af6	-0.15629181
54	0x3d880b05	0.06642727
55	0x3e80217a	0.2502554
56	0x3e0a91e5	0.13532217
57	0x3dc835f9	0.097759195
58	0x3c046a3b	0.008081968
59	0xbdbd1060	-0.09231639
60	0x3e107209	0.14106001
61	0x3e18bfb7	0.14916883
62	0x3e4891ba	0.1958684
63	0xbe46017e	-0.19336507
64	0x3db0f9d7	0.08641403
65	0x3e68e8f6	0.22745118
66	0x3db7e2ee	0.0897883
67	0xbdab6792	-0.08369364
68	0xbe482bad	-0.19547911
69	0x3e8cdace	0.27510685
70	0xbe6995ff	-0.22811125
71	0x3d25e0c1	0.040497545
72	0xbe167c5b	-0.14695875
73	0x3defb788	0.11704928
74	0x3d01aca8	0.0316588
75	0x3e708eb1	0.23491932
76	0xbe627097	-0.22113262
77	0xbd69a776	-0.05704447
78	0x3e369038	0.17828453
79	0x3d5fb429	0.054615173
80	0x3dcab6f7	0.09898179
81	0xbd8f5658	-0.06998891
82	0x3da8d549	0.08243806
83	0xbe68fba7	-0.22752248
84	0xbe473418	-0.19453466
85	0x3daea76b	0.08528026
86	0x3d4d6ea8	0.05015436
87	0xbd9ee9ad	-0.07759414
88	0xbd62699e	-0.055276506
89	0xbec9b495	-0.39395586
90	0xbe0d0bc6	-0.13774022
91	0xbdffc365	-0.124884404
92	0xbe17c4e0	-0.14821196
93	0xbe2636e6	-0.1623188
94	0x3d2ae85f	0.041725513
95	0xbde7c5c8	-0.11317021
96	0xbcb730c0	-0.022362113
97	0x3c95efa6	0.01830275
98	0x3c1a9eca	0.009437272
99	0xbd818a0b	-0.06325158
