cylinder_wake/best_net_with_improved(adaptive loss).pth (torch, 334909 bytes, 20 tensors)

weight f4 [100, 3]
0.12085255 -0.052238 -0.2626518 0.13965376 -0.16241239 -0.20581788 -0.12296288 0.15283799
0.0684816 0.056058034 0.22367762 -0.1608987 0.5139617 0.48431635 -0.47918287 0.09472118
0.080858864 -0.023997376 0.10932099 0.026919264 0.047645073 0.06574811 -0.2342696 0.020687096
-0.11214348 0.08708341 0.025229177 0.011995203 -0.19826591 -0.06364346 -0.12509309 0.09234604
0.16006796 0.123933576 -0.08774158 -0.10651153 -0.06547009 -0.1018063 -0.0029477684 -0.56194735
-0.4383784 0.5129806 0.112516426 -0.0200296 -0.10064032 -0.0010710615 -0.029724177 -2.6759703
-0.11148119 0.06384722 0.031502422 -0.054682005 -0.07704264 -0.008219826 -0.095765315 -0.13050696
0.082939446 0.08398376 -0.119709246 -0.13127714 -0.1212231 0.08491073 0.014534459 0.39204943
-0.5606709 0.21271147 5.293449e-05 0.0012147506 -0.0009810528 -0.03812227 -0.18656102 -0.05550101
-0.06951741 0.3676025 0.18531966 0.08406608 0.08142904 -0.07182573 -0.084823996 0.05202361
0.15863192 -0.08794542 -0.01056166 0.12968282 0.015848286 0.31230953 0.07942181 0.0068483134
0.22113685 -0.06605612 -0.12907673 0.13251385 0.13032727 0.109120905 -0.034732834 -0.059904523
0.52131754 -0.5434438 -0.35200706 0.100262076 -0.009361112 -0.102821924 0.024625957 0.27500448
-0.096974015 0.08378635 -0.15331371 0.023888413 -0.000341932 0.2807955 -0.1259583 -0.078170314
0.059548244 0.024185177 -0.11217673 -0.011139616 0.17733198 0.10340404 0.102968514 -0.023223119
0.015955932 -0.20852631 -0.07607794 -0.11536261 0.033471543 0.09552877 0.09622831 -0.08463177
-0.053586803 -0.09323193 -0.06911762 -0.0688398 0.013648174 0.20498748 0.16859777 0.110072605
-0.119216755 -0.028232018 -0.081544615 -0.024829105 0.02593109 -0.10656861 -0.03926732 0.003995445
0.40146476 0.52659154 -0.16950771 -0.44651547 -0.5840413 0.019240469 -0.12450417 0.20177495
0.18029019 -0.05004178 -0.3190908 0.11620721 0.07358826 0.24950747 -0.21164341 -0.09937255
0.021869425 -0.013657804 0.55317223 0.10952893 -0.20590976 0.078351386 0.12904128 -0.03871807
-0.09903709 -0.017364476 0.12645726 0.10202363 0.25484553 -0.14484468 0.07667672 -0.15760945
-0.04919395 -0.14808895 -0.05813961 0.13820662 0.57496154 0.20851567 -0.30344158 -0.069230385
-0.33781916 0.025423452 6.1243176e-05 -0.0012347455 0.0008351733 0.10800627 -0.042359393 -0.2817308
0.028839227 -0.25914282 -0.03396003 0.627022 0.19991694 -0.5507046 -0.5042273 -0.06641236
0.10311464 0.073746935 0.19512336 0.09983942 -0.008114634 0.027001075 -0.1677078 0.67946887
0.059031706 -0.5576246 0.05090727 0.029051252 -0.00049885386 0.62232584 -0.18428443 -0.49685872
0.10435352 -0.06276264 -0.028154403 0.012991935 -0.1681623 0.1192738 -0.03788407 -0.18673089
0.03207347 0.09692521 0.17174494 -0.11502336 -0.037290573 0.058820147 -0.06180812 -0.65547603
0.022124691 0.55646324 0.59568477 0.16823897 -0.47373512 0.08060913 0.040479355 0.007921372
0.039462402 0.20035267 -0.050750963 -0.012620209 -0.25459552 -0.07104628 -0.51048976 0.17792249
-0.010855649 -0.06304989 0.0069542658 -0.058987033 0.11203077 -0.0008268439 -0.15828912 -0.11508594
00000000: 8b81 f73d 83f7 55bd 4c7a 86be 6501 0f3e
00000010: 6f4f 26be ecc1 52be f6d3 fbbd 9081 1c3e
00000020: 1540 8c3d 1c9d 653d bf0b 653e a1c2 24be
00000030: fe92 033f 50f8 f73e 7557 f5be 2efd c13d
00000040: 5599 a53d 2596 c4bc afe3 df3d ca85 dc3c
00000050: 7b27 433d f2a6 863d 5fe4 6fbe fc77 a93c
00000060: 7bab e5bd c958 b23d 6bad ce3c 8787 443c
00000070: 3806 4bbe 8157 82bd 6718 00be ec1f bd3d
00000080: dbe8 233e e3d0 fd3d dcb1 b3bd b822 dabd
00000090: 2f15 86bd d27f d0bd 592f 41bb c8db 0fbf
000000a0: 2273 e0be b252 033f 036f e63d 1e15 a4bc
000000b0: 831c cebd dc62 8cba 1e80 f3bc 1943 2bc0
000000c0: 4050 e4bd 55c2 823d af08 013d 3dfa 5fbd
000000d0: 88c8 9dbd 73ac 06bc 9b20 c4bd 9ea3 05be
000000e0: 28dc a93d adff ab3d 1f2a f5bd 846d 06be
000000f0: d143 f8bd ade5 ad3d f121 6e3c b4ba c83e
00000100: 2188 0fbf 09d1 593e fa05 5e38 4438 9f3a
00000110: ab96 80ba 1926 1cbd da09 3fbe 0755 63bd
00000120: 255f 8ebd 6536 bc3e 70c4 3d3e d62a ac3d
00000130: 45c4 a63d 5e19 93bd 34b8 adbd b516 553d
00000140: 6870 223e ba1c b4bd d00a 2dbc 93cb 043e
00000150: 44d4 813c 09e7 9f3e e7a7 a23d d167 e03b
00000160: b371 623e 6e48 87bd b12c 04be b6b1 073e
00000170: 8374 053e c87a df3d 0444 0ebd 725e 75bd
00000180: 1175 053f 221f 0bbf 453a b4be 3456 cd3d
00000190: 595f 19bc 4d94 d2bd 60bc c93c 63cd 8c3e
000001a0: 509a c6bd 2e98 ab3d 45fe 1cbe a2b1 c33c
000001b0: 5645 b3b9 6ec4 8f3e 36fb 00be c217 a0bd
000001c0: dce8 733d fe1f c63c eabc e5bd f082 36bc
000001d0: 8496 353e 7fc5 d33d 28e1 d23d 693e bebc
000001e0: 04b6 823c ec87 55be c0ce 9bbd 3b43 ecbd
000001f0: 7519 093d 96a4 c33d 5913 c53d 6c53 adbd
00000200: d67d 5bbd 62f0 bebd 8a8d 8dbd e2fb 8cbd
00000210: 979c 5f3c 3de8 513e e5a4 2c3e bf6d e13d
00000220: ea27 f4bd d546 e7bc dd00 a7bd 6866 cbbc
00000230: 706d d43c a540 dabd c5d6 20bd 39ec 823b
00000240: ca8c cd3e b4ce 063f 6e93 2dbe ad9d e4be
00000250: bb83 15bf 309e 9d3c 0bfc febd 189e 4e3e
00000260: fe9d 383e 9cf8 4cbd df5f a3be 0cfe ed3d
00000270: 71b5 963d e37e 7f3e 0db9 58be d683 cbbd
00000280: 8227 b33c fbc4 5fbc b29c 0d3f b450 e03d
00000290: 02da 52be b176 a03d 6623 043e d796 1ebd
000002a0: f5d3 cabd f23f 8ebc 037e 013e c4f1 d03d
000002b0: 1d7b 823e 2a52 14be af08 9d3d 5f64 21be
000002c0: 987f 49bd a1a4 17be cd23 6ebd 0986 0d3e
000002d0: ae30 133f 2285 553e b25c 9bbe a9c8 8dbd
000002e0: a2f6 acbe d844 d03c ae6f 8038 2fd7 a1ba
000002f0: 88ef 5a3a 6432 dd3d 0b81 2dbd 053f 90be
00000300: 3e40 ec3c 5eae 84be ac19 0bbd 8484 203f
00000310: 07b7 4c3e fafa 0cbf 0a15 01bf 3403 88bd
00000320: c52d d33d a208 973d 6bce 473e 9c78 cc3d
00000330: 3ef3 04bc 5c31 dd3c 98bb 2bbe acf1 2d3f
00000340: 3bcb 713d 7cc0 0ebf 2484 503d e4fc ed3c
00000350: 84c5 02ba bf50 1f3f 0fb5 3cbe 4464 febe
00000360: 4cb7 d53d b389 80bd 10a4 e6bc 20dc 543c
00000370: bd32 2cbe d245 f43d 542c 1bbd 6236 3fbe
00000380: 795f 033d b980 c63d e8dd 2f3e 5e91 ebbd
00000390: 00be 18bd 65ed 703d 832a 7dbd 47cd 27bf
000003a0: d73e b53c 6074 0e3f cc7e 183f d646 2c3e
000003b0: 698d f2be 6616 a53d aecd 253d a4c8 013c
000003c0: 54a3 213d 4029 4d3e 3ee0 4fbd fec4 4ebc
000003d0: 585a 82be b680 91bd 75af 02bf 5031 363e
000003e0: e4db 31bc 4d20 81bd 9ce0 e33b 639c 71bd
000003f0: 6370 e53d 8ec0 58ba 8b16 22be 2db2 ebbd

bias f4 [100]
-0.2428531 -0.4782335 0.39578378 -0.16309485 -0.13789923 -0.25798905 -0.33916754 -0.21686082
0.28046632 -0.010068555 0.3589349 -0.3549198 0.23207906 0.30782992 -0.2636024 -0.07870338
0.36721668 0.19438452 0.2472099 -0.23398185 0.34853438 0.19399881 -0.0004224281 0.20499574
0.20605253 -0.2269921 0.21175793 0.17843983 -0.16030756 -0.041315585 0.42464054 -0.25754058
0.11957814 -0.21207318 -0.15798382 -0.27769125 0.023083419 0.24997821 0.23476464 -0.28705287
-0.027651466 0.270711 -0.2143303 0.25832674 -0.22037317 -0.30825943 0.20517018 0.28311107
0.25579935 0.18691897 0.36617082 0.2076733 -0.21352984 0.24659167 -0.69780225 -0.2576051
0.21205139 -0.34058228 -0.21076715 0.5621302 -0.54974556 0.29929936 0.00017109903 -0.26880097
-0.120108165 -0.10725324 0.52277696 -0.32680672 0.1392755 -0.2678379 -0.23671976 -0.60408103
-0.28777918 -0.11553809 0.17713727 -0.2353168 0.277091 0.20274389 -0.5973996 -0.24417771
-0.14686993 0.1604387 0.2686189 0.26434535 -0.29502863 0.37149566 -0.79089266 -0.06961003
0.00049065234 -0.08696937 -0.031174352 -0.33007702 0.25055626 -0.00065551064 0.47291633 -0.21162188
0.21935222 0.27774104 -0.2201521 0.036509965
00000000: 7cae 78be 05db f4be 2ca4 ca3e 5602 27be
00000010: 7535 0dbe 2417 84be 5ea7 adbe c310 5ebe
00000020: 4899 8f3e 95f6 24bc 51c6 b73e 0cb8 b5be
00000030: 22a6 6d3e e29b 9d3e e5f6 86be 3d2f a1bd
00000040: d303 bc3e bc0c 473e 9824 7d3e f098 6fbe
00000050: 1973 b23e a0a7 463e 5779 ddb9 67ea 513e
00000060: 6fff 523e 9e70 68be 12d7 583e eeb8 363e
00000070: aa27 24be 883a 29bd 7c6a d93e 5cdc 83be
00000080: 62e5 f43d b629 59be 83c6 21be 8c2d 8ebe
00000090: 7019 bd3c 4afa 7f3e 2466 703e 98f8 92be
000000a0: 5485 e2bc a29a 8a3e 6779 5bbe 6743 843e
000000b0: 81a9 61be 2ed4 9dbe 2218 523e eff3 903e
000000c0: 22f8 823e b067 3f3e be7a bb3e 4fa8 543e
000000d0: 91a7 5abe 8782 7c3e 2ba3 32bf d1e4 83be
000000e0: 0024 593e cd60 aebe 58d3 57be c4e7 0f3f
000000f0: 20bc 0cbf c43d 993e 0c69 3339 48a0 89be
00000100: 45fb f5bd 96a7 dbbd b6d4 053f 3653 a7be
00000110: 3d9e 0e3e 0d22 89be aa66 72be 0ea5 1abf
00000120: cb57 93be 3c9f ecbd 7963 353e e3f6 70be
00000130: dfde 8d3e 189c 4f3e 2eef 18bf b909 7abe
00000140: 1265 16be 0b4a 243e 6b88 893e 4658 873e
00000150: fe0d 97be ae34 be3e f177 4abf b48f 8ebd
00000160: 1f9f 003a ff1c b2bd 5b61 ffbc dbff a8be
00000170: e948 803e 93d6 2bba 1722 f23e 68b3 58be
00000180: de9d 603e 1334 8e3e 8d6f 61be 798b 153d

weight f4 [100, 100]
0.3637733 0.44640407 -0.2728941 -0.04258319 -0.0038381265 0.14462292 0.2675259 -0.010058097
-0.2686475 0.11928948 -0.3768276 0.12018631 -0.09503757 0.1914673 0.17464568 -0.11595195
-0.39988807 0.08636596 -0.03537091 0.06837902 -0.42361027 0.10784742 -0.010543584 0.043855745
-0.25931782 -0.03246962 -0.096344806 -0.06875569 -0.0782147 0.058535345 -0.43992537 0.21944986
-0.16466226 0.18285352 0.06294685 0.24763268 -0.007099971 0.010656396 -0.15786675 0.21659388
0.012363617 -0.36876264 0.023990838 -0.045359947 -0.15595959 0.14579023 -0.05303178 -0.33028975
-0.17478096 0.07447987 -0.3913805 0.0016108986 0.11963493 -0.028239282 -0.1356011 0.13841197
-0.12764283 -0.028902395 0.28831968 -0.6110414 -0.034702685 -0.12375488 -0.020083372 0.18643755
0.14860526 -0.19857477 -0.016465226 0.25273594 -0.18726124 -0.2220722 0.022050064 0.082203016
0.09230051 0.18879473 0.0050939764 0.21118459 -0.051014923 0.22866927 0.12960592 0.22717778
-0.18712585 -0.06650274 0.07228941 -0.18117543 0.18273564 -0.20908333 0.07241839 0.10840317
0.011398249 -0.0065329503 -0.041646283 0.17852753 -0.054019492 0.06735165 -0.006771669 0.17619376
-0.18144767 -0.023979707 0.13091639 0.060596026 0.0998343 0.03633245 -0.20268278 0.14173655
-0.13122249 0.2366621 0.10252457 0.21257482 -0.23784332 -0.038007952 0.011193406 0.09552258
0.0020393373 0.27172455 0.19272575 -0.23762378 -0.1535402 -0.07459106 0.06271289 0.10656927
-0.30558315 0.09247127 -0.020308098 0.074170984 -0.15722966 0.016051004 -0.07103085 -0.09126976
0.105676085 -0.031470038 0.0021530066 0.21516277 -0.12647721 0.25188357 -0.18675172 -0.027950777
-0.14592522 -0.12731798 -0.30366075 0.18168485 -0.121037565 -0.19739771 0.15029661 -0.19284232
0.080172144 0.15510195 -0.013861738 -0.12976862 -0.25958228 0.12661752 -0.15715742 0.14109439
-0.0015602937 -0.22029944 -0.19883247 0.067341834 -0.09767896 0.241194 0.072022736 -0.30333805
-0.13393936 0.086359866 -0.030623026 0.20719361 0.12871659 0.032158323 -0.051032342 0.06750644
-0.0969773 -0.23246711 -0.14110623 -0.029169867 0.013807728 -0.0656878 -0.091858305 0.21042624
-0.00827826 0.25726905 -0.26222417 0.23136455 0.02682183 0.13685916 -0.023628252 0.022988195
0.26244995 -0.14413247 -0.29626065 -0.15821265 0.030698156 0.009077461 0.010700646 0.02765211
-0.06893762 -0.050660573 -0.07213205 -0.011673198 -0.20741494 -0.057682637 -0.19064894 -0.061252516
0.06120033 0.083969876 0.11622729 -0.14923887 0.13284267 -0.094815336 0.14131764 -0.11837387
0.025145 0.19446392 0.17145176 0.044087853 -0.04531451 0.113448985 -0.18299747 -0.15061066
0.071557894 0.1924389 0.06377094 -0.06264918 -0.13428856 0.051107924 -0.066637665 -0.11358901
-0.046964224 -0.06993412 0.110272996 0.14662708 -0.07500074 -0.026340201 -0.058467045 -0.18277805
-0.19714592 -0.050196286 -0.039739907 -0.0770894 -0.12787229 0.10200441 -0.041836575 0.18161756
0.064567305 -0.134792 -0.053860117 0.075411536 0.16616757 0.13621251 -0.010635207 -0.16083004
-0.07529067 -0.1641029 -0.05837369 0.084858835 -0.0921491 -0.11534051 0.06254175 -0.05889238
00000000: 7e40 ba3e 138f e43e c7b8 8bbe b66b 2ebd
00000010: 1489 7bbb 0818 143e 28f9 883e b7ca 24bc
00000020: 2a8c 89be 0b4e f43d 8cef c0be 3d24 f63d
00000030: 0fa3 c2bd 0110 443e 51d6 323e 3778 edbd
00000040: 21be ccbe a3e0 b03d 16e1 10bd 4d0a 8c3d
00000050: 72e3 d8be 1cdf dc3d ffbe 2cbc 15a2 333d
00000060: 4ec5 84be ddfe 04bd 6d50 c5bd c8cf 8cbd
00000070: 072f a0bd c2c2 6f3d e63d e1be 77b7 603e
00000080: 399d 28be f43d 3b3e 47ea 803d 6c93 7d3e
00000090: e0a6 e8bb 2a98 2e3c d2a7 21be c9ca 5d3e
000000a0: c590 4a3c 75ce bcbe 6f88 c43c 5acb 39bd
000000b0: dfb3 1fbe 094a 153e da37 59bd bd1b a9be
000000c0: c8f9 32be e788 983d 0663 c8be ca24 d33a
000000d0: 2803 f53d 1156 e7bc 04db 0abe debb 0d3e
000000e0: cdb4 02be b7c4 ecbc a39e 933e 366d 1cbf
000000f0: 6724 0ebd 3373 fdbd e285 a4bc 7ce9 3e3e
00000100: fa2b 183e 2f57 4bbe 15e2 86bc 9b66 813e
00000110: 69c1 3fbe e566 63be 56a2 b43c 0e5a a83d
00000120: 0d08 bd3d 6853 413e 5feb a63b c640 583e
00000130: 06f5 50bd 4728 6a3e 6ab7 043e 4ba1 683e
00000140: eb9d 3fbe 9732 88bd 780c 943d 0d86 39be
00000150: 0d1f 3b3e f119 56be 1850 943d 7b02 de3d
00000160: b9bf 3a3c 5c12 d6bb 4b95 2abd eccf 363e
00000170: 8b43 5dbd a9ef 893d e0e4 ddbb 236c 343e
00000180: 6bcd 39be 1771 c4bc f20e 063e 8a33 783d
00000190: ed75 cc3d 56d1 143d 138c 4fbe 6323 113e
000001a0: 305f 06be 8d57 723e 67f8 d13d 37ad 593e
000001b0: 338d 73be 3aae 1bbd 8c64 373c 58a1 c33d
000001c0: 67a6 053b 7b1f 8b3e e659 453e a653 73be
000001d0: a439 1dbe 33c3 98bd 9e6f 803d fd40 da3d
000001e0: 6575 9cbe 9461 bd3d 2b5d a6bc f5e6 973d
000001f0: d000 21be 657d 833c 9f78 91bd a4eb babd
00000200: b46c d83d bae6 00bd 7519 0d3b a153 5c3e
00000210: 3e83 01be e2f6 803e d83b 3fbe 07f9 e4bc
00000220: 6c6d 15be a55f 02be 6c79 9bbe 980b 3a3e
00000230: 8be2 f7bd a022 4abe 5be7 193e 7578 45be
00000240: 4b31 a43d 0cd3 1e3e 581c 63bc 11e2 04be
00000250: f8e7 84be 06a8 013e e0ed 20be 0c7b 103e
00000260: c582 ccba 2d96 61be bd9a 4bbe 84ea 893d
00000270: e80b c8bd 8ffb 763e a880 933d 204f 9bbe
00000280: 6627 09be 71dd b03d 24dd fabc 902a 543e
00000290: 48ce 033e 72b8 033d 4a07 51bd d140 8a3d
000002a0: 099c c6bd dc0b 6ebe 277e 10be a5f5 eebc
000002b0: cf39 623c 5387 86bd 3520 bcbd fa79 573e
000002c0: 8aa1 07bc c5b8 833e 3f42 86be d4ea 6c3e
000002d0: 74b9 db3c cf24 0c3e 0990 c1bc bd51 bc3c
000002e0: d75f 863e 7697 13be 7aaf 97be 7f02 22be
000002f0: b37a fb3c a2b9 143c c351 2f3c ae86 e23c
00000300: 2b2f 8dbd 7681 4fbd f8b9 93bd f140 3fbc
00000310: 9564 54be a144 6cbd 7a39 43be ebe3 7abd
00000320: 32ad 7a3d 66f8 ab3d 9308 ee3d 13d2 18be
00000330: e907 083e 8b2e c2bd 92b5 103e 006e f2bd
00000340: e3fc cd3c 8d21 473e 0d91 2f3e 7795 343d
00000350: b59b 39bd f157 e83d b063 3bbe ae39 1abe
00000360: f28c 923d b40e 453e 579a 823d 374e 80bd
00000370: f182 09be 8b56 513d 5479 88bd 5ba1 e8bd
00000380: 8f5d 40bd 9f39 8fbd cfd6 e13d 6925 163e
00000390: fd99 99bd 68c7 d7bc 247b 6fbd 2b2a 3bbe
000003a0: 9fe0 49be 9f9a 4dbd 50c6 22bd 0ce1 9dbd
000003b0: f4f0 02be b0e7 d03d d45c 2bbd f4f9 393e
000003c0: dd3b 843d ea06 0abe 6d9c 5cbd 5d71 9a3d
000003d0: d527 2a3e 4b7b 0b3e 4b3f 2ebc a1b0 24be
000003e0: ff31 9abd 970a 28be 4019 6fbd 78ca ad3d
000003f0: abb8 bcbd a537 ecbd e415 803d 2339 71bd

bias f4 [100]
-0.19573183 -0.010985686 -0.1289552 -0.14017072 -0.034315195 0.090923384 -0.1806495 -0.09129625
0.018483631 -0.04617202 0.31442246 0.027279094 -0.13303113 0.115824476 -0.0425765 0.3350861
-0.14255068 -0.06694754 0.15804826 -0.041779816 -0.24069005 0.280434 0.05154536 -0.13019024
-0.1806216 -0.17491214 0.030221181 -0.19574149 -0.02709378 -0.02892084 -0.15990376 0.02627223
0.097533725 -0.1528189 0.2058112 0.15164338 0.012607855 -0.110834524 0.20676899 -0.048672173
-0.12313668 -0.032966338 -0.16069409 -0.04629742 -0.03938006 -0.22423162 -0.1015536 0.09240358
0.013014166 0.13321064 -0.09814472 -0.16393296 0.008928712 0.24667853 -0.08637096 -0.258713
-0.007879514 0.0586752 0.005235977 0.035317227 -0.15295038 -0.083043344 -0.07613835 0.11553058
-0.12499486 -0.11692821 -0.011801761 -0.013092673 0.10598009 0.14625397 0.19437635 -0.08955616
-0.19708268 -0.17369086 -0.103241526 -0.25693038 -0.040931553 -0.46846876 0.26398978 -0.040154736
-0.063986324 -0.1402439 -0.17578082 0.095835134 0.016621314 -0.15744573 0.18282975 0.059905488
-0.10682722 0.0026706753 -0.07454686 -0.23214485 0.15398186 -0.0063396255 0.08778448 -0.014451707
0.38299218 0.07590993 -0.12334165 -0.06017184
00000000: ed6d 48be 4ffd 33bc d50c 04be ea88 0fbe
00000010: 178e 0cbd 0a36 ba3d 2ffc 38be 87f9 babd
00000020: fc6a 973c df1e 3dbd fbfb a03e 6878 df3c
00000030: 5039 08be 6235 ed3d b264 2ebd 6890 ab3e
00000040: cef8 11be cb1b 89bd 67d7 213e 5021 2bbd
00000050: 7477 76be 0c95 8f3e 3a21 533d 9750 05be
00000060: def4 38be 2b1c 33be 6992 f73c 7570 48be
00000070: c6f3 ddbc 66eb ecbc d0bd 23be dc38 d73c
00000080: c3bf c73d 8f7c 1cbe 2cc0 523e 6748 1b3e
00000090: 2d91 4e3c 36fd e2bd 40bb 533e 795c 47bd
000000a0: 152f fcbd b607 07bd fe8c 24be 5da2 3dbd
000000b0: fc4c 21bd f99c 65be 55fb cfbd 173e bd3d
000000c0: 5e39 553c 5f68 083e 1900 c9bd 0bde 27be
000000d0: bc49 123c 4c99 7c3e 42e3 b0bd 0876 84be
000000e0: 1419 01bc 6855 703d 8f92 ab3b cca8 103d
000000f0: 069f 1cbe a112 aabd 6cee 9bbd 4c9b ec3d
00000100: 4efd ffbd 0f78 efbd 2c5c 41bc a782 56bc
00000110: 170c d93d 9ac3 153e 980a 473e 3869 b7bd
00000120: 0bd0 49be 04dc 31be 4b70 d3bd 618c 83be
00000130: d8a7 27bd 23db efbe ab29 873e 4b79 24bd
00000140: 430b 83bd 199c 0fbe e3ff 33be 3645 c43d
00000150: 6c29 883c 7439 21be b937 3b3e 755f 753d
00000160: 3bc8 dabd 7f06 2f3b 06ac 98bd 61b7 6dbe
00000170: 6cad 1d3e a2bc cfbb 59c8 b33d dac6 6cbc
00000180: 8d17 c43e aa76 9b3d 8c9a fcbd bf76 76bd

weight f4 [100, 100]
-0.12235551 0.01161586 -0.07520265 0.02352269 0.0053296145 0.044588838 -0.16936754 0.10547295
-0.18092114 -0.14861745 -0.13885812 0.02405583 0.096724086 -0.21102048 0.07588937 -0.08066148
0.22419855 0.03676223 -0.13732804 0.06123989 -0.10499938 -0.08059632 0.0026535392 -0.10660471
0.080035314 -0.040542763 -0.07479193 0.16287574 -0.05615262 0.15914685 0.10425772 -0.0379819
0.03168286 0.12306696 -0.10414757 -0.21045864 0.079980396 0.121501684 0.06309569 0.048255395
0.12414185 -0.10424354 0.057086963 -0.0072329384 0.121111654 0.10754603 0.04155706 -0.024884675
0.026221769 -0.09421273 0.18595868 -0.03684168 0.13814531 -0.05599856 -0.063366994 -0.17742608
0.12623514 -0.08031785 -0.020001393 0.06447198 0.065033846 0.019500664 0.1209796 -0.11330283
0.12659536 -0.065017715 0.06149325 0.050088707 0.044619057 -0.048871268 0.03457436 -0.0811137
0.08546102 -0.040615104 -0.14846031 0.2541502 0.18603213 -0.05628927 -0.066198274 0.036613304
-0.018176857 -0.10799431 -0.06778911 0.086255156 -0.07960067 -0.117363185 0.04848746 -0.19603999
-0.024431612 0.047965236 0.018052401 0.09059678 0.03027969 -0.0135584185 0.24852212 -0.13846311
0.16390254 -0.03183224 0.08615713 -0.15359601 -0.1739059 -0.058833044 0.16658644 0.224301
0.033146866 -0.053719558 0.05786976 0.017650587 -0.0013052702 -0.054333035 0.26308936 0.019805955
0.21263908 -0.0044913488 0.111146815 0.25412855 -0.06135217 -0.11563408 0.1211506 -0.00044449655
-0.09679613 0.12518348 0.03835987 -0.07308062 -0.18322256 -0.08348501 -0.019192543 0.025482627
-0.11954622 0.058170058 -0.05975673 0.19355586 -0.0033706615 -0.13604032 0.15692466 -0.045122802
-0.06731963 -0.069195606 -0.18884283 -0.06027425 0.11276589 -0.049850047 0.107795514 0.010190047
-0.14461596 0.011519168 0.13498597 0.03417335 0.025022257 -0.43150428 0.0992329 0.105152756
-0.03608249 -0.057501115 0.1188554 0.61600304 -0.13687915 0.0579662 -0.03249296 -0.101507075
0.1147301 0.0445503 0.07922031 0.053645596 -0.025167983 -0.041469734 0.14133133 0.21162888
0.091946594 0.24738085 -0.09442336 0.06914568 -0.17958309 0.06610426 -0.1884199 -0.040630225
-0.19118704 0.035290718 -0.043672048 0.09927156 -0.087986775 0.11824383 -0.1585333 0.015148614
0.06700135 -0.09945985 0.062941596 0.026559588 -0.0141694015 -0.12711313 0.10795269 0.018900838
0.0019681586 0.045735873 -0.07300115 0.09885514 0.012015361 0.12040154 -0.10893696 -0.15123682
0.07419529 0.066395104 0.018900014 0.18213962 -0.007938099 -0.14036353 0.10189159 0.04497394
0.22949377 0.18950975 -0.0015218841 -0.01682256 -0.013343361 0.113733776 -0.041016154 0.034489963
0.017522763 0.09323458 -0.08755581 -0.024307903 0.35372624 0.01058914 0.03949585 0.1311851
-0.0070502833 -0.027720511 0.010349343 -0.049141087 0.1470423 -0.08879187 0.026257532 -0.23605949
-0.014652333 0.12852332 0.00022894386 -0.0007231644 -0.021428365 0.17644174 -0.007956951 0.03069832
0.037434865 0.004661541 0.37954152 -0.007333409 -0.10181505 -0.1584894 -0.03883185 -0.21008551
-0.002651163 0.10819947 0.17292848 0.15449123 -0.14002573 -0.06427942 0.05253407 0.17262714
00000000: 8795 fabd 7350 3e3c d903 9abd a8b2 c03c
00000010: 0ca4 ae3b c9a2 363d af6e 2dbe 3402 d83d
00000020: 6443 39be 2c2f 18be d330 0ebe bb10 c53c
00000030: 4717 c63d c115 58be e36b 9b3d d931 a5bd
00000040: 4e94 653e fe93 163d b99f 0cbe aed6 7a3d
00000050: ea09 d7bd af0f a5bd 00e7 2d3b 9253 dabd
00000060: 8ee9 a33d 2b10 26bd 832c 99bd e6c8 263e
00000070: 4a00 66bd 64f7 223e 1285 d53d e992 1bbd
00000080: e3c5 013d 880a fc3d 524b d5bd 7882 57be
00000090: c3cc a33d e0d5 f83d 5038 813d 73a7 453d
000000a0: 153e fe3d a37d d5bd 05d4 693d 4902 edbb
000000b0: 6309 f83d 1841 dc3d bc37 2a3d f2da cbbc
000000c0: 09cf d63c 9bf2 c0bd f46b 3e3e 4de7 16bd
000000d0: f775 0d3e bf5e 65bd 8ec6 81bd 2faf 35be
000000e0: c943 013e af7d a4bd f6d9 a3bc e309 843d
000000f0: 7730 853d dbbf 9f3c 27c4 f73d 500b e8bd
00000100: 37a2 013e 0228 85bd 59e0 7b3d d129 4d3d
00000110: 79c2 363d 3d2d 48bd d89d 0d3d f11e a6bd
00000120: 3006 af3d 065c 26bd fb05 18be fa1f 823e
00000130: 357f 3e3e 948f 66bd f692 87bd d5f7 153d
00000140: a2e7 94bc 1f2c ddbd 04d5 8abd 8ba6 b03d
00000150: ad05 a3bd 1c5c f0bd c99a 463d b5be 48be
00000160: ce24 c8bc 3277 443d a1e2 933c ce8a b93d
00000170: 1d0d f83c 2124 5ebc 957c 7e3e 46c9 0dbe
00000180: 11d6 273e 8662 02bd 2673 b03d 4648 1dbe
00000190: 6314 32be ebfa 70bd a395 2a3e 29af 653e
000001a0: 02c5 073d 0a09 5cbd d708 6d3d f797 903c
000001b0: 9a15 abba 518c 5ebd a6b3 863e 1940 a23c
000001c0: 0fbe 593e 2a2c 93bb f1a0 e33d 231d 823e
000001d0: 6a4c 7bbd 8fd1 ecbd ce1d f83d 510b e9b9
000001e0: 0d3d c6bd 1930 003e 3d1f 1d3d 4bab 95bd
000001f0: b29e 3bbe 30fa aabd ae39 9dbc f1c0 d03c
00000200: a6d4 f4bd ba43 6e3d 79c3 74bd 8233 463e
00000210: 51e6 5cbb 274e 0bbe dcb0 203e b0d2 38bd
00000220: e0de 89bd 6db6 8dbd 0460 41be 22e2 76bd
00000230: cef1 e63d 902f 4cbd e5c3 dc3d 28f4 263c
00000240: 3516 14be e4ba 3c3c c339 0a3e 5bf9 0b3d
00000250: 7afb cc3c 21ee dcbe 9e3a cb3d 545a d73d
00000260: 3ccb 13bd 4a86 6bbd 766a f33d 60b2 1d3f
00000270: 0c2a 0cbe f76d 6d3d 5717 05bd f1e2 cfbd
00000280: 9df7 ea3d 607a 363d 423e a23d 7cbb 5b3d
00000290: 162d cebc 2bdc 29bd 29b9 103e 3eb5 583e
000002a0: 7f4e bc3d 6851 7d3e 0961 c1bd 409c 8d3d
000002b0: a1e4 37be ac61 873d 25f1 40be e16b 26bd
000002c0: 89c6 43be 008d 103d 76e1 32bd e34e cb3d
000002d0: 6932 b4bd d229 f23d 8e56 22be e431 783c
000002e0: 0138 893d 9bb1 cbbd 86e7 803d 7e93 d93c
000002f0: c726 68bc f229 02be 4d16 dd3d eed5 9a3c
00000300: 39fc 003b 8a55 3b3d a081 95bd 9074 ca3d
00000310: 14dc 443c 1595 f63d 571a dfbd d3dd 1abe
00000320: b3f3 973d 28fa 873d 34d4 9a3c cf82 3a3e
00000330: cd0e 02bc 75bb 0fbe 8aac d03d 9836 383d
00000340: 6a00 6b3e d80e 423e f579 c7ba 77cf 89bc
00000350: 1d9e 5abc 41ed e83d 8e00 28bd 5945 0d3d
00000360: e68b 8f3c c5f1 be3d 7650 b3bd 5e21 c7bc
00000370: 9b1b b53e 127e 2d3c 67c6 213d 6355 063e
00000380: 1006 e7bb 2016 e3bc 4a90 293c 2a48 49bd
00000390: 4292 163e 83d8 b5bd 091a d73c 94b9 71be
000003a0: 5710 70bc 9e9b 033e a610 7039 be92 3dba
000003b0: 8a8a afbc 25ad 343e df5d 02bc 0b7b fb3c
000003c0: 4d55 193d d7bf 983b 4453 c23e 184d f0bb
000003d0: 6984 d0bd 0c4b 22be 250e 1fbd a820 57be
000003e0: 22bf 2dbb af97 dd3d 2a14 313e f332 1e3e
000003f0: e862 0fbe eea4 83bd f72d 573d 2bc5 303e

bias f4 [100]
-0.037435133 0.06459421 -0.15064348 0.020565126 0.15607557 0.034681436 -0.034289207 -0.07831232
0.044389002 -0.09337171 0.006503891 0.07486163 0.33686844 0.102655284 -0.005702739 -0.12420055
0.0077827293 -0.056921817 -0.122939534 -0.10220283 0.26849484 -0.06585673 -0.06293458 -0.06949051
0.2753972 0.03006691 -0.08478326 0.12929533 -0.02847947 0.04269901 -0.11839869 -0.01961858
-0.034580674 0.15150459 0.06916045 -0.13969466 -0.03142679 0.027649397 0.09738581 0.08114133
-0.07647796 -0.15617771 0.13704875 0.21987905 -0.19385251 -0.024606323 -0.24499768 -0.14511195
-0.006655165 -0.24296516 0.0036803172 -0.046249416 0.17181262 -0.029604133 -0.110401645 0.112424225
-0.0182475 -0.018594354 -0.21496564 0.11623289 0.031668827 -0.0779814 -0.019714056 -0.06200488
0.07317345 -0.14126877 -0.017678572 -0.08691271 0.22351779 0.088370375 0.023952467 0.0038371293
-0.13712178 -0.05811481 0.13934192 0.016096422 -0.05613691 0.0049570506 -0.12978764 0.15802935
0.028172502 -0.043651402 -0.14082782 -0.12969992 -0.058770947 0.002402441 0.20535778 0.1412309
0.07522168 0.029865881 0.027132168 0.07971804 0.11592484 -0.110265754 0.027160626 -0.008498275
0.055698738 0.20536055 -0.12917556 0.08850153
00000000: 9555 19bd f849 843d 4942 1abe 3278 a83c
00000010: 46d2 1f3e 1f0e 0e3d d772 0cbd 3662 a0bd
00000020: 3ed1 353d ab39 bfbd 981e d53b 0e51 993d
00000030: 057a ac3e ef3c d23d 0bde babb dc5c febd
00000040: 4406 ff3b da26 69bd b9c7 fbbd b84f d1bd
00000050: 2878 893e e5df 86bd d8e3 80bd 0a51 8ebd
00000060: dd00 8d3e e14e f63c d9a2 adbd ff65 043e
00000070: c74d e9bc 28e5 2e3d 037b f2bd 25b7 a0bc
00000080: 77a4 0dbd 0524 1b3e fea3 8d3d 1e0c 0fbe
00000090: 61b9 00bd fd80 e23c 3672 c73d 6d2d a63d
000000a0: 7aa0 9cbd 0ded 1fbe 8256 0c3e f927 613e
000000b0: 4681 46be 3393 c9bc ace0 7abe 3a98 14be
000000c0: 9213 dabb dccb 78be 7a31 713b 0770 3dbd
000000d0: a6ef 2f3e 5e84 f2bc 421a e2bd ac3e e63d
000000e0: c87b 95bc 3053 98bc f41f 5cbe 820b ee3d
000000f0: 2cb7 013d b6b4 9fbd 5f7f a1bc d4f8 7dbd
00000100: f6db 953d c3a8 10be a7d2 90bc 4aff b1bd
00000110: d9e1 643e 87fb b43d f737 c43c 5978 7b3b
00000120: a769 0cbe cc09 6ebd a6af 0e3e a5dc 833c
00000130: d1ef 65bd c16e a23b 0de7 04be 72d2 213e
00000140: 05ca e63c d0cb 32bd 2b35 10be 0ed0 04be
00000150: ceb9 70bd 4672 1d3b 4f49 523e d59e 103e
00000160: d30d 9a3d 4ba9 f43c 4844 de3c 3643 a33d
00000170: 016a ed3d 03d3 e1bd f67f de3c 593c 0bbc
00000180: 5c24 643d 094a 523e 9946 04be 4a40 b53d

weight f4 [100, 100]
-0.0038511201 -0.079017185 0.050525807 0.11509876 -0.0010325621 -0.055747434 0.650079 -0.1293155
0.26706073 0.14748892 -0.17972827 -0.11752606 -0.055434357 -0.0040744273 0.19453134 -0.018436085
0.067853 -0.023840906 0.037760705 0.108662926 -0.04373065 -0.035714082 0.07260567 0.053092167
0.07684543 0.18205668 0.040619206 -0.15682861 -0.042516842 0.17777552 -0.22507027 0.05615428
-0.0960049 -0.020828096 0.060226224 0.19700262 -0.1105362 -0.1392385 -0.22575837 -0.5764174
-0.2231763 0.08387659 0.18845929 0.07153723 0.13970809 -0.22364806 0.18219347 -0.019958273
-0.41491956 0.07196099 0.08117838 0.32873696 -0.17278859 0.09463254 0.0317393 0.10506486
-0.16768286 -0.20776317 0.16230597 0.023715602 0.1445027 -0.018768312 0.03307109 0.048516095
0.30208933 -0.12570919 0.04390723 0.030543681 -0.06532375 -0.1357928 0.036182974 0.09048946
0.045447703 0.09576008 0.0020095168 0.42330623 0.06037694 -0.06119685 0.07938307 0.28554198
-0.12023726 0.08579559 0.08025911 -0.12662001 0.06428621 -0.011352883 -0.035510745 -0.15104094
-0.11767662 0.26614904 -0.2488832 -0.009641753 0.0959933 -0.026184011 -0.095495835 0.014637327
0.05447596 -0.051226653 0.0103392685 -0.11363575 -0.1998618 -0.062325127 0.11059049 0.033766035
-0.024466401 -0.003424948 -0.0789341 0.054966122 -0.30584255 0.018419284 0.0678408 0.002309678
0.022230884 0.3024418 0.09565874 -0.01744708 0.057009462 -0.27069566 -0.051406927 -0.11131436
-0.006859165 -0.23108737 0.27503613 0.044684466 0.18366942 0.11146333 0.01602295 0.020938996
0.22115996 0.10825165 0.20605049 0.17077725 0.17369427 -0.084469706 -0.14505842 -0.1598477
0.09049392 -0.035870433 0.30147013 0.172723 0.0052858293 0.09071053 -0.5782691 0.054305047
-0.12581845 -0.026680214 0.1859679 -0.023803465 0.07716503 -0.23952083 -0.13531663 -0.2524816
0.56786484 -0.06593075 -0.080874905 0.111916065 -0.110165246 0.1006936 -0.116657436 -0.058230527
-0.19538324 -0.13113827 0.09905421 -0.38069794 -0.24208751 0.06673165 0.041751526 0.063484855
0.14987212 0.10594161 0.022706699 0.2040682 -0.03194156 -0.04463365 0.023757474 -0.112606205
-0.24314855 0.18097307 -0.08198886 0.035702802 0.07119262 -0.15853584 -0.118123285 0.19276287
-0.09467393 -0.12895665 0.1496524 0.08413085 -0.060736228 -0.07453581 -0.13896666 0.15697631
0.113550216 0.021323634 -0.12461435 -0.042687945 -0.062986664 0.007897476 0.047524054 0.17766263
-0.034027692 0.054725528 0.13422443 -0.119935416 -0.19545312 -0.051354416 0.015364634 0.07848372
0.099601686 0.04632521 0.27124876 -0.01616007 0.05990596 -0.07788356 -0.19221626 0.015492181
-0.24287048 -0.08401772 0.047085077 -0.012930256 0.16298568 -0.22686738 -0.08927518 0.17455907
-0.07867074 -0.10851728 -0.069607705 0.20840462 -0.17199254 -0.1531521 -0.08961188 -0.090072334
-0.07538079 0.14916478 0.07467748 0.03437712 -0.095025145 -0.209569 0.09292644 0.21309923
0.14351118 -0.58258986 -0.15106368 0.24932587 -0.03113169 -0.20021476 -0.07013903 -0.25240096
0.06362645 -0.17716545 0.100400075 -0.24601285 -0.06325693 -0.048677698 0.15809451 0.019537253
00000000: 1363 7cbb c3d3 a1bd 26f4 4e3d e6b8 eb3d
00000010: 0957 87ba 6c57 64bd 946b 263f 486b 04be
00000020: 2fbc 883e 5607 173e b00a 38be 81b1 f0bd
00000030: 230f 63bd c682 85bb 3933 473e 4607 97bc
00000040: 83f6 8a3d 014e c3bc f8aa 1a3d ab8a de3d
00000050: e91e 33bd ee48 12bd 48b2 943d 2c77 593d
00000060: 2361 9d3d 116d 3a3e 5360 263d ae97 20be
00000070: 2426 2ebd c90a 363e d278 66be 0802 663d
00000080: 389e c4bd af9f aabc c6af 763d 0ebb 493e
00000090: ce60 e2bd 8a94 0ebe 342d 67be 1790 13bf
000000a0: 5488 64be 7dc7 ab3d 79fb 403e 1c82 923d
000000b0: a30f 0f3e ff03 65be ed90 3a3e 887f a3bc
000000c0: 5670 d4be 4960 933d da40 a63d 3650 a83e
000000d0: 7eef 30be b5ce c13d 1101 023d 3f2c d73d
000000e0: 0eb5 2bbe debf 54be 8933 263e 3947 c23c
000000f0: 84f8 133e 01c0 99bc 8d75 073d d0b8 463d
00000100: 74ab 9a3e e9b9 00be 11d8 333d be36 fa3c
00000110: 75c8 85bd 450d 0bbe 9934 143d 8a52 b93d
00000120: 5f27 3a3d dc1d c43d 19b2 033b 98bb d83e
00000130: cf4d 773d 8ca9 7abd 9793 a23d 8f32 923e
00000140: f43e f6bd 99b5 af3d e35e a43d ada8 01be
00000150: 7da8 833d 7101 3abc b773 11bd 7aaa 1abe
00000160: 7100 f1bd b044 883e 3ddb 7ebe 71f8 1dbc
00000170: 2398 c43d da7f d6bc 5293 c3bd 66d1 6f3c
00000180: 2f22 5f3d 0ad3 51bd 0966 293c dcb9 e8bd
00000190: 92a8 4cbe a248 7fbd 447d e23d 414e 0a3d
000001a0: c36d c8bc 1875 60bb 34a8 a1bd 2824 613d
000001b0: 6597 9cbe 0ae4 963c 1ef0 8a3d f75d 173b
000001c0: 8b1d b63c a7d9 9a3e bbe8 c33d 2eed 8ebc
000001d0: c182 693d 9f98 8abe 1290 52bd c8f8 e3bd
000001e0: d9c2 e0bb 2ba2 6cbe 89d1 8c3e 0f07 373d
000001f0: d613 3c3e e346 e43d 9042 833c 4288 ab3c
00000200: c277 623e 0bb3 dd3d e6fe 523e 3be0 2e3e
00000210: e9dc 313e 74fe acbd 328a 14be 1eaf 23be
00000220: e054 b93d e0ec 12bd 4b5a 9a3e 4cde 303e
00000230: c034 ad3b 71c6 b93d 7209 14bf f86e 5e3d
00000240: 8dd6 00be 7790 dabc 5f6e 3e3e 7cff c2bc
00000250: b308 9e3d f344 75be 7190 0abe 4545 81be
00000260: 975f 113f b306 87bd bea1 a5bd 4034 e53d
00000270: 519e e1bd 7238 ce3d 18ea eebd 2283 6ebd
00000280: 8b12 48be 1c49 06be efdc ca3d d7ea c2be
00000290: cae5 77be 9aaa 883d a603 2b3d 5904 823d
000002a0: 1478 193e eaf7 d83d 6603 ba3c 41f7 503e
000002b0: 27d5 02bd c6d1 36bd 099f c23c 159e e6bd
000002c0: effb 78be 0151 393e c7e9 a7bd 1a3d 123d
000002d0: 70cd 913d 3857 22be 9fea f1bd a163 453e
000002e0: 68e4 c1bd 360d 04be 7b3e 193e cc4c ac3d
000002f0: 8dc6 78bd 3ba6 98bd 474d 0ebe 66be 203e
00000300: 048d e83d e7ae ae3c cf35 ffbd 8ed9 2ebd
00000310: 27ff 80bd 6a64 013c 95a8 423d 31ed 353e
00000320: 9f60 0bbd e027 603d 2172 093e b3a0 f5bd
00000330: dd24 48be 0259 52bd f2bb 7b3c 13bc a03d
00000340: f8fb cb3d 81bf 3d3d 1ee1 8a3e 2062 84bc
00000350: f45f 753d 6a81 9fbd 57d4 44be ebd2 7d3c
00000360: 0ab3 78be 7b11 acbd 48dc 403d 6dd9 53bc
00000370: b8e5 263e ec4f 68be e8d5 b6bd 9dbf 323e
00000380: 201e a1bd 4f3e debd 7c8e 8ebd 0568 553e
00000390: d01e 30be e7d3 1cbe 6f86 b7bd d877 b8bd
000003a0: 3e61 9abd a7be 183e 82f0 983d 06cf 0c3d
000003b0: 8b9c c2bd 4299 56be 3850 be3d af36 5a3e
000003c0: 98f4 123e 9c24 15bf 70b0 1abe 484f 7f3e
000003d0: e307 ffbc 1905 4dbe 0da5 8fbd b33a 81be
000003e0: 964e 823d dc6a 35be 8e9e cd3d cbea 7bbe
000003f0: d98c 81bd 4462 47bd 87e3 213e 970c a03c

bias f4 [100]
-0.03986155 0.02890651 0.06775799 -0.08807096 0.01909646 -0.016100073 -0.029679 0.014456127
-0.13136174 -0.08060618 0.11500768 0.026205938 0.009461043 -0.07553705 -0.020155516 0.021246342
0.008145487 -0.02486039 0.0005605138 0.03753381 0.03201381 0.019626288 -0.048076086 0.14622027
0.04084917 0.011380327 0.05964953 0.0010337614 -0.0002853564 0.012439098 0.092990175 0.17560011
0.05681387 -0.20064647 -0.23987605 -0.04620201 0.15275696 0.06065998 0.23141861 -0.16671295
-0.18239117 -0.020586438 0.056762762 -0.005928733 -0.004148683 0.0020969578 -0.15872678 -0.016263451
-0.011223361 0.015344018 -0.026330566 0.040046908 -0.011801027 -0.03764268 0.17911221 -0.13545522
0.030439118 -0.07261784 0.14821857 -0.22749786 0.018565293 0.009437447 0.06510127 -0.019666761
-0.11399132 -0.020734826 0.024361797 -0.095749 -0.04378527 0.058131617 -0.12158451 0.047260348
-0.017417198 0.07487416 -0.053875454 0.22922409 0.066996485 0.04668438 0.1667242 -0.16371907
0.098631665 -0.08168912 0.059351597 0.06957553 -0.04803387 -0.022912636 0.21032113 0.15996681
-0.033000257 -0.21516891 0.10937632 0.02395967 -0.12201291 -0.1286876 0.12492464 -0.04779257
0.11328416 -0.032112572 0.16322833 -0.026480772
00000000: dd45 23bd 58cd ec3c b3c4 8a3d 8c5e b4bd
00000010: 2e70 9c3c 4de4 83bc 6021 f3bc 64d9 6c3c
00000020: b183 06be da14 a5bd 2689 eb3d d6ad d63c
00000030: 7e02 1b3c 2bb3 9abd 2e1d a5bc cf0c ae3c
00000040: a674 053c 04a8 cbbc 72ef 123a 0dbd 193d
00000050: ea20 033d 4fc7 a03c 6eeb 44bd c4ba 153e
00000060: 7651 273d 8d74 3a3c 1153 743d 477f 873a
00000070: e39b 95b9 5ccd 4b3c a271 be3d 84d0 333e
00000080: a9b5 683d 4576 4dbe 11a2 75be 523e 3dbd
00000090: 526c 1c3e 9976 783d 00f9 6c3e cdb6 2abe
000000a0: c0c4 3abe e4a4 a8bc 1280 683d d145 c2bb
000000b0: adf1 87bb 1d6d 093b 4689 22be ee3a 85bc
000000c0: 30e2 37bc 7a65 7b3c 33b3 d7bc 3a08 243d
000000d0: 1859 41bc 362f 1abd 3169 373e c6b4 0abe
000000e0: 755b f93c a9b8 94bd 9cc6 173e 33f5 68be
000000f0: 3e16 983c 869f 1a3c d153 853d 301c a1bc
00000100: 4874 e9bd 15dc a9bc 6492 c73c 0d18 c4bd
00000110: 2f58 33bd 6b1b 6e3d 4d01 f9bd 1194 413d
00000120: 83ae 8ebc a057 993d 82ac 5cbd b8b9 6a3e
00000130: 7435 893d 1f38 3f3d c0b9 2a3e f9a5 27be
00000140: 66ff c93d a04c a7bd a91a 733d 9e7d 8e3d
00000150: 2abf 44bd 48b3 bbbc 6c5e 573e 57ce 233e
00000160: 472b 07bd 3d55 5cbe b100 e03d 1247 c43c
00000170: e8e1 f9bd afc6 03be 7dd8 ff3d 24c2 43bd
00000180: 8701 e83d 7988 03bd 5425 273e 34ee d8bc

weight f4 [100, 100]
0.05413247 0.100895435 -0.3150076 0.13197382 -0.17077664 -0.25354686 -0.047356725 -0.075653434
0.14266261 0.11972086 0.4492972 0.22077477 -0.015885621 -0.117539406 -0.16071998 0.36193755
0.16498521 0.0011898584 0.086924896 -0.15388893 -0.13957076 0.12425942 -0.28270054 0.21472827
-0.115900576 0.100981325 -0.12980397 0.12459627 -0.0798725 -0.09547956 -0.33518878 0.19145097
0.1512282 0.14184996 -0.047634047 -0.06717805 0.16545735 -0.11425062 0.11769726 0.25394106
-0.060683828 0.19805668 -0.11641701 0.026588866 -0.13512753 0.008444445 -0.11427209 0.16197519
0.3355683 -0.08388566 -0.1423652 -0.076222375 -0.024695987 0.19204958 0.13147555 -0.022411795
0.07925198 -0.02956142 -0.06198304 -0.25500935 -0.13091876 -0.0025549752 0.06412152 -0.02071635
0.14969696 -0.056404717 0.35694772 0.006159341 -0.023783123 0.25842598 -0.10122585 -0.19954154
-0.20769882 -0.029154204 -0.038805332 -0.25907418 0.006348185 0.09346538 0.10376087 -0.3880567
-0.021236405 0.18070026 -0.26150918 -0.18048553 0.044766266 -0.001172471 0.08522258 -0.05770383
-0.23551425 -0.11336955 0.21969117 -0.095342174 -0.17730746 0.18758978 0.090361096 -0.02630571
0.0547544 0.025494391 -0.02364339 -0.08193697 0.033943817 0.28152975 0.026932105 0.105452985
0.05833254 -0.28495842 0.04135531 0.09725927 0.16200176 0.03885918 0.04746111 -0.003076666
-0.025137186 0.23274976 0.13626358 -0.00024131896 -0.10540396 -0.25518724 -0.015288534 -0.1306019
0.2906065 -0.19756477 0.20816937 -0.013428122 -0.20510246 -0.13368782 -0.18298309 0.08333102
0.016825484 0.13964702 -0.07620974 0.013239109 -0.08152815 -0.12865338 -0.03746203 -0.0031232808
-0.23121284 -0.20103 -0.12535234 -0.17132358 -0.02509673 -0.11749723 0.036269683 -0.040960133
-0.0077136117 -0.009926004 0.019049842 0.28488746 -0.16494633 0.17328387 0.00014657316 0.21748808
0.042505868 0.24014714 0.04328978 0.08952844 -0.059511516 -0.12651806 0.09089484 -0.16420758
0.26002756 -0.02577124 0.017037967 0.012221427 0.09250913 -0.1540846 0.11967286 0.14158541
-0.04450412 -0.052364834 -0.017286805 -0.21984713 0.17880541 0.19263865 0.055988215 0.14367491
-0.19687305 -0.08102571 -0.022733329 0.0069984626 -0.18995407 0.06558029 -0.10930904 0.01833897
0.063542396 -0.24977851 0.121608235 0.030270742 0.10574849 -0.08694699 0.12345155 0.24978398
-0.2147701 0.071822464 0.11176419 -0.17359537 0.0035896918 -0.066288225 -0.08025216 0.26872295
-0.23603728 -0.09780659 0.10192363 0.082088135 0.37959993 0.4117846 -0.12086567 -0.16541386
-0.14543384 0.11856307 0.22208685 0.17459597 0.098619685 0.09396619 -0.067355454 0.2995558
0.0495581 -0.16932634 -0.19278546 0.1003009 -0.37672427 -0.057606243 -0.105533786 0.022299465
-0.06943746 -0.021395804 0.3802673 -0.028846636 0.028023243 0.12324033 0.27505034 -0.000907453
-0.05148083 -0.029887384 -0.049244173 0.17924081 -0.09397656 0.19707318 -0.09014305 0.08353614
0.081998155 0.008368989 -0.18693814 0.00083411427 -0.0036376414 -0.08656136 0.1648703 0.14384055
-0.12955758 0.21331431 0.0899522 -0.05986567 -0.19193557 0.18539828 -0.18611537 0.16484328
00000000: 02ba 5d3d 44a2 ce3d ad48 a1be 2524 073e
00000010: 12e0 2ebe e5d0 81be 20f9 41bd 30f0 9abd
00000020: 2616 123e 3630 f53d 480a e63e c812 623e
00000030: 9022 82bc 80b8 f0bd c793 24be e14f b93e
00000040: e2f1 283e 06f5 9b3a ae05 b23d 0f95 1dbe
00000050: a3eb 0ebe b97b fe3d 20be 90be bae1 5b3e
00000060: 485d edbd 4ccf ce3d 55eb 04be 542c ff3d
00000070: 3194 a3bd ca8a c3bd dd9d abbe b90b 443e
00000080: 91db 1a3e 1e41 113e eb1b 43bd a594 89bd
00000090: a76d 293e 3bfc e9bd 430b f13d 9004 823e
000000a0: 9b8f 78bd 5fcf 4a3e 0b6c eebd e5d0 d93c
000000b0: df5e 0abe 925a 0a3c 7c07 eabd d3dc 253e
000000c0: 9ccf ab3e 3fcc abbd 2fc8 11be 7a1a 9cbd
000000d0: 3d4f cabc a5a8 443e 87a1 063e f198 b7bc
000000e0: dd4e a23d cb2a f2bc eee1 7dbd 9690 82be
000000f0: 910f 06be 5f71 27bb 2552 833d 56b5 a9bc
00000100: 294a 193e a208 67bd dac1 b63e 4cd4 c93b
00000110: d3d4 c2bc 6950 843e 804f cfbd 9e54 4cbe
00000120: 00af 54be ccd4 eebc 57f2 1ebd 5fa5 84be
00000130: 6f04 d03b c76a bf3d 9480 d43d 5eaf c6be
00000140: f8f7 adbc 7d09 393e 88e4 85be 33d1 38be
00000150: d55c 373d 99ad 99ba 2d89 ae3d da5a 6cbd
00000160: a62a 71be 4b2e e8bd b9f6 603e c242 c3bd
00000170: 1690 35be 8917 403e 3d0f b93d 137f d7bc
00000180: 2646 603d 9dd9 d03c c8af c1bc 92ce a7bd
00000190: ac08 0b3d ab24 903e b8a0 dc3c bcf7 d73d
000001a0: 1aee 6e3d 12e6 91be 2f64 293d de2f c73d
000001b0: cae3 253e ce2a 1f3d 9566 423d e4a1 49bb
000001c0: 80ec cdbc f455 6e3e ae88 0b3e 910a 7db9
000001d0: 08de d7bd e7a7 82be c27c 7abc 81bc 05be
000001e0: 60ca 943e 6b4e 4abe 5a2a 553e a001 5cbc
000001f0: 6106 52be 76e5 08be eb5f 3bbe 74a9 aa3d
00000200: 99d5 893c a1ff 0e3e da13 9cbd d9e8 583c
00000210: 3bf8 a6bd b6bd 03be c971 19bd f5af 4cbb
00000220: 0fc3 6cbe cfda 4dbe 5d5c 00be 736f 2fbe
00000230: a897 cdbc 63a2 f0bd 858f 143d d0c5 27bd
00000240: 77c2 fcbb aea0 22bc 6a0e 9c3c c5dc 913e
00000250: b1e7 28be 5471 313e 6fb1 1939 32b5 5e3e
00000260: a21a 2e3d 22e9 753e a050 313d b05a b73d
00000270: 59c2 73bd f38d 01be 1327 ba3d 0826 28be
00000280: 5522 853e 351e d3bc 3593 8b3c 613c 483c
00000290: 6d75 bd3d 5ac8 1dbe 0b17 f53d c4fb 103e
000002a0: f449 36bd 827c 56bd 0f9d 8dbc 9b1f 61be
000002b0: c418 373e 1143 453e e653 653d 841f 133e
000002c0: 1799 49be cff0 a5bd 3f3b babc 5c53 e53b
000002d0: 5283 42be f64e 863d 6bdd dfbd 9c3b 963c
000002e0: 8422 823d f0c5 7fbe bd0d f93d 59fa f73c
000002f0: aa92 d83d 4311 b2bd 2bd4 fc3d 5fc7 7f3e
00000300: b1ec 5bbe a817 933d a0e4 e43d fcc2 31be
00000310: 0941 6b3b 1fc2 87bd 3f5b a4bd 0e96 893e
00000320: c2b3 71be d24e c8bd 56bd d03d d31d a83d
00000330: ec5a c23e 6ed5 d23e 6c88 f7bd 4062 29be
00000340: 9cec 14be 32d1 f23d bc6a 633e 49c9 323e
00000350: 1ef9 c93d 5971 c03d a8f1 89bd 615f 993e
00000360: 6ffd 4a3d e263 2dbe 8d69 45be 8f6a cd3d
00000370: 01e2 c0be 86f4 6bbd 1922 d8bd 5ead b63c
00000380: 3a35 8ebd 4146 afbc 65b2 c23e c84f ecbc
00000390: 0091 e53c 6d65 fc3d 66d3 8c3e 24e2 6dba
000003a0: 90dd 52bd 63d6 f4bc 42b4 49bd e78a 373e
000003b0: c876 c0bd 8dcd 493e eb9c b8bd ff14 ab3d
000003c0: a6ee a73d 161e 093c b66c 3fbe 76a8 5a3a
000003d0: 7f65 6ebb 1547 b1bd c3d3 283e f04a 133e
000003e0: beaa 04be 116f 5a3e dc38 b83d b435 75bd
000003f0: c28a 44be 0cd9 3d3e 0795 3ebe adcc 283e

bias f4 [100]
0.10627574 0.10375695 0.06662275 -0.011739041 0.035307538 -0.020831542 0.027970552 0.19477415
-0.019789655 -0.11329317 -0.061351232 -0.036958758 -0.09404125 -0.02066889 -0.16303521 0.018931998
0.28073657 -0.019940568 -0.18690075 -0.12208529 0.02895865 -0.08910213 0.011389498 -0.024930313
-0.058776785 -0.054038867 -0.0529818 -0.0682611 0.22059193 0.08093363 -0.03145868 0.057704907
0.050417922 -0.0033438131 0.10123517 -0.12925673 0.043386478 0.07201246 0.04946113 0.01643193
-0.022649765 -0.109541744 0.051462453 0.080685206 0.039024487 0.029010057 0.0069668023 0.0074102
-0.003854394 0.05027803 0.005719824 0.09410619 0.25417203 -0.030680995 -0.062062267 -0.042261105
0.0136143565 0.06763529 -0.007564968 -0.22378094 0.085116684 0.051049385 -0.21822429 -0.098449215
-0.009450572 0.009093196 0.059736047 0.06041561 -0.11533721 0.18780392 0.047710113 0.0032255887
0.1034517 0.116339654 -0.057562154 0.06528203 -0.03461616 0.08457014 0.08048204 -0.09372374
0.04432076 -0.088349305 0.054434113 -0.051827528 0.096835405 0.16585112 -0.109092124 0.020751655
-0.10146283 -0.055846244 -0.1786981 0.0062295045 0.041560948 -0.07947619 -0.022194045 0.13555191
-0.0556339 0.12004123 0.08473171 0.058856998
00000000: 18a7 d93d 867e d43d 8271 883d 1b55 40bc
00000010: a39e 103d e9a6 aabc 8022 e53c e072 473e
00000020: ea1d a2bc 4006 e8bd 6e4b 7bbd 1162 17bd
00000030: b398 c0bd ce51 a9bc b4f2 26be 4717 9b3c
00000040: b4bc 8f3e 675a a3bc e962 3fbe da07 fabd
00000050: b13a ed3c 2d7b b6bd 049b 3a3c a83a ccbc
00000060: edbf 70bd dc57 5dbd 7203 59bd 7acc 8bbd
00000070: dae2 613e 88c0 a53d d1da 00bd fb5b 6c3d
00000080: 0683 4e3d e023 5bbb 6354 cf3d e05b 04be
00000090: 05b6 313d 457b 933d c197 4a3d 419c 863c
000000a0: 008c b9bc 6c57 e0bd 4bca 523d 493e a53d
000000b0: 24d8 1f3d 80a6 ed3c c649 e43b 43d1 f23b
000000c0: 009a 7cbb 56f0 4d3d 5d6d bb3b bfba c03d
000000d0: d622 823e b656 fbbc 0135 7ebd fb19 2dbd
000000e0: c00e 5f3c 5f84 8a3d 8de3 f7bb d526 65be
000000f0: a851 ae3d 2919 513d 3076 5fbe be9f c9bd
00000100: 92d6 1abc a1fb 143c c9ad 743d 5c76 773d
00000110: ea35 ecbd ac4f 403e ae6b 433d 6664 533b
00000120: 7cde d33d 7c43 ee3d 4bc6 6bbd 96b2 853d
00000130: adc9 0dbd 1c33 ad3d c5d3 a43d 3bf2 bfbd
00000140: af89 353d 7bf0 b4bd 4ef6 5e3d 1a49 54bd
00000150: a451 c63d e0d4 293e b16b dfbd 60ff a93c
00000160: bfcb cfbd 08bf 64bd a2fc 36be df20 cc3b
00000170: d03b 2a3d 6ac4 a2bd 49d0 b5bc 1fce 0a3e
00000180: 5fe0 63bd 2dd8 f53d d287 ad3d 0914 713d

weight f4 [100, 100]
0.12332967 -0.029775456 -0.06741199 -0.25987 -0.17394316 -0.120482266 0.24050121 0.19708222
0.13867438 0.22891942 0.05837848 -0.058048632 -0.08344221 0.0054015233 -0.053315558 0.10387081
-0.08366954 -0.17075145 -0.18789086 -0.1187722 -0.045791622 0.021450106 -0.082920164 -0.1402155
-0.005685856 0.12037502 -0.076288104 0.06702884 0.15417534 0.014992552 0.03428511 -0.040030517
-0.16418263 0.08144885 0.23101772 -0.1761659 -0.0364215 -0.04609251 -0.095074326 -0.14546391
-0.063047856 0.10378132 0.043651737 -0.021768289 -0.10247427 -0.11285324 -0.18430033 -0.21205176
-0.29179642 -0.14630307 0.059525315 0.095653705 -0.009343853 0.32733303 0.063253224 -0.084497064
-0.003006794 -0.038087893 -0.0364356 0.0023980248 0.15190299 -0.060339868 -0.006987731 -0.1370874
0.023654893 -0.09481017 -0.24731332 -0.1385907 -0.113200404 0.21308585 -0.049448878 0.07962364
-0.07230045 0.28550625 -0.10152925 -0.060761366 0.15605223 -0.18433927 -0.02455125 0.022294844
-0.25369594 -0.113911435 -0.0925057 -0.14685911 0.35141158 0.09515093 0.040183574 -0.19097947
0.123419866 -0.14090264 -0.09215848 -0.15591228 -0.20627043 -0.132395 0.08625588 0.025152646
0.013405302 0.09513085 -0.12811361 0.013381493 -0.003259568 -0.19730316 -0.22266982 -0.021469997
0.25936425 0.21832803 0.15468769 -0.040582698 0.057174977 0.40756786 -0.04347591 -0.01682208
0.09010183 -0.0076185255 0.21753624 -0.29111105 0.053932283 -0.043911807 -0.11490374 0.18025428
-0.04083471 -0.18275084 -0.19145016 -0.22315466 -0.24571882 0.062242437 0.17436703 0.24300209
0.23627824 0.19664274 -0.051432412 0.3453377 -0.23103026 -0.12974294 -0.02944482 -0.07971067
-0.20310497 -0.25886306 -0.0037650468 -0.1346796 -0.090648115 -0.0975514 0.10377407 -0.18616317
-0.08803972 0.14185679 -0.009516649 -0.06304591 0.08411651 -0.06464027 -0.073561 0.03731196
-0.05707262 -0.055238325 -0.0206786 0.11120132 -0.10166098 0.21441585 0.21017207 -0.23194836
-0.22807571 -0.15853643 -0.0690743 -0.12475078 -0.13903531 0.031994823 -0.21349044 -0.28615788
0.1220064 -0.0030071468 -0.11078844 0.0014648288 -0.029803995 0.14898223 -0.041227788 0.14785866
-0.056254383 0.08980533 0.22157973 0.1367644 0.009486299 -0.12246896 -0.20114385 -0.10048989
-0.05200035 0.09633473 0.035813093 0.28216878 -0.019438079 -0.035121337 0.078579836 0.12646444
-0.16411854 -0.02263319 -0.24924107 -0.041991238 -0.24182352 0.07684082 -0.034409694 -0.027419394
-0.0009155233 0.07285772 0.14554054 0.07715035 -0.06555805 -0.021808097 -0.068880126 0.22709411
0.4066708 -0.0685567 -0.29959047 -0.19120531 0.1382278 0.06716288 -0.24165973 -0.04749103
0.024124429 0.16146742 -0.10213961 0.060486358 -0.03824933 -0.05978834 0.33908087 0.06218156
0.07246302 0.03553179 0.03383845 -0.010211036 0.053042162 -0.28309873 -0.216946 0.038740546
-0.16420601 -0.03190262 -0.05921471 0.22026226 0.26213834 -0.058261488 0.2760407 -0.05943133
0.024669189 0.40410808 0.21563064 0.040410884 0.07336537 -0.017472597 0.067133315 -0.23291098
-0.19853234 -0.179893 -0.030873934 0.29278105 -0.22592205 0.071115516 -0.20507929 -0.09088095
00000000: 4494 fc3d a8eb f3bc 4c0f 8abd ae0d 85be
00000010: 281e 32be 68bf f6bd f345 763e eccf 493e
00000020: a800 0e3e da69 6a3e 461e 6f3d 67c4 6dbd
00000030: c0e3 aabd 43ff b03b 6a61 5abd 38ba d43d
00000040: f05a abbd 78d9 2ebe 7666 40be d73e f3bd
00000050: ff8f 3bbd 22b8 af3c 0cd2 a9bd a794 0fbe
00000060: 6b50 babb 2e87 f63d f03c 9cbd 6b46 893d
00000070: 24e0 1d3e 52a3 753c 8b6e 0c3d 0af7 23bd
00000080: 7e1f 28be a8ce a63d e98f 6c3e d564 34be
00000090: b62e 15bd 80cb 3cbd 54b6 c2bd 7ef4 14be
000000a0: 3c1f 81bd 4d8b d43d 2acc 323d 6953 b2bc
000000b0: 08de d1bd 991f e7bd 3ab9 3cbe 1924 59be
000000c0: 5766 95be 79d0 15be d1d0 733d 17e6 c33d
000000d0: f616 19bc 3298 a73e e88a 813d cc0c adbd
000000e0: a20d 45bb 0d02 1cbd 7f3d 15bd 2e28 1d3b
000000f0: 758c 1b3e f026 77bd 56f9 e4bb a460 0cbe
00000100: e8c7 c13c d62b c2bd b43f 7dbe b8ea 0dbe
00000110: 9dd5 e7bd 2d33 5a3e e88a 4abd b811 a33d
00000120: 4212 94bd e02d 923e 91ee cfbd e9e0 78bd
00000130: 28cc 1f3e 6fc3 3cbe b41f c9bc ada3 b63c
00000140: 6fe4 81be 664a e9bd a173 bdbd 3c62 16be
00000150: 38ec b33e 7ede c23d 8897 243d 1f90 43be
00000160: 8ec3 fc3d c848 10be 96bd bcbd 78a7 1fbe
00000170: 8e38 53be 8e92 07be eca6 b03d ec0c ce3c
00000180: e9a1 5b3c f7d3 c23d 3730 03be 0d3e 5b3c
00000190: 7a9e 55bb d709 4abe 8f03 64be d9e1 afbc
000001a0: 64cb 843e 6291 5f3e 7366 1e3e 0b3a 26bd
000001b0: 4f30 6a3d bcac d03e cc13 32bd 75ce 89bc
000001c0: 4f87 b83d d3a4 f9bb d2c1 5e3e 820c 95be
000001d0: 19e8 5c3d dedc 33bd a752 ebbd 9494 383e
000001e0: 4c42 27bd 0923 3bbe 830b 44be a882 64be
000001f0: b79d 7bbe edf1 7e3d 458d 323e 8ad5 783e
00000200: ecf2 713e b75c 493e cbaa 52bd 1ad0 b03e
00000210: 3293 6cbe 55db 04be 4336 f1bc 593f a3bd
00000220: c0fa 4fbe b389 84be 01bf 76bb 73e9 09be
00000230: b8a5 b9bd 07c9 c7bd 8087 d43d 8fa1 3ebe
00000240: 2b4e b4bd e842 113e b8eb 1bbc 371e 81bd
00000250: 4745 ac3d 1e62 84bd 26a7 96bd 6dd4 183d
00000260: fbc4 69bd 9541 62bd 2b66 a9bc 85bd e33d
00000270: a233 d0bd d48f 5b3e 5937 573e df83 6dbe
00000280: ae8c 69be 6057 22be d476 8dbd 567d ffbd
00000290: 465f 0ebe 010d 033d 3d9d 5abe 4983 92be
000002a0: 7ede f93d 8d13 45bb 0de5 e2bd 80ff bf3a
000002b0: 8227 f4bc cc8e 183e 78de 28bd 4368 173e
000002c0: ff6a 66bd dbeb b73d cce5 623e f80b 0c3e
000002d0: 6c6c 1b3c 02d1 fabd a7f8 4dbe a5cd cdbd
000002e0: 52fe 54bd 254b c53d c0b0 123d 6d78 903e
000002f0: 9b3c 9fbc 64db 0fbd 77ee a03d e57f 013e
00000300: b10e 28be 3d69 b9bc 0d39 7fbe 01ff 2bbd
00000310: 96a0 77be b85e 9d3d 2ef1 0cbd a39e e0bc
00000320: bbff 6fba 6e36 953d 9408 153e 0101 9e3d
00000330: 4d43 86bd e5a6 b2bc 0611 8dbd 5c8b 683e
00000340: 2837 d03e 7567 8cbd ec63 99be 53cb 43be
00000350: 978b 0d3e b18c 893d a675 77be f485 42bd
00000360: 98a0 c53c b757 253e 922e d1bd 8bc0 773d
00000370: 54ab 1cbd 9ee4 74bd 029c ad3e 17b2 7e3d
00000380: 7e67 943d c889 113d 309a 0a3d 304c 27bc
00000390: bd42 593d 51f2 90be 1827 5ebe 68ae 1e3d
000003a0: 9f25 28be 52ac 02bd 208b 72bd 6e8c 613e
000003b0: ff36 863e 99a3 6ebd 3555 8d3e 446e 73bd
000003c0: 0a17 ca3c 41e7 ce3e 47ce 5c3e e285 253d
000003d0: 9540 963d b122 8fbc 317d 893d 3780 6ebe
000003e0: 104c 4bbe df35 38be 55eb fcbc 66e7 953e
000003f0: 1c58 67be 03a5 913d 4e00 52be cb1f babd
