Beltrami/best_net_with_improved(adaptive sampling).pth (torch, 335765 bytes, 20 tensors)

weight f4 [100, 4]
0.31349388 -0.11704101 0.00023440232 0.30574274 -0.44469088 0.4937483 -0.01748821 0.34569606
0.14503136 -0.01513585 0.22560419 -0.15890823 0.21754588 -0.277839 -0.05996018 -0.076457724
0.10537805 0.059771772 0.39487016 0.031325884 -0.15434246 -0.20776868 0.03778104 -0.21582448
-0.07871098 0.043091204 0.30837548 0.580228 -0.2992606 0.40654185 0.17899035 0.5444306
0.34436017 -0.5536158 -0.5009995 -0.15655695 0.43270904 -0.014323387 0.24297656 -0.35649443
0.58379567 -0.19872747 0.41805148 -0.09671626 -0.2598615 0.23377813 -0.22124392 0.27652964
-0.22109003 -0.097159825 -0.5382491 -0.15985522 0.2806285 -0.084173575 0.4889282 0.4095015
-0.007900132 -0.33361736 0.36263624 0.26442155 -0.39956975 0.35820132 0.27027673 0.5918524
-0.30708337 -0.0948908 0.062084366 0.073411845 -0.37533537 -0.41524488 0.116184644 -0.096755356
0.2949306 0.07629016 0.24671414 0.0055172155 0.25517365 0.29710516 -0.36591306 0.3520568
-0.5039654 -0.37546375 0.1693713 -0.08173138 0.40620396 -0.20459674 -0.4182525 0.4775122
-0.011712586 0.26308584 0.1731098 -0.5250472 0.03460874 0.15533882 -0.4040347 -0.2013052
0.1314445 0.0720752 -0.21502762 -0.33353275 0.35151264 -0.2884263 0.20078018 0.19224128
-0.38748226 -0.56064534 0.46771657 -0.016254464 0.33817557 0.22445275 0.21217477 0.26724768
0.528474 -0.3378087 0.10905427 0.33782327 0.24277556 0.29712233 -0.3415849 -0.4811868
-0.38149983 0.060880672 0.4907199 -0.32822302 0.32078448 -0.3418884 -0.49439394 -0.16535705
0.31229335 0.4762643 -0.31081054 0.10837298 0.61884075 0.5326954 0.4652948 0.31438914
0.152203 0.064501144 -0.25543484 -0.67933154 -0.2347968 -0.029221904 -0.43936983 0.26020545
0.13596623 -0.17490494 0.19293459 0.17970893 0.22739474 0.32260817 -0.22649452 0.5192582
-0.010954731 -0.06549679 -0.5003201 -0.24733976 -0.37896276 -0.2747105 0.37081257 -0.22482641
-0.25874618 0.29585707 0.252174 0.30098557 -0.43019524 0.09927297 -0.23537715 0.022363394
-0.36614248 -0.27097294 -0.24993089 0.3894468 0.055693764 0.16322501 0.6111434 0.60008043
0.4398287 0.0732515 -0.28811377 0.41378686 -0.14329678 -0.10399834 -0.40861693 0.039907265
-0.371455 0.46837202 -0.61172783 -0.39243722 0.04536194 -0.28127787 0.25507253 -0.11593852
-0.3462464 -0.046242062 0.3253465 -0.4280717 0.457106 0.5192995 0.6235497 -0.5510215
0.17883508 -0.30442286 0.51087135 -0.2172363 0.3081004 -0.047360893 -0.05032418 -0.04515647
0.021705033 0.16458532 -0.05347719 0.099821895 -0.43464288 0.471598 0.4731433 0.41075236
0.46512556 -0.28592908 -0.17213221 0.5445692 -0.3566177 0.5223902 -0.4262647 -0.43513772
0.18907158 -0.31181264 -0.14235021 0.50206995 0.34979242 0.4500187 -0.07873017 -0.59311414
0.5906541 -0.09444848 -0.23988354 0.08555888 -0.41187143 0.23175962 0.28222606 -0.50392836
-0.31309155 0.025651524 0.24770899 -0.04931648 -0.3145132 0.028724676 -0.584422 -0.37639138
-0.34430772 0.5397453 0.4375346 -0.17968628 0.0073859734 0.20319153 0.060015652 -0.43103892
00000000: 4582 a03e 32b3 efbd e5c9 7539 508a 9c3e
00000010: 86ae e3be 94cc fc3e 6f43 8fbc 13ff b03e
00000020: 1a83 143e 5bfc 77bc c904 673e d7b8 22be
00000030: 59c4 5e3e ea40 8ebe ce98 75bd de95 9cbd
00000040: 72d0 d73d 3fd3 743d 6c2c ca3e 924f 003d
00000050: f30b 1ebe 50c1 54be 4bc0 1a3d 1801 5dbe
00000060: 3933 a1bd 6780 303d 64e3 9d3e d289 143f
00000070: af38 99be 4126 d03e 3f49 373e ce5f 0b3f
00000080: fa4f b03e c4b9 0dbf 8141 00bf 7750 20be
00000090: 0a8c dd3e a4ac 6abc d9ce 783e 7086 b6be
000000a0: a273 153f 377f 4bbe d80a d63e 2d13 c6bd
000000b0: 910c 85be 8963 6f3e c48d 62be 4b95 8d3e
000000c0: 6d65 62be bbfb c6bd b1ca 09bf 16b1 23be
000000d0: 8aae 8f3e 3263 acbd cc54 fa3e 2eaa d13e
000000e0: 8e6f 01bc e5cf aabe 75ab b93e 4362 873e
000000f0: 6894 ccbe 2a66 b73e b661 8a3e a483 173f
00000100: 083a 9dbe 1c56 c2bd 2d4c 7e3d f358 963d
00000110: f52b c0be fa9a d4be 37f2 ed3d ac27 c6bd
00000120: 2501 973e 043e 9c3d a2a2 7c3e c2c9 b43b
00000130: 1fa6 823e 2b1e 983e f558 bbbe ca40 b43e
00000140: e003 01bf c93c c0be ac6f 2d3e c862 a7bd
00000150: f7f9 cf3e cf81 51be 3125 d6be 7b7c f43e
00000160: 25e6 3fbc 30b3 863e b243 313e 7e69 06bf
00000170: e5c1 0d3d 2411 1f3e a3dd cebe f322 4ebe
00000180: 6399 063e 2a9c 933d 3330 5cbe cec4 aabe
00000190: 77f9 b33e 9dac 93be 5299 4d3e e6da 443e
000001a0: 1364 c6be 7486 0fbf 8c78 ef3e 1528 85bc
000001b0: 5925 ad3e f1d6 653e 5844 593e b0d4 883e
000001c0: 124a 073f 43f5 acbe d857 df3d 2cf7 ac3e
000001d0: 289a 783e 6b20 983e 37e4 aebe 1e5e f6be
000001e0: f253 c3be 035e 793d a43f fb3e d90c a8be
000001f0: dd3d a43e ff0b afbe 3421 fdbe 5c53 29be
00000200: eae4 9f3e ead8 f33e 8f22 9fbe a7f2 dd3d
00000210: 596c 1e3f ba5e 083f 1f3b ee3e 9df7 a03e
00000220: 1adb 1b3e 2d19 843d 5bc8 82be ace8 2dbf
00000230: 936e 70be c662 efbc 15f5 e0be a639 853e
00000240: bb3a 0b3e 481a 33be a590 453e 9e05 383e
00000250: 2bda 683e e62c a53e 2eee 67be 1bee 043f
00000260: 797b 33bc 2e23 86bd fa14 00bf a246 7dbe
00000270: 6807 c2be dba6 8cbe 25db bd3e e538 66be
00000280: 617a 84be 947a 973e f31c 813e c81a 9a3e
00000290: 8d42 dcbe a04f cb3d b506 71be 7033 b73c
000002a0: 0777 bbbe f7bc 8abe e2ed 7fbe 9265 c73e
000002b0: 251f 643d 7524 273e e573 1c3f df9e 193f
000002c0: 3a31 e13e e204 963d a683 93be dfdb d33e
000002d0: 64bc 12be 15fd d4bd 3d36 d1be cd75 233d
000002e0: 5a2f bebe 75ce ef3e 329a 1cbf 88ed c8be
000002f0: 71cd 393d a703 90be de98 823e 2d71 edbd
00000300: 3547 b1be 5168 3dbd d193 a63e 372c dbbe
00000310: cc09 ea3e d0f0 043f f4a0 1f3f bf0f 0dbf
00000320: 8b20 373e 50dd 9bbe 77c8 023f 3173 5ebe
00000330: 56bf 9d3e 7ffd 41bd ba20 4ebd fef5 38bd
00000340: c1ce b13c 0e89 283e e60a 5bbd 6c6f cc3d
00000350: 8389 debe 4b75 f13e d73f f23e 224e d23e
00000360: f024 ee3e 4c65 92be 6d43 30be e368 0b3f
00000370: 9896 b6be 5dbb 053f 5e3f dabe 5fca debe
00000380: fb9b 413e e8a5 9fbe 41c4 11be a887 003f
00000390: fe17 b33e da68 e63e 493d a1bd 54d6 17bf
000003a0: 1b35 173f 346e c1bd 08a4 75be 7e39 af3d
000003b0: d0e0 d2be 6552 6d3e ef7f 903e 7301 01bf
000003c0: 894d a0be 2523 d23c 6da7 7d3e 1400 4abd
000003d0: e007 a1be 0350 eb3c ae9c 15bf 5fb6 c0be
000003e0: 1a49 b0be bf2c 0a3f 8904 e03e aeff 37be
000003f0: 0906 f23b 7111 503e f9d2 753d 22b1 dcbe

bias f4 [100]
-0.21770486 0.393105 -0.07253398 -0.40217555 -0.23451506 -0.42017445 -0.22072811 -0.29780895
0.42820156 -0.14081569 -0.23040506 0.25216568 0.30096918 -0.38782606 0.20085683 0.26422787
-0.34962806 0.48427585 -0.3537559 -0.1625085 -0.3658422 0.49806127 0.00856637 0.39720348
0.008384914 0.2500185 -0.16079138 -0.4879034 0.10911211 -0.08968083 -0.07223057 -0.26032555
-0.012855523 0.12287919 0.08148672 -0.33481005 0.2418607 0.08595027 0.42625895 0.3414338
-0.35358 0.46720496 -0.415805 0.28106725 0.04630048 0.33178115 -0.30838716 0.30787134
-0.28182945 -0.41736487 0.13945527 0.21417983 0.46426582 -0.028909227 0.5082085 0.34220877
-0.12653127 -0.40907124 0.2653263 -0.297902 0.24870536 -0.40311638 0.35008252 0.047322657
-0.11466576 0.23655377 -0.39336398 -0.10891867 -0.07837496 -0.1075161 -0.20461924 -0.1748333
0.46348605 0.3278061 0.44289273 0.29378495 -0.38576534 0.044009235 0.16888124 -0.37281573
0.27748802 -0.2541228 0.15054376 0.14461777 0.4120808 -0.1861841 -0.30590186 0.533842
0.18852861 0.1985186 0.2134006 -0.16602568 0.330524 -0.4159307 -0.042372502 0.2671844
0.35655776 -0.16831334 -0.43532914 0.16465014
00000000: 06ee 5ebe 0f45 c93e b28c 94bd f4e9 cdbe
00000010: b724 70be 1b21 d7be 8d06 62be 6a7a 98be
00000020: 3c3d db3e fd31 10be 4eef 6bbe dc1b 813e
00000030: a218 9a3e 2391 c6be 6aad 4d3e e048 873e
00000040: 7302 b3be 01f3 f73e 7e1f b5be a168 26be
00000050: ab4f bbbe e301 ff3e f659 0c3c 415e cb3e
00000060: e160 093c 6d02 803e 7fa6 24be 79ce f9be
00000070: 2c76 df3d 95aa b7bd 9fed 93bd 6449 85be
00000080: f99f 52bc 16a8 fb3d 82e2 a63d 396c abbe
00000090: 55aa 773e b206 b03d 9d3e da3e 69d0 ae3e
000000a0: 7008 b5be 7d35 ef3e 65e4 d4be 0ce8 8f3e
000000b0: 92a5 3d3d 38df a93e ece4 9dbe 50a1 9d3e
000000c0: f34b 90be d9b0 d5be 5dcd 0e3e f551 5b3e
000000d0: 40b4 ed3e 0bd3 ecbc f419 023f fd35 af3e
000000e0: 6a91 01be c971 d1be d9d8 873e 9c86 98be
000000f0: 9eac 7e3e 4565 cebe 043e b33e 67d5 413d
00000100: e2d5 eabd 273b 723e 0167 c9be c010 dfbd
00000110: 0d83 a0bd 6731 dcbd b587 51be 8007 33be
00000120: 0b4e ed3e 33d6 a73e d6c2 e23e fb6a 963e
00000130: 0983 c5be 0743 343d 34ef 2c3e b4e1 bebe
00000140: e912 8e3e 621c 82be 2528 1a3e ae16 143e
00000150: 41fc d23e 0ba7 3ebe 2b9f 9cbe dfa9 083f
00000160: a50d 413e 7648 4b3e b085 5a3e a302 2abe
00000170: 713a a93e def4 d4be ca8e 2dbd 65cc 883e
00000180: bd8e b63e 555a 2cbe 76e3 debe 0c9a 283e

weight f4 [100, 100]
-0.06689525 -0.14454678 -0.1178625 -0.011409073 -0.029791903 -0.031612575 -0.064001694 -0.11526512
0.14208826 -0.01429087 -0.0627818 0.013049945 -0.08900292 0.040333726 -0.030367754 -0.14671347
-0.0447822 -0.07480646 -0.04687929 0.030096745 -0.068157226 -0.10007808 0.066551365 -0.041448284
-0.0054279636 -0.10680586 0.09889877 -0.0029413572 -0.07222305 -0.040537015 0.035779934 0.040978447
-0.0006250184 0.10382978 0.012186561 -0.08059172 0.015608703 -0.039440908 -0.032326147 0.050041746
0.043416496 -0.090307996 -0.054243922 -0.009962212 -0.117740646 0.046895348 -0.012769264 0.05354331
0.013473947 0.13873817 -0.04178734 -0.08432039 0.03411231 -0.1390902 -0.091737635 0.053056512
0.07384962 -0.024427947 -0.12112998 -0.039426796 -0.081986606 -0.044058412 -0.031635486 -0.043137275
0.018518254 -0.048792917 -0.021009829 -0.072802894 0.039989162 -0.0029572034 0.0413836 -0.08356247
-0.097321436 -0.08609709 -0.016932787 -0.062550046 -0.012156997 -0.038237385 0.09803596 -0.06976741
0.08390852 0.039371144 -0.043162897 0.10703579 -0.027388962 -0.14172406 -0.020353174 -0.0022056052
-0.026028294 0.12108875 0.01969991 0.12461487 0.025208449 0.062991604 -0.050543524 0.040525135
-0.028799752 -0.036996823 0.0062294034 0.17130022 0.3697309 -0.08299098 0.16309734 0.11024389
-0.024768239 -0.08338306 0.14188503 0.08354101 -0.11659262 0.0834482 0.044277854 -0.12737429
-0.05502249 0.10301578 0.03715289 0.013300051 0.032084744 -0.011511513 0.1554581 0.14509277
0.03785685 -0.04104263 0.068707734 -0.039764173 0.08437598 0.11310695 0.06545533 0.13171689
0.036287386 0.06648968 0.03384042 -0.04522633 -0.0486972 -0.022437153 -0.059768587 -0.041583944
0.006643372 -0.065345496 -0.1509454 -0.17456932 -0.002909654 -0.15505747 0.049656622 0.108602114
0.10328567 0.0066964524 -0.09614094 0.09189174 -0.061213404 -0.02672663 -0.047042985 0.053094503
-0.10252405 -0.025327379 -0.06304835 -0.29435766 -0.0135105355 0.0932125 -0.00068226655 0.008394718
-0.20729263 0.07467469 0.016697578 -0.098032475 0.05422082 -0.119221196 0.18404895 0.043903936
-0.14222585 -0.09949647 0.06281728 -0.03921506 -0.14111285 0.027570903 -0.091094 -0.013141989
-0.08082337 -0.10108528 0.035009496 -0.011598136 0.017085386 0.0864556 -0.11347105 0.06806258
-0.036561202 -0.11228486 0.041432813 -0.11763911 -0.061956458 -0.0631071 0.07626077 -0.03783459
-0.086068615 0.008393322 -0.026161538 -0.114516415 -0.04406532 -0.017604392 0.10116829 0.10209922
-0.030377198 0.026967453 -0.07220353 0.013999787 0.002904251 -0.060501948 0.04069484 0.069302775
0.1440006 -0.10373565 -0.0028787495 0.011531783 0.05410393 0.010045153 -0.011013502 0.0998357
-0.033837553 0.031564057 0.016819842 -0.008415009 0.07200964 0.19491298 -0.030387618 -0.0686323
0.028479613 0.0919104 0.00697243 -0.005348465 0.09763314 -0.077576034 -0.024437394 0.043934878
0.011351468 -0.10629335 0.027617702 0.06910052 0.0876605 -0.025067665 0.044630956 -0.07287661
-0.14291637 -0.08130797 0.061110582 0.06544173 0.012228708 0.05873326 0.0044820635 0.057027057
-0.049078055 -0.0724472 0.06280902 0.0986493 0.08283561 -0.013628864 0.077154934 0.00901523
00000000: 6000 89bd 1204 14be e561 f1bd 1fed 3abc
00000010: 260e f4bc 307c 01bd 5213 83bd 1f10 ecbd
00000020: 967f 113e 4124 6abc bf93 80bd 70cf 553c
00000030: 2a47 b6bd fa34 253d ccc5 f8bc 0e3c 16be
00000040: 8a6d 37bd 2134 99bd 8004 40bd 738d f63c
00000050: 0496 8bbd bdf5 ccbd 154c 883d adc5 29bd
00000060: 0fdd b1bb 08bd dabd 708b ca3d c9c3 40bb
00000070: aee9 93bd 240a 26bd fb8d 123d 04d9 273d
00000080: 46d8 23ba b5a4 d43d 24aa 473c 460d a5bd
00000090: a5bb 7f3c ca8c 21bd 6c68 04bd 93f8 4c3d
000000a0: 7fd5 313d 66f3 b8bd e02e 5ebd 8c38 23bc
000000b0: 0222 f1bd 5615 403d 2d36 51bc 3b50 5b3d
000000c0: d4c1 5c3c 6111 0e3e 3429 2bbd 2bb0 acbd
000000d0: 59b9 0b3d a96d 0ebe f1e0 bbbd c951 593d
000000e0: 783e 973d 1e1d c8bc ff12 f8bd fe7d 21bd
000000f0: 98e8 a7bd 9876 34bd 3694 01bd b6b0 30bd
00000100: 98b3 973c 15db 47bd ce1c acbc af19 95bd
00000110: adcb 233d a4cd 41bb da81 293d cd22 abbd
00000120: 7650 c7bd ac53 b0bd a1b6 8abc 3d1a 80bd
00000130: 242e 47bc ce9e 1cbd 14c7 c83d 37e2 8ebd
00000140: 3bd8 ab3d a343 213d 94cb 30bd 9535 db3d
00000150: d15e e0bc 1d20 11be b3bb a6bc ea8b 10bb
00000160: 4a39 d5bc 61fd f73d b561 a13c 1536 ff3d
00000170: f381 ce3c be01 813d ba06 4fbd affd 253d
00000180: 75ed ebbc fb89 17bd 0620 cc3b 5369 2f3e
00000190: 5e4d bd3e 2df7 a9bd fd02 273e 8cc7 e13d
000001a0: c3e6 cabc bdc4 aabd 4f4a 113e 8d17 ab3d
000001b0: 1dc8 eebd e4e6 aa3d b25c 353d 686e 02be
000001c0: 435f 61bd f0f9 d23d a12d 183d 75e8 593c
000001d0: 4b6b 033d c99a 3cbc 6830 1f3e 3393 143e
000001e0: c90f 1b3d 511c 28bd a4b6 8c3d c2df 22bd
000001f0: 50cd ac3d 9ea4 e73d 720d 863d cbe0 063e
00000200: 15a2 143d be2b 883d 419c 0a3d 3f3f 39bd
00000210: b776 47bd 1fce b7bc e8cf 74bd ed53 2abd
00000220: a5b0 d93b dcd3 85bd 6e91 1abe 4dc2 32be
00000230: e5af 3ebb 63c7 1ebe be64 4b3d c96a de3d
00000240: 7087 d33d ea6d db3b 8be5 c4bd bd31 bc3d
00000250: e8ba 7abd cef1 dabc 25b0 40bd 9f79 593d
00000260: 21f8 d1bd 5d7b cfbc 7e1f 81bd 0cb6 96be
00000270: 4b5b 5dbc 32e6 be3d 22da 32ba 008a 093c
00000280: 8544 54be 0bef 983d 5cc9 883c 40c5 c8bd
00000290: a716 5e3d 3e2a f4bd 5477 3c3e 9dd4 333d
000002a0: a7a3 11be cec4 cbbd 59a6 803d f99f 20bd
000002b0: e37f 10be 60dc e13c 7e8f babd 7f51 57bc
000002c0: b986 a5bd cd05 cfbd 1e66 0f3d 1c06 3ebc
000002d0: a7f6 8b3c a20f b13d 8363 e8bd 6564 8b3d
000002e0: 33c1 15bd 9bf5 e5bd 74b5 293d c6ec f0bd
000002f0: 0ec6 7dbd 4c3e 81bd 9b2e 9c3d 71f8 1abd
00000300: be44 b0bd 2584 093c b950 d6bc 9587 eabd
00000310: d67d 34bd 1637 90bc 5231 cf3d 6519 d13d
00000320: 9ad9 f8bc d9ea dc3c 72df 93bd 5d5f 653c
00000330: 3f55 3e3b e4d0 77bd a2af 263d 9dee 8d3d
00000340: e574 133e 5b73 d4bd 67a9 3cbb ceef 3c3c
00000350: 159c 5d3d 6d94 243c fa71 34bc a976 cc3d
00000360: 3f99 0abd 5049 013d c4c9 893c 1bdf 09bc
00000370: ca79 933d 4597 473e 74ef f8bc 178f 8cbd
00000380: 144e e93c 853b bc3d fb78 e43b 2d42 afbb
00000390: e2f3 c73d 2fe0 9ebd ee30 c8bc 0ff5 333d
000003a0: 82fb 393c 54b0 d9bd 853e e23c 9384 8d3d
000003b0: 5987 b33d b45a cdbc f3ce 363d 5540 95bd
000003c0: ab58 12be cb84 a6bd 174f 7a3d 5006 863d
000003d0: eb5a 483c 4992 703d 46de 923b 3495 693d
000003e0: 1206 49bd 335f 94bd 04a2 803d a508 ca3d
000003f0: b7a5 a93d 994b 5fbc 6803 9e3d 9eb4 133c

bias f4 [100]
-0.04910732 -0.020369755 -0.06025105 -0.0145839 0.005048054 0.06591789 0.07279014 0.08547649
0.03616686 -0.09350159 0.07170923 0.007446772 -0.049398918 -0.10318895 0.064395286 -0.038469847
-0.04911152 -0.09396252 -0.029905273 0.0291409 0.03174149 0.023098363 -0.043479867 0.05348888
0.022895508 0.0582444 0.0035147653 -0.015168715 0.07017772 -0.012860167 -0.0905995 -0.046478618
0.10404934 0.07904403 -0.15125993 0.10489353 -0.089700185 0.105275206 -0.019426167 0.035696402
0.030542923 0.0071304045 0.049483478 -0.0916499 -0.05470836 -0.050225027 0.026796246 0.052309
0.01728391 -0.021659598 0.023208868 -0.054080117 0.08280053 0.0031144833 0.0795261 0.08426726
0.013049966 0.029923176 0.097277716 -0.02000696 -0.10523611 0.064515606 0.07068502 -0.045017857
-0.0027162053 -0.12326041 -0.11748894 -0.037858993 -0.119983666 -0.07995638 0.012457674 -0.04086681
0.1222225 -0.024847927 -0.13986634 0.038677294 -0.11907753 0.008949172 0.09540324 -0.05958983
0.038227133 -0.03870857 0.10140064 0.0038853579 0.018121885 -0.025005395 -0.08033111 0.034482267
-0.08011951 0.09896532 0.0856624 0.006626927 0.08443877 0.03722279 0.049578633 -0.11545793
0.021770393 -0.016135028 -0.024088841 -0.037240926
00000000: c224 49bd 79de a6bc cec9 76bd 4ff1 6ebc
00000010: 256a a53b f5ff 863d ff12 953d 4c0e af3d
00000020: b423 143d c37d bfbd 4adc 923d 0d04 f43b
00000030: 8556 4abd ba54 d3bd ade1 833d 8f92 1dbd
00000040: 2929 49bd 6c6f c0bd e7fb f4bc e6b8 ee3c
00000050: 5d03 023d c738 bd3c f217 32bd 2817 5b3d
00000060: 5c8f bb3c ae91 6e3d fa57 663b 3486 78bc
00000070: 56b9 8f3d 73b3 52bc 3b8c b9bd 5d60 3ebd
00000080: d217 d53d d6e1 a13d e2e3 1abe 6bd2 d63d
00000090: bbb4 b7bd 879a d73d a023 9fbc 6436 123d
000000a0: 2735 fa3c 2ba6 e93b 30af 4a3d f1b2 bbbd
000000b0: e015 60bd c2b8 4dbd cd83 db3c f641 563d
000000c0: fd96 8d3c 786f b1bc 8620 be3c 1d83 5dbd
000000d0: 5393 a93d 5c1c 4c3b 94de a23d 5094 ac3d
000000e0: 86cf 553c 7321 f53c 8a39 c73d a3e5 a3bc
000000f0: 0886 d7bd c220 843d 4fc3 903d a564 38bd
00000100: 5d02 32bb f46f fcbd 0b9e f0bd 0812 1bbd
00000110: ffb9 f5bd 2cc0 a3bd 461b 4c3c f563 27bd
00000120: ca4f fa3d e18d cbbc 1f39 0fbe 156c 1e3d
00000130: ecde f3bd 8c9f 123c c662 c33d 7714 74bd
00000140: 0e94 1c3d e18c 1ebd 24ab cf3d 7da1 7e3b
00000150: 5974 943c 1dd8 ccbc a384 a4bd 473d 0d3d
00000160: b315 a4bd 54ae ca3d c56f af3d b126 d93b
00000170: 3cee ac3d ed76 183d f712 4b3d 3575 ecbd
00000180: d357 b23c 9b2d 84bc f655 c5bc f189 18bd

weight f4 [100, 100]
0.010668835 -0.10851717 0.07271395 0.027981559 -0.026295908 -0.010046561 -0.10946136 -0.048498657
0.048947997 0.088967696 -0.17406793 -0.052430544 -0.073235504 0.06817542 0.03608988 -0.028092684
0.020300122 0.11909147 -0.011961211 0.021795327 0.12271157 -0.039426472 0.08028688 0.06410456
-0.073484235 0.010114038 0.05934399 -0.031632666 0.036325403 -0.11740572 0.10096581 -0.13106784
-0.016461836 -0.10076687 0.026752142 0.0083032325 -0.051774718 -0.08297771 0.0070667467 0.013225423
0.08412976 -0.07838958 0.07393669 -0.10176961 -0.060583528 -0.033426516 -0.018695755 0.08497859
0.059675217 -0.15310211 -0.0070493813 0.054875046 0.08925843 0.068184696 0.08250518 0.077057816
0.116828166 -0.10815165 0.07734575 -0.10893261 -0.007316004 -0.13629524 -0.03575138 0.13233007
0.15701267 -0.035129845 0.06756891 -0.004849101 0.13843305 0.04380383 0.011310422 0.035049964
0.028765872 -0.07395627 -0.013856616 -0.012469697 0.06154654 0.099033706 0.13641363 -0.07415459
-0.001171793 0.0005404415 0.07051253 0.05195787 -0.117914274 -0.06106501 0.011107408 -0.13924645
0.139629 -0.0049235676 0.114656106 -0.103574045 0.006264841 0.101085745 0.07256069 0.061000776
0.059120823 0.14100121 -0.040922385 -0.050802857 -0.07427951 -0.006419366 -0.07949624 0.03044087
0.1341116 0.028155131 -0.065468185 0.11233065 0.005748602 -0.0025399658 -0.25466642 -0.18027703
0.026552679 0.032207627 -0.05316778 0.11620822 0.039072543 0.031736366 -0.012865341 -0.050205324
0.05863453 -0.11618814 0.04889105 -0.030951532 0.07265168 0.084764235 0.025196996 0.09749899
0.021362038 0.10071644 -0.034711782 -0.009752497 0.025116324 -0.054962922 -0.105422586 0.08241148
0.07431621 0.071829304 0.0050943024 0.093750305 0.12606211 -0.07365104 -0.08625792 0.03714063
-0.07294929 -0.027405007 0.028241616 -0.046778623 -0.05671518 0.035146873 0.054148212 -0.03476067
-2.473173e-05 -0.0780141 -0.016522074 -0.0027620327 0.081871234 -0.117826365 -0.044203177 0.11746354
-0.06129246 -0.041594204 0.1418637 0.09723108 0.051039763 -0.1716456 -0.1612458 -0.12716714
-0.0042728665 -0.044660773 0.026523868 -0.15505825 -0.027866093 0.09394535 -0.038209304 0.10625878
0.0029484592 0.10922995 0.07797015 0.07266836 -0.12512124 -0.08255267 0.031723488 -0.059126798
0.017986877 -0.08984591 0.038748194 -0.0034746916 0.05166731 -0.02327163 0.11730792 -0.080613315
0.05202 0.059851106 0.11888961 -0.16228524 0.05644924 0.07633424 0.016449379 -0.0988308
-0.013078788 -0.011503173 0.014710155 -0.0011155986 -0.05741891 0.082342714 -0.04510288 -0.031720143
0.060461115 -0.06906744 0.21221901 0.173732 -0.022386473 0.020822609 -0.101051755 -0.13925731
-0.056765765 0.023110783 -0.020148328 -0.032438494 -0.012530025 -0.081618585 0.057333935 0.123592205
-0.06455387 -0.1614066 0.08454867 -0.040929284 -0.040964715 0.017870227 -0.0033019339 0.004769886
0.031523593 0.05981199 -0.0065826247 -0.10239165 -0.15024015 0.053803153 0.027228909 0.11687176
-0.07926273 0.10290717 -0.099184565 -0.05081722 0.018362734 0.026611913 0.05359118 0.042117048
-0.0154431285 0.10513589 0.006642437 -0.020668564 0.004437225 -0.03847341 0.009009229 -0.06594087
00000000: 56cc 2e3c 403e debd 0deb 943d 9539 e53c
00000010: 846a d7bc 559a 24bc 472d e0bd 87a6 46bd
00000020: b27d 483d b234 b63d dd3e 32be 69c1 56bd
00000030: 7ffc 95bd 8e9f 8b3d fbd2 133d a122 e6bc
00000040: 714c a63c 3be6 f33d f5f8 43bc 1d8c b23c
00000050: 3450 fb3d a77d 21bd 736d a43d 4049 833d
00000060: e77e 96bd 5ab5 253c af12 733d 4191 01bd
00000070: f2c9 143d 6972 f0bd 2ac7 ce3d a636 06be
00000080: f9da 86bc dc5e cebd 4f27 db3c 480a 083c
00000090: ba11 54bd 38f0 a9bd 2b90 e73b 72af 583c
000000a0: 394c ac3d b78a a0bd 1f6c 973d 966c d0bd
000000b0: 6f26 78bd 3eea 08bd d727 99bc 4109 ae3d
000000c0: 006e 743d cdc6 1cbe 7ffe e6bb a8c4 603d
000000d0: 20cd b63d 6ba4 8b3d 7af8 a83d 7dd0 9d3d
000000e0: 9b43 ef3d 9d7e ddbd 7367 9e3d 0f18 dfbd
000000f0: 17bb efbb fb90 0bbe 0a70 12bd 8981 073e
00000100: eec7 203e 50e4 0fbd 9261 8a3d 35e5 9ebb
00000110: 65c1 0d3e a56b 333d 594f 393c 8d90 0f3d
00000120: 68a6 eb3c 6376 97bd dc06 63bc b34d 4cbc
00000130: 3a18 7c3d 2fd2 ca3d 04b0 0b3e 5dde 97bd
00000140: d996 99ba 6aac 0d3a e068 903d c7d1 543d
00000150: 0a7d f1bd 4e1f 7abd d9fb 353c 9f96 0ebe
00000160: e8fa 0e3e e155 a1bb d2d0 ea3d a11e d4bd
00000170: 4c49 cd3b 0b06 cf3d b39a 943d f3db 793d
00000180: ad28 723d 9f62 103e 3b9e 27bd a816 50bd
00000190: db1f 98bd 8c59 d2bb edce a2bd 225f f93c
000001a0: 8d54 093e 97a5 e63c 2f14 86bd 9d0d e63d
000001b0: c55e bc3b 8e75 26bb a363 82be 8b9a 38be
000001c0: 0185 d93c 25ec 033d 75c6 59bd 93fe ed3d
000001d0: 880a 203d fefd 013d 27c9 52bc 19a4 4dbd
000001e0: c32a 703d 0cf4 edbd fb41 483d 118e fdbc
000001f0: 67ca 943d df98 ad3d ee69 ce3c 8dad c73d
00000200: 71ff ae3c 6c44 ce3d f12d 0ebd f0c8 1fbc
00000210: c0c0 cd3c cd20 61bd cce7 d7bd 5ac7 a83d
00000220: 1933 983d 3e1b 933d 1bee a63b 2900 c03d
00000230: 6d16 013e 5bd6 96bd fea7 b0bd c620 183d
00000240: 7066 95bd 7780 e0bc f65a e73c f19a 3fbd
00000250: 2d4e 68bd 2bf6 0f3d 84ca 5d3d 3461 0ebd
00000260: fc76 cfb7 dbc5 9fbd 4d59 87bc 3803 35bb
00000270: 1bac a73d f34e f1bd 640e 35bd b990 f03d
00000280: cd0d 7bbd af5e 2abd b844 113e 1721 c73d
00000290: 120f 513d ddc3 2fbe 9e1d 25be 1a38 02be
000002a0: 6703 8cbb 37ee 36bd 9548 d93c 97c7 1ebe
000002b0: 6f47 e4bc 6b66 c03d 5c81 1cbd 349e d93d
000002c0: f03a 413b f4b3 df3d d0ae 9f3d 26d3 943d
000002d0: c81f 00be 6011 a9bd 7df0 013d f12e 72bd
000002e0: 3759 933c 2201 b8bd 6db6 1e3d a7b7 63bb
000002f0: 1aa1 533d 25a4 bebc 223f f03d 9818 a5bd
00000300: ec12 553d 6f26 753d 657c f33d 1a2e 26be
00000310: 5137 673d 2055 9c3d d9c0 863c cd67 cabd
00000320: 6a48 56bc ce77 3cbc dd02 713c 4739 92ba
00000330: 1730 6bbd 4ca3 a83d ccbd 38bd fbec 01bd
00000340: 13a6 773d 3b73 8dbd f14f 593e cde6 313e
00000350: d663 b7bc 2d94 aa3c 39f4 cebd 7899 0ebe
00000360: 3883 68bd d352 bd3c 1b0e a5bc 3ade 04bd
00000370: bc4a 4dbc a527 a7bd fdd6 6a3d e91d fd3d
00000380: d234 84bd c647 25be da27 ad3d 77a5 27bd
00000390: 9eca 27bd 9564 923c 4265 58bb b44c 9c3b
000003a0: e21e 013d 6bfd 743d 0fb3 d7bb b7b2 d1bd
000003b0: 8ed8 19be b260 5c3d 290f df3c 765a ef3d
000003c0: 8054 a2bd ffc0 d23d 4721 cbbd b825 50bd
000003d0: 726d 963c 3a01 da3c 6d82 5b3d ed82 2c3d
000003e0: 2d05 7dbc 7c51 d73d cda8 d93b 1f51 a9bc
000003f0: 2466 913b 4b96 1dbd 729b 133c 020c 87bd

bias f4 [100]
0.03754543 -0.037372086 -0.10167851 0.044602845 -0.041484833 -0.023721008 -0.029896311 0.060492072
-0.018170163 -0.079770364 -0.021215267 -0.0040741516 0.032480627 0.049973518 0.09648619 -0.023187434
0.02774204 0.066091865 0.067017004 -0.07944387 0.05124126 -0.061851893 0.13651377 0.013317308
0.057834625 -0.014470242 0.05700553 0.122829 -0.00022908079 0.11444879 0.06050789 -0.03737392
-0.0040689586 0.05701041 -0.0016543297 -0.09641851 0.1455409 -0.08564063 -0.036493767 -0.022305682
0.109133705 0.04852069 0.089937195 -0.04771894 0.08191487 -0.055482343 -0.056032527 -0.052948833
0.0119751105 -0.07169154 0.04281523 -0.011620566 -0.009041187 -0.032163374 -0.098938376 0.050616805
0.0918604 0.0050065606 0.07118334 -0.026861753 -0.084913604 -0.022489686 0.05317242 -0.06616208
0.008459391 -0.0041684085 -0.0076385634 0.11078076 0.080784276 -0.02810446 -0.007073336 0.0025149342
-0.09059466 0.04766898 0.047748663 -0.07058485 0.046180762 -0.050688364 0.10478412 0.07241291
0.0938136 0.06553929 -0.07474342 -0.027356084 -0.0025724138 0.05288212 -0.03391147 -0.050485216
-0.033635512 0.051323064 -0.057226755 -0.09827301 0.06424681 -0.040912587 -0.07197703 -0.056764692
-0.058793545 0.04552457 0.06589166 -0.06856395
00000000: 3dc9 193d 7913 19bd d33c d0bd 79b1 363d
00000010: 00ec 29bd 8f52 c2bc 1ce9 f4bc 89c6 773d
00000020: 98d9 94bc a55e a3bd a4cb adbc 7680 85bb
00000030: 680a 053d 08b1 4c3d 8d9a c53d 93f3 bdbc
00000040: 4643 e33c 2c5b 873d 3640 893d 78b3 a2bd
00000050: 5be2 513d 6958 7dbd 44ca 0b3e d730 5a3c
00000060: 00e4 6c3d 9814 6dbc a17e 693d c58d fb3d
00000070: 6835 70b9 2164 ea3d 1fd7 773d 6515 19bd
00000080: e654 85bb bf83 693d 18d6 d8ba 1177 c5bd
00000090: ac08 153e 5b64 afbd 7d7a 15bd 68ba b6bc
000000a0: 7e81 df3d a2bd 463d fe30 b83d ef74 43bd
000000b0: fcc2 a73d 7441 63bd 5d82 65bd e0e0 58bd
000000c0: 4133 443c 04d3 92bd 065f 2f3d 3064 3ebc
000000d0: 7d21 14bc bebd 03bd 34a0 cabd 9153 4f3d
000000e0: 4e21 bc3d 130e a43b 92c8 913d 2e0d dcbc
000000f0: 2fe7 adbd 4a3c b8bc 53cb 593d fc7f 87bd
00000100: 4299 0a3c 2597 88bb ea4c fabb 06e1 e23d
00000110: 3a72 a53d 533b e6bc 71c7 e7bb 98d1 243b
00000120: b189 b9bd 8c40 433d 1a94 433d ca8e 90bd
00000130: 0a28 3d3d 9a9e 4fbd 0f99 d63d 384d 943d
00000140: 5821 c03d 7739 863d 1413 99bd de19 e0bc
00000150: f195 28bb ec9a 583d c1e6 0abd 96c9 4ebd
00000160: 64c5 09bd 2238 523d 9a66 6abd 5c43 c9bd
00000170: d593 833d f593 27bd b168 93bd 1882 68bd
00000180: 80d1 70bd f977 3a3d 35f2 863d 426b 8cbd

weight f4 [100, 100]
0.011186043 0.0759353 0.05577986 0.057372738 -0.06763427 0.23422569 -0.03639017 0.11018331
0.0040537203 0.0071986415 0.0019564016 0.0003907119 0.092918344 -0.08657968 -0.006903166 0.13425261
-0.14270523 0.07250728 0.08751495 0.12000499 0.029854745 0.06224965 -0.08215947 0.00060977734
-0.042299114 0.04433486 -0.08504491 0.07464301 -0.09255415 0.056303915 -0.106791295 0.039038178
-0.07366243 0.09763727 -0.03185196 0.018565124 0.113767736 -0.023608493 -0.08093775 0.11005803
-0.030163739 -0.065549426 0.025552258 -0.011353581 -0.007410622 0.18064784 -0.16821878 0.0061312984
-0.002430789 0.038934715 -0.06739064 0.0018695852 -0.090471536 -0.17555493 -0.10413939 0.0045501594
0.08975621 -0.027692137 -0.15932164 -0.021770064 -0.005160259 0.08260443 -0.14081454 -0.034005187
0.011534456 0.24367611 -0.06706042 -0.054689057 0.0073201056 0.053530104 0.18718337 0.10956159
-0.046777863 -0.10644236 -0.06806785 -0.03858639 0.08357235 0.041607317 -0.025544325 0.0579203
-0.0021066007 0.13186663 0.009211984 0.106829755 -0.09452147 0.021170242 -0.050747063 -0.019475015
0.004536108 0.031941522 -0.13749537 -0.0519539 0.22154498 0.22813354 -0.09836559 0.12523602
0.06335154 0.030366987 -0.031137561 -0.11828791 0.08547022 -0.15131536 -0.11201674 -0.034678835
0.05293687 -0.023562837 0.07033401 -0.046024777 0.024768805 0.19541952 -0.101042084 0.06975303
0.02120802 -0.020456 -0.19615372 -0.05237578 -0.013794756 -0.04730058 -0.1606707 0.12082022
-0.04653088 -0.01772747 0.06523794 -0.069463015 0.003710964 0.002257825 0.07410386 0.08876036
-0.053180363 -0.11064946 0.0002868021 -0.14247146 0.11770988 -0.13268748 0.04008886 0.09920659
-0.1202894 0.042137332 0.04722712 0.10501547 0.021141496 0.09202091 -0.04895658 0.027568301
-0.08553768 -0.051273335 0.0978544 -0.11246506 -0.10888309 -0.12939408 -0.012478274 0.00754329
0.18347792 -0.031513367 0.12995772 0.061107103 0.020940512 0.095539235 0.020671653 -0.046129037
0.01678838 -0.1849869 -0.10942007 0.08402945 0.028962735 -0.0065889093 0.007089085 0.0005251459
-0.051185634 0.030863386 0.01840657 -0.13210183 -0.033644293 0.022376085 0.061965294 0.08509398
-0.02372217 -0.09020629 -0.053891793 -0.08055053 -0.06999602 0.083720475 0.007836314 -0.07072842
0.104300745 0.11382636 0.020813348 -0.020708183 0.07135418 -0.015495314 -0.30430496 -0.058349226
0.110916875 -0.11736871 -0.06945275 -0.0075766267 -0.01096902 0.024787616 -0.085944526 -0.09662948
-0.028513234 0.030344712 0.0426993 -0.029778661 -0.08094235 0.059979443 0.11417633 0.042215243
-0.06512788 0.026328182 0.04487225 -0.013125256 -0.14968225 -0.030417988 -0.06448463 -0.014838737
0.07149786 0.094912104 -0.11733518 -0.027954612 -0.0065566176 0.06576571 0.076031305 0.09544736
-0.087310515 0.0350642 0.038026866 0.022677192 0.09000237 -0.007162401 0.059594024 0.10330138
0.062464293 0.08288451 0.100703575 0.14559121 -0.04476604 -0.05840092 -0.113866985 -0.00013816859
-0.01233193 -0.0017559243 -0.07003141 -0.09860664 -0.055322908 0.11853755 0.04857966 -0.07032767
-0.06946731 0.14136173 0.012919815 0.10330747 0.034433875 -0.12592788 -0.030273587 0.12274442
00000000: aa45 373c f783 9b3d 6c79 643d adff 6a3d
00000010: d683 8abd dcd8 6f3e dc0d 15bd caa7 e13d
00000020: 12d5 843b 95e2 eb3b f936 003b 77d8 cc39
00000030: f94b be3d b050 b1bd f433 e2bb 8479 093e
00000040: 5221 12be b27e 943d 0a3b b33d 2dc5 f53d
00000050: f091 f43c 7df9 7e3d 3943 a8bd 77d9 1f3a
00000060: d641 2dbd 7898 353d 072c aebd 6fde 983d
00000070: 088d bdbd ef9e 663d 65b5 dabd 7fe6 1f3d
00000080: 54dc 96bd 0df6 c73d 3377 02bd e315 983c
00000090: 0fff e83d 9966 c1bc b1c2 a5bd 1b66 e13d
000000a0: f219 f7bc c73e 86bd f852 d13c 5f04 3abc
000000b0: ced4 f2bb bffb 383e 8b41 2cbe 0fe9 c83b
000000c0: df4d 1fbb 027a 1f3d 1b04 8abd df0c f53a
000000d0: 2449 b9bd acc4 33be 0847 d5bd 8119 953b
000000e0: 1bd2 b73d 9fda e2bc 3625 23be 2257 b2bc
000000f0: 6417 a9bb 832c a93d b031 10be 0649 0bbd
00000100: 04fb 3c3c 3b86 793e f956 89bd a201 60bd
00000110: 7fdd ef3b 6242 5b3d ffac 3f3e d461 e03d
00000120: 259a 3fbd 74fe d9bd 2867 8bbd c30c 1ebd
00000130: fb27 ab3d 6f6c 2a3d 5542 d1bc d63d 6d3d
00000140: e50e 0abb 0c08 073e dded 163c 8fc9 da3d
00000150: 7994 c1bd 376d ad3c 27dc 4fbd 118a 9fbc
00000160: a2a3 943b 1dd5 023d 96cb 0cbe 9dcd 54bd
00000170: b0dc 623e d79b 693e e673 c9bd df3d 003e
00000180: 74be 813d 30c4 f83c 3314 ffbc ef40 f2bd
00000190: 030b af3d 6af2 1abe 0869 e5bd 650b 0ebd
000001a0: 55d4 583d da06 c1bc 470b 903d 7a84 3cbd
000001b0: f3e7 ca3c 0e1c 483e 27ef cebd adda 8e3d
000001c0: 71bc ad3c 5793 a7bc 85dc 48be fc87 56bd
000001d0: 6603 62bc 41be 41bd dc86 24be 9770 f73d
000001e0: 2a97 3ebd 3339 91bc 789b 853d a042 8ebd
000001f0: a533 733b 05f8 133b c4c3 973d fec7 b53d
00000200: a7d3 59bd 2f9c e2bd ed5d 9639 0ae4 11be
00000210: e111 f13d 3adf 07be 3734 243d d32c cb3d
00000220: 4a5a f6bd 3298 2c3d 3971 413d 5a12 d73d
00000230: ee30 ad3c 7575 bc3d b286 48bd ebd6 e13c
00000240: 612e afbd fd03 52bd e367 c83d 1554 e6bd
00000250: 19fe debd e27f 04be ad71 4cbc b42d f73b
00000260: a3e1 3b3e 2914 01bd a313 053e 714b 7a3d
00000270: 708b ab3c 13aa c33d 9957 a93c cdf1 3cbd
00000280: c987 893c 356d 3dbe a117 e0bd a217 ac3d
00000290: 4243 ed3c c7e7 d7bb 8e4b e83b f2a9 093a
000002a0: 07a8 51bd 36d5 fc3c 60c9 963c b445 07be
000002b0: 99ce 09bd 0d4e b73c 52cf 7d3d c145 ae3d
000002c0: ff54 c2bc 13be b8bd a4bd 5cbd adf7 a4bd
000002d0: 135a 8fbd a475 ab3d e263 003c 10da 90bd
000002e0: a19b d53d cb1d e93d c180 aa3c 35a4 a9bc
000002f0: 2422 923d 0fe0 7dbc dccd 9bbe 99ff 6ebd
00000300: 6328 e33d 025f f0bd 3e3d 8ebd 5a45 f8bb
00000310: 68b7 33bc 660f cb3c af03 b0bd ade5 c5bd
00000320: 9694 e9bc 7995 f83c 76e5 2e3d 61f2 f3bc
00000330: 1ac5 a5bd 01ad 753d 48d5 e93d e4e9 2c3d
00000340: c461 85bd 33ae d73c f7cb 373d 500b 57bc
00000350: 4e46 19be 252f f9bc 8510 84bd 2d1e 73bc
00000360: 786d 923d 4761 c23d 6d4d f0bd 1201 e5bc
00000370: e5d8 d6bb 2cb0 863d 4db6 9b3d e879 c33d
00000380: dbcf b2bd 7b9f 0f3d 0fc2 1b3d 85c5 b93c
00000390: 2a53 b83d 93b2 eabb dd18 743d ad8f d33d
000003a0: 8fda 7f3d 5bbf a93d ad3d ce3d dd15 153e
000003b0: 985c 37bd ce35 6fbd 1833 e9bd 59e1 10b9
000003c0: dd0b 4abc 0b27 e6ba a16c 8fbd 47f2 c9bd
000003d0: 469a 62bd d1c3 f23d 77fb 463d f407 90bd
000003e0: e144 8ebd 21c1 103e a2ad 533c de92 d33d
000003f0: 890a 0d3d 3df3 00be 5000 f8bc 6d61 fb3d

bias f4 [100]
0.044159092 -0.05442596 0.038952425 -0.015916413 0.049115136 -0.0038137133 -0.007583305 0.11312579
0.019522026 -0.08920851 -0.05184011 0.0460634 -0.0142059885 0.040394105 -0.053961914 0.08333278
-0.042850617 -0.042754203 -0.11977543 0.01796033 -0.03680673 0.04061375 -0.017694755 0.016509272
0.04854314 0.07034738 -0.08423805 -0.1628765 0.08057647 0.045351222 -0.053965155 -0.121813156
-0.03362447 -0.09072271 0.084911734 0.035880566 -0.035245948 0.037914667 -0.06900311 -0.032712113
-0.073336706 0.073299125 -0.022020886 0.074156806 0.008794442 0.117699124 0.009818943 0.044349477
-0.013352172 -0.006819309 0.004254926 0.03980802 0.038112186 -0.07799751 0.041226696 -0.07222874
0.033101536 -0.11480528 -0.022418808 0.05251973 0.050528258 0.06451344 -0.08289078 -0.064609095
-0.011804484 0.06619057 0.015226919 0.04218754 0.03110923 -0.0024863896 -0.05193157 0.08942024
-0.09332878 -0.095532976 -0.03693425 0.0024191614 0.03750487 -0.0328368 -0.03266872 -0.036288552
-0.0049270587 -0.0732045 0.05690723 0.022327162 -0.09334201 0.007384726 -0.015520494 0.042262197
-0.01772317 -0.095101915 0.04550413 -0.11285723 0.10442909 -0.035158426 -0.06529967 0.006790214
0.09075284 0.0329306 0.029342633 -0.008641771
00000000: 2ae0 343d c1ed 5ebd 948c 1f3d 2363 82bc
00000010: f42c 493d 7eef 79bb 5f7d f8bb 7fae e73d
00000020: a8ec 9f3c f4b2 b6bd 4c56 54bd faac 3c3d
00000030: 3cc0 68bc 4a74 253d 2b07 5dbd 60aa aa3d
00000040: 2184 2fbd 081f 2fbd d24c f5bd 8b21 933c
00000050: a7c2 16bd 9b5a 263d 97f4 90bc 743e 873c
00000060: 2cd5 463d 4a12 903d 0085 acbd 19c9 26be
00000070: 4705 a53d 34c2 393d 910a 5dbd 2d79 f9bd
00000080: d0b9 09bd d4cc b9bd 34e6 ad3d 80f7 123d
00000090: 0e5e 10bd 694c 1b3d 8151 8dbd 23fd 05bd
000000a0: 8e31 96bd da1d 963d 2565 b4bc 86df 973d
000000b0: 9016 103c 3d0c f13d a2df 203c cca7 353d
000000c0: 12c3 5abc 8374 dfbb e86c 8b3b bc0d 233d
000000d0: 861b 1c3d 29bd 9fbd 53dd 283d a9ec 93bd
000000e0: 7a95 073d 081f ebbd a6a7 b7bc ee1e 573d
000000f0: b8f6 4e3d 9f1f 843d a4c2 a9bd c651 84bd
00000100: 9867 41bc ec8e 873d 547a 793c d8cc 2c3d
00000110: c9d8 fe3c b2f2 22bb 33b6 54bd f521 b73d
00000120: 2923 bfbd cba6 c3bd 5e48 17bd cb8a 1e3b
00000130: b59e 193d e17f 06bd a3cf 05bd 4ea3 14bd
00000140: 2a73 a1bb 3eec 95bd 8e17 693d 74e7 b63c
00000150: 192a bfbd 92fb f13b ac49 7ebc 201b 2d3d
00000160: 2e30 91bc cbc4 c2bd 8a62 3a3d b121 e7bd
00000170: ebde d53d 4802 10bd d5bb 85bd 7280 de3b
00000180: a0dc b93d 3de2 063d f65f f03c 3796 0dbc

weight f4 [100, 100]
-0.04831511 0.015972117 -0.038213924 0.10566177 0.052591596 -0.0663021 -0.029057566 0.081567556
0.0025159123 -0.11172022 -0.027614145 -0.044900913 0.011626494 0.06791989 -0.026185408 -0.07573833
-0.025904154 -0.09256767 0.014508449 -0.03052512 0.10484201 0.06071002 -0.0032639157 -0.026159061
-0.12742804 -0.030844158 0.10494924 -0.001136997 -0.07450639 0.02258679 0.019791273 -0.0482321
0.00848163 -0.069109865 -0.09318901 -0.10702562 0.0400256 0.16639237 -0.046054207 -0.12437671
-0.15956874 0.014552236 -0.008523701 0.075445816 0.12459215 -0.040823545 0.08299291 -0.044141427
-0.0035686833 -0.013713327 -0.09700329 0.107541256 0.061303657 0.037123412 0.04767673 0.18365411
-0.02754644 0.044588596 -0.007924758 -0.029764913 0.024399577 0.07307812 0.14311989 -0.098382145
-0.16586317 0.089010864 -0.027264997 -0.0403139 -0.02974575 -0.018798085 0.05077307 -0.06128212
-0.103048615 -0.09835716 0.06364369 0.011485045 -0.12169674 0.14557038 0.13099645 -0.03393745
-0.005002061 -0.056555502 0.012134117 0.07102753 0.13666824 -0.12538247 -0.076952875 0.0891776
0.09690234 0.06346546 0.010759342 -0.12696992 -0.08230629 0.025596375 0.001059307 -0.08694169
-0.070781246 -0.16888304 0.029403245 -0.0050329384 0.11147775 -0.056579173 -0.11501318 -0.14540143
-0.056784023 0.00054179976 0.06422412 -0.009040029 -0.0836785 -0.08236689 -0.12662557 -0.08367083
-0.021956649 -0.07777159 -0.03718052 0.04241227 -0.03291197 0.09758018 -0.0331146 0.061140746
-0.08035471 0.0041236593 -0.10070943 -0.07298387 0.058476426 0.016469898 0.058707632 -0.201612
0.014099069 0.06293505 -0.04138643 -0.06121158 0.03158376 -0.10539294 0.11299426 -0.03851557
-0.07671034 0.08863593 0.018279187 0.0959612 0.1130097 0.025464896 0.06684139 -0.018166013
0.00054763135 0.08105243 -0.024242042 0.038743213 -0.044043787 -0.052792836 -0.014161417 -0.012534977
-0.0071574748 0.03922055 -0.008878789 0.06567469 -0.009000427 -0.0054124277 -0.020326154 -0.016745156
0.10442655 0.050333668 -0.09508856 0.06518654 -0.09440283 0.1008861 0.06880358 0.026474921
-0.075681075 0.064222135 -0.018637873 0.09718833 -0.009371963 0.08944065 0.103766836 0.040555555
-0.030797256 0.040089745 0.03963313 0.07202179 -0.037084065 -0.05477792 -0.11652041 -0.026711171
-0.063782796 -0.09379609 -0.11907094 0.09039465 -0.035024595 -0.028219067 0.046343848 0.05736518
0.060761772 0.08754892 -0.10602721 0.04289243 0.013206774 0.11297214 -0.04015778 -0.12546101
-0.033455778 -0.1033409 -0.02147009 -0.090037644 -0.026209727 -0.021705873 0.11686496 -0.08465745
-0.098703705 -0.008627202 0.043434538 -0.019261613 0.015656712 0.08564724 -0.06863327 0.039325174
0.053030882 0.13600148 -0.06323661 0.05044771 0.030328674 -0.0021845885 -0.07223306 0.067909785
0.0869222 -0.12871897 -0.097403325 0.099295475 -0.02493745 -0.09036609 0.12037677 0.06295652
0.116199166 0.09235958 -0.062786385 0.12996034 -0.05512415 -0.111129485 0.012317211 0.050909575
0.09368806 0.023825511 -0.07844396 0.010002774 0.053970326 -0.06123059 0.06644849 -0.06083882
0.09561353 0.020082535 -0.099601746 0.053866517 -0.106444255 -0.035117928 -0.107786834 0.08622321
00000000: 11e6 45bd f5d7 823c 3486 1cbd 3365 d83d
00000010: 496a 573d 65c9 87bd 220a eebc e40c a73d
00000020: 01e2 243b 92cd e4bd 0f37 e2bc 05ea 37bd
00000030: 0d7d 3e3c 9519 8b3d c882 d6bc b31c 9bbd
00000040: f334 d4bc 1e94 bdbd d8b4 6d3c d10f fabc
00000050: 68b7 d63d 12ab 783d 6be7 55bb 874b d6bc
00000060: 7f7c 02be e3ac fcbc a1ef d63d 4a07 95ba
00000070: ce96 98bd ef07 b93c 4f21 a23c 068f 45bd
00000080: 89f6 0a3c 7989 8dbd e1d9 bebd 4030 dbbd
00000090: e2f1 233d c362 2a3e 56a3 3cbd 37b9 febd
000000a0: fd65 23be 806c 6e3c fea6 0bbc 5683 9a3d
000000b0: 2b2a ff3d 9736 27bd 30f8 a93d a4cd 34bd
000000c0: 92e0 69bb ddad 60bc a9a9 c6bd 973e dc3d
000000d0: 8b19 7b3d b80e 183d ad48 433d d30f 3c3e
000000e0: 12a9 e1bc 88a2 363d d8d6 01bc 8cd5 f3bc
000000f0: 9fe1 c73c fba9 953d 058e 123e 947c c9bd
00000100: 09d8 29be 544b b63d d85a dfbc 3020 25bd
00000110: 5cad f3bc 71fe 99bc 6cf7 4f3d f602 7bbd
00000120: 270b d3bd 7b6f c9bd 9f57 823d c52b 3c3c
00000130: 243c f9bd 6710 153e ef23 063e ff01 0bbd
00000140: 54e8 a3bb bea6 67bd 2dce 463c e276 913d
00000150: c2f2 0b3e 4364 00be 7899 9dbd bfa2 b63d
00000160: bc74 c63d 2efa 813d f447 303c 6704 02be
00000170: 3390 a8bd 7daf d13c 72d8 8a3a 7c0e b2bd
00000180: c2f5 90bd adef 2cbe 13df f03c 59eb a4bb
00000190: 724e e43d 90bf 67bd 088c ebbd 1de4 14be
000001a0: 5d96 68bd 9107 0e3a ef87 833d a11c 14bc
000001b0: a25f abbd f9af a8bd 22aa 01be 9d5b abbd
000001c0: 6ede b3bc b646 9fbd 9a4a 18bd 7db8 2d3d
000001d0: b4ce 06bd 1ed8 c73d 2da3 07bd b86e 7a3d
000001e0: 0391 a4bd c31f 873b bf40 cebd 9178 95bd
000001f0: fa84 6f3d e1eb 863c 6a77 703d 6073 4ebe
00000200: c8ff 663c 17e4 803d d184 29bd feb8 7abd
00000210: f95d 013d 41d8 d7bd 8969 e73d 81c2 1dbd
00000220: 501a 9dbd c186 b53d 3cbe 953c 4e87 c43d
00000230: a171 e73d c29b d03c 24e4 883d e4d0 94bc
00000240: eb8e 0f3a d1fe a53d 3f97 c6bc 34b1 1e3d
00000250: 4267 34bd 4d3d 58bd 4a05 68bc 815f 4dbc
00000260: 4089 eabb baa5 203d 5778 11bc 7480 863d
00000270: 8776 13bc bc5a b1bb 0983 a6bc 232d 89bc
00000280: 96dd d53d ad2a 4e3d cabd c2bd 8580 853d
00000290: 4556 c1bd 5f9d ce3d e4e8 8c3d efe1 d83c
000002a0: aefe 9abd e586 833d 74ae 98bc ad0a c73d
000002b0: dd8c 19bc a92c b73d b583 d43d 951d 263d
000002c0: 874a fcbc 2535 243d 5956 223d 2980 933d
000002d0: 76e5 17bd d05e 60bd 41a2 eebd 63d1 dabc
000002e0: 8ea0 82bd 2a18 c0bd 77db f3bd d520 b93d
000002f0: f375 0fbd ac2b e7bc 0cd3 3d3d c0f7 6a3d
00000300: 56e1 783d d94c b33d cb24 d9bd f9af 2f3d
00000310: 3a61 583c f05d e73d 7c7c 24bd da78 00be
00000320: ed08 09bd 65a4 d3bd 0be2 afbc a865 b8bd
00000330: c8b5 d6bc 84d0 b1bc e556 ef3d e360 adbd
00000340: 2b25 cabd 1c59 0dbc 6ae8 313d 88ca 9dbc
00000350: 8142 803c d267 af3d 9a8f 8cbd 6f13 213d
00000360: e936 593d f943 0b3e 3282 81bd 42a2 4e3d
00000370: d773 f83c 502b 0fbb edee 93bd 4914 8b3d
00000380: 4404 b23d e8ce 03be 657b c7bd 6d5b cb3d
00000390: a049 ccbc db11 b9bd 1988 f63d 59ef 803d
000003a0: d4f9 ed3d 0527 bd3d 2696 80bd 5314 053e
000003b0: dcc9 61bd db97 e3bd 21ce 493c 8f86 503d
000003c0: 87df bf3d b82d c33c 3aa7 a0bd ade2 233c
000003d0: fd0f 5d3d edcc 7abd 2516 883d 2032 79bd
000003e0: 07d1 c33d 2184 a43c 00fc cbbd 23a3 5c3d
000003f0: 72ff d9bd d1d7 0fbd 58bf dcbd cb95 b03d

bias f4 [100]
-0.06395638 -0.0070354403 -0.08313598 -0.062526286 0.08188274 -0.041964296 -0.0067799836 -0.06203985
-0.04465457 0.09199166 -0.093186446 0.076031856 0.09907054 -0.083561644 -0.0077934074 0.075675435
0.049660463 -0.07270716 0.06987576 0.0264631 0.08115304 -0.10167511 0.01813436 0.042896003
0.05116968 -0.0025253934 0.07254102 0.062265534 0.058025055 -0.040231 0.089141965 -0.03430163
0.039268523 -0.0001794625 -0.11161984 0.07555778 -0.11260626 -0.05801879 0.023116034 0.035574004
-0.06572352 0.06503069 -0.047024522 0.015047565 -0.07666829 0.07616496 -0.110325016 0.026677156
0.058978323 0.03809891 -0.10975705 -0.08786579 0.036197096 -0.0048635867 -0.076442026 -0.080844566
-0.052573167 0.07472335 0.06910767 -0.1109221 -0.1162622 -0.017611306 0.013080672 0.0037859164
-0.013688069 -0.09367288 -0.06184864 -0.06571984 0.14431344 -0.043575417 0.010768849 0.11149658
-0.034369055 0.003174866 0.040096343 0.09766192 0.01998926 0.091324605 -0.075089075 0.07656661
-0.031545077 0.0997841 -0.08538993 -0.11825156 -0.10550935 0.06372726 -0.016331438 -0.05428947
-0.10934272 0.0839394 -0.0015654293 0.034533393 0.052148525 0.060051322 -0.023767602 0.105835184
-0.085611515 0.042676903 0.095765665 -0.037985418
00000000: 90fb 82bd 8d89 e6bb 3243 aabd c80d 80bd
00000010: 23b2 a73d c1e2 2bbd a02a debb 7f1d 7ebd
00000020: b6e7 36bd 2066 bc3d 89d8 bebd 97b6 9b3d
00000030: 7fe5 ca3d 5e22 abbd d75f ffbb b9fb 9a3d
00000040: c568 4b3d 7ee7 94bd 061b 8f3d 25c9 d83c
00000050: 9133 a63d 0a3b d0bd 828e 943c b8b3 2f3d
00000060: 4c97 513d 1281 25bb 6390 943d 250a 7f3d
00000070: aeab 6d3d 43c9 24bd 1090 b63d de7f 0cbd
00000080: 08d8 203d 192e 3cb9 f198 e4bd 0abe 9a3d
00000090: 1c9e e6bd 1ca5 6dbd d65d bd3c 0cb6 113d
000000a0: 0e9a 86bd cf2e 853d c99c 40bd 108a 763c
000000b0: 4404 9dbd 60fc 9b3d 15f2 e1bd 0d8a da3c
000000c0: 4193 713d 9a0d 1c3d 4ec8 e0bd fbf2 b3bd
000000d0: 6843 143d b95e 9fbb a38d 9cbd d691 a5bd
000000e0: f656 57bd 8e08 993d 5288 8d3d 202b e3bd
000000f0: e01a eebd 9645 90bc 5150 563c 231d 783b
00000100: ec43 60bc 91d7 bfbd 0055 7dbd 2098 86bd
00000110: e7c6 133e 237c 32bd d46f 303c 5258 e43d
00000120: 91c6 0cbd 6a11 503b 103c 243d f902 c83d
00000130: 84c0 a33c 6508 bb3d 4dc8 99bd f4ce 9c3d
00000140: 6935 01bd 9b5b cc3d eae0 aebd e02d f2bd
00000150: 4915 d8bd 7083 823d 82c9 85bc a35e 5ebd
00000160: 13ef dfbd 6ce8 ab3d 172f cdba e372 0d3d
00000170: b199 553d 60f8 753d 46b4 c2bc 1ec0 d83d
00000180: 1755 afbd facd 2e3d ca20 c43d 9996 1bbd

weight f4 [100, 100]
0.18531898 0.04969331 -0.14312047 -0.013119932 0.123607375 -0.1463029 -0.3060334 -0.042903326
0.11144198 -0.17158876 -0.11852738 0.087234385 0.1455954 -0.056043003 -0.19928303 -0.5403828
-0.1496541 -0.03756953 0.006121351 -0.018448949 -0.17040926 0.06695607 0.09883329 0.12946743
0.19977508 -0.061002024 -0.043002542 0.13041364 -0.104292125 0.10969912 0.02784902 -0.09618764
-0.18282263 0.051083405 0.045373026 0.12006241 0.1335905 0.044140853 0.2619757 -0.016358446
0.0045611076 -0.1907254 0.26009157 -0.09387293 -0.019389525 -0.18149209 0.05086979 -0.0054662484
0.20168735 0.08581236 -0.07036828 -0.42463234 0.008567681 0.0060534766 0.015136913 0.053943314
-0.10651748 0.030976078 -0.13075188 -0.13136289 -0.06734608 -0.08257732 -0.16988723 0.05061974
0.01419717 0.2962753 -0.048820753 -0.11310111 -0.31051055 0.17022695 0.041784607 -0.046403103
0.03289453 0.121917814 0.14172469 -0.15863647 -0.050093308 -0.25594935 0.16950673 0.10027842
0.089050286 -0.3772183 0.00075785926 0.12956497 0.01837925 -0.032942478 0.016541641 -0.26283175
0.0815879 0.032750618 -0.0018571289 0.0042148 -0.0071453284 -0.029766254 0.21980834 0.12568498
0.0007705758 0.11329334 -0.06900402 0.0881812 0.017978612 -0.06327006 0.13897862 -0.0103700645
0.0018634421 0.01036655 0.12044491 0.06391157 0.12027575 -0.047141552 0.0372356 0.061018314
-0.01758311 0.08107296 -0.004993216 0.019101685 0.026094621 0.091667116 -0.04329055 -0.0357295
0.010427378 -0.1281241 -0.03978052 0.075776234 -0.066337384 -0.029728323 0.029368684 -0.12270452
0.09134799 0.0033460248 -0.025730858 0.03353284 0.05880133 0.03258925 0.055791404 -0.08063757
0.067127034 0.09413396 -0.08203657 0.034754366 -0.07928442 -0.053913344 0.011100308 0.08996052
-0.06249941 -0.021703634 0.08375468 0.029446319 -0.07016711 0.062693805 0.013931256 0.09810357
0.0021262267 0.074272685 -0.024474146 -0.073849455 -0.05869604 0.044057626 -0.0471405 0.041062504
0.08470714 0.030904017 0.08807828 -0.04841134 0.018127248 -0.01445927 -0.123486616 0.037958603
0.08811018 0.03185123 0.050456796 -0.07446967 -0.09658826 -0.07952568 -0.038256675 0.07386395
-0.024031537 0.003701209 -0.1036715 -0.058352403 0.12453884 -0.0145108905 -0.092664786 -0.09994873
-0.035644084 0.06291513 -0.044266716 0.0761934 0.07464116 -0.029367313 0.03748627 0.006551309
0.09885803 0.073462404 0.028781474 0.048185945 -0.11724947 -0.10335889 -0.090935715 -0.0004975618
0.075350225 0.043561485 -0.04745005 -0.09489541 -0.047883663 -0.0019287096 0.031872746 0.06893978
-0.12255247 0.04687231 -0.030977875 0.061589785 -0.06896201 -0.0008644511 -0.076815926 -0.005265626
-0.02747234 0.036071524 -0.040933706 -0.056398597 0.09253413 -0.06628148 0.07705749 -0.09533175
-0.034407936 -0.01247329 0.07434631 -0.03870456 0.005852407 -0.107457064 0.102268346 -0.04868586
0.00723943 -0.089976594 0.031107027 -0.019954562 -0.072829105 0.029140325 0.04077939 -0.08219813
0.061174 -0.07464634 0.015926328 0.07573065 0.06814613 0.020583414 0.036315415 -0.06426832
0.059728406 -0.100628644 -0.07984712 0.01618827 0.03806917 -0.012381802 -0.03667892 -0.10851202
00000000: 42c4 3d3e 368b 4b3d 2c8e 12be fcf4 56bc
00000010: dd25 fd3d 6dd0 15be 69b0 9cbe 66bb 2fbd
00000020: b13b e43d f7b4 2fbe 7cbe f2bd f1a7 b23d
00000030: f616 153e 598d 65bd da10 4cbe 8756 0abf
00000040: ed3e 19be 82e2 19bd 9d95 c83b 4022 97bc
00000050: c47f 2ebe 4420 893d 1c69 ca3d 1c93 043e
00000060: d791 4c3e 42dd 79bd 6f23 30bd 278b 053e
00000070: 1c97 d5bd efa9 e03d a123 e43c 07fe c4bd
00000080: db35 3bbe d53c 513d 11d9 393d 48e3 f53d
00000090: f3cb 083e 0acd 343d ae21 863e 2602 86bc
000000a0: 5875 953b 854d 43be b92a 853e 7340 c0bd
000000b0: c8d6 9ebc 10d9 39be d75c 503d 371e b3bb
000000c0: 2187 4e3e 64be af3d 3f1d 90bd 6969 d9be
000000d0: 755f 0c3c 3e5c c63b d100 783c aaf3 5c3d
000000e0: d625 dabd 8bc1 fd3c d2e3 05be fe83 06be
000000f0: beec 89bd 4c1e a9bd ebf6 2dbe a556 4f3d
00000100: 3f9b 683c 65b1 973e 45f8 47bd 8ea1 e7bd
00000110: 3dfb 9ebe f94f 2e3e 5626 2b3d 2e11 3ebd
00000120: 6abc 063d 0cb0 f93d 4720 113e 9971 22be
00000130: a42e 4dbd cb0b 83be 2c93 2d3e c65e cd3d
00000140: ff5f b63d c222 c1be 13ab 463a aeac 043e
00000150: 1590 963c b1ee 06bd 5682 873c e291 86be
00000160: 8f17 a73d 8325 063d e86a f3ba 4e1c 8a3b
00000170: 5c23 eabb 5cd8 f3bc 7015 613e 90b3 003e
00000180: 7700 4a3a 5706 e83d fb51 8dbd 5898 b43d
00000190: e247 933c bc93 81bd 6950 0e3e 34e7 29bc
000001a0: be3e f43a 76d8 293c d2ab f63d 12e4 823d
000001b0: 2253 f63d 8017 41bd 5b84 183d 57ee 793d
000001c0: 740a 90bc 9409 a63d 229e a3bb 237b 9c3c
000001d0: 63c4 d53c f8bb bb3d 6f51 31bd 1959 12bd
000001e0: 98d7 2a3c f732 03be e6f0 22bd 9230 9b3d
000001f0: e5db 87bd d088 f3bc 9896 f03c 824c fbbd
00000200: a814 bb3d fb48 5b3b 85c9 d2bc bb59 093d
00000210: aad9 703d 4e7c 053d 8785 643d 4f25 a5bd
00000220: e679 893d 4ec9 c03d ca02 a8bd 985a 0e3d
00000230: df5f a2bd 3dd4 5cbd 11de 353c 393d b83d
00000240: 62ff 7fbd d2cb b1bc 9387 ab3d 6839 f13c
00000250: c6b3 8fbd 9c65 803d ec3f 643c 86ea c83d
00000260: 2a58 0b3b 471c 983d 017e c8bc 623e 97bd
00000270: 426b 70bd c575 343d 6616 41bd 2831 283d
00000280: f07a ad3d 6c2a fd3c 6362 b43d f84a 46bd
00000290: 987f 943c 93e6 6cbc 8de6 fcbd 7b7a 1b3d
000002a0: 1c73 b43d 6f76 023d c9ab 4e3d 8e83 98bd
000002b0: 11d0 c5bd 5cde a2bd 08b3 1cbd fc45 973d
000002c0: c9dd c4bc fc8f 723b b951 d4bd ee02 6fbd
000002d0: 380e ff3d 16bf 6dbc 09c7 bdbd ebb1 ccbd
000002e0: 88ff 11bd a6d9 803d 0451 35bd 490b 9c3d
000002f0: 77dd 983d b893 f0bc 348b 193d 5dac d63b
00000300: 1476 ca3d 7573 963d 20c7 eb3c a05e 453d
00000310: 7d20 f0bd d3ad d3bd 813c babd cf6e 02ba
00000320: 3851 9a3d 876d 323d fc5a 42bd 8658 c2bd
00000330: a921 44bd c1cc fcba ff8c 023d 4d30 8d3d
00000340: cafc fabd 2efd 3f3d 50c5 fdbc 9245 7c3d
00000350: f43b 8dbd 559c 62ba ab51 9dbd 468b acbb
00000360: ac0d e1bc bcbf 133d 1aaa 27bd 3702 67bd
00000370: 8982 bd3d 96be 87bd 51d0 9d3d 4b3d c3bd
00000380: 56ef 0cbd c55c 4cbc e142 983d ac88 1ebd
00000390: 8cc5 bf3b 7312 dcbd 1172 d13d d36a 47bd
000003a0: be38 ed3b a645 b8bd 2ad4 fe3c c077 a3bc
000003b0: 6d27 95bd b1b7 ee3c 4a08 273d 7e57 a8bd
000003c0: 9791 7a3d 2ee0 98bd ee77 823c ac18 9b3d
000003d0: 3390 8b3d 8c9e a83c 79bf 143d 1c9f 83bd
000003e0: c6a5 743d 6416 cebd e386 a3bd 439d 843c
000003f0: 6bee 1b3d 0bdd 4abc a33c 16bd 8d3b debd
