Beltrami/best_net_no_improved.pth (torch, 335239 bytes, 20 tensors)

weight f4 [100, 4]
000000 e9 9c a2 3e 86 f8 df bd c0 8a 97 bb 1f b5 92 3e
       0.31760338 -0.10936074 -0.0046246946 0.2865381
000010 9f b0 e3 be 9c 07 01 3f ac 8a 68 bc 25 fb ba 3e
       -0.4447069 0.50402236 -0.014193218 0.36519733
000020 22 38 1f 3e 81 ce 00 bd 5d bc 66 3e 41 86 30 be
       0.15548757 -0.031446937 0.22532792 -0.17238714
000030 82 ff 56 3e aa 56 93 be 53 36 60 bd 4a 7c c2 bd
       0.20995906 -0.28777057 -0.054739308 -0.094963625
000040 1b 19 d3 3d 8e 20 67 3d 3d 88 d3 3e a9 3d 4d 3d
       0.10307523 0.05642753 0.4131488 0.05010763
000050 08 54 27 be 9d 6c 6e be 55 b6 07 3d 6d f6 22 be
       -0.16340649 -0.2328362 0.03313287 -0.15914316
000060 df 29 b2 bd ec fd 32 3d e1 3f a2 3e 27 66 03 3f
       -0.086993925 0.04369919 0.3168936 0.5132775
000070 ec d3 9e be a2 62 cd 3e 4c 52 46 3e 77 7b 08 3f
       -0.3102106 0.40114313 0.19367331 0.5331339
000080 40 02 a9 3e 2f 15 07 bf bd ca 03 bf 62 e0 0a be
       0.3300953 -0.527667 -0.5148123 -0.13562158
000090 4e c4 dc 3e e0 84 05 bd 1a 40 72 3e 28 27 c2 be
       0.4311852 -0.032597423 0.23657265 -0.379205
0000a0 b7 20 11 3f 23 20 4d be d5 75 d9 3e cc 82 d8 bd
       0.56690544 -0.2003179 0.4247271 -0.105718225
0000b0 0a 6e 84 be 95 1b 73 3e a0 63 64 be 78 fd 92 3e
       -0.25865203 0.2374099 -0.22303629 0.28709006
0000c0 be d7 52 be 89 13 bc bd f5 de 0a bf 06 70 27 be
       -0.20590112 -0.091834135 -0.54246455 -0.16351327
0000d0 80 46 8f 3e aa 7a d1 bd cd 1c 02 3f 99 a4 cc 3e
       0.27983475 -0.102284744 0.50825197 0.39969328
0000e0 a2 d7 a1 ba eb 7f ab be 9c c7 bc 3e dd f2 8e 3e
       -0.0012347589 -0.3349603 0.3687104 0.27919665
0000f0 40 29 cc be 05 58 b9 3e 14 06 84 3e 0d 1d 14 3f
       -0.3987522 0.36199966 0.25785887 0.5785683
000100 a9 2f 97 be 01 54 dc bd eb 60 4e 3d 83 24 d2 3d
       -0.2952855 -0.1075821 0.050385397 0.1026087
000110 4a d1 c5 be 67 04 d5 be a3 a1 e0 3d d7 86 d0 bd
       -0.38636237 -0.4160492 0.1096833 -0.10181969
000120 e8 ab 96 3e 65 8c ab 3d f9 f9 83 3e 58 87 de 3c
       0.2942803 0.083763875 0.25776652 0.027164146
000130 5a 49 7f 3e cf 4d 99 3e 28 0d ba be 85 c6 ac 3e
       0.24930325 0.29942176 -0.36338162 0.33745208
000140 7f 6c 02 bf 91 b4 ce be 44 78 26 3e 15 23 8a bd
       -0.509468 -0.40372136 0.16256815 -0.067449726
000150 88 63 d5 3e 2d 35 51 be d5 74 d5 be b6 d5 e5 3e
       0.416775 -0.20430441 -0.41690698 0.4488961
000160 c2 b2 e0 bc 16 d7 86 3e fd 18 2c 3e d8 62 08 bf
       -0.027428988 0.26335973 0.16806407 -0.53275824
000170 b9 7d e0 3c 0b 2d 28 3e 5f 79 c5 be a0 a8 2e be
       0.0274037 0.16423433 -0.3856916 -0.17056513
000180 19 ea 0b 3e 4b 17 9e 3d 3a 2e 5b be 1f 41 ab be
       0.1366352 0.077192865 -0.21404353 -0.3344812
000190 8e 1f b6 3e 0b ff 8d be 3d 31 53 3e d7 1e 69 3e
       0.3557095 -0.27733645 0.20624252 0.2276567
0001a0 58 70 e1 be 24 3c 17 bf 35 a3 ed 3e d8 cb b1 ba
       -0.44031024 -0.5907614 0.4641358 -0.0013564778
0001b0 ac 24 b7 3e 86 a6 54 3e 19 c6 57 3e 1d 31 92 3e
       0.35770166 0.20766649 0.21071662 0.28553095
0001c0 b2 da 08 3f 3b 72 aa be 44 89 fb 3d 50 d9 aa 3e
       0.534587 -0.33290276 0.12282041 0.3336892
0001d0 e4 14 73 3e b7 68 93 3e 88 a0 b4 be 3a 87 fc be
       0.23738438 0.2879083 -0.35278726 -0.4932192
0001e0 f2 2e c2 be 39 95 7f 3d a0 e3 f8 3e 7a 20 b1 be
       -0.3792644 0.06239817 0.48611164 -0.3459509
0001f0 3a 4b a7 3e 09 89 bf be 58 86 08 bf 0e 8e 45 be
       0.3267458 -0.37409237 -0.5332999 -0.19292471
000200 a4 5e af 3e d2 58 f5 3e 9c bf 9f be 0f 34 c3 3d
       0.34251893 0.47919327 -0.31200874 0.09531414
000210 84 f4 1f 3f 5a bc 0b 3f 08 ed ec 3e 02 06 95 3e
       0.62482476 0.54584277 0.4627459 0.29106146
000220 93 e3 36 3e b4 20 5f 3d 55 f5 84 be d3 ae 1d bf
       0.1786025 0.054474548 -0.25968423 -0.61594886
000230 7e f7 64 be 93 46 32 bc a9 38 d7 be 4c 39 80 3e
       -0.22360036 -0.010881084 -0.42035416 0.25043714
000240 66 14 07 3e e3 bc 31 be fa 22 51 3e 14 fc 2d 3e
       0.13191375 -0.17357211 0.20423499 0.16990691
000250 22 bd 62 3e 6b 5a 9f 3e a7 a2 67 be a0 79 07 3f
       0.22142461 0.3112367 -0.2262064 0.5291996
000260 2e 0d 98 bc 17 9c 8c bd 27 c2 01 bf 34 45 84 be
       -0.018560972 -0.06865709 -0.5068688 -0.25834048
000270 16 77 c3 be 08 37 8f be ea 07 ba 3e 8c 01 58 be
       -0.38176793 -0.27971673 0.36334163 -0.2109434
000280 2d 6d 98 be 5a 38 90 3e 35 9b 82 3e fe bc ae 3e
       -0.29770795 0.28167993 0.2550904 0.34128565
000290 7b d6 e7 be 18 9d a8 3d d2 3a 83 be db 55 b3 3d
       -0.45280823 0.08233088 -0.25630814 0.0875661
0002a0 80 88 d2 be c3 4a 8a be b4 58 85 be 71 0e c5 3e
       -0.41119766 -0.27010164 -0.26044238 0.3848758
0002b0 5c 2d 1a 3d e2 92 33 3e 51 f2 18 3f 8b 8e 16 3f
       0.037640914 0.175365 0.59744745 0.58811253
0002c0 03 ca e2 3e 49 f3 92 3d 0b b1 92 be 0e e9 d7 3e
       0.44294748 0.07175309 -0.28650698 0.42169994
0002d0 7d 2f 05 be 01 56 d2 bd d1 51 d8 be 57 13 89 3c
       -0.13006397 -0.1027031 -0.4224992 0.016732855
0002e0 d9 25 bd be 3d fd f7 3e 7c 14 18 bf 01 ab c2 be
       -0.36942938 0.48435393 -0.59406257 -0.3802109
0002f0 24 5a 37 3d d9 4d 92 be 1c d4 85 3e 13 a4 cd bd
       0.0447637 -0.28575018 0.2613839 -0.1004106
000300 81 57 af be 7e 38 2b bd 48 18 a7 3e de 4b dd be
       -0.34246448 -0.041801922 0.32635713 -0.43221945
000310 1a a6 ed 3e ef d0 05 3f 9d d5 1f 3f bc 6c 0b bf
       0.46415788 0.5227193 0.62435323 -0.5446279
000320 91 38 23 3e bc 7b 9b be 4b 79 00 3f 05 e1 6c be
       0.15939547 -0.3036784 0.5018508 -0.23132713
000330 e4 d4 9e 3e fc 94 31 bd a9 94 21 bd 7e ea d1 bd
       0.31021798 -0.043354973 -0.039448414 -0.10249804
000340 b5 f2 35 3d 19 2a 40 3e 85 f5 3a bd 2f 28 17 3e
       0.044420917 0.18766059 -0.045644302 0.14761423
000350 38 c9 ea be 61 97 f1 3e df 7e f2 3e 80 ca c4 3e
       -0.45856643 0.47185805 0.4736242 0.38435745
000360 88 15 ec 3e 74 56 97 be 0f af 2a be 30 85 06 3f
       0.46110177 -0.29558146 -0.16668342 0.5254698
000370 92 df b7 be b7 3a 00 3f c9 51 df be c4 1f d3 be
       -0.35912758 0.5008959 -0.43617085 -0.41235173
000380 cd 95 37 3e 16 4e a1 be f9 e5 05 be 04 22 07 3f
       0.17928238 -0.31504887 -0.13076009 0.5278628
000390 80 06 ae 3e 62 11 e2 3e b6 c5 99 bd 94 7c 16 bf
       0.33989334 0.44153887 -0.075084135 -0.5878384
0003a0 38 87 13 3f 61 1b c7 bd 02 3b 6f be c6 71 a7 3d
       0.576282 -0.09722019 -0.23362353 0.081759974
0003b0 63 9f d7 be 73 c6 7c 3e e4 34 8f 3e 14 d4 ea be
       -0.4211379 0.24685077 0.2797004 -0.45864928
0003c0 02 62 9b be 96 37 d4 3c da 74 71 3e 8e 13 59 bd
       -0.30348212 0.025905412 0.23579732 -0.052997164
0003d0 16 7b a5 be 5d c5 ed 3c f7 37 16 bf 45 c5 bf be
       -0.3232047 0.029024774 -0.58679146 -0.37455192
0003e0 eb 63 b1 be 66 c9 08 3f 5e c4 e0 3e 43 6e 2a be
       -0.34646544 0.5343231 0.43899816 -0.16643624
0003f0 65 88 a6 3c f1 8d 66 3e 03 cd 6f 3d 95 fd cf be
       0.02032871 0.22515084 0.058545124 -0.40623155

bias f4 [100]
000000 15 02 60 be 80 73 c8 3e 88 b8 6b bd 9d 0d cd be
       -0.21875794 0.3915062 -0.05754903 -0.4004945
000010 b2 15 6a be f2 56 d8 be fc e2 61 be 20 28 9b be
       -0.22859839 -0.42253834 -0.22059244 -0.3030405
000020 8d 38 e2 3e 57 db 11 be 92 af 6a be 72 db 81 3e
       0.4418377 -0.14243828 -0.22918537 0.25362736
000030 8a 66 9d 3e 77 1d c5 be 0f 4c 51 3e a8 5e 81 3e
       0.30742294 -0.38499042 0.2043917 0.2526753
000040 e4 bc b4 be 3a 69 f4 3e 32 24 b4 be 13 be 23 be
       -0.35300362 0.47736531 -0.35183865 -0.15990476
000050 d3 f7 ad be 4b a3 fc 3e 08 6f cd 3b 75 c3 ca 3e
       -0.33978137 0.49343333 0.0062693395 0.39602247
000060 3f b1 f9 3b e4 ce 75 3e ab 34 0b be af 53 f9 be
       0.0076200063 0.24004704 -0.1359431 -0.48696658
000070 9b 41 da 3d f5 3a bf bd 80 3b 9d bd 3d dd 83 be
       0.106570445 -0.09337417 -0.07677364 -0.2575473
000080 8f 17 6f bc 4f 65 f0 3d 15 0c be 3d 58 8e a2 be
       -0.014593019 0.11738073 0.09279648 -0.31749225
000090 cf 32 7d 3e 56 a3 95 3d 39 2d d8 3e 70 47 a8 3e
       0.24726413 0.073065445 0.42222002 0.32867002
0000a0 b8 d0 b4 be ab 06 f3 3e 89 b7 cf be e0 24 8a 3e
       -0.3531549 0.47466025 -0.40569714 0.26981258
0000b0 c8 d3 33 3d 61 76 a5 3e 83 93 9e be 8b 56 9d 3e
       0.043903142 0.32316878 -0.30971918 0.3073009
0000c0 f5 6f 8d be 83 92 d6 be a3 0f 0f 3e d5 18 57 3e
       -0.2762448 -0.41908655 0.13970809 0.21005566
0000d0 3c 15 f1 3e ae 77 24 bd a0 6d 00 3f d5 25 b0 3e
       0.47086513 -0.040153198 0.50167274 0.34403864
0000e0 93 91 fc bd 9c b1 d0 be 67 ee 86 3e 19 85 92 be
       -0.123324536 -0.40760505 0.26353762 -0.2861717
0000f0 a8 d7 79 3e 73 21 ce be cc d6 b5 3e 3c 2c 2a 3d
       0.24398673 -0.40259895 0.3551544 0.04154609
000100 b1 2e f9 bd eb eb 6a 3e 13 94 c9 be 57 c1 e0 bd
       -0.12167109 0.22941558 -0.39370784 -0.10974377
000110 ec ba 9f bd d2 63 16 be 42 a3 61 be ee cf 33 be
       -0.077993244 -0.14686516 -0.22034934 -0.17559788
000120 6f fb f0 3e 11 01 a8 3e 10 15 e2 3e 29 f5 94 3e
       0.4706683 0.32813314 0.44156694 0.29093292
000130 d7 f3 c1 be 0d cc b2 3c 42 ce 33 3e 3c f0 bd be
       -0.37881348 0.021825815 0.1755915 -0.37097347
000140 b9 56 89 3e 9d 1e 81 be af 0e 08 3e aa d2 1c 3e
       0.26823977 -0.2521867 0.13286851 0.15314737
000150 9d 41 d3 3e 38 eb 3c be ff a5 a4 be 7c 0a 06 3f
       0.41260996 -0.18449104 -0.32157895 0.5235975
000160 97 0e 44 3e 07 08 4d 3e 1f a0 65 3e dd 80 29 be
       0.1914619 0.20022593 0.22424363 -0.16553064
000170 e2 18 a6 3e f5 f5 d9 be 72 df 32 bd 1c d9 83 3e
       0.3244086 -0.42570463 -0.043670125 0.2575158
000180 5f 8f b5 3e 85 91 21 be fc 09 df be 65 20 2a 3e
       0.35460946 -0.15778168 -0.43562305 0.1661392

weight f4 [100, 100]
000000 3c bc 87 bd ad b2 0c be ff 12 1a be f1 88 44 bc
       -0.066277 -0.13740034 -0.15046309 -0.01199554
000010 bb c6 3f bd da ba fb bc da f0 81 bd c9 58 de bd
       -0.046820384 -0.030728746 -0.06344767 -0.10856778
000020 16 db 1d 3e a2 f4 1a bd b1 45 b4 bd bd 79 ed 3c
       0.15415606 -0.037830956 -0.08802355 0.028988713
000030 a5 6c 9f bd 1d 3f b7 3c ee 1d 00 bd 3a 87 0e be
       -0.07784394 0.022368962 -0.031278543 -0.13918772
000040 96 77 24 bd 90 60 84 bd 4c f6 6b bd 08 00 fb 3c
       -0.04015311 -0.0646373 -0.057607934 0.030639663
000050 d0 70 90 bd e6 42 be bd 27 97 44 3d 09 40 1c bd
       -0.07052767 -0.092901036 0.047995713 -0.038147006
000060 d5 eb 33 bc 05 78 e1 bd fe 42 e0 3d 2c 30 2e bb
       -0.01098152 -0.1100922 0.10950278 -0.0026579006
000070 ca a0 9f bd f2 9f 45 bd f5 8b bb 3c fb 75 19 3d
       -0.0779434 -0.04824824 0.022893885 0.03746603
000080 63 a1 25 bc 01 b1 e7 3d c1 29 da 3a 4f 20 93 bd
       -0.010109278 0.11313058 0.0016644524 -0.07183897
000090 a7 ee 30 3c cc 57 eb bc 51 d7 a5 bc 8e 2d 73 3d
       0.010799087 -0.028728388 -0.020244272 0.059369616
0000a0 20 61 3b 3d ae fe ac bd 76 56 54 bd 63 80 21 bc
       0.045746922 -0.08447014 -0.051840268 -0.00985727
0000b0 cc b9 e8 bd 23 d0 7f 3d 42 db 5b bb 0b 89 45 3d
       -0.11363563 0.062454354 -0.0033547436 0.048226397
0000c0 f1 2d b3 3b e8 83 25 3e d0 31 60 bd 04 44 b6 bd
       0.005468123 0.161636 -0.054735005 -0.08899692
0000d0 53 97 04 3d 4e 83 12 be 4f dc b1 bd 7e 65 98 3d
       0.032370877 -0.14307901 -0.08684599 0.07441233
0000e0 30 52 a7 3d 4e a7 f9 bc 85 43 f2 bd 8b ac 40 bd
       0.08169973 -0.030475285 -0.118292846 -0.04703955
0000f0 aa 3c 9e bd 3f 1e 2e bd b5 01 fc bc 3c a1 7e bd
       -0.077264145 -0.042509314 -0.030762533 -0.062165484
000100 58 c6 37 3c 53 00 0c bd 8d 4a ec bc 42 dc c5 bd
       0.011216722 -0.034179997 -0.028844142 -0.096611515
000110 56 8c eb 3c 8a eb 80 bb e3 02 e0 3c fe 08 b6 bd
       0.02875344 -0.0039343284 0.027345126 -0.08888434
000120 37 3e d3 bd e9 3a bb bd 11 43 47 bc 0f d0 85 bd
       -0.10314601 -0.091420956 -0.012161986 -0.06533825
000130 1d db d4 bb 0a 25 20 bd b5 e5 d5 3d 2e f5 94 bd
       -0.006495847 -0.039097823 0.10444204 -0.07273327
000140 c0 8e b5 3d c2 50 31 3d 08 3c 07 bd 45 e8 c3 3d
       0.08865118 0.043289907 -0.033016235 0.09565786
000150 e2 c3 c9 bc b1 bc 1b be 1c 25 9d bc b3 7b 0e 3c
       -0.024629537 -0.15208699 -0.019182734 0.008696484
000160 2d 8a cf bc 56 3b 03 3e 8d 40 19 3d 98 bc 02 3e
       -0.025334442 0.12815604 0.037415076 0.12767255
000170 6f 3b 0e 3d ef 52 85 3d 55 0b 4b bd 32 34 39 3d
       0.03472465 0.06509959 -0.049571354 0.045215793
000180 4c be c1 bc fc 66 bc bc 8d 37 47 bb bd 10 36 3e
       -0.023650311 -0.022998326 -0.00303981 0.17779823
000190 4e 3e 23 3f 80 8d f5 bd ab fb 26 3e 1d 65 07 3e
       0.63766944 -0.119898796 0.16306941 0.13222165
0001a0 17 fb 0c bd 38 8c 9d bd 1f 29 02 3e ca fc 91 3d
       -0.034419145 -0.0769276 0.12710999 0.07128294
0001b0 cb 00 eb bd 0d 4c a1 3d 52 82 4d 3d 0c 7e 33 be
       -0.114747606 0.07875834 0.05017311 -0.17528552
0001c0 d3 65 3b bd 65 0e c4 3d 0d bf 3f 3c 05 95 3d bc
       -0.045751404 0.09573058 0.011703265 -0.011571174
0001d0 cb 17 0b 3d e8 a4 9b bc 3e 10 20 3e f5 c9 1b 3e
       0.033958238 -0.018999532 0.15631196 0.15213759
0001e0 d9 9d 22 3d d6 47 d6 bd 47 27 6e 3d 3f b6 5a bd
       0.039701317 -0.1046292 0.058142927 -0.05339646
0001f0 86 ea dc 3d 75 88 da 3d 71 7e 82 3d c5 00 0a 3e
       0.10786919 0.10670558 0.06371773 0.13476856
000200 7d 9c e7 3b 5c 93 b5 3d 45 51 79 3d 24 20 ac bc
       0.0070682154 0.08865997 0.06086852 -0.02101142
000210 c8 10 38 bd 88 e0 a7 bc 2d 64 50 bd 54 0e 0b bd
       -0.04493788 -0.020492807 -0.050876785 -0.03394921
000220 ae 3d 7f 3a 62 8d 8e bd 4a d5 14 be 33 6c 55 be
       0.0009736669 -0.069605604 -0.14534488 -0.20842056
000230 c5 67 3e bc 91 a1 46 be ca d5 60 3d 32 d7 c4 3d
       -0.01162142 -0.1939757 0.054891385 0.09611358
000240 76 19 8e 3d d5 0f 3c 3c 8e 59 84 bd 1a c0 a9 3d
       0.0693845 0.011478384 -0.06462394 0.082885936
000250 22 af 7f bc e1 50 a2 bc 05 4c 90 bd 67 1c 60 3d
       -0.01560572 -0.019813957 -0.070457496 0.054714587
000260 e1 87 e2 bd f4 09 7c bd 3a 7a d0 bd d5 fd 7e be
       -0.11061073 -0.06153293 -0.10179563 -0.24901517
000270 eb e4 5b 3b 17 89 bb 3d c0 21 8b bc 52 58 8e 3d
       0.0033553194 0.09157007 -0.016983867 0.069504395
000280 1e cf 6c be c3 0a a4 3d 09 f6 ec bb c3 89 ed bd
       -0.23125884 0.08009865 -0.007231478 -0.115985416
000290 a8 c7 39 3d 80 20 ef bd 5c bf 4e 3e 0f 8f 72 3d
       0.045356423 -0.11676121 0.20190185 0.059218463
0002a0 e7 01 1f be f3 8e d4 bd cc 7c 59 3d 2a 30 05 bd
       -0.1552807 -0.10378828 0.05309753 -0.032516636
0002b0 5e 85 25 be c2 11 92 3c 5b 26 cb bd fc b2 81 bc
       -0.16164157 0.017830733 -0.09919425 -0.015832417
0002c0 49 21 86 bd 34 7e ef bd 45 c3 64 3d 64 92 d9 bb
       -0.065493174 -0.11693993 0.055850286 -0.0066397656
0002d0 97 51 c6 3c b6 ec e8 3d 7f 2d 0d be c5 68 a6 3d
       0.024208827 0.11373274 -0.13786887 0.08125452
0002e0 6f 48 3c bd 81 a9 d8 bd d0 27 42 3d fc 50 1c be
       -0.045967516 -0.10579205 0.04740125 -0.15265268
0002f0 1f 76 b6 bd de eb 71 bd 29 9e 82 3d f7 3c 43 bb
       -0.089092486 -0.05906283 0.06377823 -0.0029790977
000300 1e 0c 10 be 40 d4 be 3c 11 96 40 bd c9 f9 0f be
       -0.14067122 0.023294568 -0.047018114 -0.14060129
000310 9e 47 9f bd ac fb b0 3c bb 8a 1e 3e 69 20 db 3d
       -0.07777332 0.021604382 0.15482609 0.10699541
000320 b9 69 3d bd 0b 6e 12 3d 8d 25 4d bd 89 39 23 3c
       -0.046243403 0.035749476 -0.05008464 0.009962448
000330 48 b7 b0 3c 89 83 77 bd 0b 65 1c 3d 07 0c bc 3d
       0.02157177 -0.060428176 0.0381823 0.091819815
000340 07 58 af 3d 8b 2b bb bd 99 39 3f 3c d6 ad 8a 3c
       0.08561712 -0.091391645 0.011671447 0.016928595
000350 70 b5 37 3d 0b 97 96 3c a9 95 18 bc 08 3a c4 3d
       0.044850767 0.01838257 -0.0093130255 0.09581381
000360 bc f6 08 bd 03 16 91 3c 5c 22 fa 3c 8c af 16 bc
       -0.03343843 0.017710691 0.030533962 -0.009197127
000370 6b dd 99 3d 56 9f 1f 3e 2e b7 7b bc 48 b1 94 bd
       0.07512935 0.15588126 -0.015363498 -0.07260376
000380 f4 bb 1f 3d 45 98 b4 3d f3 87 04 3c d5 3a b2 3a
       0.038997605 0.088181056 0.008089053 0.0013597856
000390 a6 85 b3 3d 48 8d 82 bd de a9 1e 3b 3a 89 3d 3d
       0.08765726 -0.063746035 0.0024210135 0.046273448
0003a0 dc 93 7a 3c c6 2e f3 bd dd 98 2e 3d 35 0a 87 3d
       0.0152940415 -0.11874156 0.04262625 0.06593744
0003b0 25 c7 b2 3d 38 a9 f1 bc ca b6 ca 3c 79 28 98 bd
       0.0872939 -0.029499635 0.024745364 -0.074295945
0003c0 5a 87 f0 bd 21 bc a0 bd 96 e8 80 3d 8e e3 6d 3d
       -0.11744566 -0.07848383 0.06294362 0.05807834
0003d0 ab a7 21 39 05 dc 0b 3d 44 26 86 3b 81 79 80 3d
       0.00015416618 0.034145374 0.004093917 0.06273175
0003e0 5e 60 ed bc 5c 30 8d bd 9d d3 9d 3d c1 15 c6 3d
       -0.028976616 -0.068939894 0.07706378 0.09672118
0003f0 69 76 af 3d ad b1 20 3b 87 4b 4c 3d 40 9f c6 ba
       0.08567507 0.0024519966 0.049876716 -0.0015153661

bias f4 [100]
000000 9d 79 4e bd fe 2c d0 bc ad f8 6d bd 8d 23 1a bc
       -0.05040895 -0.025412079 -0.058098484 -0.00940789
000010 bd 2b 14 3b 27 ee 8a 3d ba 8d ec 3d c1 39 b1 3d
       0.0022609078 0.06783705 0.1155047 0.08653594
000020 fd ec f7 3c b7 12 bb bd 24 14 9f 3d 0b 1e 60 3b
       0.030264372 -0.09134429 0.077675134 0.0034197595
000030 24 97 60 bd 9e 97 da bd 95 4f 85 3d 52 df 53 bd
       -0.05483164 -0.1067345 0.0650932 -0.051726647
000040 75 2b 28 bd 6e 31 da bd 19 3c ba bc f3 aa 50 3c
       -0.04105707 -0.10653959 -0.022733735 0.01273607
000050 09 9c 11 3d 7b c5 f1 3c 35 03 3b bd 2e 17 4b 3d
       0.035549197 0.029513111 -0.045657355 0.049582653
000060 9d ca d4 3c f3 68 6b 3d e7 ba 3d 3b f4 5e 58 bc
       0.02597552 0.057473134 0.0028950514 -0.013206232
000070 21 de f3 3d cb 1a f4 bb a2 e6 c0 bd 4e 6b 80 bd
       0.11907602 -0.007449483 -0.0941899 -0.06270467
000080 bb b1 df 3d ab 5c af 3d 1e 4c 13 be b5 31 cc 3d
       0.10922571 0.08562597 -0.14384505 0.09970418
000090 8a 7f 8a bd eb eb d0 3d 35 7d 8c bc 41 87 df 3c
       -0.067626074 0.10201248 -0.017149547 0.027286174
0000a0 87 32 10 3d 26 00 ee 3b 31 82 4f 3d 1f 1f a9 bd
       0.035204437 0.0072632013 0.05066127 -0.08257889
0000b0 ad 23 52 bd f0 43 32 bd 02 3d e9 3c 18 a4 64 3d
       -0.051303554 -0.04352182 0.028471474 0.055820554
0000c0 60 04 da 3c 0e 3d f7 bc 79 47 97 3c 2d e4 45 bd
       0.026613414 -0.03018048 0.018466698 -0.04831331
0000d0 08 c3 9a 3d f3 a0 26 3c c8 31 72 3d a8 b3 a7 3d
       0.075567305 0.010170209 0.059129506 0.081885636
0000e0 65 ed 8f 3c 69 f9 11 3d fa 64 a7 3d 4d a2 6a bc
       0.017569253 0.035638247 0.081735566 -0.014320922
0000f0 33 23 d5 bd 11 ea 8c 3d 21 f4 8f 3d a3 2c 0a bd
       -0.10407104 0.06880582 0.07028986 -0.033733975
000100 aa 7f 51 bc dd 6f f6 bd 67 ee ee bd e4 2a 1d bd
       -0.012786785 -0.12033055 -0.116665654 -0.03837098
000110 6b 97 f2 bd 22 15 a3 bd 2a 73 8e 3c 39 83 31 bd
       -0.11845287 -0.07963015 0.017388899 -0.043338034
000120 41 5b fd 3d 93 03 c9 bc 27 6b 0b be 12 cd 1f 3d
       0.12370921 -0.024537837 -0.13615094 0.03901393
000130 29 69 ea bd f4 d1 1e 3c 6c c8 d1 3d c7 f8 67 bd
       -0.11445839 0.009693611 0.102433056 -0.056633737
000140 8d b4 23 3d cf d6 3c bd ca db b7 3d 4c 7c c3 39
       0.03996711 -0.046103295 0.08977468 0.00037285907
000150 2d 8b a7 3c 1f 07 bf bc cc d3 b9 bd a4 b8 28 3d
       0.020452106 -0.023318825 -0.090736 0.041191712
000160 e4 01 b5 bd 18 f1 d1 3d 75 45 98 3d ee d6 6b 3c
       -0.08838251 0.10251063 0.07435123 0.014394505
000170 3c 24 a2 3d ba aa 19 3d 63 eb 4c 3d 3c 5a df bd
       0.079170674 0.037516333 0.05002917 -0.10905883
000180 00 79 ec 3c 1b d1 bc bc ce 8a dc bc ed 23 22 bd
       0.028866291 -0.023048928 -0.026921656 -0.039585043

weight f4 [100, 100]
000000 b6 38 5e 3c a9 83 96 bd 31 b2 bb 3d 73 32 d7 3c
       0.013563326 -0.07349331 0.09164847 0.026269173
000010 27 ee 42 bd 8b ea 8e bb 19 72 d3 bd 38 bd ff bc
       -0.0475904 -0.004361456 -0.10324497 -0.031218156
000020 94 04 86 3d 55 66 ab 3d 4f 2a 35 be b5 41 2e bd
       0.06543842 0.08369128 -0.1769192 -0.04254313
000030 33 af 7b bd 78 4a ed 3d 09 44 d9 3c 00 76 4b bb
       -0.06144638 0.115864694 0.0265217 -0.0031045675
000040 54 28 84 3c 48 9c fe 3d ed d7 5a bd af 54 d0 3a
       0.016132511 0.12432152 -0.05342858 0.0015894378
000050 8a 0e 12 3e ee 78 31 bd be f5 99 3d b2 00 83 3d
       0.14263359 -0.04332822 0.07517575 0.06396617
000060 3b f2 83 bd c6 ce a0 bb f1 ec 61 3d 3c e6 b7 bc
       -0.06442686 -0.004907462 0.055157606 -0.022448651
000070 76 32 1a bb 0f e1 f9 bd c0 05 ab 3d c8 b6 1d be
       -0.0023528612 -0.1220113 0.08350706 -0.15401757
000080 32 f7 cf 3b 67 84 b3 bd 5e d1 27 3d 77 40 f4 bb
       0.0063466066 -0.08765488 0.040971152 -0.007453974
000090 63 4a fe 3c f8 0a 93 bd 2e 1c b9 3c ed 94 fb 3c
       0.03104133 -0.071798265 0.022596445 0.030710662
0000a0 c5 3b b8 3d 08 4c 94 bd f0 d9 a0 3d a6 20 ea bd
       0.08995775 -0.07241064 0.07854068 -0.114320084
0000b0 25 e8 64 bd b2 cd 9b 3c 21 32 d2 bc ba f6 b9 3d
       -0.055885453 0.019018982 -0.025658669 0.090802625
0000c0 45 cc 86 3d b2 aa 35 be 66 9a bd bb 70 a0 81 3d
       0.0658193 -0.17740896 -0.005786228 0.06329429
0000d0 8b ad a1 3d 55 55 90 3d f7 5b aa 3d 18 34 59 3d
       0.07894429 0.07047526 0.08318322 0.053028196
0000e0 d7 50 e3 3d a4 b7 06 be 1b c5 a6 3d 55 98 f4 bd
       0.11099403 -0.13155991 0.08143064 -0.119431175
0000f0 09 eb 55 bc e7 54 9f bd e4 17 98 bc 21 3a fc 3d
       -0.013056525 -0.07779866 -0.01856608 0.12315775
000100 ed 63 12 3e 95 1d 18 bd c2 f3 83 3d cf 2b 2d bb
       0.14295931 -0.037137587 0.064429775 -0.0026423817
000110 e5 78 1b 3e 45 a7 54 3c 66 89 5d bb a8 0d 0a 3d
       0.15182836 0.012979333 -0.003380382 0.03370443
000120 8c 56 2d 3d 2b 86 7e bd 70 26 f5 bb 9f 8b b0 bb
       0.042318866 -0.06213967 -0.0074813887 -0.005387738
000130 d2 20 80 3d b6 63 d9 3d a5 46 01 3e d0 0e bc bd
       0.0625626 0.106147215 0.12624605 -0.09182513
000140 bd 45 b2 3c 95 49 6e 3b 5e 25 5e 3d 02 17 98 3d
       0.02176177 0.0036359776 0.054234855 0.074262634
000150 b8 9e f5 bd 4d 26 36 bd 7e b9 06 3c e6 27 0b be
       -0.11993164 -0.04447012 0.008222936 -0.13589439
000160 11 47 0a 3e 16 e1 4c bc 78 6d 3b 3e d8 73 c2 bd
       0.13503672 -0.012504837 0.18303478 -0.09494752
000170 92 d0 50 3c dc 1f ef 3d 16 73 d2 3d b8 c3 b0 3d
       0.01274504 0.116759986 0.10275857 0.086310804
000180 b7 f6 4f 3d eb 57 05 3e e1 ee 0c bd 62 05 87 bd
       0.050772395 0.1302182 -0.0344075 -0.065928236
000190 59 1d f0 bd 51 c5 e6 bc 24 5f a6 bd cf 6b fb 3c
       -0.117243476 -0.02817026 -0.081236154 0.030691056
0001a0 27 c0 f6 3d e2 6f 22 3d 13 82 88 bd 1b bb dd 3d
       0.12048369 0.03965748 -0.06665435 0.10826703
0001b0 79 79 22 bc 4b 0f f0 3b 6d a6 66 be 5c 35 57 be
       -0.009916657 0.007326042 -0.22524424 -0.21016449
0001c0 d5 6a bb 3c 02 84 01 3d 0e 4f 5f bd 7a 7b f9 3d
       0.02287809 0.031620033 -0.05451875 0.121817544
0001d0 62 0d 0b 3d 99 3a 9f bb b6 e4 8c bc 7b ed 4c bd
       0.03394831 -0.0048592803 -0.017198902 -0.050031167
0001e0 fd 77 b2 3d c6 8e f1 bd f4 8c 33 3d 12 59 3a bd
       0.08714292 -0.1179481 0.043835595 -0.0454951
0001f0 fe e2 8d 3d 4e 7d ab 3d 28 84 21 3c 8f f1 ca 3d
       0.06928061 0.08373509 0.009858169 0.09909355
000200 9b 34 24 3d 1b 2b d8 3d e8 10 1b bd 0e 4c 1a bc
       0.04008923 0.10555097 -0.03785792 -0.009417547
000210 76 ea ae 3c a7 b7 25 bd 9c ae c3 bd 5d db ab 3d
       0.021352034 -0.040458348 -0.095547885 0.083914496
000220 3e 0a fb 3d 37 43 9c 3d 23 cc 96 b9 a1 6e b5 3d
       0.12257813 0.07630008 -0.00028762323 0.088589914
000230 e8 ad 0b 3e 59 1f 91 bd b2 f9 aa bd 4b b3 3c 3d
       0.13640559 -0.07086057 -0.08348407 0.046069425
000240 c2 98 9b bd 47 42 37 bc 3d ae 32 3d de 85 31 bd
       -0.075974956 -0.011185235 0.043623198 -0.043340556
000250 41 8a 62 bd 53 5b 34 3d 34 bb 78 3d 40 5a 05 bd
       -0.05530763 0.044032406 0.060725406 -0.032556772
000260 ba 4d 5b bc 56 f5 98 bd 5f 68 b8 bb 81 90 6a bb
       -0.013385231 -0.07468669 -0.0056276764 -0.0035791697
000270 19 5e 9b 3d 43 8e fb bd 9e 87 51 bd de c8 ff 3d
       0.07586307 -0.12282994 -0.051154725 0.12489484
000280 7c 82 54 bd 2a 72 80 bd 04 b7 01 3e 20 1f c2 3d
       -0.051882252 -0.06271775 0.12667471 0.09478593
000290 7d f3 38 3d 79 37 44 be 80 7a 1a be 1c 09 f6 bd
       0.045154084 -0.19161786 -0.15085793 -0.12013456
0002a0 45 78 0e 3b 44 4c 0d bd a3 c3 8d 3c 6a 59 24 be
       0.0021739167 -0.03449656 0.0173052 -0.16049734
0002b0 13 c6 ed bc 5a 47 b6 3d ae f8 03 bd ad e8 d7 3d
       -0.029025113 0.08900328 -0.03221958 0.10542426
0002c0 36 77 4b bb 8c 60 dd 3d a2 2e 92 3d be 51 8d 3d
       -0.0031046397 0.108094305 0.07137801 0.06900357
0002d0 e6 0c d9 bd 8e 1f bc bd 38 b4 15 3c bb fa 52 bd
       -0.10598163 -0.09185706 0.009137206 -0.051508646
0002e0 c0 a1 d3 3c 5b 62 ae bd 2c f4 4f 3d 00 f3 37 bc
       0.025833964 -0.085148536 0.05076997 -0.011227369
0002f0 12 ae da 3b 36 96 4f bc bb 21 da 3d 9e c8 cf bd
       0.006673583 -0.01267009 0.10650965 -0.101456866
000300 76 38 1d 3d 9b dd 56 3d 4a 31 ed 3d f0 4b 18 be
       0.038383923 0.052457433 0.11581667 -0.14872718
000310 a1 c3 44 3d 3f e6 91 3d f1 e9 29 3c 30 a7 c2 bd
       0.04803813 0.07123994 0.010370717 -0.09504545
000320 38 b6 be ba 9f c6 8e bc 1f 32 a9 3c 2d 89 33 3c
       -0.0014550155 -0.017428694 0.020653782 0.010957998
000330 ac 01 4e bd 0c e4 84 3d be c5 02 bd db e2 77 bd
       -0.050294563 0.06488809 -0.031926863 -0.06051908
000340 4e df 0d 3d 84 c5 b5 bd 1a a8 5e 3e c5 c6 53 3e
       0.034636788 -0.08875564 0.21743813 0.20681293
000350 02 f7 a3 bc f6 c4 29 3d 89 11 cb bd ed 16 ab bd
       -0.020015243 0.041447602 -0.09915454 -0.08353982
000360 c4 86 47 bd f9 ba fb bb 4f c8 61 3d 22 98 f0 bc
       -0.048712507 -0.007682201 0.05512267 -0.029369418
000370 55 31 31 bc 4c ee 79 bd 31 62 53 3d 2f c1 1d 3e
       -0.010814984 -0.061018273 0.051607314 0.15405725
000380 1c da a6 bd 59 c9 0f be 5f a2 b5 3d b7 42 33 bd
       -0.0814707 -0.14041652 0.088688605 -0.043764796
000390 d5 90 f3 bd 21 e0 45 3d 25 f6 b3 3b 7e 86 92 bb
       -0.11892859 0.04830945 0.005491989 -0.004471599
0003a0 e6 97 76 3d 89 15 59 3d 13 0c 83 bc 48 f6 dc bd
       0.060203455 0.052999053 -0.015996968 -0.10789162
0003b0 1f 67 f5 bd 43 fb 6b 3d fb a3 f9 3c 31 6a ee 3d
       -0.119825594 0.05761267 0.0304737 0.11641348
0003c0 c1 91 c0 bd 66 66 b5 3d 58 83 be bd af cc 41 bd
       -0.094028 0.088574216 -0.093023956 -0.047314342
0003d0 0f 9b 20 3c 4d 7b 99 bc 44 65 ac 3c 87 f0 ca 3c
       0.009802594 -0.018735552 0.021044381 0.024772896
0003e0 ab 57 be 3a b1 28 06 3e 8b 8c 9c bb bf 21 cc bc
       0.0014521977 0.1310146 -0.004777496 -0.024918435
0003f0 9f 97 df 3c 36 a4 15 bd 16 0a 83 bc 77 8f 5b bd
       0.027293978 -0.036533557 -0.01599602 -0.053603616

bias f4 [100]
000000 d1 3a 69 3d db 42 19 bd 4f b4 c1 bd 0e fc 29 3d
       0.056940857 -0.037417274 -0.09458219 0.041500144
000010 ba 9d 7c bc ed ad b1 bc b8 1e 6e bd 68 b1 7a 3d
       -0.015418464 -0.02168938 -0.058134764 0.061204344
000020 d8 1a 8a bc b2 1b 89 bd a1 17 8b bc 91 3a f0 ba
       -0.016858503 -0.066947356 -0.01697904 -0.0018328001
000030 14 b6 ba 3c 3d 5a 29 3d 41 44 c0 3d 84 f3 b6 bc
       0.0227919 0.041345824 0.093880184 -0.022332914
000040 f5 62 1c 3d 29 03 9e 3d 6a 2e 99 3d af 77 a7 bd
       0.03818031 0.077154465 0.07479556 -0.08177125
000050 9e 8e 2a 3d 0e 27 fc 3b d1 a3 0f 3e 54 9e 47 3d
       0.041639917 0.0076950854 0.14027335 0.048734978
000060 16 7f 7d 3d e6 9c 71 bc 79 71 1a 3d 6b 40 e4 3d
       0.061888777 -0.01474688 0.037705872 0.11145099
000070 ee 6e 8a 39 44 ca f4 3d 0f e9 74 3d 8e 94 5d bd
       0.0002640406 0.119526416 0.059792574 -0.05409675
000080 55 55 b3 bb 3a ed 71 3d 77 a4 59 bb 89 99 b9 bd
       -0.005472819 0.059064128 -0.00332096 -0.09062488
000090 b9 c5 21 3e 88 e3 ad bd 56 c1 16 bd 3a 91 80 bc
       0.15798081 -0.08490664 -0.036805473 -0.01569425
0000a0 2f 58 fc 3d fe b5 4f 3d 4c f2 ba 3d 19 ed 6d bd
       0.12321507 0.05071067 0.09128246 -0.058087442
0000b0 49 40 a2 3d 18 7f 5d bd 9e 82 a6 bc 6a 7b 36 bd
       0.07922418 -0.054076284 -0.020325955 -0.04455129
0000c0 0f 60 3d 3c 2e 43 8b bd 7a d8 43 3d b0 9b 08 bd
       0.011558547 -0.06799923 0.04781387 -0.0333516
0000d0 d4 b7 30 bc 08 15 19 bd 6d e2 fd bd 14 52 65 3d
       -0.010786016 -0.037373573 -0.12396703 0.05598648
0000e0 0c e0 c4 3d 9c 62 18 3c cb b2 37 3d da 72 0c bd
       0.09613046 0.009300854 0.044848245 -0.03428922
0000f0 af 30 ab bd e8 5c ca bc bb 6a 35 3d 2f 48 90 bd
       -0.08358895 -0.024702504 0.04429124 -0.07045018
000100 a6 bd 1d 3c 53 b2 47 3c 56 54 72 3a b4 e7 c5 3d
       0.009627735 0.012188512 0.00092441344 0.096633345
000110 83 33 80 3d c7 30 b7 bc ab 86 f4 bc 02 e6 b6 3b
       0.06259825 -0.022362126 -0.029849371 0.0055816183
000120 1e ce d8 bd 33 7f 26 3d fc c2 3e 3d eb ff 78 bd
       -0.10586189 0.04064865 0.04657267 -0.060790937
000130 54 d1 17 3d 42 7f 3b bd 4d 13 cf 3d 3b e8 9d 3d
       0.037064865 -0.04577566 0.10111103 0.0771031
000140 a3 93 da 3d 3c ec 7f 3d 28 72 ae bd 1f e4 a6 bc
       0.10672691 0.06248115 -0.08517867 -0.020372448
000150 b5 12 03 bc 83 6d 50 3d 89 13 ed bc 15 3c 67 bd
       -0.008000066 0.05088569 -0.02893998 -0.056453783
000160 d9 e4 00 bd fe ff 4d 3d 90 3d d2 bd 32 37 cf bd
       -0.031468246 0.05029296 -0.10265648 -0.101179495
000170 0d 85 83 3d da 1e 10 bd 1a 7e 80 bd 7a 2e 8d bd
       0.06421862 -0.035185672 -0.06274052 -0.0689363
000180 85 39 49 bd 50 0a 40 3d 72 24 92 3d df a8 86 bd
       -0.04912712 0.046884835 0.07135858 -0.06575178

weight f4 [100, 100]
000000 4c 60 1d bc 53 4e fd 3d 0e 9d 4d 3b 29 9d 90 3d
       -0.0096054785 0.12368455 0.003137413 0.07061226
000010 29 39 4f bd 62 9f 6a 3e 91 0a ed bc cf cc d9 3d
       -0.05059162 0.22912362 -0.028935703 0.10634767
000020 f2 1f dd 3c 24 61 4f bd 0f fd 82 3d 41 64 13 bd
       0.026992772 -0.05062975 0.06395923 -0.03598428
000030 16 45 d5 3d a2 8d c3 bd f5 89 8c bc a3 c7 24 3e
       0.10413568 -0.09548499 -0.017155627 0.1609178
000040 ab 8b 25 be e2 db c3 3d 2b 56 06 3d 7f 0d a5 3d
       -0.1616656 0.09563424 0.03279702 0.08059215
000050 de 16 7a 3d b5 ab 81 3d 95 8c f5 bc 2a 49 39 3c
       0.061056964 0.06331579 -0.029974261 0.011308948
000060 f5 41 38 bc 8c 90 51 3d 5b d4 ae bd 0f 43 83 3d
       -0.011246194 0.05116324 -0.08536597 0.06409275
000070 d9 4a a5 bd 4b 87 11 3d 63 95 ac bd e5 9e f3 3c
       -0.08070917 0.035529416 -0.08426931 0.029738853
000080 00 04 d1 bd 03 39 99 3d f4 be 8e bc 31 33 dd 3c
       -0.10205841 0.07481577 -0.017425038 0.027001949
000090 11 a0 04 3e 8c 7e 38 bd 29 51 c7 bd 48 fd f5 3d
       0.12951685 -0.04504256 -0.09732277 0.120112
0000a0 d4 36 aa 3c 50 3e f1 bd 25 5c 6a 3d 6d 0a 4f bc
       0.020778097 -0.11779463 0.057216782 -0.012636763
0000b0 55 ab 95 3c 6e 70 46 3e a9 75 0e be 4a df 29 3c
       0.018270174 0.19378826 -0.13912071 0.010368178
0000c0 be 4b 23 3c e7 07 99 3d 7d c8 1d bd 2c af 2d 3c
       0.009966789 0.074722104 -0.03852128 0.010600846
0000d0 b4 f3 ba bd e8 1d 35 be e4 ce 98 bd d0 d5 a6 3c
       -0.09128514 -0.1768719 -0.07461336 0.020365626
0000e0 69 1c 23 3e 42 f7 0b 3d 4d f2 db bd 9e 14 0f bc
       0.15928806 0.03417135 -0.107395746 -0.008732943
0000f0 c6 3a 03 3d bd 58 c9 3d 71 0e 1f be 57 1a 78 3c
       0.032038473 0.098313786 -0.15532853 0.015142999
000100 6e 5d 18 bb c6 e7 7b 3e 3b 4d b7 bd d8 7c 6c bd
       -0.0023249048 0.24600133 -0.089502774 -0.057736248
000110 0a 7f 5c bd 52 77 06 3d 21 f1 28 3e 18 dd 8f 3d
       -0.05383209 0.032828636 0.16498233 0.07024592
000120 8d b6 bc 3c 65 fa 99 bd c7 6f 8b bd 19 f5 9e bd
       0.023036266 -0.07518462 -0.06808429 -0.077615924
000130 70 d3 99 3d 84 3c a1 3d c3 9e 5d bd 7a a8 fe 3c
       0.07511032 0.078728706 -0.054106485 0.031086195
000140 8a 27 1e bb 5d 03 15 3e 2c 4e 0a bd 9c 84 a7 3d
       -0.0024132454 0.14552064 -0.033765957 0.0817959
000150 63 f7 a7 bd 04 62 a1 3c eb 0e 37 bd f7 ab 08 bd
       -0.08201482 0.019700058 -0.04469196 -0.033367123
000160 c4 ab 44 bd 27 91 43 3b 07 55 e7 bd bb f4 b9 bd
       -0.04801537 0.0029841156 -0.112955146 -0.09079882
000170 88 b5 2b 3e 3b 0f 1f 3e 4c d6 f5 bd 19 18 12 3e
       0.16768467 0.15533154 -0.120037645 0.14267005
000180 42 8f ba 3d 60 56 29 3e c1 db eb bb a0 2a b5 bd
       0.091093555 0.16536856 -0.0071978276 -0.08846021
000190 06 af ad 3d 69 40 11 be e8 97 e1 bb 0b ea de bc
       0.08480649 -0.14184727 -0.0068845637 -0.02721121
0001a0 e6 e0 dc 3c d1 73 76 bc 2b 82 90 3d 46 44 16 bd
       0.026962709 -0.015042261 0.070560776 -0.036686204
0001b0 60 a0 1e 3c 1b 0f 20 3e da 72 e1 bd 13 e6 3d 3d
       0.009681791 0.15630762 -0.11008234 0.046361994
0001c0 0d 96 2b 3c 3b a7 98 bc 6f 32 2e be 23 bc b2 bd
       0.010472787 -0.01863443 -0.17011426 -0.087272905
0001d0 f7 89 d3 bc cd 91 4a bd 97 45 00 be b1 b1 16 3e
       -0.025822623 -0.049455453 -0.12526546 0.14716221
0001e0 a1 e2 4d bd c8 16 41 be 10 8b 8d 3d c5 f1 94 bd
       -0.05026496 -0.18856347 0.0691129 -0.072726764
0001f0 2d 2d 27 3c d9 fc 46 3b 47 f3 98 3d 43 45 74 3d
       0.010203642 0.0030363111 0.074682765 0.059636366
000200 26 02 5f bd e4 bd e8 bd b2 e3 a8 bc dd 8c 17 be
       -0.05444541 -0.11364344 -0.020616386 -0.14799829
000210 6e 67 c4 3d 5b 3b 07 be 03 63 34 3b c0 19 db 3d
       0.0959004 -0.13206236 0.0027524836 0.10698271
000220 d6 4e db bd 4b c1 c1 bd e1 8d 7f 3d 46 c8 87 3d
       -0.10708396 -0.09460696 0.062391166 0.06629996
000230 c8 5e 8e bc 8d 61 bf 3d 73 c0 01 bd a3 8d 37 3c
       -0.01737918 0.09344778 -0.031677675 0.011203202
000240 fa a8 39 bd da c6 2c bd af 67 bb 3d 70 34 f3 bd
       -0.045327164 -0.042181827 0.091506355 -0.11875236
000250 6a f2 05 be 78 a6 6d be f9 6b ba bb 66 30 64 3c
       -0.13080755 -0.23208034 -0.005689141 0.013927555
000260 e2 25 46 3e 6d 91 42 bd d7 cb b9 3d 03 0e 82 3d
       0.19350389 -0.04750197 0.090720825 0.06350329
000270 ba 10 ed bd cc 05 86 3d bc 07 84 3b 75 ba 3d bd
       -0.11575456 0.065440744 0.0040292423 -0.046320397
000280 2f 66 19 3d 88 20 36 be c5 21 e5 bd 21 c5 7e 3d
       0.037450965 -0.17785847 -0.11188082 0.062199716
000290 81 28 34 3d f0 da c7 bc df 2b 22 3d 89 62 e0 3c
       0.04398394 -0.02439639 0.03959262 0.027390735
0002a0 aa d5 26 bd e9 42 6e 3d 81 7d 34 3c 81 ad 00 be
       -0.04073111 0.05816928 0.011016251 -0.12566186
0002b0 86 b2 17 bd 7b fb a5 3c dd 75 83 3d 3e d6 8e 3d
       -0.037035488 0.020261517 0.06418965 0.06974457
0002c0 a5 84 4f bc f8 cd ca bd 04 82 35 bd 30 6f a5 bd
       -0.012665902 -0.09902567 -0.044313446 -0.08077848
0002d0 76 e0 8d bd 06 f0 a6 3d 0b db 80 3d 33 02 6e bd
       -0.06927578 0.081512496 0.06291779 -0.058107566
0002e0 1d 1a a5 3d b3 a5 e8 3d 0d d0 c8 3c d6 ef a1 bc
       0.08061621 0.113597296 0.024513269 -0.019767683
0002f0 b9 87 a6 3d 34 f2 c5 3b ae 41 34 be 60 e2 13 bd
       0.08131356 0.0060408358 -0.1760318 -0.03610456
000300 65 00 ff 3d 39 94 f6 bd d9 e4 14 bd bb 00 3d bb
       0.12451247 -0.1203999 -0.03635106 -0.0028839547
000310 ac d6 be bc 8e e5 35 3e a4 d1 a6 bd 03 23 9e bd
       -0.023295723 0.1776335 -0.081454545 -0.07721522
000320 d6 1a 64 bd e4 0f 9e 3c 7d db 27 3d 1f ee 1f bd
       -0.055689655 0.019294687 0.040980805 -0.03904545
000330 0b 35 97 bd 12 8c 67 3d 1e c9 f7 3d 77 61 e3 3c
       -0.07383164 0.056530066 0.12098907 0.027756436
000340 f7 ef 82 bd f4 c6 5f 3d 64 e5 d7 3c 5d d4 72 bc
       -0.06393426 0.054633096 0.0263545 -0.014821139
000350 fa 4f 0a be 0b 9e 17 bd 6e bb a1 bd 83 88 95 bc
       -0.13507071 -0.037015956 -0.078970775 -0.01825357
000360 e1 b6 95 3d 87 24 d5 3d 8a 0b fd bd a3 a8 2a bd
       0.07310272 0.10407358 -0.123557165 -0.04166473
000370 e4 b2 93 bb 1b fb 26 3d 2d a2 89 3d 1d c1 04 3e
       -0.0045074094 0.040766817 0.06720386 0.12964292
000380 22 31 c2 bd b4 74 d8 3c ad 08 4e 3d 52 05 c2 bb
       -0.094820276 0.026422836 0.050301243 -0.0059210444
000390 f2 37 bd 3d f5 fe 76 bc 5d 51 88 3d cf dc 8d 3d
       0.09239186 -0.015075435 0.06656144 0.069268815
0003a0 83 49 b6 3d 68 01 a3 3d db 49 a3 3d 43 e0 19 3e
       0.0890074 0.079592526 0.07973071 0.15026955
0003b0 06 a9 3c bd e5 b0 9c bc c2 d8 e9 bd 9c a6 8d bc
       -0.04605963 -0.019127319 -0.114182964 -0.01729136
0003c0 21 f7 a0 3b 9b d7 60 3b 22 ea 75 bd 4f 7a e3 bd
       0.0049122726 0.0034308198 -0.06003774 -0.11107313
0003d0 f5 49 89 bd 25 fa 11 3e 53 40 6c 3d cd 40 e1 bd
       -0.06703559 0.14255579 0.05767853 -0.10998688
0003e0 8d 59 b4 bd 8d 79 06 3e 8c cf 2f 3c 1d c4 c6 3d
       -0.08806143 0.13132305 0.010730635 0.097053744
0003f0 49 4c 36 3d 0f f6 00 be 5a 33 d4 bc f1 e3 04 3e
       0.044506345 -0.12593864 -0.025903393 0.12977578

bias f4 [100]
000000 f1 12 80 3d ec 64 45 bd a4 23 20 3d ed db dd bc
       0.06253613 -0.04819195 0.03909649 -0.027082408
000010 b5 8c 58 3d f0 6a 19 bc bb 9e 46 bc 51 dc 02 3e
       0.052868564 -0.009363875 -0.012122805 0.12779357
000020 96 c3 c3 3c 9c 0b cb bd d7 06 7a bc b6 e9 69 3d
       0.023896974 -0.09914324 -0.01526042 0.05710765
000030 88 c9 0a bb 79 3a 20 3d 15 02 52 bd 77 e9 5f 3d
       -0.002117725 0.039118264 -0.051271517 0.05466601
000040 db 3e 53 bd f3 8f 4e bd 77 a7 0a be 52 64 f0 3c
       -0.051573616 -0.05043025 -0.13540445 0.029344711
000050 54 52 27 bd 51 83 58 3d 63 45 3e bb c2 6c 0a 3c
       -0.04085 0.052859608 -0.0029033057 0.008448781
000060 37 aa 4d 3d b6 99 97 3d ac ba ac bd 49 23 1f be
       0.050211158 0.07402365 -0.08434042 -0.15540804
000070 e3 c9 ab 3d 37 15 e9 3c 4a f7 5c bd 9e ba 20 be
       0.08388116 0.028452499 -0.05394677 -0.15696189
000080 5a 36 2d bd 97 1f 9f bd 84 be 95 3d 43 a3 37 3d
       -0.04228816 -0.07769697 0.073117286 0.044833433
000090 46 45 2a bd 45 75 2d 3d 5b df d8 bc cd 65 10 bd
       -0.04156997 0.042348165 -0.026473692 -0.035253335
0000a0 04 91 89 bd 9b 69 df 3d db 0d 9e bc 9d 64 a4 3d
       -0.06717113 0.109088145 -0.019293716 0.08027003
0000b0 64 98 7b 3b 4e ab 01 3e 0f b9 76 bc 10 29 3f 3d
       0.0038390392 0.12663004 -0.01505877 0.04667002
0000c0 6a 67 6e bc 3f 43 e1 bb e4 70 1e 3a 8d 7d ee 3c
       -0.014551023 -0.0068744714 0.00060440437 0.029112602
0000d0 f4 97 20 3d f7 f2 8c bd af 06 2d 3d 23 0b 9a bd
       0.039207414 -0.06882279 0.042242702 -0.075216554
0000e0 5e 39 0e 3c 1f 88 bd bd 08 65 e4 bc e7 4f 26 3d
       0.00868067 -0.09254479 -0.027880207 0.040603545
0000f0 d6 b2 5b 3d 05 16 ad 3d 54 54 b3 bd a8 74 85 bd
       0.053637348 0.084514655 -0.08756319 -0.06516391
000100 b5 9d af bb 0c db 89 3d 20 e2 08 3d fe e1 21 3d
       -0.0053593763 0.06731233 0.033418775 0.039522164
000110 55 28 38 3d 48 9d 33 bc 32 b8 63 bd 2d b8 bc 3d
       0.04496034 -0.010962792 -0.055595584 0.09214816
000120 33 71 c6 bd 6a 0d c2 bd 41 9c 56 bd bc 60 35 3c
       -0.0968956 -0.09475215 -0.05239511 0.011070427
000130 28 22 e0 3c 6d 23 10 bd 27 40 0f bd c0 9d 47 bd
       0.027360037 -0.035190035 -0.03497329 -0.048734426
000140 8a 50 0b bc db 35 94 bd a2 4d 43 3d 26 40 fe 3c
       -0.008503089 -0.072368346 0.04768146 0.031036448
000150 0b 78 a3 bd 4b 84 f1 3b 21 1d b4 bc 3b 95 2a 3d
       -0.07981881 0.007370507 -0.021986546 0.041646224
000160 ea 88 49 bd 5e e8 c9 bd f0 65 38 3d 21 74 ad bd
       -0.049202837 -0.09858774 0.04501909 -0.084694155
000170 6a f6 ee 3d 27 e2 31 bd 1c bc 86 bd fe 31 c3 3a
       0.116680935 -0.043428566 -0.06578848 0.0014892218
000180 f4 c1 b6 3d ae 87 aa 3c ab a9 a3 bc c8 88 e6 3b
       0.089237124 0.02081665 -0.019978365 0.0070353486

weight f4 [100, 100]
000000 58 8f 27 bd 53 b3 d5 3c 64 de 09 bd 60 7a ca 3d
       -0.040908188 0.026086485 -0.033659354 0.098866224
000010 80 54 75 3b 5b 6c 9f bd 2d 88 e0 bc 05 3e bd 3d
       0.00374344 -0.07784339 -0.027408684 0.09240345
000020 26 76 12 3d 17 d2 bc bd a1 60 7b bd c0 9e 25 bd
       0.035757206 -0.09219759 -0.06137145 -0.0404346
000030 d7 7a 7e bb a5 50 6e 3d e3 6a dd bc 61 ae 8b bd
       -0.0038830542 0.058182377 -0.027028507 -0.068203695
000040 c7 12 e4 bc af b1 85 bd ce 39 03 3c 72 1e de bc
       -0.027840985 -0.06528031 0.008009387 -0.027114127
000050 23 01 ca 3d 46 22 95 3d 98 82 8f bc af 86 e4 3b
       0.09863498 0.07281928 -0.017518327 0.0069740633
000060 ff 88 5d bd 57 c9 b1 bc 89 a6 cf 3d 46 0d 89 3d
       -0.054085728 -0.021702452 0.10139186 0.06691985
000070 51 25 cb bd 59 35 4f 3c 38 5a 6d bc 4b 38 ee bc
       -0.09919227 0.012646996 -0.014486842 -0.029079577
000080 aa 5d 77 3c 75 7e 1d bd c4 56 f8 bc ec 55 cf bd
       0.015098015 -0.038450677 -0.03031481 -0.1012381
000090 5d 56 09 3d 1c 42 2c 3e f7 6f 9d bd 14 90 f2 bd
       0.033529628 0.16822094 -0.07687371 -0.11843887
0000a0 dc 25 1a be 83 65 29 3c 63 d4 3e bb a7 3a 4d 3d
       -0.15053505 0.010339144 -0.0029118292 0.050104763
0000b0 5f 92 c6 3d 67 d3 ec bc d5 61 e5 3c 29 ef 94 bd
       0.09695887 -0.028909398 0.028000752 -0.07272179
0000c0 5c 33 93 3b 8d 9a 96 bc f8 3d 47 bd 96 6c eb 3d
       0.0044922065 -0.018384242 -0.048643082 0.114953205
0000d0 a1 08 99 3d c0 1b 0e 3d 55 b7 1f 3d 13 95 0c 3e
       0.07472349 0.034694433 0.0389932 0.13728742
0000e0 57 04 bb bc 95 c4 e3 3c 1f 2f cb bc bd 5f b9 bc
       -0.022829218 0.027803699 -0.024802743 -0.02262866
0000f0 64 69 fc 3c dd 0e 6b 3d 5f 50 17 3e 14 84 b1 bd
       0.030811973 0.05738722 0.14776753 -0.0866777
000100 7a 21 2b be bb 5e a1 3d 31 b5 01 bb ad f2 45 bd
       -0.16711989 0.078793965 -0.0019791836 -0.048327137
000110 1e f1 27 bc 57 b3 e4 bc 7d fe 35 3d 77 c5 6b bd
       -0.010250358 -0.027917547 0.044432152 -0.057561364
000120 f7 ee c0 bd f2 b0 d2 bd 3d 35 42 3d 0b 04 3f 3c
       -0.09420579 -0.10287656 0.047414053 0.011658679
000130 12 bc ee bd ee 8a 17 3e d4 f9 ec 3d 78 4e e0 bc
       -0.11656965 0.14799091 0.115710884 -0.027381167
000140 d7 e4 c5 3b 24 c6 5c bd 05 60 11 bc e0 94 5a 3d
       0.0060392427 -0.0538999 -0.0088729905 0.053364635
000150 42 10 24 3e 6a 4d fb bd e8 bc 8b bd 72 60 cf 3d
       0.16021827 -0.12270625 -0.068231404 0.10125817
000160 c2 0a ae 3d 5a eb 98 3c 30 ff 26 3c 2b 4d 1f be
       0.08498146 0.018666912 0.010192677 -0.15556781
000170 47 3a 74 bd 2b e6 0a 3d d4 ac 27 bb ba f4 db bd
       -0.05962589 0.03391091 -0.0025585191 -0.10740037
000180 d3 de 60 bd 11 26 22 be 29 97 fb 3c 5d 49 9d bd
       -0.0549 -0.15834834 0.030711727 -0.076800086
000190 1a d0 d2 3d 05 6a 75 bd 43 21 f2 bd cf 0b 57 be
       0.102935985 -0.05991556 -0.118227504 -0.21000598
0001a0 f8 e2 c4 bd 57 8c e1 bb 51 29 69 3d ba a6 28 3c
       -0.09613603 -0.006883185 0.056924168 0.010293657
0001b0 b2 e9 d9 bd 35 e9 a9 bd d2 26 ee bd 04 be c6 bd
       -0.10640277 -0.08296434 -0.11628498 -0.09704211
0001c0 77 2c d7 bc e8 b1 b4 bd 15 f5 00 bd 45 b2 dd 39
       -0.02626632 -0.088229954 -0.03148373 0.00042285226
0001d0 09 83 b5 bc 71 a0 a3 3d 4c 68 86 bd a4 75 82 3d
       -0.022157209 0.07989586 -0.06562862 0.063700944
0001e0 33 16 87 bd 14 f8 b2 3c 04 4a 8d bd 6f 7e 45 bd
       -0.06596031 0.021846808 -0.06898883 -0.04821628
0001f0 41 08 30 3d fe 5e 85 3b 78 03 85 3d a6 05 58 be
       0.04297662 0.004070162 0.06494802 -0.21095905
000200 3c 16 c7 3c 80 50 8b 3d 5c 45 82 bd cc b5 b9 bb
       0.024302594 0.068024635 -0.063608855 -0.005667424
000210 83 5b 0a 3d 45 09 89 bd 86 77 ac 3d 2c c7 4e bd
       0.03377868 -0.06691221 0.08421235 -0.050482914
000220 31 f3 df bd de 2f e2 3d 55 3b 95 3c ca eb da 3d
       -0.10935057 0.11044286 0.018216768 0.106895044
000230 e7 14 0c 3e 0b df aa 3c 6c 71 95 3d 2e 9b 82 bc
       0.13679849 0.020858308 0.07297024 -0.015943136
000240 6e 05 2e 3c e2 52 c0 3d 6c 01 05 bd 34 5c fd 3c
       0.010621412 0.09390809 -0.03247206 0.030927755
000250 dd 0d 04 bd 9c 28 98 bd bf 4f 3a bd 21 da eb 3b
       -0.032239784 -0.074296206 -0.045486208 0.007197634
000260 4c 7b dc 3c 58 70 f6 3c 0d 9a cb bb ea a0 89 3d
       0.026914261 0.030082867 -0.0062134326 0.06720145
000270 29 6a ad bb 3d b6 e6 3c c6 ad 5d 3a 2d e1 c7 bb
       -0.0052921963 0.02816307 0.0008456375 -0.006099841
000280 21 d9 e0 3d 13 28 32 3d e3 e2 eb bd 7a 91 6a 3d
       0.10978914 0.04349525 -0.115178846 0.057267644
000290 f1 1f c9 bd d8 b5 00 3e a7 ff 9f 3d ec 01 86 3c
       -0.098205455 0.12569368 0.07812434 0.016358338
0002a0 4c 90 60 bd 51 1d a4 3d 14 a0 fa bc b4 13 ac 3d
       -0.054825112 0.08013404 -0.03059391 0.084021956
0002b0 e0 f4 5f bc 6f e7 c7 3c 04 c9 f3 3d f0 26 6a 3d
       -0.013669223 0.024402348 0.11903575 0.05716604
0002c0 57 4d 8b bd 4e ed 19 3d 46 d4 69 3d e9 41 56 3d
       -0.06801861 0.037579827 0.057087205 0.05230895
0002d0 d4 ea 9e bd 8e 10 61 bd 4e 09 f3 bd 1b e9 a9 bb
       -0.07759634 -0.05494743 -0.11867009 -0.005185259
0002e0 03 42 87 bd 9e 58 ba bd c8 6e f2 bd f4 cb cd 3d
       -0.066043876 -0.09098934 -0.11837536 0.100486666
0002f0 85 5d ab bd 8c ea 2a bb 94 83 7f 3d bc 04 b2 3c
       -0.08367447 -0.0026079742 0.062381342 0.021730773
000300 86 1b 45 3d 7e 42 59 3d 1f ae dd bd ea 48 55 3d
       0.04812195 0.053041928 -0.108242266 0.05207149
000310 2f 6d d2 bc ec 3d bd 3d 9d 5f b7 bd a3 8d 0f be
       -0.025686828 0.09240326 -0.08953784 -0.14018874
000320 92 19 e6 bc 90 bc de bd 5b 96 44 bc 07 3d 60 bd
       -0.028088365 -0.10875809 -0.011998738 -0.0547457
000330 83 5d d0 bc ec 47 12 bc 9c 11 c1 3d d2 8d ca bd
       -0.025435215 -0.00892828 0.09427187 -0.09890331
000340 1f aa 7e bd 95 82 a8 3c e8 4e d3 3c 67 7e 83 bd
       -0.06217396 0.020570079 0.025794461 -0.06420594
000350 a3 af 0f 3c 71 72 c5 3d 22 0e 9e bd 93 f6 c8 3c
       0.008769902 0.096409686 -0.07717539 0.024531638
000360 9c 72 95 3d 14 fd fb 3d e3 b9 5e bd 1b 1a 2b 3d
       0.07297251 0.1230413 -0.054376494 0.041772943
000370 ce d5 f6 3c e1 43 c6 3a b2 bb 9b bd ec 47 25 3d
       0.030131247 0.0015126431 -0.076041594 0.040351793
000380 80 f6 9c 3d 36 bb eb bd b5 17 d5 bd 74 cc e5 3d
       0.07664204 -0.11510317 -0.104049124 0.11220637
000390 0b ae 16 bd b4 0c c0 bd d8 a2 b7 3d af 91 1a 3d
       -0.036787074 -0.09377423 0.08966607 0.03773659
0003a0 d9 2c fd 3d 78 26 a1 3d c7 d6 19 bd 76 39 03 3e
       0.1236207 0.078686655 -0.037558343 0.12814888
0003b0 fa b3 4b bd 9d b0 f3 bd 90 23 b5 3c 43 8a 32 3d
       -0.049732186 -0.11898921 0.022111684 0.043588888
0003c0 ba 2e 8e 3d a1 d8 af 3c 99 dd 91 bd d9 26 a3 3c
       0.06942506 0.021465601 -0.071223445 0.019915985
0003d0 d7 48 6e 3d 0b 6f d7 bc b9 05 45 3d 26 ec 62 bd
       0.058174934 -0.026298067 0.04810116 -0.05540099
0003e0 73 d2 ba 3d 52 e6 37 3c f5 4c c8 bd 69 96 14 3d
       0.09122171 0.011224346 -0.097803034 0.036276255
0003f0 c6 07 e5 bd 68 bc 04 bd 10 75 d7 bd 4a fa 81 3d
       -0.11183123 -0.03240624 -0.10520375 0.06346567

bias f4 [100]
000000 ff 1a e4 bd b4 0f 1b bc 12 e9 aa bd 86 46 7e bd
       -0.111379616 -0.009464193 -0.08345236 -0.062078975
000010 b2 af 9c 3d c3 4f 12 bd b7 d6 8f bc a8 b1 89 bd
       0.07650699 -0.035720598 -0.017558439 -0.06723338
000020 06 48 da bc 6d 63 b5 3d c2 d1 b4 bd 92 5d aa 3d
       -0.026645672 0.088568546 -0.08829071 0.08318628
000030 92 77 df 3d ee 6f a5 bd a4 4f 24 bc 83 22 ae 3d
       0.10911478 -0.080779895 -0.010028753 0.08502676
000040 93 ca 58 3d 54 85 8e bd 97 b0 74 3d 23 86 fd 3c
       0.052927565 -0.06959024 0.05973872 0.03094775
000050 64 58 b2 3d 0a 6c d7 bd 49 ca fa 3c 48 c8 3f 3d
       0.087082654 -0.10518654 0.030614035 0.046821862
000060 40 37 00 3d 13 ab 95 bb 9f 99 9b 3d 5a 38 95 3d
       0.03130269 -0.004567513 0.0759766 0.07286139
000070 82 69 77 3d f6 eb 37 bd 65 23 99 3d 8a 92 0e bd
       0.060403354 -0.044902764 0.07477454 -0.03480772
000080 34 14 37 3d e6 f8 7a 3c 22 63 01 be 46 e8 97 3d
       0.044697 0.015318131 -0.12635472 0.074173495
000090 f5 10 15 be ed 31 50 bd 78 86 e1 3c bd 46 6c 3d
       -0.1455725 -0.050828863 0.02752994 0.05768465
0000a0 e7 ba be bd fe ad 66 3d 4e cd 49 bd 29 96 c2 3c
       -0.093129925 0.056318276 -0.04926806 0.023753243
0000b0 78 df 8f bd 34 30 9e 3d 25 e1 e9 bd 16 7e da 3c
       -0.07025045 0.07724038 -0.11419896 0.02667145
0000c0 f0 99 56 3d e7 68 56 3d 7a 01 d8 bd b7 3f c1 bd
       0.0523929 0.052346136 -0.10547157 -0.09435981
0000d0 95 a2 b2 3c d1 4c 9b bc 26 33 ac bd 1b 40 9b bd
       0.02180604 -0.018957527 -0.08408193 -0.075805865
0000e0 14 82 3f bd 32 7d 9a 3d dc 9f 14 3d 68 5d e3 bd
       -0.04675491 0.0754341 0.036285266 -0.111018
0000f0 61 11 eb bd ab e3 b7 bc 01 f0 93 3c b5 7e d6 bb
       -0.11477924 -0.022447428 0.018058779 -0.0065458664
000100 b2 bf 0d bc d3 d4 ca bd 4e 82 59 bd 7e 69 8a bd
       -0.008651661 -0.09903874 -0.053102784 -0.06758402
000110 c8 f3 b1 3d db 5c 49 bd a5 b2 2a 3b cc 1f e0 3d
       0.08689076 -0.04916082 0.0026046422 0.10943565
000120 4e 14 df bc 69 dd 4b 3a f7 a8 6c 3d 52 d6 c7 3d
       -0.027231362 0.0007776828 0.057778325 0.09757675
000130 d1 82 64 3d 9a f5 14 3e 79 e7 9e bd a6 a3 9e 3d
       0.05578882 0.14546815 -0.07758994 0.07746057
000140 bb 9b 07 bd a2 50 d2 3d 28 a6 a9 bd 9f 73 d2 bd
       -0.0331075 0.10269286 -0.08283645 -0.10275959
000150 cf 28 fb bd a9 83 85 3d 79 52 81 bc 1c e7 81 bd
       -0.12263643 0.06519253 -0.015786396 -0.06342909
000160 0b f7 da bd 49 64 b4 3d e5 c0 e2 ba 5d e7 36 3d
       -0.10691651 0.088081904 -0.0017299919 0.04465424
000170 d2 19 59 3d 38 09 72 3d 70 1b 34 bd 84 23 03 3e
       0.05300314 0.059090823 -0.04397148 0.12806517
000180 3d 75 b1 bd d8 81 14 3d ad c4 cd 3d c1 86 29 bd
       -0.086649396 0.03625664 0.100472786 -0.041388277
