Beltrami/best_net_with_improved(adaptive loss).pth (torch, 335677 bytes, 20 tensors)

weight f4 [100, 4]
000000 f1 3c a5 3e 51 23 d0 bd e1 fc ce 3b 74 35 a8 3e
       0.32273057 -0.10162986 0.0063167666 0.32853281
000010 56 f9 e8 be 59 35 f4 3e 89 d2 33 bd 2f 71 cb 3e
       -0.45502728 0.4769695 -0.043901954 0.3973479
000020 1a 9a 17 3e 3b 96 43 bd 6a 53 57 3e e9 e3 26 be
       0.14804879 -0.047750693 0.21027914 -0.16297878
000030 22 d3 6b 3e 76 29 8e be b0 00 39 bd 3a d4 ee bd
       0.2302976 -0.27766007 -0.04516667 -0.11661573
000040 6e 05 01 3e 3d 3a 5d 3d fe ea d7 3e c2 1c 24 bd
       0.12599728 0.05401062 0.42171472 -0.040066488
000050 d3 b9 17 be 36 d6 6e be 2a 2d 57 3d f9 c1 40 be
       -0.1481698 -0.23323902 0.052533306 -0.18823995
000060 eb 73 b0 bd 45 f8 25 3d be 1e 9f 3e 32 87 e7 3e
       -0.086158596 0.04051997 0.31078142 0.45220333
000070 09 3d 9f be 65 28 d4 3e 2c fe 4d 3e 31 02 02 3f
       -0.31101254 0.4143707 0.2011649 0.50784594
000080 5b 5c ab 3e c4 ea 0a bf a1 a1 0a bf e1 0c 58 be
       0.334689 -0.54264474 -0.54152876 -0.21098663
000090 94 32 e1 3e 62 ea c1 bc b4 dc 77 3e e9 0a d6 be
       0.439839 -0.023671333 0.24205285 -0.418052
0000a0 6e 4a 11 3f 20 53 2e be 08 76 cf 3e c9 07 b9 bd
       0.56754196 -0.17023897 0.40519738 -0.09034688
0000b0 1e cc 99 be 8a 04 52 3e 99 33 81 be c9 68 b2 3e
       -0.30038542 0.20509544 -0.25234678 0.3484557
0000c0 28 44 44 be 18 48 9f bd e8 c5 09 bf 97 43 28 be
       -0.19166625 -0.07777423 -0.53817606 -0.16432033
0000d0 e4 d1 94 3e 5b 24 ea bd 9b 71 01 3f 54 8d cd 3e
       0.29066384 -0.114327155 0.50563973 0.40146887
0000e0 5b 8b cf bb bf 24 b0 be 67 dd ad 3e d0 78 83 3e
       -0.006333751 -0.34403035 0.3395798 0.2567811
0000f0 bc ff cd be 3d 02 b8 3e c1 f1 86 3e 0d ae 27 3f
       -0.40234172 0.35939208 0.2635632 0.65499955
000100 fa 93 9b be 64 bd cf bd 99 71 a4 3d ec af a5 3d
       -0.30386335 -0.10143545 0.080294795 0.08090195
000110 7c ed c6 be 80 d7 db be 29 a3 24 3e e6 b6 0c be
       -0.3885306 -0.4293785 0.16077866 -0.13741645
000120 13 ab 9d 3e b8 de b5 3d dd 51 8c 3e d2 ad 28 bd
       0.30794582 0.08880371 0.27406207 -0.041181393
000130 d3 be 87 3e db 5e 97 3e 0e cc ba be ef e5 ae 3e
       0.26512775 0.29564556 -0.36483806 0.341598
000140 14 aa eb be 7d 66 c0 be 53 97 2f 3e ef 7c e2 bd
       -0.46028197 -0.37578192 0.1714757 -0.110589854
000150 47 58 c9 3e a2 41 6c be 57 2e dc be 55 fc 08 3f
       0.39325163 -0.23071912 -0.43004104 0.5351003
000160 47 c4 e8 bc 41 95 81 3e a1 bd 29 3e 5b de 07 bf
       -0.028413905 0.25309184 0.16576244 -0.5307366
000170 65 55 cc 3c df 8a 06 3e 72 cc de be f2 6a 55 be
       0.024943063 0.13138913 -0.43515354 -0.20841578
000180 a2 77 04 3e 08 68 a9 3d 32 7c 4f be e9 0c 95 be
       0.12936261 0.082717955 -0.2026222 -0.29111412
000190 93 18 bf 3e 1b 32 92 be 4e d6 44 3e ed 3e 68 3e
       0.37323436 -0.28553852 0.19222376 0.22680254
0001a0 f8 8a c2 be 51 e0 0f bf b0 49 f2 3e bc 2c df bc
       -0.3799665 -0.56201655 0.47321844 -0.02724301
0001b0 60 98 b6 3e f4 6e 65 3e c7 25 72 3e 10 7e 4d 3e
       0.35663128 0.22405607 0.23647223 0.2006762
0001c0 ae e8 07 3f fd eb ac be 0b b0 e1 3d 01 6e c6 3e
       0.53089416 -0.33773795 0.11019906 0.387558
0001d0 16 ad 72 3e 00 cf 9a 3e 8b 88 b0 be 7e 78 10 bf
       0.2369884 0.30236053 -0.34479174 -0.56433856
0001e0 10 5d b7 be 6d be 6a 3d 02 c9 ee 3e b6 ce be be
       -0.3581319 0.05731051 0.46637732 -0.37267083
0001f0 e6 84 a9 3e ab 93 b9 be 81 06 06 bf c5 fc 12 be
       0.33109206 -0.36245474 -0.52353674 -0.14354236
000200 a7 e4 b5 3e 46 7a eb 3e 1f fa a6 be 64 cc fa 3d
       0.3552601 0.45991725 -0.32612702 0.12246016
000210 96 27 1d 3f f0 56 05 3f 06 d5 ee 3e 61 ff 7b 3e
       0.6138853 0.5208578 0.466469 0.24609138
000220 83 5a 3a 3e 4e 9a 85 3d 8a cc 8a be f5 ab 2d bf
       0.1819859 0.06523572 -0.27109176 -0.6784051
000230 cf e1 69 be c0 63 04 bd 1e 1d de be 75 ae 8c 3e
       -0.22840045 -0.03232169 -0.4338159 0.2747685
000240 72 00 08 3e 18 54 3c be 4c 99 52 3e 8a 7b 56 3e
       0.1328142 -0.18391454 0.2056629 0.20945564
000250 c7 09 71 3e 19 33 a1 3e e2 09 64 be 6b ae 19 3f
       0.23538886 0.31484297 -0.22269395 0.60031766
000260 cb 63 2c bd 4a 7c 88 bd be b1 0a bf 6a 9b 55 be
       -0.042087357 -0.06664331 -0.54177463 -0.20860067
000270 e2 41 d4 be bc 83 8a be d7 e1 be 3e f6 b0 6d be
       -0.41456515 -0.2705363 0.37281677 -0.23212036
000280 7b 70 90 be aa 26 a4 3e 42 32 7c 3e 09 57 b1 3e
       -0.28210816 0.32060748 0.24628547 0.34636715
000290 f1 f1 fa be 19 a9 ec 3d a9 cd 7f be e4 15 a7 3d
       -0.49012712 0.1155569 -0.24980797 0.08158472
0002a0 2d f5 d1 be af e7 96 be f4 35 90 be bf de cd 3e
       -0.41007367 -0.29473636 -0.28166163 0.40209004
0002b0 0f 4e e4 3d 38 96 22 3e 93 f0 17 3f 10 45 1f 3f
       0.11147701 0.15877616 0.5935146 0.62214756
0002c0 88 e1 de 3e ad 15 8a 3d c9 af 94 be db a4 c1 3e
       0.43531442 0.067424156 -0.29040363 0.37821087
0002d0 ed 4e 0d be 4a 16 e1 bd c5 4d df be 8a 1a dc 3d
       -0.13799639 -0.109905794 -0.4361402 0.107472494
0002e0 ab d3 ae be b9 44 f1 3e 56 c4 04 bf 73 02 06 bf
       -0.34145865 0.47122744 -0.51862085 -0.5234749
0002f0 00 9a 03 3d 53 9c 8e be 4c 9f 7c 3e b2 e8 1e be
       0.032129288 -0.2785364 0.24670142 -0.15518454
000300 37 78 a9 be a8 e3 18 bd c0 c0 a7 3e d2 df cb be
       -0.3309953 -0.037326485 0.32764244 -0.398192
000310 74 13 e2 3e b8 20 04 3f e4 46 1d 3f b2 5f fe be
       0.44155467 0.51612425 0.61436296 -0.49682385
000320 78 53 3f 3e a4 e8 95 be 0f b3 f0 3e 6d 62 4d be
       0.18684185 -0.29279053 0.4701161 -0.20057078
000330 72 02 9e 3e 59 fa 91 bd d4 a7 40 bd 39 88 07 be
       0.3086124 -0.07127828 -0.047035053 -0.13235559
000340 12 38 a4 3c fc 50 39 3e 90 60 84 bd 6b 5c 45 3e
       0.020046268 0.180973 -0.0646373 0.19273536
000350 f9 ba d0 be ac 15 dd 3e 00 51 eb 3e 80 61 de 3e
       -0.4076765 0.43180597 0.45960236 0.43433762
000360 7e 66 df 3e b6 1d a0 be 92 34 17 be 3a 8d e9 3e
       0.43632883 -0.31272668 -0.14766148 0.4561556
000370 5f 23 c5 be 96 08 04 3f f1 27 e5 be 0d ea d9 be
       -0.38503549 0.515756 -0.44757035 -0.4256138
000380 02 da 34 3e f1 35 ab be ce 7d ec bd 94 34 05 3f
       0.17661288 -0.33439592 -0.11547433 0.5203335
000390 c7 56 ba 3e 8c 84 ec 3e c3 56 70 bd 9e 2c 2c bf
       0.3639433 0.46194875 -0.058676492 -0.6725558
0003a0 bb cd 10 3f f1 b4 cb bd 85 cb 67 be 5b 4f 48 3d
       0.5656392 -0.09946621 -0.2263623 0.048903804
0003b0 cb 40 c7 be a1 84 84 3e 3f e3 89 3e 50 63 ee be
       -0.3891662 0.25882438 0.26931188 -0.46560144
0003c0 52 e4 a4 be 25 bc 15 3d 3a e5 4c 3e 67 b3 e1 bd
       -0.32205445 0.03655638 0.20009318 -0.110205464
0003d0 37 c5 a1 be 0c 00 b9 ba a4 2c 1a bf 78 58 ca be
       -0.31595775 -0.0014114394 -0.60224366 -0.3952062
0003e0 53 fa b3 be e8 6e 0c 3f a8 0b f8 3e 0d 8f 07 be
       -0.3515192 0.5485673 0.48446393 -0.13238163
0003f0 59 5b 95 3c 10 71 57 3e 7a 28 60 3d fc 09 de be
       0.018232035 0.21039224 0.0547261 -0.43366992

bias f4 [100]
000000 85 51 4e be 6f fd cb 3e 01 6c 78 bd 6d 6c c7 be
       -0.20148285 0.39841792 -0.060649876 -0.3894991
000010 e9 30 88 be 15 94 c5 be 4e fb 60 be 5a 14 95 be
       -0.26599815 -0.3858954 -0.21970865 -0.2911709
000020 cf fe e9 3e 6e cc 0f be 05 cc 62 be bf 82 77 3e
       0.45702216 -0.14042827 -0.2214814 0.2417097
000030 ca 6a 8e 3e cb a6 c5 be 84 86 50 3e ae 18 8f 3e
       0.2781585 -0.38603815 0.20363814 0.27948517
000040 d6 68 9f be 35 67 ee 3e 96 e9 b5 be 37 19 23 be
       -0.3113467 0.46563116 -0.35529774 -0.15927587
000050 3e 9b b8 be 96 78 fc 3e 38 32 be 3c 37 ad b1 3e
       -0.3605594 0.4931075 0.023217306 0.34702465
000060 59 2a 1d 3c 8f ec 7d 3e 6b 54 e9 bd 0b ba 02 bf
       0.009592616 0.24797271 -0.113930546 -0.5106513
000070 a6 7f db 3d 63 19 b6 bd 5f 12 87 bd 75 41 71 be
       0.107177064 -0.08891561 -0.06595301 -0.23560126
000080 dd 8b cc bc e0 fd fc 3d fd 3b c8 3d 30 a2 ae be
       -0.024969036 0.1235311 0.09777067 -0.34108114
000090 ca 06 77 3e 26 4e d7 3d 57 78 dd 3e 0c 8e ac 3e
       0.24123684 0.105129525 0.43255875 0.33702123
0000a0 77 c0 a8 be e1 48 eb 3e 11 59 d4 be 9e 09 92 3e
       -0.3295934 0.4595404 -0.41474202 0.28522962
0000b0 85 60 3d 3d 9c 11 b2 3e 08 35 aa be 24 7c 99 3e
       0.046234626 0.3477906 -0.33243585 0.29977524
0000c0 c8 70 8d be e5 0c d4 be 9a 1e 02 3e 33 44 39 3e
       -0.27625108 -0.41416088 0.12706986 0.18092422
0000d0 aa 62 e5 3e 68 ef d8 bc 57 94 fe 3e e7 8d ab 3e
       0.44801837 -0.026481345 0.4972255 0.335067
0000e0 61 1c e2 bd f8 1d d0 be 53 5d 83 3e 61 b5 8d be
       -0.11040569 -0.40647864 0.25657138 -0.27677444
0000f0 2f 1b 59 3e 65 1a d0 be ef 16 b7 3e c4 b7 08 3d
       0.21201776 -0.40645137 0.35759684 0.033378378
000100 e1 35 ff bd d3 8b 6b 3e 8b 04 c7 be d5 dc 20 be
       -0.124614485 0.23002557 -0.38870654 -0.1570924
000110 81 98 8d bd e4 46 1f be 33 95 59 be 24 a0 3a be
       -0.069138534 -0.15554386 -0.21248321 -0.18225151
000120 aa a2 e9 3e 8a 29 ac 3e f7 e7 e0 3e 38 73 76 3e
       0.45631915 0.33625442 0.43926975 0.2406739
000130 2e 69 c8 be 21 8b 52 3d 0b c0 36 3e 8c 1c bc be
       -0.39142746 0.051402215 0.17846696 -0.3674053
000140 25 bd 91 3e 9a 02 73 be 64 0d de 3d 56 02 14 3e
       0.28464618 -0.23731461 0.10842398 0.14454016
000150 75 19 c7 3e d2 a0 39 be 97 2b 84 be ab c1 04 3f
       0.3888661 -0.18127754 -0.25814506 0.51858014
000160 a6 f8 36 3e c7 53 4f 3e fa 33 7b 3e 32 40 13 be
       0.1786829 0.20246802 0.24531546 -0.14379957
000170 1e 6f a2 3e c3 db d1 be 2b bd 2f bd f4 e3 81 3e
       0.317254 -0.40987977 -0.042905014 0.25369227
000180 e9 ed b2 3e 05 29 0f be 6b fc d8 be 96 57 2e 3e
       0.34947136 -0.13980491 -0.4238008 0.17025599

weight f4 [100, 100]
000000 6f 02 91 bd 64 27 0d be c4 af f0 bd 86 7f d0 bb
       -0.07080542 -0.13784558 -0.11752275 -0.006362858
000010 75 21 4f bd 60 ea 02 bd 3d f5 a8 bd 8e 8b 0c be
       -0.050569016 -0.0319618 -0.082499005 -0.13725111
000020 8e f0 27 3e e0 73 6d bc 8e ab 9f bd fa b1 b5 3c
       0.16400358 -0.014492959 -0.07796393 0.022179592
000030 fe 89 66 bd 38 13 4f 3b 3e 8c 07 bd d7 05 16 be
       -0.056283943 0.0031597149 -0.03309273 -0.14650665
000040 05 e9 2b bd ec 7b 82 bd 65 de 92 bd bc 8f bc 3b
       -0.04197027 -0.063712925 -0.07171325 0.005754439
000050 9b 43 92 bd e6 88 ba bd 88 1d 83 3d 21 f4 d8 bc
       -0.07141801 -0.091081426 0.06402117 -0.026483597
000060 12 40 39 3b 59 4a e9 bd 42 31 c5 3d 5f 63 d4 bc
       0.0028266949 -0.11391134 0.09628536 -0.02592629
000070 d5 3c 9e bd 17 36 d0 bc 4c fb 1d 3d da e1 3d 3d
       -0.077264465 -0.025416417 0.038569734 0.046357967
000080 f7 bd 86 bb 3c b3 f8 3d ac 55 2d 3d f0 17 a4 bd
       -0.004112001 0.12143561 0.04231803 -0.08012378
000090 c2 f5 ff 3b df 9d 17 bd d1 04 2a bc 81 04 85 3d
       0.007811279 -0.037015792 -0.010377125 0.06495
0000a0 5e e1 f3 3c 73 0f a4 bd 17 d1 82 bd 7d 70 56 bb
       0.02977055 -0.08010759 -0.06387537 -0.0032720857
0000b0 88 c9 f4 bd 7d 58 89 3d 0a ce 6c 3b 7d 53 5b 3d
       -0.119525015 0.06706331 0.003613355 0.053546418
0000c0 96 6c ba 3b d7 1e 07 3e 70 37 2c bd 89 c6 b2 bd
       0.005689214 0.13195358 -0.042045057 -0.08729274
0000d0 b5 5b 04 3d 60 79 1c be f1 6c ae bd 90 87 aa 3d
       0.03231402 -0.15280676 -0.08516873 0.08326638
0000e0 90 dd 92 3d f7 ee 49 bd 86 0e e7 bd b9 bb 40 bd
       0.07171166 -0.04930016 -0.11282067 -0.047054026
0000f0 09 6b 9a bd dc 6d 47 bd 43 60 07 bd 21 de 45 bd
       -0.075399466 -0.048688754 -0.033050787 -0.04830754
000100 31 60 f5 3b 71 3d 2c bd 6f 59 da bc 2b c7 9e bd
       0.0074882735 -0.042050783 -0.026653973 -0.07752832
000110 9f e4 6d 3d f8 84 9e bb 23 36 a5 3c ca 79 b3 bd
       0.05807936 -0.0048376285 0.020167416 -0.08763464
000120 65 8d d3 bd 3a f2 ae bd 75 75 c7 3b e3 fb 80 bd
       -0.10329703 -0.08542295 0.006087 -0.062980436
000130 c4 3b 8c bc b9 1e 1a bd a5 14 eb 3d ed ea b4 bd
       -0.017118342 -0.037626956 0.11478547 -0.08833871
000140 e2 c5 e8 3d 7c 43 35 3d 5d 6b 43 bd a1 4f e7 3d
       0.11365868 0.04425381 -0.04770981 0.11294485
000150 d9 48 df bc 09 02 1b be ad ed 8f bc f0 b1 f1 ba
       -0.027256416 -0.15137495 -0.017569387 -0.001843987
000160 4d c4 0e bd f2 25 04 3e f1 2b 1c 3d 51 dd 05 3e
       -0.034855176 0.129051 0.038127843 0.13072707
000170 6c d4 13 3d c2 be 83 3d a5 9b 64 bd 6b 2c 79 3d
       0.036091253 0.064328685 -0.055812497 0.060833376
000180 06 4d 00 bd 36 ca 1b bd db 6c ab bb 92 ca 3c 3e
       -0.031323455 -0.03803464 -0.0052314824 0.1843665
000190 81 e1 8a 3e b9 ec d9 bd cb af 25 3e 5c dd c0 3d
       0.2712517 -0.106408544 0.16180341 0.09417221
0001a0 20 3f ee bc 37 08 c4 bd 3c 13 ac 3d e9 78 d2 3c
       -0.029082835 -0.09571879 0.08402106 0.02569242
0001b0 56 f0 e9 bd b1 d0 78 3d 39 eb 15 3d 02 c5 08 be
       -0.114227936 0.0607459 0.03660128 -0.13356403
0001c0 31 ce 4b bd ab 44 c0 3d 6a 11 42 3d 3e 6a f0 b9
       -0.049757186 0.093880974 0.04737989 -0.00045855524
0001d0 a4 72 c4 3c bb 35 10 3c 47 dd 0b 3e 7c 46 4c 3d
       0.023980446 0.008801873 0.1365863 0.049871907
0001e0 b9 1c 3b 3d b4 42 3d bd f5 46 7b 3d 97 da 14 bd
       0.04568169 -0.04620619 0.061346967 -0.036341276
0001f0 32 53 76 3d dd 3c 0d 3e 4c d7 86 3d be 22 da 3d
       0.060137935 0.13792749 0.06584033 0.10651158
000200 0b f7 51 3d 50 2a a8 3d 2c a3 57 3d 7a 29 18 bd
       0.05126099 0.082111955 0.052645847 -0.03714893
000210 24 1f 84 bd 11 c6 33 bd 1c 54 68 bd 0a 58 49 bd
       -0.06451252 -0.043890063 -0.056720838 -0.049156226
000220 be bb 03 3d de fd ee bd c8 83 18 be 8f 09 02 be
       0.032161467 -0.11669515 -0.1489402 -0.12698959
000230 5f 84 52 bd 33 13 00 be 03 8b 84 3d bb 79 af 3d
       -0.05139577 -0.12507324 0.06471827 0.0856814
000240 0e 9a b0 3d 62 d5 3b 3c c8 0d b3 bd 80 f8 05 3e
       0.086231336 0.011464449 -0.08742863 0.13083076
000250 54 91 8e bd fc d3 da bc 49 44 91 bc aa 52 8b 3d
       -0.06961313 -0.02671241 -0.017732756 0.06802876
000260 f3 23 a6 bd 48 68 95 bd 4f 3f 5e bd 56 ab 81 be
       -0.081123255 -0.07295281 -0.054259595 -0.2532603
000270 ff 35 91 bc fe 0d c4 3d 63 4f cd 3c 3f 49 16 3c
       -0.017725943 0.09572981 0.025062269 0.009172737
000280 f8 f9 35 be 94 55 af 3d 0e 1a 2a 3c 3f 3c e5 bd
       -0.17771137 0.085612446 0.0103821885 -0.11193132
000290 85 2c fe 3c 1d b3 11 be 6f e3 3a 3e c3 0b a8 3d
       0.031027088 -0.14228483 0.18250822 0.08205368
0002a0 91 39 1d be 13 83 ca bd eb 33 82 3d 6b d9 c8 bc
       -0.15353991 -0.09888282 0.06357559 -0.024517735
0002b0 bb fb fd bd 76 52 36 3c 94 5d 9c bd aa fc 24 3d
       -0.124015294 0.011128059 -0.07635036 0.04028002
0002c0 4c 44 9d bd 81 01 f2 bd 33 fa 92 3d 29 b0 1a bd
       -0.07679042 -0.11816693 0.07176628 -0.037765656
0002d0 81 c4 24 3d cb b1 af 3d b4 2b cc bd 15 5c e0 3d
       0.040226463 0.08578833 -0.09969273 0.10955063
0002e0 23 11 4f bb 81 63 ba bd a5 69 ab 3c 5d ec d3 bd
       -0.0031595908 -0.0910101 0.020924399 -0.10347817
0002f0 97 5c 77 bd f6 57 a8 bd a3 07 b3 3d 0d 43 d9 bc
       -0.060391035 -0.08219902 0.08741691 -0.02652123
000300 2b a0 ad bd f7 74 da 3b 6a 1d fb bc c8 9c 90 bd
       -0.08477815 0.0066667753 -0.030653674 -0.07061154
000310 d7 e0 2f bd 67 8b 4b bb e4 9c 04 3e 9c 02 a6 3d
       -0.042939033 -0.0031058432 0.12950474 0.081059664
000320 f8 d2 aa bc 77 82 95 3c b2 39 4f bd b2 27 4f 3c
       -0.02085255 0.018250687 -0.050592132 0.012643741
000330 fa 82 59 bc 05 03 8b bd 1a 02 ab bd 5f 5f b9 bc
       -0.013275856 -0.06787685 -0.0835001 -0.022628484
000340 b2 8b 5f 3e 1b 6d c6 bd 19 d9 35 3c 34 a4 5a ba
       0.21830633 -0.09688779 0.011099123 -0.0008340508
000350 29 2e 8f 3d 01 2d 6d bc fd 19 97 3c 33 db dd 3d
       0.06991226 -0.014476062 0.01844501 0.108328246
000360 af 3b 31 bd 4b e7 98 3d fe 5b b7 3a 6f 81 39 bd
       -0.04326981 0.07465991 0.0013989208 -0.045289453
000370 f9 51 95 3d ed f3 8b 3e 13 c6 0b bd 31 3f f0 bc
       0.07291026 0.27334538 -0.034124445 -0.029327007
000380 24 be 84 3d 10 7c dc 3d 96 29 fa 3c 69 e3 36 bd
       0.06481579 0.107658505 0.030537408 -0.04465047
000390 be 42 fc 3d c1 67 c6 bd b9 b5 73 bd dc 72 30 3d
       0.123174176 -0.09687758 -0.059499476 0.04307829
0003a0 ec 66 82 bc 44 01 df bd ef 10 54 3d 06 76 84 3d
       -0.015918218 -0.10888913 0.05177396 0.06467824
0003b0 70 8e cb 3d 29 f9 db bc 8d 71 04 3e 09 af 1c bd
       0.09939277 -0.026852207 0.12933941 -0.038252864
0003c0 37 c3 86 be 47 3a a4 bd 91 ee 65 3d f7 84 8e 3d
       -0.26320812 -0.08018928 0.056135718 0.06958955
0003d0 a5 ac ce 3b c6 6d a9 3d b0 fd a3 bc 51 73 c7 3d
       0.006307202 0.08272891 -0.020018429 0.09738792
0003e0 84 8b 8c bd 50 cb 9b bd 06 37 d1 3d 0c 65 ec 3d
       -0.06862548 -0.07607138 0.10215573 0.11542711
0003f0 bb bb bf 3d ea ec 69 bc dd ee eb 3d c1 ce d0 bc
       0.093619786 -0.014277676 0.11520169 -0.025489213

bias f4 [100]
000000 5f fa 57 bd 0a d3 7d 3c eb 32 34 bd 5e bb f2 ba
       -0.052729007 0.01549221 -0.04399387 -0.0018518975
000010 94 9c 06 bc 40 56 7b 3d fe 1b 87 3d 35 4e ae 3d
       -0.008216042 0.06136155 0.06597136 0.085110106
000020 7c a2 ce 3c cd e5 af bd 73 70 86 3d 6a 49 9a 3c
       0.025223963 -0.08588753 0.06564417 0.018833835
000030 48 5c 91 bd bc 47 ef bd aa d4 8a 3d fc 7c 83 bd
       -0.070976794 -0.11683604 0.06778844 -0.06420323
000040 df 46 9f bd 24 d2 ae bd a5 cd 09 bd 5a 31 3e 3c
       -0.077771895 -0.08536175 -0.033643384 0.011608446
000050 db 8d 32 3d 9b b2 05 3d db 71 3c bd e4 ae 66 3d
       0.043592315 0.032641035 -0.04600702 0.056319132
000060 02 ea 95 3c 82 19 51 3d 15 10 b4 3a 77 56 7a bc
       0.01830006 0.051049717 0.0013737703 -0.015279404
000070 79 d6 87 3d 22 37 a5 bc f6 69 cd bd 13 bd c4 bd
       0.06632704 -0.020167891 -0.10029976 -0.096063755
000080 eb 53 dc 3d cd b5 8a 3d 96 ef 0e be 88 86 0b 3e
       0.107581936 0.06772957 -0.13958582 0.13625538
000090 62 af a4 bd 30 7d c3 3d fc 82 b5 bc b1 82 2f 3d
       -0.08041264 0.09545362 -0.022157185 0.042849246
0000a0 99 23 0b 3d a2 10 7e bc 5f 69 38 3d 44 26 a6 bd
       0.033969495 -0.015506895 0.045022365 -0.08112767
0000b0 80 46 7d bd 81 92 05 bd c4 fa 1a 3c 4c be 56 3d
       -0.061834812 -0.03261042 0.009459201 0.052427575
0000c0 da 34 77 3c 34 24 fe bc 09 31 f9 3c c1 5c 24 bd
       0.015088284 -0.031023122 0.03041889 -0.04012752
0000d0 8c cc 97 3d 30 b2 00 bc dc c5 df 3c f0 fb b8 3d
       0.07412061 -0.007854983 0.027316026 0.09032428
0000e0 92 d9 72 3c 02 e2 69 3d f3 26 d1 3d 9f 77 76 bb
       0.014822381 0.057100303 0.10212507 -0.003760792
0000f0 4e b0 d8 bd e5 f2 90 3d c6 0c 92 3d 15 da 3e bd
       -0.105805025 0.070775785 0.071313426 -0.046594698
000100 d9 1d 1a bc 25 f8 fb bd ad cc 05 be ee 25 23 bd
       -0.00940653 -0.12303189 -0.13066359 -0.039831094
000110 2f a3 f0 bd d5 4c 8e bd ca d9 c8 3b 1d 5d 82 bd
       -0.11749875 -0.06948248 0.006129478 -0.06365416
000120 ca 69 07 3e 8c 6d ba bc e2 a3 10 be 08 52 16 3d
       0.13223949 -0.022757314 -0.14125016 0.036699325
000130 3b a8 ec bd f9 d0 83 3c 2c 9f dc 3d 30 ab 62 bd
       -0.11555525 0.016090857 0.10772547 -0.05533904
000140 48 ad 21 3d c4 80 48 bd 8f 42 b8 3d 1b 7f bf bb
       0.039471895 -0.048950925 0.0899707 -0.0058440096
000150 a1 0b be 3c 4f f6 f3 bc ba 2c 9e bd da 70 d1 3d
       0.023198904 -0.029780535 -0.07723375 0.10226603
000160 dc d8 8d bd f7 1c bc 3d 91 60 9a 3d 42 9c 11 bd
       -0.06926128 0.09185212 0.0753795 -0.03554941
000170 d4 18 c2 3d b1 a6 41 3d ea 52 98 3d d7 bd ed bd
       0.09477392 0.04727811 0.074376896 -0.11608475
000180 77 1c 11 3d cf 7c 02 bd 60 80 d9 bc 66 29 30 bd
       0.035427537 -0.031857308 -0.026550472 -0.04300823

weight f4 [100, 100]
000000 ff bb 8f 3c 12 c3 6a bd 2e f3 9b 3d 96 c3 28 3d
       0.017545698 -0.05731494 0.07614742 0.04120215
000010 59 ae 6e bd 3c bc e5 bc 9a 86 ec bd 87 eb 12 bd
       -0.05827174 -0.028043859 -0.11549111 -0.035869148
000020 ce 9b 30 3d 42 c0 a5 3d 11 d8 38 be 44 8f ab bd
       0.043117337 0.08093311 -0.18051173 -0.08376935
000030 a4 b7 65 bd 27 cc 05 3e ad 18 cd bc 0c 41 87 3a
       -0.056083336 0.13066159 -0.02503618 0.0010319068
000040 fa 49 10 3d 00 64 e1 3d 30 6e bd bd 90 94 7c 3d
       0.0352268 0.110054016 -0.09249532 0.061665118
000050 ae c2 a3 3d ba 33 e5 bc 0a ce a6 3d 29 66 0e 3d
       0.079961166 -0.027978767 0.081447676 0.034765396
000060 f2 65 88 bd 34 bd a4 bc 98 24 51 3d 47 60 b7 bc
       -0.066600695 -0.02010975 0.05106029 -0.022384776
000070 9c 3c e5 3b 94 da e1 bd fc 7a d9 3d bc 35 32 be
       0.0069957506 -0.110280186 0.106191605 -0.1740331
000080 a3 77 69 3c b2 a9 b0 bd 0b 0e 04 3d 10 76 15 bd
       0.014249715 -0.08626117 0.032239955 -0.036489546
000090 3e 62 71 3c df 80 7c bd cc ab 3a 3c 82 6c 07 3d
       0.014732895 -0.06164634 0.011393499 0.033062465
0000a0 a1 36 b3 3d c4 a9 8d bd 0e 13 d2 3d b0 22 e1 bd
       0.08750654 -0.06917146 0.10257541 -0.10992944
0000b0 c7 aa 0d bd bc 02 07 bd 7c 6d a4 bb 43 19 b3 3d
       -0.034586694 -0.032961592 -0.0050179344 0.08745053
0000c0 f2 13 3e 3d cc 70 2c be c7 a4 05 3c 93 60 4f 3d
       0.04640574 -0.16839904 0.008156962 0.05062921
0000d0 61 da bf 3d 10 6f 6f 3d fa 72 a4 3d f9 07 dc 3d
       0.09367824 0.058455527 0.080297425 0.10743708
0000e0 69 e9 69 3d 38 05 ff bd 45 36 87 3d 4a 11 f7 bd
       0.057107363 -0.12452167 0.06602148 -0.120638445
0000f0 9f 2a 07 3d 49 78 9c bd b5 83 2a bd 0c 6a 03 3e
       0.03299963 -0.0764013 -0.041629512 0.12833422
000100 30 1b e6 3d 99 7a 0e bd 63 82 71 3d a9 df c0 3a
       0.11235654 -0.034784887 0.058962237 0.0014715093
000110 ae 78 14 3e fc e6 3e 3d 0b bb f3 bb e9 d4 32 ba
       0.1449916 0.046607003 -0.0074380687 -0.0006821887
000120 db 46 0a 3d 39 3d a4 bd 20 10 22 bd 0b 6c 85 bc
       0.03375898 -0.0801949 -0.03956616 -0.01628687
000130 8c f2 8a 3d f8 47 e9 3d 51 af fa 3d 54 23 00 bd
       0.067845434 0.1139068 0.1224047 -0.03128369
000140 ef 61 f3 3c 60 c6 50 3c f3 c3 97 3d ba ca 85 3d
       0.029709784 0.012742609 0.07410421 0.06532808
000150 20 fe fc bd cd dd 9f bd 96 c9 f1 3b 87 80 fa bd
       -0.12353158 -0.07805977 0.0073787672 -0.12231546
000160 d7 f9 eb 3d b4 5a 1a bd 8e f7 2d 3e 75 0b b3 bd
       0.115222625 -0.037684157 0.16988966 -0.0874242
000170 dc 86 3b 3d a7 39 dd 3d 0c db a9 3d 11 b9 bd 3d
       0.04578291 0.10802012 0.08293733 0.09263814
000180 db 29 99 3d b0 6e 09 3e 04 82 60 bd 3b 7b 6a bd
       0.074786864 0.1342113 -0.054811493 -0.057246428
000190 d9 e0 54 bd cd 3f f3 ba 47 24 ce bd e4 e7 18 3d
       -0.051972244 -0.0018558443 -0.10065513 0.037330523
0001a0 59 ef cd 3d d7 11 b7 3c 3f e6 84 bd 55 cc e4 3d
       0.100554176 0.022347374 -0.064892285 0.11171786
0001b0 2f f1 40 3b a1 e5 b7 3b 08 87 51 be 87 92 b0 bd
       0.0029440632 0.0056120907 -0.20461667 -0.08621698
0001c0 58 c0 2a 3d e2 6a 9e 3c 1e 07 72 bd 4f c5 af 3d
       0.04168734 0.019338075 -0.05908882 0.085825555
0001d0 a8 26 1d 3d 68 d7 9f 3d df 7a f8 bc af 8e 90 bd
       0.038366944 0.07804757 -0.030332027 -0.07058465
0001e0 bd 4c 02 3e ab e3 d5 bd 1f 02 40 3d 48 77 b2 bd
       0.12724586 -0.10443815 0.046877023 -0.08714157
0001f0 52 c4 94 3d 69 f2 95 3d 55 35 aa bc 85 06 bc 3d
       0.07264008 0.07321627 -0.020777384 0.09180931
000200 99 1e 0d 3d 93 e0 c4 3d d5 b1 5e bd 38 d1 0d ba
       0.03445301 0.09613147 -0.054368813 -0.0005409899
000210 f8 f7 95 3c af d6 f8 bc 91 cc a0 bd fe b0 15 3d
       0.018306717 -0.030375807 -0.07851518 0.036545746
000220 26 07 dd 3d b2 61 e2 3d 20 12 c1 bb cf 75 c0 3d
       0.10792379 0.1105379 -0.0058920532 0.0939747
000230 1b ab 21 3e c5 ac 95 bd 56 6f c8 bd ca 76 b2 3c
       0.15787928 -0.07308344 -0.09786861 0.021785159
000240 4f d5 75 bd b7 19 02 bd 29 5e b6 3d a3 b8 2b bd
       -0.06001788 -0.031762805 0.089046784 -0.04192413
000250 60 1a bf bd fa 9f 04 3d 8d b6 9e 3d b2 db fa bc
       -0.093312025 0.032379128 0.077496625 -0.030622337
000260 2d dc 65 bd b9 21 5f bd b5 af 0e 3d fd 0c b6 3c
       -0.05611818 -0.05447552 0.034835536 0.02222299
000270 3c 7a 91 3d 9d bb e7 bd 56 05 74 bd 82 dc f8 3d
       0.071033925 -0.11315081 -0.0595754 0.121514335
000280 dc 02 5f bd ee f2 43 bd 0f a8 e5 3d 4b 14 d4 3d
       -0.054446086 -0.047839098 0.11213695 0.10355433
000290 ea bc d0 3c b1 17 44 be f8 af 21 be c3 32 12 be
       0.025480706 -0.19149663 -0.15789783 -0.14277177
0002a0 64 2f 01 bb 83 94 0a bd 53 03 40 3d 16 a9 25 be
       -0.0019712085 -0.033833038 0.04687817 -0.16177782
0002b0 70 6a 94 bc f4 c1 ab 3d ac 49 4d 3b 09 dc f9 3d
       -0.01811716 0.08386603 0.003132443 0.122001715
0002c0 19 7c 89 3b 4e ed b9 3d 43 e9 8d 3d b2 e7 9d 3d
       0.004195702 0.090784654 0.06929257 0.07710208
0002d0 e3 bc cc bd 56 54 d3 bd 60 c5 ce bc d8 49 26 bd
       -0.09996965 -0.1031882 -0.0252406 -0.040597767
0002e0 90 d6 57 3d a4 33 9c bd 4e cd 70 3d 85 50 8b 3c
       0.052694857 -0.07627037 0.058789544 0.017006168
0002f0 b3 13 2e bd c7 98 e9 ba d5 e4 cb 3d 22 48 05 be
       -0.042499255 -0.001782202 0.099557556 -0.13015798
000300 02 2c 02 3c 3d 9d 8e 3d 2b a3 f8 3d 90 a2 0d be
       0.007945063 0.069635846 0.12140497 -0.13831544
000310 2f ac 2d 3d 3e e3 b4 3d 88 10 e9 37 58 63 d5 bd
       0.042400535 0.088324055 2.7783462e-05 -0.10419339
000320 57 44 ea bb 4e 6b 98 bc 73 08 ab 3c cc 00 00 bd
       -0.00714926 -0.018605854 0.020878052 -0.03125076
000330 4d 71 81 bd f6 52 80 3d 7c 22 3c bc d2 dc 98 bd
       -0.063204385 0.062658235 -0.011482831 -0.07463993
000340 94 cc 9c 3d f9 5d e8 bd 75 2d 57 3e e6 27 3d 3e
       0.07656208 -0.11346049 0.21013434 0.18472251
000350 ec 89 d6 3c 46 3b 31 bc 41 db 96 bd 7d 93 a7 bd
       0.026188813 -0.010817355 -0.07366038 -0.08182428
000360 81 61 6e bd 9b ad ae bd 5d c0 e6 3c b4 32 52 bd
       -0.058198456 -0.08529206 0.028167898 -0.051317886
000370 c8 15 93 bc 5c 63 b8 bd 4b 6d 99 3d 45 1c 3f 3e
       -0.017954722 -0.09003326 0.07491549 0.18663128
000380 6e 61 18 be d7 e5 b4 bd 46 5e ee 3d 59 7f 33 bd
       -0.14880916 -0.08832901 0.11639075 -0.04382262
000390 cc f7 ea bd 57 72 26 3d e7 dc 9c 3d 2a 71 8f 3c
       -0.11473045 0.040636387 0.07659321 0.017510016
0003a0 9a f6 0f 3d db 5e 82 3d 7e 1d 67 bb fc eb f3 bd
       0.035147287 0.063657485 -0.0035265381 -0.11910245
0003b0 d7 2c 04 be 6d 78 48 3d 86 48 00 3d 93 a4 de 3d
       -0.1290773 0.048942972 0.031319164 0.10871234
0003c0 22 01 c5 bd 40 24 b2 3d 53 92 95 bd 2e 4a d6 bc
       -0.09619357 0.086983204 -0.073033 -0.026158419
0003d0 83 ef 40 bb b0 fb 96 3c 94 f6 91 3d c1 ff e1 3c
       -0.0029439635 0.01843056 0.07127109 0.027587773
0003e0 f0 69 b7 3b 35 38 f5 3d 2a 44 07 3c 89 29 a2 bc
       0.0055973455 0.11973611 0.008255998 -0.019795196
0003f0 28 64 db 3c 30 78 10 bd b2 a6 da bc 1b f9 86 bd
       0.026781157 -0.03527087 -0.026690815 -0.06590482

bias f4 [100]
000000 19 1e 87 3d 52 36 f5 bc ad b3 d3 bd 2b 08 84 3c
       0.065975375 -0.029933129 -0.10337005 0.016117176
000010 c6 3b 1a bd 3d 71 86 bc 6a a9 2f bd 9c 2e 80 3d
       -0.03765466 -0.016411418 -0.042886175 0.0625889
000020 f0 c9 32 bc 8b 96 95 bd df d1 5c bc 8c 21 cb 3a
       -0.010912403 -0.073041044 -0.013477772 0.0015497669
000030 11 38 05 3c 8e 26 43 3d 17 f9 c1 3d 7c 39 de bc
       0.008131043 0.04764419 0.09471338 -0.02712702
000040 c9 ca 5e 3d 8c 64 af 3d 5f bb ae 3d e2 c2 c3 bd
       0.05439261 0.085641 0.08531832 -0.09558655
000050 8c 1f 1a 3d 7f db ab bc 76 0e 15 3e 57 c5 02 3d
       0.03762774 -0.020978687 0.14556298 0.03192648
000060 97 fc 26 3d 40 80 36 3d 9d 25 1d 3d 50 e9 05 3e
       0.040768232 0.044555902 0.03836595 0.13077283
000070 24 96 a2 3b 21 9a f2 3d 2d 6e 87 3d 3e 17 8c bd
       0.004961746 0.11845804 0.06612811 -0.068403706
000080 2f 13 69 bb 25 3c 82 3d b4 04 55 ba c0 7c ab bd
       -0.0035564413 0.06359128 -0.0008126006 -0.083734035
000090 42 cd 48 3e 82 7a bb bd a3 9d 3c bd 46 55 8e bc
       0.1960955 -0.09154226 -0.04604877 -0.017374646
0000a0 a4 ee 18 3e ff 0a 86 3d 93 e3 cd 3d 85 c1 20 bd
       0.14934784 0.06545066 0.10053172 -0.039247055
0000b0 76 1c af 3d 28 d0 70 bd c2 8e 07 be 56 e9 28 bd
       0.0855035 -0.058792263 -0.13238052 -0.04123815
0000c0 fc 55 a5 bb 74 d5 95 bd 4a 28 48 3d 3a 0d 0f bd
       -0.0050456505 -0.073161036 0.048866548 -0.034924723
0000d0 a8 f6 55 bc 26 58 58 bd f2 b5 c6 bd f4 f3 6c 3d
       -0.013059296 -0.05281844 -0.09702672 0.05784984
0000e0 22 3f bf 3d d9 7c 59 ba 33 f2 90 3d 6d 87 c1 bc
       0.093382135 -0.0008296497 0.07077446 -0.023624146
0000f0 96 99 9a bd 92 23 08 bb 9d 26 4b 3d 7e e9 6b bd
       -0.075488254 -0.0020773155 0.04959737 -0.057595722
000100 0a 78 c5 3c e8 ff 24 3c b6 99 61 bc 5b b0 c8 3d
       0.02410509 0.010070778 -0.013769558 0.09799262
000110 7c 73 71 3d eb 89 f0 bc 23 64 47 bb c2 8c 0c 3c
       0.058948025 -0.02936264 -0.0030424676 0.008578481
000120 62 2a db bd 7c 64 f8 3d 9c 2a 26 3d e0 83 f5 bc
       -0.10701443 0.12128541 0.04056798 -0.02997011
000130 cd e2 54 3d 0c 13 fb bc d0 93 d7 3d 85 9b 86 3d
       0.051974107 -0.03064873 0.1052624 0.06572632
000140 64 69 b6 3d bb 16 59 3d 4f d6 bd bd b3 cf 1c bc
       0.089068204 0.053000193 -0.09269392 -0.009571004
000150 77 c9 6e 3c a2 88 3e 3d f3 46 02 bd 16 16 59 bd
       0.0145744 0.046517022 -0.031805944 -0.05299958
000160 13 58 51 bd b6 44 2f 3d 9b 49 ca bd 50 50 ac bd
       -0.051109385 0.042790137 -0.098773204 -0.08413756
000170 c8 44 03 3d e4 0e c0 bc 04 b0 80 bd d3 a0 b8 bd
       0.032048017 -0.0234446 -0.06283572 -0.0901505
000180 45 ac 37 bd fe e3 f4 3c 17 d0 a7 3d 53 10 b3 bd
       -0.044842023 0.029893871 0.08193987 -0.08743348

weight f4 [100, 100]
000000 90 70 01 bd fb 43 e9 3d fb 31 40 3a 6e 27 f9 bc
       -0.03160149 0.11389919 0.00073316664 -0.03041431
000010 f8 dd b1 bc 89 f3 39 3e a9 f9 8f 3c 12 1f e7 3d
       -0.021712288 0.18159308 0.017575102 0.11285223
000020 1e e6 00 3d c3 a6 cf bc ef 32 23 3d 10 5b 90 bd
       0.031469457 -0.025348073 0.039843496 -0.07048619
000030 ec df cc 3d d6 06 c1 bd 6b 74 b6 bc 48 26 09 3e
       0.10003647 -0.09425132 -0.02227231 0.1339351
000040 ed 33 17 be ef e1 eb 3d 93 03 46 3d 76 fe aa 3d
       -0.14765902 0.11517703 0.048343252 0.08349316
000050 24 a1 b7 3c fa 99 3b 3d d5 dc 19 bd e7 a6 e7 3c
       0.022415705 0.04580114 -0.037564117 0.028277827
000060 05 5e fc bc ee 65 7c 3d 0c 31 bf bd b5 97 1e 3d
       -0.03080655 0.061620645 -0.09335527 0.038718898
000070 be a9 bb bd 63 18 03 3d 99 b8 c3 bd 63 6c 3a bd
       -0.09163235 0.03200568 -0.095566936 -0.045513522
000080 a8 b2 ec bd 3c b1 d5 3d 16 1d 26 bd 65 9c f7 3b
       -0.115575135 0.104341954 -0.040555082 0.0075564855
000090 66 94 f5 3d 22 3b 78 3b ab 1b e1 bd 63 98 03 3e
       0.119911954 0.0037877043 -0.10991605 0.128511
0000a0 ed 3a e2 3d 76 d7 f5 bd 16 92 17 3d df 17 7e bd
       0.110463955 -0.120039865 0.037004553 -0.062034484
0000b0 ba a6 d2 3c e5 0a 54 3e 34 75 12 be 52 ec cb 3c
       0.025714267 0.20707281 -0.14302522 0.02489296
0000c0 5e 3f 34 bd ed e5 18 3d a9 9d 62 bd 89 e3 fd 3c
       -0.044005744 0.03732865 -0.055326138 0.030992286
0000d0 11 eb ce bd 24 39 46 be 2a 8c 74 bd 25 b1 cb 3a
       -0.10103429 -0.19357735 -0.059703983 0.0015540464
0000e0 af 9e 0d 3e 02 cd ed 3c 98 0d b6 bd 3b fb d7 bc
       0.13830064 0.02902842 -0.088893116 -0.026364913
0000f0 42 c0 5f 3d a6 2f ab 3d 2c 76 01 be 81 a8 44 3c
       0.05462671 0.083586976 -0.12642735 0.012003065
000100 fd 32 14 3c 24 68 4f 3e 0c 65 aa bd bc 60 c8 bd
       0.00904536 0.2025457 -0.083200544 -0.097840756
000110 91 2e 0e bd 36 05 3b 3d fe 9d 72 3e df 62 97 3d
       -0.034712378 0.045659266 0.23693082 0.07391905
000120 27 30 ee 3c 5c 2d 7d bd af 1b 90 bd 10 27 b3 bd
       0.029075695 -0.061810836 -0.0703653 -0.08747685
000130 51 0e c7 3d 55 95 8a 3d d8 e8 1c bd 06 a3 38 3d
       0.097195275 0.06766764 -0.038307995 0.045077346
000140 e1 4b 83 3d 26 62 f5 3d ab ba d3 bc 58 de cf 3d
       0.06410957 0.11981611 -0.025845846 0.101498306
000150 43 c1 95 bd 9d 5e bd 3c c7 ec a9 bc 90 bd 05 bd
       -0.07312252 0.023116404 -0.020742787 -0.032651484
000160 4e c5 33 bd 1f 92 40 bc 9c da 1b be 9d ed ec bd
       -0.043889336 -0.011753588 -0.15220112 -0.11568759
000170 2f 03 10 3e 15 f2 08 3e cb 11 36 be 02 d9 0d 3e
       0.14063714 0.13373597 -0.17780225 0.13852313
000180 1d 62 bd 3d a3 91 0b 3e 3e e0 2a bd 91 27 ed bd
       0.09247229 0.13629775 -0.04171776 -0.11579812
000190 1c e6 b7 3d b1 fc 1e be 25 98 1a bb 3f a1 af bc
       0.08979437 -0.15526082 -0.002358922 -0.021439193
0001a0 68 b1 b7 3d 26 a6 43 bd e2 1d 21 3d 78 fe 91 bd
       0.089693844 -0.047765873 0.03933514 -0.07128614
0001b0 6f 5b b8 3d 63 21 5b 3e 6d 78 f6 bd 2e 91 10 3d
       0.090018146 0.21399455 -0.12034688 0.035294704
0001c0 0f e2 36 3d 24 e9 83 bd ef e0 82 be d7 3b 80 bd
       0.04464918 -0.064409524 -0.25562236 -0.062614135
0001d0 9c b7 a3 bd fd e0 a8 bd fa d6 4a be ca 5c 37 3e
       -0.07994005 -0.08246038 -0.1980857 0.1790649
0001e0 c6 01 36 3d 68 1e 4b be 6e f9 d1 3d c5 91 e2 bd
       0.044435285 -0.19835818 0.10252653 -0.110629596
0001f0 f5 ff 39 bd 29 f4 a0 bc 05 77 11 3e e3 5e 1d bc
       -0.045410115 -0.019647675 0.14205559 -0.009605142
000200 ec e7 38 bd 38 18 35 be d0 ea 6d bd c5 f5 4b be
       -0.045143053 -0.1768502 -0.058085263 -0.19917972
000210 81 c2 bd 3d 3c 4d 27 be 94 c8 cf 3c fd 08 b4 3d
       0.09265614 -0.16338056 0.025364198 0.08790777
000220 3b 80 19 be d6 4e d3 3c 42 55 76 3d 61 57 cf 3d
       -0.14990322 0.025794428 0.060139902 0.10124088
000230 9a 22 88 3c 4c 15 af 3d 14 dd 00 bd ac e5 97 3c
       0.016618062 0.08548984 -0.031460837 0.018542133
000240 57 3e a3 3c 6d 69 94 bd 99 3b 09 3e 9c 9a c7 bd
       0.019927187 -0.07246671 0.13401641 -0.09746286
000250 0a 84 b7 bd 8f 5a 4d be ad 1a 89 3d 10 d4 2b 3d
       -0.08960731 -0.20054077 0.06694541 0.041950285
000260 6c 33 8d 3e c0 b9 4d bd 8f c6 83 3d 7a da 36 3d
       0.27578294 -0.050225973 0.064343564 0.04464195
000270 98 9c eb bd b8 2d 2f 3d cb 98 76 3d 8a 03 85 bd
       -0.11504477 0.04276821 0.06020431 -0.06494816
000280 7c 57 31 3d a7 b1 75 be 3e f9 29 be 47 e3 a3 3d
       0.043296322 -0.2399355 -0.16598985 0.08002334
000290 48 8c 5a 3d 14 79 3b 3c 64 d0 c4 bd b1 4d a8 3c
       0.05335644 0.0114424415 -0.0961006 0.020544859
0002a0 fe de cf bd 79 3f 6d 3d d9 34 3f bd f9 6a e3 bd
       -0.10149954 0.05792186 -0.04668126 -0.11104388
0002b0 64 c2 79 bc 8b 81 92 3c 8b 21 07 3e 28 e7 3b 3d
       -0.0152441 0.017884037 0.1319639 0.045874745
0002c0 d2 56 aa bb 54 5b 84 3d 16 11 8b bd 13 7a 83 bd
       -0.005198338 0.06462732 -0.06790368 -0.06419768
0002d0 6f 3e 98 bd 8f d9 06 3e 10 0c c5 bd 3e d7 29 bd
       -0.07433783 0.1316893 -0.09621441 -0.041465037
0002e0 7f 03 30 3c 2a 79 16 3e 30 32 70 3c d7 a3 aa 3c
       0.010743021 0.14694658 0.014660403 0.020830078
0002f0 5f 03 8b 3d a5 60 0d 3d a4 36 53 be 83 8b 8e bd
       0.06787752 0.034515996 -0.20626312 -0.069602035
000300 55 25 21 3e 8d 8d 1b be 33 48 63 bc 1a d6 8e 3c
       0.15736897 -0.15190716 -0.013872194 0.017436076
000310 5c 97 a2 3c 6d 06 26 3e 10 0a ab bd ec f3 4a be
       0.019847564 0.16213389 -0.08351529 -0.19819611
000320 02 13 8a bd 5f 0a 7d 3d af 01 db 3c 97 3d a5 bc
       -0.06741907 0.06177747 0.026734201 -0.02017097
000330 e9 f4 e3 bd b6 b8 88 3d ae bd 74 3d b2 b5 09 3d
       -0.11130697 0.06675856 0.059751205 0.033620544
000340 ea 9e c3 bc 6d 35 ad 3c 51 0c 95 3d 53 cd cf bc
       -0.023879487 0.02114364 0.0727774 -0.02536646
000350 9a 9b 08 be 53 c7 68 bc a3 8e 35 bd ca cb 8b 3c
       -0.13340607 -0.014207679 -0.044325482 0.017064948
000360 ad 10 a2 3d 5e 41 e0 3d 9f ed 01 be 68 8b 25 bd
       0.07913337 0.10949968 -0.12688302 -0.04041615
000370 99 84 06 3d f3 75 0d 3d 0d 01 95 3d b4 23 ff 3d
       0.0328413 0.034536313 0.07275591 0.12457982
000380 b8 09 e7 bd 7a e6 59 3d 44 bd d5 3c b1 2c 89 3d
       -0.112811506 0.053198315 0.026091225 0.06697977
000390 65 6a cf 3d ea cd 4c b9 dd 8d 86 3d 7e fb 58 3d
       0.10127715 -0.00019531665 0.06570027 0.052974217
0003a0 b3 02 97 bc a6 e8 c8 3d c7 1a a2 3d a3 02 1c 3e
       -0.018433904 0.09809999 0.079152636 0.15235381
0003b0 12 b3 3e bd 22 cf 8c bd b0 77 08 be c1 6c e0 3c
       -0.046557494 -0.06875445 -0.13326907 0.027395608
0003c0 6d c5 81 3d 45 c1 ec ba d6 cc be bc 4e 58 bd bd
       0.06336484 -0.001806297 -0.023291033 -0.092453584
0003d0 51 90 f3 bc 8c 0c 0c 3e 1f 31 46 3d 0a cf ea bd
       -0.029731901 0.13676661 0.04838669 -0.11465271
0003e0 b7 3e a6 bd d8 f4 97 3d 65 40 44 3c 3a d4 b9 3d
       -0.08117431 0.07419747 0.0119782435 0.09073682
0003f0 01 74 af 3c 9f 34 3c be 91 2c cc bb a9 db f3 3d
       0.02141762 -0.18379448 -0.0062308987 0.11907131

bias f4 [100]
000000 80 8b 61 3d 13 a0 aa bd 01 eb 1b 3d 2b 04 6a 3b
       0.05506468 -0.08331313 0.038065914 0.003570805
000010 90 c9 2a 3d f4 e1 80 bc d3 a4 16 bd 8d 71 fd 3d
       0.04169613 -0.015732743 -0.036778282 0.12375174
000020 1a 94 01 3d 5e c9 aa bd 1d b5 43 bd 31 dd 8f 3d
       0.03163538 -0.08339189 -0.047780145 0.07024611
000030 36 8e 32 bc ca 3f 58 3d fe e0 71 bd 47 31 08 3d
       -0.010898164 0.05279521 -0.05905246 0.03325012
000040 7b 0b 2e bd 79 d9 88 bd fe 01 f9 bd cd 15 9b 3c
       -0.042491417 -0.066821046 -0.12158583 0.018931294
000050 09 97 57 bd b4 ca 95 3d 48 85 a8 3c c0 9b 88 bc
       -0.052634273 0.07314053 0.020571366 -0.01667583
000060 19 d3 6a 3d e4 92 6c 3d a8 7f ae bd 95 bc 0d be
       0.057330225 0.057757273 -0.08520442 -0.1384147
000070 fb 3f a5 3d b4 ae 0e 3d 18 a9 32 bd 6e 7b 17 be
       0.08068844 0.03483458 -0.04361829 -0.14793178
000080 b4 ab cd bc f2 c6 c0 bd 20 98 ab 3d 74 5c 6b 3d
       -0.025106288 -0.09412946 0.08378625 0.057461217
000090 79 9a 1e bd be 57 3e 3c e2 e6 2b bd 8b 28 fe bc
       -0.038721535 0.011617599 -0.041968234 -0.031025192
0000a0 e5 45 6f bd 00 af c1 3d 06 c9 7e bc c6 5d bc 3d
       -0.058416266 0.09457207 -0.015550857 0.09197573
0000b0 0e e7 bb bb 82 2e 0b 3e b9 68 c2 bc ed 3d d3 3c
       -0.005734331 0.1359196 -0.023731576 0.025786364
0000c0 d6 5c ae ba 9e bd 06 3c a3 93 bc 3b 65 07 5e 3d
       -0.0013302814 0.008223919 0.0057549044 0.05420627
0000d0 31 35 1e 3d 32 c1 b7 bd f8 4f 03 3d 96 de 69 bd
       0.038624946 -0.08972396 0.032058686 -0.05709704
0000e0 27 e5 c9 3c 52 44 b7 bd 9b e6 c7 bc 54 d9 e7 3c
       0.024645401 -0.08948578 -0.024401953 0.028301872
0000f0 d4 0f 5f 3d f7 97 2a 3d 36 45 b1 bd 57 25 7c bd
       0.054458454 0.04164883 -0.08655779 -0.061559048
000100 3c fd f0 bc 95 c4 80 3d 66 82 1c 3c 26 68 3a 3d
       -0.029417627 0.06287495 0.009552574 0.04550948
000110 67 37 3a 3c 9f 6c c6 3c 54 94 05 bd cb 38 bc 3d
       0.011365748 0.024221716 -0.03261216 0.0919052
000120 0c 2b da bd bb 9f 86 bd 1b 30 f8 bc db 55 1b 3b
       -0.10652742 -0.06573435 -0.030296376 0.0023702297
000130 72 1b ec ba 40 71 1e bd c7 cd 2f bd 8e f2 b9 bc
       -0.001801355 -0.038682222 -0.042920854 -0.022698667
000140 51 76 ab bb 3c f5 94 bd 7f 66 6d 3d b2 27 9b 3c
       -0.0052326103 -0.07273337 0.057959076 0.018939827
000150 09 11 d1 bd e7 4e 3d 3d 8c ba 71 bc e1 83 17 3d
       -0.10208327 0.046217825 -0.014753949 0.036991004
000160 fe 20 c7 bd 10 0e c9 bd d4 71 f3 3c ac 70 60 bd
       -0.0972309 -0.09817135 0.029717363 -0.054794952
000170 2b 49 c6 3d 2d 03 f8 bc 57 a6 9b bd a3 e3 68 3c
       0.096819244 -0.030274952 -0.07600086 0.014214429
000180 29 62 d3 3d 4e 10 2c 3c 27 d8 fa 3c 7f f5 d7 3c
       0.10321457 0.010501934 0.030620648 0.026362179

weight f4 [100, 100]
000000 5c 88 cd bc 40 a0 22 3d 16 86 0f bd c5 24 ba 3d
       -0.025089435 0.039703608 -0.035039984 0.090890445
000010 a2 3d 54 3c b1 f1 ab bd 31 11 a9 3d 8b ae 8f 3d
       0.0129541475 -0.08395708 0.08255232 0.07015713
000020 55 c5 13 3d 72 5d be bd 29 74 e7 bc eb 07 e2 bc
       0.036076862 -0.09295167 -0.028253632 -0.027591666
000030 eb e9 40 bc 19 1d 2d 3d 9a c7 45 3c c3 ea e8 bd
       -0.01177452 0.042264078 0.0120715145 -0.11372902
000040 c3 15 e0 bb 34 18 96 bb e0 a4 28 3d 9d 83 cf bb
       -0.0068385317 -0.004580522 0.041172862 -0.006332828
000050 b7 b9 de 3d 1e 89 97 3d 04 d4 22 bc 61 a9 78 3c
       0.10875266 0.073992 -0.009938244 0.015177102
000060 da 14 76 bd 77 05 43 3c 96 1d ec 3d 25 59 32 3d
       -0.06007848 0.011903158 0.115290806 0.043542046
000070 2a ef 0e be 7d c1 00 3d f1 ac 96 bc 7b 3a c9 bc
       -0.13958421 0.031434525 -0.018393012 -0.024564018
000080 77 82 28 bb 1b 70 1f 3d 3c a8 22 3c 7d f5 0d be
       -0.0025712529 0.03892527 0.0099278055 -0.13863178
000090 a5 ed 86 3d ac 85 2a 3e 6d 7a a6 bc de 82 ef bd
       0.06588296 0.16652554 -0.020322049 -0.11694883
0000a0 c9 53 e2 bd 63 74 45 3c e1 b0 d8 3a b4 4e d5 3c
       -0.11051137 0.012051675 0.0016532206 0.026038505
0000b0 68 d2 8b 3d 55 8a 5c bd 01 1b b9 3c 86 50 a4 bd
       0.06827241 -0.05384286 0.022595884 -0.08023171
0000c0 94 b2 00 3c da c5 0f bd d8 3c 50 bd 4a 7e fa 3d
       0.007855076 -0.035100795 -0.050839275 0.12231119
0000d0 d1 b5 07 3e 0d 91 38 3d f3 87 13 3d 82 39 37 3e
       0.13252951 0.045060206 0.036018323 0.17893031
0000e0 08 46 4a bb e3 40 3a 3c 94 9e d1 bc 70 40 0d 3b
       -0.0030864496 0.011368009 -0.025588311 0.00215533
0000f0 71 27 dd 3b 92 cb 54 3d 06 73 c3 3d 67 d3 86 bd
       0.0067490865 0.051951952 0.09543423 -0.065832905
000100 b0 e1 0b be 98 2f a7 3d 38 33 7c 3b 53 60 80 bd
       -0.13660312 0.08163375 0.0038482677 -0.062683724
000110 79 d1 34 bd 3c f1 99 bd 4a 67 27 3b be e6 60 bd
       -0.04414508 -0.07516715 0.0025543743 -0.054907553
000120 e0 35 b3 bd f7 65 e6 3c ae 0f 8d 3c fb 76 8c 3d
       -0.0875051 0.028124793 0.01721939 0.06858631
000130 d4 1e 5b bd 48 b1 f9 3d c5 15 12 3e 0d 89 94 bd
       -0.053496197 0.12192017 0.14266117 -0.07252703
000140 8a f9 58 3a dc 37 3d bd e0 98 06 be 22 6d bb 3d
       0.00082769303 -0.04619585 -0.13144255 0.09151675
000150 aa 90 31 3e 2b dd ed bd 12 ec 80 bd 60 de f0 3d
       0.17340341 -0.1161445 -0.06295027 0.11761165
000160 c3 87 2e 3e d8 3c 20 3d ae d0 88 3b d3 3c 0e be
       0.17043976 0.039120525 0.004175267 -0.1389039
000170 c8 5b 01 be 8f 69 6c 3d c8 c5 0e 3c 44 33 c0 bd
       -0.12632668 0.057717856 0.008714147 -0.09384778
000180 b1 47 38 bd 0a 05 23 be 90 3c cf 3d d0 24 f7 bb
       -0.044990245 -0.15919891 0.10118973 -0.00754223
000190 5e ff da 3d e7 8d 85 bd 35 f7 d5 bd ee 08 01 be
       0.10693239 -0.06521206 -0.104475416 -0.12601063
0001a0 b0 b4 d7 bd bc 49 20 bd e1 9d 0f bd 94 b7 aa bc
       -0.1053251 -0.03913282 -0.035062674 -0.02083949
0001b0 f0 6c f6 bd d5 ce a6 bd 35 f4 ea bd 5f 35 14 be
       -0.12032497 -0.08144919 -0.1147236 -0.14473484
0001c0 32 52 60 bd 28 a0 c9 bd 51 37 76 bd 21 81 6f 3d
       -0.054765888 -0.098450005 -0.060111348 0.058472756
0001d0 33 25 3b bd d6 0f 54 3e c5 10 64 bd 23 c2 2a 3d
       -0.045689773 0.20709166 -0.055680055 0.04168905
0001e0 6e 75 8a bd d1 06 54 3d 2e d2 fc bd 75 a0 8b bd
       -0.06760679 0.051764313 -0.12344776 -0.06817714
0001f0 a2 68 ea 3c 01 23 12 bd 46 9f a9 3d 64 9a 62 be
       0.028614346 -0.035677914 0.08282332 -0.22129208
000200 bd 7f 9b bb 00 b6 99 3d dc 18 1d bd cc ac e5 bc
       -0.004745452 0.07505417 -0.038353786 -0.028036498
000210 a2 d4 ae 3d a2 60 d1 bd b6 70 23 3d a4 8d 34 bd
       0.0853665 -0.10223509 0.03990241 -0.04408039
000220 f7 69 ea bd dd 0a ac 3d 3a 55 1c 3c 39 b1 98 3d
       -0.114459924 0.084005095 0.009541804 0.074556775
000230 5d 00 de 3d 4f 9c 1c 3c 6f 9f 9f 3d 15 bf 8b 3d
       0.10839913 0.009558751 0.077940814 0.068235554
000240 ce aa 7f 3d 4e 4e f1 3d d3 95 7d bc 7b f5 0f 3c
       0.06241875 0.117825136 -0.015477615 0.008786554
000250 63 11 af bc ad c2 a4 bd 8e e8 fc 3c de 4e c3 3a
       -0.021370595 -0.08044944 0.03087261 0.0014900824
000260 aa 90 c2 3c 2e 9e 0b 3d 56 09 88 bc c1 2e b1 3d
       0.023750622 0.0340864 -0.016606014 0.08651496
000270 72 22 28 bc 95 65 b3 3d 0a 4e 1f bd bf 39 3f bd
       -0.010262119 0.087596096 -0.038892783 -0.04668593
000280 a9 82 fa 3d 04 10 73 bd 93 32 aa bd 46 6e 77 3d
       0.12231953 -0.059341446 -0.083104275 0.0604079
000290 77 22 cd bd 5c ab 0d 3e ed 1a e3 3d 81 16 73 bc
       -0.10016339 0.138349 0.1108912 -0.014836908
0002a0 a5 65 85 bd 9a 62 9d 3d 78 57 c2 bc 6d a0 94 3d
       -0.06513528 0.076848224 -0.023723349 0.07257161
0002b0 67 ef 4b bc d7 b2 69 3d ff 9f 0f 3e e1 45 89 3d
       -0.012447215 0.05705532 0.14025877 0.067027815
0002c0 f4 de 5c bd 5e 5b 3a 3d 1d a4 b2 3c c1 fa e6 3d
       -0.053923562 0.04549729 0.021806771 0.11278296
0002d0 c5 33 14 bd 82 d6 3b bd a5 79 04 be 38 18 38 bc
       -0.036182184 -0.045858867 -0.12937029 -0.011236243
0002e0 70 33 de bd 2d eb 71 bd a5 1b ee bd dd 4d 06 3e
       -0.10849655 -0.05906217 -0.116263665 0.1311564
0002f0 41 ed 8e bc 09 9c 26 3d 79 4b 31 3d 81 ec 4a 3d
       -0.017447116 0.04067615 0.043284867 0.049541954
000300 4f 0e a9 3c f1 67 88 3d d7 9f c6 bd dc 76 42 3d
       0.020636706 0.0666045 -0.09698456 0.047476634
000310 72 c1 03 bc 0b 47 cb 3d 62 3b b0 bd f7 1d f8 bd
       -0.008041726 0.0992566 -0.086050764 -0.1211509
000320 20 fe 4a bd c4 18 e7 bd 66 a4 b5 bc e7 a5 9d bd
       -0.04955876 -0.112840205 -0.022173118 -0.07697659
000330 48 fa 33 bd 7e 1d 78 bb 0c b4 3e 3c d4 5e 4a bd
       -0.04393986 -0.0037859376 0.011639606 -0.04940684
000340 f3 83 87 bd 2e a5 af bb 50 62 85 3d 55 b0 28 ba
       -0.06616964 -0.005360267 0.06512892 -0.0006434967
000350 4c a4 1e 3c 28 77 ad 3d 9f cc d0 bd a3 eb 0c 3d
       0.009682726 0.08469993 -0.101952784 0.03440441
000360 16 30 0a 3d 35 42 3b 3e a7 0a 5b bd 16 9a 26 3d
       0.033737265 0.18286975 -0.053476956 0.04067429
000370 dc 57 bc 3c 72 26 f7 b8 19 99 0c be fe e3 b1 3d
       0.022991113 -0.00011785039 -0.13730277 0.08686064
000380 26 87 e3 3d ba f5 f4 bd 82 51 e5 bd ab 25 31 3d
       0.11109762 -0.11960931 -0.11197187 0.043248814
000390 c8 a9 0d bd 2b 19 b4 bd ac a2 8e 3d 9b f1 03 bd
       -0.034585744 -0.08793863 0.06964621 -0.032212835
0003a0 5f c0 fa 3d 9b 54 12 3d 6f 0e a1 bd f1 e9 13 3e
       0.12243723 0.035725217 -0.07864081 0.1444471
0003b0 31 76 19 bd 21 8d fc bd 4f 13 32 3d 8f 29 69 3d
       -0.03746623 -0.12331606 0.043475445 0.0569244
0003c0 dd f9 80 3d aa 82 d8 3c 95 dc 99 bd 82 dc 2b bc
       0.06297658 0.026429493 -0.07512776 -0.010489585
0003d0 1c 8f 2f 3d ca e8 f4 bd e6 e2 2e 3d 90 6f a0 bd
       0.04286109 -0.119584635 0.042696856 -0.07833779
0003e0 7c e5 cb 3d 23 d5 fa 3c 7d 98 ed bd c0 a2 ce 3c
       0.0995588 0.03061921 -0.116013505 0.02522409
0003f0 2c 1d fc bd 0b 5c b7 bc 32 80 f5 bd 85 e5 84 3d
       -0.123102516 -0.022382757 -0.11987342 0.0648909

bias f4 [100]
000000 f7 79 10 be a6 c2 40 bc a1 6a 95 bd 2d b4 48 bd
       -0.14109026 -0.011765158 -0.072957285 -0.048999954
000010 21 d7 83 3d 5b d9 77 bd 95 23 0a bd df b6 75 bd
       0.06437517 -0.06051002 -0.03372534 -0.059988853
000020 f3 43 c4 bc d0 0a a4 3d e2 78 de bd 1e cd 92 3d
       -0.023958182 0.08009875 -0.108629 0.07168029
000030 1f ff e6 3d d4 2f 88 bd 53 e8 af 3c 0e 2a b1 3d
       0.11279129 -0.066497475 0.021473086 0.086505994
000040 a5 a4 55 3d b0 6d 88 bd 18 79 99 3d 78 51 d5 3c
       0.05215897 -0.06661546 0.074938 0.026039824
000050 1e fb a1 3d 75 a1 04 be a1 39 92 3c be 4b 38 3d
       0.07909225 -0.12952216 0.017849745 0.04499411
000060 03 13 72 3d b0 3e 3a bb c0 81 a1 3d 05 b7 83 3d
       0.059100162 -0.0028418712 0.07886076 0.064313926
000070 ea 4a 9a 3d ac 22 f5 bc f9 5e 8c 3d 66 ee 59 3d
       0.0753382 -0.02992376 0.06854052 0.05320587
000080 bf 62 19 3d 80 8c 3b bc e2 f0 e3 bd f1 4c 7c 3d
       0.037447687 -0.011447072 -0.11129929 0.061596815
000090 0d 7a e5 bd aa 7a 37 bd a7 e2 be 3c f9 ae 68 3d
       -0.1120492 -0.044794716 0.023301436 0.056807492
0000a0 15 45 a6 bd 64 ef a6 3d e3 77 73 bd 04 d5 6d 3c
       -0.08118645 0.08151129 -0.059440505 0.014516119
0000b0 42 12 aa bd bc 66 9f 3d cf 86 aa bd 2e b3 fd 3c
       -0.08304264 0.07783267 -0.08326494 0.030969229
0000c0 41 b4 30 3d 0d 9d 86 3d 96 ca ec bd 18 15 d1 bd
       0.043140654 0.06572924 -0.11562078 -0.102091014
0000d0 87 59 55 3d df b5 4d bc a0 1e a4 bd 31 1f 41 bd
       0.052087333 -0.0125555685 -0.08013654 -0.047148887
0000e0 e0 38 28 bd cb 26 80 3d a0 fe ba 3c 7b 87 db bd
       -0.041069865 0.06257399 0.022826493 -0.107192
0000f0 b7 8e ed bd af 7f b8 bb 72 d6 62 3c ef 46 10 bc
       -0.11599486 -0.0056304554 0.013845073 -0.008805974
000100 2a 34 b0 bc 4c ac 8e bd 40 10 ab bd ef 95 75 bd
       -0.021509249 -0.06966457 -0.08352709 -0.05995744
000110 6d 66 07 3e 6e 6c 47 bd 0c 57 47 3c a6 b9 dd 3d
       0.13222666 -0.04868739 0.01216675 0.10826425
000120 84 8a cd bc 42 90 46 3d c5 9a 2a 3d 78 a4 c2 3d
       -0.025090463 0.04847742 0.041651506 0.09504026
000130 66 da 5a 3d 47 ed fb 3d a9 9b 92 bd f0 ed 84 3d
       0.053430937 0.123011164 -0.07158596 0.064906955
000140 48 0d c4 bc e5 44 e5 3d 97 82 c9 bd 51 ac c0 bd
       -0.023932114 0.11194781 -0.09839361 -0.09407867
000150 53 7c c7 bd f2 1a 5e 3d a7 cf bd bc cb 2b 4e bd
       -0.0974051 0.054224916 -0.023170305 -0.050334733
000160 89 cb bf bd 48 a7 8b 3c 5d 54 3c 3b de d6 a3 3c
       -0.09364993 0.01704754 0.0028736808 0.019999918
000170 01 9e 3d 3d cd 98 7b 3d db 72 8a bd d9 8b a9 3d
       0.046293262 0.06142502 -0.06760188 0.08278627
000180 42 50 be bd 14 0b 5b 3d 19 61 bb 3d ba 59 20 bd
       -0.09292652 0.05347736 0.09149379 -0.03914807
