Beltrami/best_net_with_improved(all improvements).pth (torch, 596407 bytes, 24 tensors)

weight f4 [120, 4]
-0.09938017 0.013706831 -0.1294703 0.17930841 0.1039239 0.16563977 0.1539544 -0.16171065
-0.042237125 0.025784288 -0.018416164 0.25935128 0.14887305 0.07940911 -0.059493434 0.10035296
-0.13364771 0.14889519 -0.05949164 -0.219718 -0.083731934 0.014282514 0.021549324 0.17453364
0.09661969 0.05581099 0.0915926 -0.09931054 0.079949826 -0.1570527 -0.12638733 0.034838382
0.06258791 0.1316402 -0.14564186 0.012624603 -0.10891878 -0.08259991 0.12252864 0.18851963
0.043473072 -0.027345667 0.1534627 0.16474909 -0.19539247 -0.013741137 -0.16066042 -0.044387236
-0.075453356 0.142 0.10147979 0.025386637 -0.025770761 0.17599714 0.006986659 0.10580723
0.20687135 0.1593783 0.11765143 -0.14392994 -0.0030191382 0.03135222 0.07510943 0.16072428
-0.03232855 0.0024936057 -0.008077419 -0.11980546 -0.065820925 -0.21211793 -0.0334662 0.26825097
-0.1532115 -0.036133133 0.14371578 0.19327633 -0.02578449 0.045337394 -0.041551538 0.052181896
-0.05866421 0.111187965 -0.08973301 0.09826879 -0.20875198 0.17584634 0.05455641 -0.085143775
-0.0346608 0.09933133 0.077131234 -0.1562832 0.11228598 -0.036415864 -0.1606518 0.08704089
-0.18332459 0.1477176 -0.13414663 0.039892193 0.06437592 -0.06579477 0.18126503 -0.0033806125
-0.0072688134 0.11350823 -0.17534228 0.0870356 -0.14549845 -0.07264509 -0.0146886995 0.2553849
0.037981957 -0.029910961 0.08123545 0.13044338 -0.15094374 0.12836303 -0.052033804 0.05510219
0.14807934 -0.0025973131 0.052426603 -0.19641021 0.028364236 0.015809495 0.041694757 -0.19135167
0.010354564 0.13896595 0.15310478 -0.22450934 -0.05929305 0.024052717 0.015925251 -0.18592933
-0.017944504 -0.0030960608 -0.1061658 0.12436133 0.0008124949 0.1172486 -0.03124038 0.010801128
-0.00625634 -0.18758893 0.0034821082 -0.1980911 -0.050355066 0.14061978 0.09934661 0.21381456
0.11369904 0.1709253 -0.18640906 0.13538134 -0.20915724 0.13438873 0.10317617 -0.013762581
-0.17032473 0.18637815 -0.007890827 -0.15869749 -0.1339009 -0.14167891 -0.21845223 0.010919629
-0.042239387 -0.022629395 -0.013691123 -0.14538036 0.13295475 0.016580766 -0.13597044 0.22660185
0.17947443 0.111661635 -0.13748665 0.24351293 0.044258002 0.082234375 -0.051316325 0.176256
-0.0046936604 -0.020068077 -0.14296852 0.08763759 -0.06039716 0.05624719 -0.027543578 -0.009520243
-0.1360177 0.118056975 0.09491903 0.12384066 -0.019561568 -0.005166037 -0.026305556 0.12197128
-0.049700532 0.08470608 0.094335794 -0.28167236 0.07610357 -0.036741015 -0.08738596 0.14466742
-0.11556488 0.038192287 0.202121 -0.104378566 0.022413451 0.06525463 -0.07703754 0.06235829
0.1779874 0.18264061 0.026526406 -0.12621601 -0.055694584 0.14314735 0.11862509 0.22806168
-0.06663867 -0.013831729 0.17634398 0.085135676 0.09096864 0.04414895 0.053030998 -0.026766563
-0.14290725 0.122503266 0.100521065 0.08694883 -0.02663853 0.07085203 0.031937998 0.14091083
0.19214022 -0.14609785 -0.047701236 -0.17708883 -0.05794831 0.12185373 0.12853621 -0.09142545
-0.0091507975 -0.15368325 0.15974827 0.15700269 0.095596164 0.12623154 -0.16066352 -0.1406772
00000000: d587 cbbd 9e92 603c dd93 04be a09c 373e
00000010: 0ed6 d43d 799d 293e 39a6 1d3e 7a97 25be
00000020: d600 2dbd 9239 d33c 7fdd 96bc b1c9 843e
00000030: 2d72 183e 3ea1 a23d 63af 73bd da85 cd3d
00000040: f2da 08be fb77 183e 82ad 73bd c1fd 60be
00000050: a67b abbd 3501 6a3c 3588 b03c f2b8 323e
00000060: 8be0 c53d 119a 643d e794 bb3d 5363 cbbd
00000070: bcbc a33d 6cd2 20be ae6b 01be b1b2 0e3d
00000080: 172e 803d b0cc 063e 2423 15be 6cd7 4e3c
00000090: cf10 dfbd 242a a9bd 4cf0 fa3d 4a0b 413e
000000a0: d210 323d 0504 e0bc 5325 1d3e fcb3 283e
000000b0: f714 48be 8222 61bc 2a84 24be 64cf 35bd
000000c0: 4a87 9abd 7368 113e a3d4 cf3d a3f7 cf3c
000000d0: 341d d3bc 9838 343e 58f0 e43b 76b1 d83d
000000e0: 15d6 533e 1134 233e 3cf3 f03d 5f62 13be
000000f0: bcdc 45bb 2f6b 003d f9d2 993d e894 243e
00000100: f16a 04bd c36b 233b 2757 04bc 915c f5bd
00000110: 1fcd 86bd 7135 59be db13 09bd 3158 893e
00000120: 7ae3 1cbe 5600 14bd 3b2a 133e 3bea 453e
00000130: ff39 d3bc b4b3 393d f231 2abd afbc 553d
00000140: e249 70bd 84b6 e33d f1c5 b7bd 2641 c93d
00000150: 14c3 55be 1011 343e 8b76 5f3d dc5f aebd
00000160: 7cf8 0dbd 396e cb3d fbf6 9d3d b408 20be
00000170: 31f6 e53d cd28 15bd e881 24be 7e42 b23d
00000180: 71b9 3bbe 4843 173e bc5d 09be ff65 233d
00000190: 86d7 833d 69bf 86bd 8a9d 393e 448d 5dbb
000001a0: 3a2f eebb 0177 e83d ed8c 33be b83f b23d
000001b0: 8cfd 14be f3c6 94bd dfa8 70bc cfc1 823e
000001c0: f892 1b3d d507 f5bc c65e a63d f392 053e
000001d0: ff90 1abe 9971 033e 6621 55bd d5b2 613d
000001e0: 1ca2 173e af37 2abb 47bd 563d c21f 49be
000001f0: 1d5c e83c ea82 813c 1fc8 2a3d b1f1 43be
00000200: 30a6 293c 174d 0e3e 80c7 1c3e c7e5 65be
00000210: 45dd 72bd 340a c53c ac75 823c 4264 3ebe
00000220: 5a00 93bc 48e7 4abb 746d d9bd 27b1 fe3d
00000230: 9cfd 543a 0920 f03d d3eb ffbc 37f7 303c
00000240: fc01 cdbb 5017 40be 1534 643b 65d8 4abe
00000250: 1d41 4ebd a2fe 0f3e 3c76 cb3d 34f2 5a3e
00000260: 0bdb e83d 0b07 2f3e 04e2 3ebe 68a1 0a3e
00000270: 512d 56be 339d 093e 074e d33d 737c 61bc
00000280: 9b69 2ebe ead9 3e3e 8748 01bc 9881 22be
00000290: 511d 09be 4714 11be f1b1 5fbe 3ee8 323c
000002a0: 3503 2dbd 4861 b9bc bb50 60bc 97de 14be
000002b0: 4a25 083e 63d4 873c d63b 0bbe 510a 683e
000002c0: 25c8 373e dbae e43d 4dc9 0cbe 745b 793e
000002d0: e147 353d 7f6a a83d 1131 52bd 747c 343e
000002e0: 47cd 99bb cf65 a4bc 5766 12be 567b b33d
000002f0: 0363 77bd 7463 663d 12a3 e1bc cbfa 1bbc
00000300: 3948 0bbe dbc7 f13d e964 c23d 2ca0 fd3d
00000310: 953f a0bc dc47 a9bb c07e d7bc 14cc f93d
00000320: c992 4bbd 627a ad3d 2033 c13d 5c37 90be
00000330: 30dc 9b3d bf7d 16bd 69f7 b2bd b223 143e
00000340: 48ad ecbd 846f 1c3d cff8 4e3e 6ec4 d5bd
00000350: 6a9c b73c 38a4 853d dcc5 9dbd 686b 7f3d
00000360: 5442 363e 2406 3b3e e84d d93c c53e 01be
00000370: 0120 64bd 3895 123e b6f1 f23d 0089 693e
00000380: db79 88bd 7a9e 62bc 8493 343e 9d5b ae3d
00000390: c44d ba3d 88d5 343d 0837 593d 8d45 dbbc
000003a0: 4756 12be fee2 fa3d fddd cd3d 3a12 b23d
000003b0: 0c39 dabc de1a 913d 6bd1 023d ee4a 103e
000003c0: 68c0 443e ad9a 15be 5f62 43bd c656 35be
000003d0: 355b 6dbd 738e f93d ff9e 033e 443d bbbd
000003e0: 3aed 15bc 245f 1dbe 0d95 233e 50c5 203e
000003f0: ecc7 c33d d742 013e fa84 24be af0d 10be

bias f4 [120]
0.060908742 -0.014480429 0.038791444 0.010768053 -0.0073775165 0.057324816 -0.035650168 0.06801073
0.052475847 0.01527979 0.011312293 0.015225293 0.009636644 -0.058280084 -0.0021263522 0.020946905
0.016040264 0.042321496 -0.0049785795 0.0004921259 0.012887428 -0.07975664 -0.029812397 0.027856996
0.020166008 -0.05554412 -0.006147474 0.049573965 0.04221454 0.054569736 -0.033524342 -0.025906086
0.0072275596 -0.03434329 0.0526754 -0.04605035 -0.04411805 -0.09634406 -0.022406045 0.015171119
0.006350683 0.0033804434 0.02195276 0.023757871 0.036954403 -0.022400977 -0.0074523473 0.04180689
-0.02134338 0.014447559 -0.040943313 0.04828278 -0.018139761 0.033718303 -0.010878491 0.0011597299
0.059995808 -0.03286405 0.0510368 -0.018094253 0.035571814 0.046905734 0.0076481835 -0.064375676
0.021259796 0.08233539 0.03481853 -0.006416108 0.030067949 0.04182505 0.055064503 -0.020190721
-0.02571626 -0.008654119 0.06442165 0.02050591 0.06742058 -0.010714529 -0.03801474 -0.028413456
0.07562123 0.0001539614 0.024250722 0.01603407 0.034827657 0.017450009 -0.01382068 0.007273574
0.0028098954 -0.061026786 -0.01000793 -0.012209096 -0.044594213 0.06576508 0.04573781 0.0066158953
-0.0040197 0.013449537 -0.053950056 0.037421297 -0.0060236626 -0.015622839 0.06192889 0.044285037
-0.059918296 0.04963208 0.008682016 0.043255556 -0.010549993 0.024666399 -0.05042507 0.06346773
0.013951312 0.004142898 -0.040103946 0.06785872 -0.05527903 0.009269061 0.044723805 0.033913493
00000000: 727b 793d 523f 6dbc c7e3 1e3d 7d6c 303c
00000010: 18bf f1bb 6dcd 6a3d e905 12bd 3649 8b3d
00000020: eaf0 563d 1658 7a3c 3257 393c 8273 793c
00000030: 04e3 1d3c 19b7 6ebd 455a 0bbb d898 ab3c
00000040: df66 833c 4e59 2d3d 5a23 a3bb 0302 013a
00000050: ca25 533c 7357 a3bd 2139 f4bc 5b34 e43c
00000060: 2f33 a53c 3b82 63bd c070 c9bb 120e 4b3d
00000070: 27e9 2c3d 8484 5f3d d250 09bd 0039 d4bc
00000080: 2ad5 ec3b 8dab 0cbd 29c2 573d 4b9f 3cbd
00000090: 21b5 34bd 0950 c5bd e28c b7bc 4990 783c
000000a0: 6419 d03b 6e8a 5d3b 46d6 b33c de9f c23c
000000b0: 805d 173d 4182 b7bc d232 f4bb b43d 2b3d
000000c0: 50d8 aebc 74b5 6c3c 2db4 27bd 2ac4 453d
000000d0: d699 94bc 341c 0a3d b33b 32bc 1402 983a
000000e0: 2abe 753d 749c 06bd f70b 513d 663a 94bc
000000f0: c0b3 113d 3a20 403d 9d9d fa3b 65d7 83bd
00000100: 0629 ae3c 759f a83d e09d 0e3d 373e d2bb
00000110: 0f51 f63c be50 2b3d 518b 613d 0367 a5bc
00000120: e8aa d2bc 02ca 0dbc 7fef 833d 03fc a73c
00000130: cd13 8a3d fe8b 2fbc 58b5 1bbd 56c3 e8bc
00000140: 4edf 9a3d b370 2139 73a9 c63c e259 833c
00000150: 72a7 0e3d 52f3 8e3c 2270 62bc 2957 ee3b
00000160: 3926 383b 39f7 79bd 4df8 23bc a908 48bc
00000170: 6ca8 36bd d8af 863d 9257 3b3d 27ca d83b
00000180: b0b7 83bb 725b 5c3c bcfa 5cbd 1347 193d
00000190: 2562 c5bb f0f6 7fbc 26a9 7d3d 3a64 353d
000001a0: e36c 75bd 024b 4b3d 043f 0e3c bd2c 313d
000001b0: e1d9 2cbc 3011 ca3c 858a 4ebd 5ffb 813d
000001c0: 0b94 643c 26c1 873b 0944 24bd 83f9 8a3d
000001d0: 446c 62bd 42dd 173c 4f30 373d e0e8 0a3d

weight f4 [120, 120]
-0.023952935 -0.040914986 -0.18716374 -0.005910646 -0.064407736 0.09053668 -0.026804307 0.09894224
-0.10139383 -0.031832196 0.14304684 0.08715477 0.1364331 -0.04508507 0.09453356 -0.031338003
-0.08430468 -0.061164193 -0.17087014 -0.070255905 -0.13217399 0.14612351 -0.122123964 -0.10654727
-0.01830536 0.14124453 0.113523096 -0.18355434 -0.036077127 -0.09311296 0.11763357 0.11990194
-0.12847361 -0.119607784 -0.08799496 0.13657783 0.024988754 -0.11915213 -0.13906945 0.0014859169
-0.009430098 -0.1294048 0.07478953 -0.052808255 -0.124985255 -0.027865056 0.13434 -0.13004497
-0.06767576 -0.12567312 0.022417579 -0.033171512 0.057529256 -0.0329811 -0.10938513 0.00669048
-0.07352908 0.04713871 -0.027904283 -0.07978612 0.021090027 -0.030528134 -0.04243646 0.16928011
0.07932566 -0.020881511 0.05828747 -0.13043319 0.1312089 -0.010346466 -0.06529881 0.059106626
0.114233665 -0.09126403 -0.09711738 0.124890715 -0.117080696 -0.027994463 -0.0013346213 0.15844823
-0.032823727 -0.0112507865 0.14526597 0.08101268 0.02371626 -0.08591487 0.035309978 0.11026303
-0.06722821 0.018349135 0.14613466 0.053402483 -0.029553335 -0.11627161 0.010334336 -0.06477669
0.11557869 -0.045675524 -0.028705992 0.07308613 0.07502068 -0.086456254 0.013196294 -0.08890036
0.06765912 -0.08719109 0.016500538 -0.058790624 -0.039446663 0.015526252 -0.12555681 -0.02689874
0.10906854 -0.03780841 -0.09556492 -0.16069876 -0.06062719 0.029303566 -0.15484536 -0.05337938
0.10006529 0.080955245 0.15096699 0.09839315 -0.112727106 -0.073977515 -0.03940705 -0.11395347
-0.017144468 -0.0038371992 -0.0734144 -0.010915201 -0.016488384 -0.044251993 -0.023469381 -0.07587332
0.049084257 0.13112473 0.17052728 -0.0053704185 -0.05978088 0.15842648 -0.112050824 0.14219259
0.09902005 -0.11358708 0.04112433 -0.06935444 -0.057391834 -0.08161796 0.11083254 -0.11061084
0.09509241 -0.13246381 0.057702474 -0.015519847 -0.06424471 0.18265116 -0.046518855 -0.083111174
0.09825395 -0.040684126 0.006491554 0.038973436 0.0695004 0.020029549 -0.07487247 -0.036000993
0.05291579 -0.06733571 0.0854459 -0.13618067 0.09366199 0.03651779 0.10199791 -0.08039501
-0.084800415 -0.10678879 0.07643037 -0.005033893 -0.105634704 -0.12636031 0.044602897 -0.0732764
0.09419901 -0.11764481 0.0669003 -0.03825335 0.05867244 0.1387085 0.0024584269 -0.091398604
-0.03243007 -0.001594689 0.040414866 -0.15768923 -0.051949136 -0.07315698 -0.15207142 -0.16577
0.14554462 0.0418634 0.11881496 0.023664085 0.005100427 -0.11071196 0.13334486 -0.052102335
0.07992297 0.04009425 0.080155976 -0.114192516 -0.068366446 0.11068463 0.04095624 0.0014448664
-0.07257457 0.050302017 -0.14905548 -0.023970202 0.06933398 -0.01689778 -0.10550403 0.03972616
-0.098874666 0.014157777 0.101378635 0.08038825 -0.1264352 -0.08241817 -0.1519395 -0.09681072
0.10922193 -0.021814642 0.13340066 -0.06438339 0.06529526 0.1461325 -0.02279383 0.058608916
0.019707983 -0.07004155 -0.07422237 -0.15177578 -0.0013827696 0.15910476 0.089698054 0.16082104
0.019662587 -0.14208558 -0.04271402 0.09861877 -0.0061735087 0.12938383 0.09244225 -0.060853012
00000000: f238 c4bc 7996 27bd daa7 3fbe 18ae c1bb
00000010: 34e8 83bd 4b6b b93d b594 dbbc 3ba2 ca3d
00000020: 91a7 cfbd 7a62 02bd df7a 123e 337e b23d
00000030: 1eb5 0b3e 1fab 38bd d09a c13d 475c 00bd
00000040: efa7 acbd 4e87 7abd 95f8 2ebe 54e2 8fbd
00000050: 9e58 07be 67a1 153e 211c fabd 7535 dabd
00000060: 1ff5 95bc 68a2 103e cc7e e83d abf5 3bbe
00000070: 9cc5 13bd 02b2 bebd dfe9 f03d 268f f53d
00000080: 968e 03be edf4 f4bd b436 b4bd 0fdb 0b3e
00000090: 37b5 cc3c 0806 f4bd 3968 0ebe 19c3 c23a
000000a0: b380 1abc b182 04be 412b 993d 784d 58bd
000000b0: 45f8 ffbd 4245 e4bc 6d90 093e 822a 05be
000000c0: 9799 8abd 74b0 00be 12a5 b73c dade 07bd
000000d0: cca3 6b3d 3117 07bd 5005 e0bd d03b db3b
000000e0: 6a96 96bd 8514 413d 8697 e4bc e866 a3bd
000000f0: fec4 ac3c 2316 fabc dad1 2dbd c457 2d3e
00000100: 7e75 a23d b40f abbc d8be 6e3d 4790 05be
00000110: a05b 063e 3984 29bc 62bb 85bd ca19 723d
00000120: 57f3 e93d a3e8 babd 7ae5 c6bd b4c6 ff3d
00000130: 01c8 efbd a554 e5bc 76ee aeba 4140 223e
00000140: 2c72 06bd 3855 38bc 9ac0 143e fae9 a53d
00000150: 9a48 c23c 23f4 afbd 32a1 103d 95d1 e13d
00000160: f2ae 89bd ed50 963c 53a4 153e 90bc 5a3d
00000170: d619 f2bc cf1f eebd 5951 293c a4a9 84bd
00000180: 85b4 ec3d 4216 3bbd d428 ebbc 2eae 953d
00000190: 71a4 993d fa0f b1bd 4535 583c 6411 b6bd
000001a0: dd90 8a3d 3e91 b2bd 232c 873c 70ce 70bd
000001b0: d392 21bd d261 7e3c f791 00be bf5a dcbc
000001c0: 545f df3d fedc 1abd 8ab7 c3bd 378e 24be
000001d0: 3754 78bd 080e f03c c88f 1ebe 56a4 5abd
000001e0: 08ef cc3d ddcb a53d 1797 1a3e 5982 c93d
000001f0: 78dd e6bd 8681 97bd 4969 21bd 7060 e9bd
00000200: 8e72 8cbc 8579 7bbb 4a5a 96bd acd5 32bc
00000210: a612 87bc 9441 35bd dc42 c0bc 7963 9bbd
00000220: 930c 493d 9045 063e b49e 2e3e 56fa afbb
00000230: ccdc 74bd 8d3a 223e e77a e5bd ef9a 113e
00000240: 06cb ca3d 58a0 e8bd fc71 283d b309 8ebd
00000250: b313 6bbd 5127 a7bd 2cfc e23d f087 e2bd
00000260: cfbf c23d 98a4 07be 6e59 6c3d f546 7ebc
00000270: bb92 83bd e808 3b3e 8e8a 3ebd 3136 aabd
00000280: 5e39 c93d 66a4 26bd 1ab7 d43b 9ca2 1f3d
00000290: 3a56 8e3d 0215 a43c bd56 99bd c775 13bd
000002a0: 3abe 583d 4ee7 89bd 43fe ae3d f272 0bbe
000002b0: dbd1 bf3d ae93 153d 48e4 d03d 24a6 a4bd
000002c0: d7ab adbd 15b4 dabd 8787 9c3d 5bf3 a4bb
000002d0: 0257 d8bd 9964 01be 87b1 363d f011 96bd
000002e0: 69eb c03d c3ef f0bd 0603 893d 8baf 1cbd
000002f0: 8352 703d 9a09 0e3e 8f1d 213b 312f bbbd
00000300: 65d5 04bd e204 d1ba 0f8a 253d 4979 21be
00000310: 9ec8 54bd 54d3 95bd 9cb8 1bbe 9cbf 29be
00000320: a609 153e f578 2b3d 4255 f33d 2fdb c13c
00000330: 7c21 a73b f4bc e2bd 8e8b 083e 4269 55bd
00000340: a7ae a33d de39 243d d128 a43d c4dd e9bd
00000350: b503 8cbd a0ae e23d bbc1 273d ac61 bd3a
00000360: faa1 94bd 7d09 4e3d 00a2 18be 285d c4bc
00000370: f9fe 8d3d 376d 8abc 7f12 d8bd e6b7 223d
00000380: cd7e cabd 05f6 673c 9a9f cf3d 98a2 a43d
00000390: 3b78 01be dcca a8bd 0796 1bbe b344 c6bd
000003a0: bfaf df3d 9fb4 b2bc 2f9a 083e 70db 83bd
000003b0: 85b9 853d c2a3 153e 20ba babc e70f 703d
000003c0: a372 a13c f271 8fbd e601 98bd 1c6b 1bbe
000003d0: 0c3e b5ba 5cec 223e 9db3 b73d 45ae 243e
000003e0: 6f13 a13c e27e 11be e5f4 2ebd a3f8 c93d
000003f0: 254b cabb 327d 043e 5d52 bd3d 0241 79bd

bias f4 [120]
-0.04181738 -0.03831157 0.027351888 0.05458334 -0.053861115 0.040745962 0.030569958 -0.02938216
0.015573575 -0.037314318 0.050712004 -0.04109236 0.04209373 0.051818322 0.0049578515 -0.031192642
-0.07523715 0.04378585 0.014887966 -0.022397242 -0.015936717 0.08139729 0.046190728 0.002970849
0.0104913255 -0.015172373 0.032295715 -0.041004244 -0.05984627 -0.030449113 0.03145615 0.04063792
0.05803263 0.05153095 -0.045382883 -0.019372344 -0.022226358 -0.039015975 -0.052801095 0.070557214
0.04460157 -0.011783772 0.013967795 0.015722536 0.0051284144 0.039723847 -0.014763368 0.09935352
-0.024285346 -0.016833596 -0.016599871 -0.051376447 -0.0561008 -0.021823423 0.001865399 -0.004547774
0.047098227 -0.033322323 0.016120505 -0.008371347 0.04093702 -0.02790933 0.057569835 -0.037696626
0.03996294 -0.012008312 0.039177816 -0.099541 0.009973628 -0.045193758 0.04291683 0.010221072
0.022948584 -0.078829065 0.01574379 0.044234805 -0.0049813804 -0.0009674413 -0.039658256 -0.054286197
-0.022270141 -0.08293717 -0.0024920867 0.05813313 -0.03883132 0.024405038 -0.056497898 0.025327852
-0.00920353 0.03826431 0.062591866 -0.032959122 0.023970848 -0.03442739 0.054583468 0.02174032
-0.005630876 -0.030807791 -0.011218489 0.0061391415 0.03506591 0.008977116 -0.085749134 -0.072032556
0.03751556 0.0044304496 -0.0066498257 0.032980926 -0.043248408 -0.050648574 0.0039015813 -0.018194912
0.022086635 0.052046046 0.0010132195 0.03171532 0.019584877 -0.017728588 0.03755509 0.028969541
00000000: b348 2bbd 98ec 1cbd 1111 e03c c892 5f3d
00000010: 799d 5cbd 3de5 263d d96d fa3c dbb2 f0bc
00000020: 4f28 7f3c e6d6 18bd 64b7 4f3d 7650 28bd
00000030: 7a6a 2c3d 733f 543d 7975 a23b b687 ffbc
00000040: ef15 9abd cb58 333d a8ec 733c 6c7a b7bc
00000050: b88d 82bc 9fb3 a63d 7d32 3d3d 93b2 423b
00000060: cfe3 2b3c 8b95 78bc 8348 043d 11f4 27bd
00000070: 5d21 75bd 6b70 f9bc 2ad8 003d f373 263d
00000080: 9fb3 6d3d 1e12 533d 67e3 39bd c0b2 9ebc
00000090: 0d14 b6bc 37cf 1fbd f645 58bd 4d80 903d
000000a0: 23b0 363d b910 41bc 2ed9 643c 8ccc 803c
000000b0: 420c a83b 79b5 223d 0ee2 71bc dc79 cb3d
000000c0: 10f2 c6bc 9ce6 89bc 74fc 87bc 1c70 52bd
000000d0: f4c9 65bd 09c7 b2bc 6780 f43a 7e05 95bb
000000e0: 12ea 403d fd7c 08bd 260f 843c f927 09bc
000000f0: 94ad 273d 1ba2 e4bc 59ce 6b3d c767 1abd
00000100: 2eb0 233d 83be 44bc eb78 203d 27dc cbbd
00000110: 6e68 233c 171d 39bd 8fc9 2f3d 4876 273c
00000120: abfe bb3c 2271 a1bd 1ff9 803c 8e2f 353d
00000130: d93a a3bb e39b 7dba b270 22bd 345b 5ebd
00000140: df6f b6bc f7da a9bd 4752 23bb 011d 6e3d
00000150: 970d 1fbd 13ed c73c 576a 67bd 5b7c cf3c
00000160: 67ca 16bc 0abb 1c3d 2a30 803d 2500 07bd
00000170: 835e c43c bc03 0dbd ea92 5f3d c118 b23c
00000180: 3683 b8bb 9f60 fcbc c1cd 37bc da2a c93b
00000190: 46a1 0f3d c114 133c 3e9d afbd ce85 93bd
000001a0: eaa9 193d 4e2d 913b c8e6 d9bb 0217 073d
000001b0: 3e25 31bd e174 4fbd acb1 7f3b 7f0d 95bc
000001c0: 08ef b43c 3c2e 553d 01ce 843a ece7 013d
000001d0: 7770 a03c 8b3b 91bc 5ed3 193d 8851 ed3c

weight f4 [120, 120]
-0.13992596 0.032343328 0.10408398 0.16465247 0.024052931 -0.0774972 -0.10951105 0.16023733
0.06782 0.09753594 -0.060761202 0.005437276 0.05809259 -0.0027211842 0.13128836 0.036883134
0.16459776 -0.03200378 -0.013696866 -0.061703637 -0.037190918 0.0006201428 0.103425525 -0.10320353
-0.12511826 -0.045489058 0.0011912712 0.069363 -0.09924829 -0.026427938 0.015368384 0.058084797
0.040089823 -0.106044985 -0.15384077 -0.09577327 0.088084936 -0.14666004 0.038454257 -0.015638912
-0.084239624 0.015488041 0.1462379 -0.009396309 0.07997295 0.0797128 -0.10041261 0.07105902
0.09814831 -0.0637615 0.04969315 0.04641332 0.016405933 -0.053467482 -0.036607772 -0.11949899
0.024592469 0.14425944 5.2072217e-05 -0.0731576 -0.05268695 0.13428077 0.15172459 -0.14282495
-0.02430923 -0.08970758 -0.0011497168 0.143475 -0.074398406 0.08004489 -0.13794598 0.017315656
0.087313846 0.06091726 0.10918456 -0.15787484 0.18014437 0.049417652 -0.069845095 0.045523964
0.12679826 0.06569146 0.03134152 0.04841528 0.051139794 0.13118546 -0.033329513 -0.04180782
-0.022560377 -0.102992766 0.13639206 -0.016248282 0.005602728 -0.042670947 0.042389464 -0.012758422
-0.004282122 0.14118996 0.051451825 0.10054648 -0.08497837 0.07859355 -0.15434194 0.03143648
-0.10858573 -0.003806691 -0.08432332 0.09716649 -0.006103298 0.07932763 0.14487371 0.07744252
0.037631944 -0.047132466 0.014091246 0.030117292 0.04469425 0.14618386 -0.07942478 0.06809367
-0.10143578 0.043357704 0.13246673 0.10256409 -0.18365845 0.13220003 0.13365954 0.21275748
-0.052571937 -0.10499437 -0.17059098 -0.14666587 0.09414341 0.01865759 -0.19077408 0.048822388
0.13020475 -0.15219055 -0.03344895 0.15136616 0.005576574 0.07283055 -0.13097829 -0.13005036
0.08808172 -0.040760435 -0.09851701 0.13316378 -0.0076585747 -0.063657835 0.005692647 0.08377687
0.05452329 -0.048074972 -0.087838754 0.000363719 -0.031915933 -0.0357158 0.03899733 -0.14360784
-0.16209541 -0.051424164 0.09115823 0.04195879 -0.00695259 0.07512263 0.09157632 0.07082798
-0.023784969 -0.05168977 -0.072886385 0.021332549 0.20118944 -0.08968859 0.007923628 0.068208344
0.030984005 -0.09927731 -0.15092157 -0.1331177 0.17369616 -0.08330777 -0.15653796 -0.011591169
-0.13441963 -0.037106838 0.054629784 0.0023724935 0.05886589 -0.118621625 0.04822884 0.08109848
0.0150880795 0.13408846 0.09159482 0.1262294 -0.038821984 -0.05853102 0.025417777 0.0349329
-0.024147505 0.033430688 0.17352085 0.0692112 -0.10203268 0.16449074 0.04531312 -0.1108692
-0.09381345 0.1835085 -0.14307025 0.07596906 -0.078748815 0.023600705 0.024283674 0.16900106
0.24382879 0.017055882 0.107448064 -0.09178227 0.051907565 -0.123905756 0.084219284 -0.1731105
-0.06491986 0.19246 -0.0840941 0.015880551 -0.122025974 -0.18232948 0.18514928 -0.16110234
0.2290682 -0.054382093 0.16197994 -0.04475455 -0.11423454 0.1466866 -0.082498044 0.019921605
0.17946306 0.14691807 -0.08648107 0.10361343 0.18456101 0.058008637 -0.106538564 -0.025838371
-0.061894853 0.13890351 -0.045884132 0.17979218 0.08293325 -0.0851551 0.057108738 0.056105893
00000000: c048 0fbe 707a 043d fb29 d53d a89a 283e
00000010: a70a c53c dab6 9ebd 5447 e0bd 4115 243e
00000020: 36e5 8a3d ecc0 c73d bde0 78bd 2d2b b23b
00000030: 7ff2 6d3d e555 32bb 7570 063e c512 173d
00000040: 518c 283e 6516 03bd d268 60bc f4bc 7cbd
00000050: 8155 18bd 1491 223a c3d0 d33d 5f5c d3bd
00000060: 001f 00be bc52 3abd 6e24 9c3a 300e 8e3d
00000070: b042 cbbd 677f d8bc adcb 7b3c 53ea 6d3d
00000080: 3a35 243d 1d2e d9bd 6f88 1dbe c724 c4bd
00000090: e065 b43d 0d2e 16be 3682 1d3d 2d1d 80bc
000000a0: d385 acbd 8dc1 7d3c 63bf 153e faf2 19bc
000000b0: dcc8 a33d 7740 a33d 20a5 cdbd 6487 913d
000000c0: fb01 c93d 6495 82bd 0b8b 4b3d e51b 3e3d
000000d0: bc65 863c b800 5bbd 08f2 15bd e3bb f4bd
000000e0: 2576 c93c bfb8 133e 1e68 5a38 a7d3 95bd
000000f0: 45ce 57bd e680 093e b15d 1b3e b440 12be
00000100: 2624 c7bc 9cb8 b7bd 18b2 96ba 1ceb 123e
00000110: 315e 98bd 93ee a33d b641 0dbe 90d9 8d3c
00000120: 9ad1 b23d 6084 793d 289c df3d f1a9 21be
00000130: c477 383e 2a6a 4a3d f20a 8fbd 5677 3a3d
00000140: 67d7 013e 3f89 863d f75f 003d 1a4f 463d
00000150: f677 513d 7b55 063e 8784 08bd ad3e 2bbd
00000160: 8ad0 b8bc dfed d2bd 5caa 0b3e 1e1b 85bc
00000170: 1797 b73b bbc7 2ebd 93a0 2d3d b308 51bc
00000180: 0b51 8cbb 1a94 103e 26bf 523d 50eb cd3d
00000190: 2409 aebd a8f5 a03d d00b 1ebe 8ac3 003d
000001a0: 3262 debd ad79 79bb b4b1 acbd 3aff c63d
000001b0: 2dfe c7bb 8676 a23d c659 143e 2f9a 9e3d
000001c0: f423 1a3d f90d 41bd f8de 663c 8ab8 f63c
000001d0: 5111 373d 39b1 153e 76a9 a2bd b274 8b3d
000001e0: 90bd cfbd d997 313d 5ca5 073e 1f0d d23d
000001f0: f610 3cbe 725f 073e 0cde 083e 19dd 593e
00000200: ac55 57bd 4a07 d7bd 67af 2ebe 942f 16be
00000210: 43ce c03d cdd7 983c 485a 43be fcf9 473d
00000220: 6554 053e d7d7 1bbe c401 09bd bbff 1a3e
00000230: b1bb b63b 2f28 953d 2c1f 06be ec2b 05be
00000240: 3064 b43d 6af4 26bd 49c3 c9bd 165c 083e
00000250: c8f4 fabb 0a5f 82bd 6289 ba3b 3593 ab3d
00000260: d053 5f3d 43ea 44bd cee4 b3bd 8ab1 be39
00000270: 48ba 02bd bb4a 12bd aabb 1f3d ef0d 13be
00000280: 57fc 25be 25a2 52bd 2bb1 ba3d fbdc 2b3d
00000290: 8dd2 e3bb e5d9 993d 5e8c bb3d 430e 913d
000002a0: b2d8 c2bc a7b8 53bd 7545 95bd 99c1 ae3c
000002b0: 9b04 4e3e a7ae b7bd 1bd2 013c d1b0 8b3d
000002c0: 2bd2 fd3c e751 cbbd 2f8b 1abe 0250 08be
000002d0: 68dd 313e 449d aabd 7d4b 20be e3e8 3dbc
000002e0: 4da5 09be 57fd 17bd 7bc3 5f3d d67b 1b3b
000002f0: 5c1d 713d e5ef f2bd 9b8b 453d f616 a63d
00000300: fe33 773c 7c4e 093e 1196 bb3d 4842 013e
00000310: cd03 1fbd 39be 6fbd f138 d03c cd15 0f3d
00000320: fdd0 c5bc 9eee 083d 73af 313e 9abe 8d3d
00000330: 82f6 d0bd 4370 283e 409a 393d 640f e3bd
00000340: 4421 c0bd a7e9 3b3e 0281 12be ab95 9b3d
00000350: 0f47 a1bd 4456 c13c 8eee c63c 9d0e 2d3e
00000360: 41ae 793e c7b8 8b3c bb0d dc3d 58f8 bbbd
00000370: 079d 543d 4dc2 fdbd 297b ac3d e143 31be
00000380: b4f4 84bd 3c14 453e 8739 acbd ee17 823c
00000390: c1e8 f9bd 94b4 3abe c697 3d3e 03f8 24be
000003a0: db90 6a3e c2bf 5ebd 12de 253e 8c50 37bd
000003b0: ccf3 e9bd 0335 163e bcf4 a8bd a232 a33c
000003c0: 2ac5 373e b171 163e fd1c b1bd 4733 d43d
000003d0: 90fd 3c3e 779a 6d3d e430 dabd feaa d3bc
000003e0: 7585 7dbd b93c 0e3e 00f1 3bbd 711b 383e
000003f0: e8d8 a93d cc65 aebd daea 693d 4bcf 653d

bias f4 [120]
-0.011473095 0.022945892 -0.03641247 0.078532495 -0.035180192 -0.07919561 -0.007423989 -0.011446873
-0.0058487537 0.01627985 0.008587679 -0.036484543 0.028951239 0.071558535 -0.042798344 -0.058159642
-0.0018407768 -0.051498625 0.039782245 0.039141398 0.02662617 -0.062409844 0.025655983 0.035774283
0.011702191 0.013830259 0.03539209 -0.035611644 0.027337568 -0.024231337 -0.033054896 0.009086184
0.015947228 0.030521585 -0.045263067 -0.009931888 -0.008237639 0.025331642 0.06018965 -0.03917659
-0.052661333 -0.010115279 0.041194756 0.0033299497 -0.029185677 -0.04333053 -0.057236806 -0.0114486385
-0.037475765 -0.020500613 0.054624964 -0.08122002 -0.04109295 -0.0093662115 0.034441546 -0.03337369
-0.018573117 0.040970985 -0.0107629625 -0.050739914 -0.020824358 0.008057592 0.02211715 -0.04492198
0.03182366 0.035146125 0.029570991 0.023517098 0.04474784 -0.018049682 0.055908073 0.044530757
-0.025666159 0.027656155 0.038080193 0.0068209833 0.043285865 0.015587257 0.023555895 -0.028028367
0.054899946 0.023635728 -0.051596943 -0.019080915 -0.028922744 0.017134534 0.0031359964 0.034562085
-0.0062812665 -0.041509245 -0.04947445 -0.05423361 -0.0036286232 0.013043151 0.019911287 0.07282444
-0.00748051 -0.011271438 0.018881146 0.0494676 0.05452593 -0.010326492 0.072335914 -0.035894275
0.014177649 -0.035606444 -0.03387816 -0.019953165 0.07436506 -0.066110544 -0.021249412 0.008272725
-0.021546507 0.031799667 -0.002751783 -0.027709555 0.00899716 -0.084890105 0.04918119 0.0313438
00000000: a6f9 3bbc 06f9 bb3c 3e25 15bd a5d5 a03d
00000010: 1b19 10bd 4f31 a2bd ef44 f3bb aa8b 3bbc
00000020: e7a6 bfbb 525d 853c 56b3 0c3c d170 15bd
00000030: 262b ed3c 488d 923d 514d 2fbd ce38 6ebd
00000040: 3846 f1ba 39f0 52bd b5f2 223d bb52 203d
00000050: 201f da3c 77a1 7fbd 7f2c d23c 0e88 123d
00000060: 8cba 3f3c 5098 623c 4cf7 103d 84dd 11bd
00000070: 09f3 df3c cc80 c6bc 9264 07bd 38de 143c
00000080: c3a3 823c 6708 fa3c c465 39bd 5cb9 22bc
00000090: 2af7 06bc 4e84 cf3c 6c89 763d a277 20bd
000000a0: 69b3 57bd 8eba 25bc d5bb 283d 493b 5a3b
000000b0: cd16 efbc 5b7b 31bd 2471 6abd 1293 3bbc
000000c0: 3080 19bd e7f0 a7bc 6dbe 5f3d af56 a6bd
000000d0: 1551 28bd bd74 19bc 9412 0d3d dab2 08bd
000000e0: a626 98bc 31d1 273d 2357 30bc a8d4 4fbd
000000f0: d897 aabc fe03 043c 062f b53c 1c00 38bd
00000100: 8759 023d 62f5 0f3d dd3e f23c eea6 c03c
00000110: 8349 373d eddc 93bc ddff 643d e265 363d
00000120: d641 d2bc 298f e23c faf9 1b3d 8e82 df3b
00000130: 854c 313d b261 7f3c 4bf8 c03c bf9b e5bc
00000140: c4de 603d b79f c13c 5157 53bd 944f 9cbc
00000150: 64ef ecbc b95d 8c3c 4a85 4d3b f990 0d3d
00000160: 15d3 cdbb 9905 2abd b9a5 4abd 1024 5ebd
00000170: 32ce 6dbb f1b2 553c ff1c a33c fb24 953d
00000180: 111f f5bb d6ab 38bc a2ac 9a3c 8a9e 4a3d
00000190: 9556 5f3d 7230 29bc da24 943d e005 13bd
000001a0: 5f49 683c 10d8 11bd d3c3 0abd d274 a3bc
000001b0: b54c 983d f764 87bd 3f13 aebc 538a 073c
000001c0: 4d82 b0bc 5e40 023d 4257 34bb 26ff e2bc
000001d0: d368 133c ddda adbd 3772 493d 5b62 003d

weight f4 [120, 120]
-0.09243803 -0.054505747 -0.12778108 -0.14384016 -0.062229447 0.10211558 -0.089295 -0.026839912
-0.0012329879 0.0035205975 0.06687048 -0.019348083 -0.07975768 -0.11320514 0.043814402 -0.12557648
-0.0736816 -0.08919338 0.079240985 -0.0746532 -0.09358859 -0.054411042 -0.13893472 0.16180268
-0.12672211 0.15291525 -0.053377833 0.1048852 -0.14453393 0.016141742 -0.02176312 -0.07081713
-0.10840956 0.14071795 -0.056187063 0.026902825 0.061094847 -0.1268521 0.1214156 0.0059778835
0.01743919 0.08650253 0.17530237 0.11565139 0.102562085 -0.09359904 0.22801453 0.07357645
0.08992897 0.08025789 -0.0016726467 0.031346973 -0.02645673 -0.13325967 0.043249905 -0.122959435
-0.10692995 0.0114234695 -0.10380051 -0.04083144 -0.020600997 -0.14013681 0.10804898 0.022335866
0.12739624 -0.15649815 0.041674852 -0.05116647 -0.04782847 -0.14390865 -0.12563215 -0.21083981
0.04225698 0.028986452 0.03159634 0.02118708 0.09987559 -0.17486973 -0.15240286 0.14643815
-0.060036924 -0.15461615 0.15022469 0.08892395 0.07211333 0.14600764 -0.017518178 0.14278188
-0.020170875 -0.06834882 -0.09327455 0.1390656 0.02359698 -0.06767246 0.025196536 -0.13707387
-0.13933177 -0.0072537973 0.07629194 -0.03570056 -0.171977 -0.0725509 -0.0071112365 -0.07219407
0.12767291 -0.10924097 0.16646352 0.053988844 0.17793795 0.16453114 0.062037896 0.11944821
-0.06719915 0.033093818 0.024232395 0.103079945 0.14393952 0.054987688 0.057219066 0.0811635
-0.11209124 -0.10897713 -0.055604573 -0.09172429 0.05916311 -0.2056059 -0.14166431 -0.0022011397
0.019436227 0.05525974 0.032552503 -0.10252329 -0.019595502 0.117477365 -0.10939499 -0.065067105
0.10986697 0.14491206 -0.01564204 0.20776628 -0.09633898 -0.12584855 0.095758 0.0671207
0.004639286 0.09372158 -0.10475661 0.13404934 -0.13074802 -0.12855469 -0.047206372 0.14999008
-0.09498703 0.0028260134 -0.038239032 -0.08212731 0.0761368 0.026148165 -0.023854537 -0.16102327
-0.15029919 -0.07718412 0.017838862 -0.100567386 -0.14576165 -0.09845459 -0.17045781 0.08913871
0.094060756 -0.15155925 -0.09775154 -0.17353366 -0.15644902 -0.15371667 -0.0014034839 -0.019797964
-0.14234306 -0.0966649 0.061240945 0.1056303 0.034600183 0.16007382 -0.14559314 -0.146251
-0.12134406 -0.108322814 0.08430569 -0.10795838 -0.08026419 -0.10782815 -0.01627003 -0.026522223
0.108832695 -0.14850907 0.13964002 0.043683436 -0.09452791 -0.12149412 0.095861815 -0.06440078
0.0883995 -0.06253152 -0.14716035 -0.15781598 0.0019946853 -0.15658653 -0.011336633 0.08595829
-0.14678186 -0.01669492 -0.07967191 0.05486491 -0.10457437 0.09551546 -0.058702294 -0.08383292
-0.0179676 -0.046334997 -0.07909694 0.1307991 -0.115116686 -0.057460133 -0.020359775 -0.10416397
0.095504135 -0.04154755 0.05594796 -0.084411055 0.003467883 0.033538755 -0.15966642 0.052804403
0.12804994 0.034663044 0.02062431 0.084827885 -0.09346788 -0.017671458 0.066110276 0.15412201
0.06949291 0.08592569 0.0046533453 -0.08982767 0.014513083 0.13307096 0.12026534 0.04660105
0.105203055 -0.034087133 0.06701908 -0.1033939 -0.05713791 -0.08745558 0.15881146 0.16541636
00000000: 2650 bdbd 6b41 5fbd 0bd9 02be d64a 13be
00000010: 4ee4 7ebd f921 d13d 4ce0 b6bd 60df dbbc
00000020: 359c a1ba d3b9 663b 64f3 883d df7f 9ebc
00000030: ff57 a3bd 19d8 e7bd bb76 333d 1f97 00be
00000040: 61e6 96bd 05ab b6bd 1949 a23d c7e3 98bd
00000050: 60ab bfbd 1dde 5ebd e744 0ebe 9aaf 253e
00000060: 71c3 01be d195 1c3e b7a2 5abd 0dce d63d
00000070: b400 14be b03b 843c 9248 b2bc 9208 91bd
00000080: d505 debd 5e18 103e 6824 66bd 5063 dc3c
00000090: 973e 7a3d 84e5 01be bea8 f83d 1fe2 c33b
000000a0: a2dc 8e3c 3d28 b13d 7782 333e a3da ec3d
000000b0: 120c d23d dab0 bfbd a47c 693e 40af 963d
000000c0: ae2c b83d 405e a43d b63c dbba af65 003d
000000d0: c9bb d8bc 3975 08be d026 313d 28d2 fbbd
000000e0: 17fe dabd 8129 3b3c 5d95 d4bd de3e 27bd
000000f0: 6cc3 a8bc 0680 0fbe c948 dd3d b5f9 b63c
00000100: 2974 023e 0d41 20be 40b3 2a3d ef93 51bd
00000110: c9e7 43bd ca5c 13be b7a5 00be 64e6 57be
00000120: a815 2d3d ff74 ed3c 2a6b 013d 8790 ad3c
00000130: 938b cc3d 0d11 33be 7f0f 1cbe e2f3 153e
00000140: 47e9 75bd b253 1ebe 80d4 193e c31d b63d
00000150: 27b0 933d 0783 153e 4882 8fbc 6a35 123e
00000160: 643d a5bc 77fa 8bbd ba06 bfbd 3667 0e3e
00000170: 744e c13c dc97 8abd f768 ce3c 185d 0cbe
00000180: fdac 0ebe 43b1 edbb f33e 9c3d c03a 12bd
00000190: bd1a 30be 9195 94bd 6005 e9bb 7cda 93bd
000001a0: b0bc 023e bbb9 dfbd 6a75 2a3e 6823 5d3d
000001b0: 5e35 363e da7a 283e 731b 7e3d 43a1 f43d
000001c0: b59f 89bd 628d 073d 0483 c63c 941b d33d
000001d0: e264 133e c53a 613d 8a5e 6a3d 0d39 a63d
000001e0: 1890 e5bd 672f dfbd 9fc1 63bd f2d9 bbbd
000001f0: 0455 723d 5a8a 52be 7310 11be ff40 10bb
00000200: b938 9f3c 0a58 623d c655 053d bbf7 d1bd
00000210: bf86 a0bc f997 f03d 7b0a e0bd e741 85bd
00000220: ef01 e13d d463 143e bc23 80bc afc0 543e
00000230: 5f4d c5bd 71de 00be c51c c43d 9476 893d
00000240: 2705 983b 1af1 bf3d a28a d6bd 3b44 093e
00000250: cfe2 05be d7a3 03be 785b 41bd 0097 193e
00000260: 8f88 c2bd a334 393b 88a0 1cbd 5d32 a8bd
00000270: 9ced 9b3d ad34 d63c 976a c3bc 49e3 24be
00000280: 08e8 19be b512 9ebd ce22 923c 46f6 cdbd
00000290: 8b42 15be 8fa2 c9bd 7e8c 2ebe 5b8e b63d
000002a0: eda2 c03d 5932 1bbe f631 c8bd cfb2 31be
000002b0: 2c34 20be e767 1dbe 1bf5 b7ba 572f a2bc
000002c0: 61c2 11be 3ff8 c5bd c9d7 7a3d b354 d83d
000002d0: ecb8 0d3d 64ea 233e 5e16 15be d2c2 15be
000002e0: 3c83 f8bd 5ad8 ddbd 76a8 ac3d 4819 ddbd
000002f0: 8d61 a4bd 01d5 dcbd ba48 85bc 2245 d9bc
00000300: ade3 de3d c312 18be cbfd 0e3e 67ed 323d
00000310: d997 c1bd e9d1 f8bd 3353 c43d 8ee4 83bd
00000320: cc0a b53d 8710 80bd 34b1 16be 839a 21be
00000330: 44b9 023b 3858 20be 49bd 39bc e60a b03d
00000340: fc4d 16be c9c3 88bc 072b a3bd 07ba 603d
00000350: 162b d6bd 9c9d c33d d171 70bd 98b0 abbd
00000360: ca30 93bc c4c9 3dbd 94fd a1bd 33f0 053e
00000370: 4cc2 ebbd 515b 6bbd 8bc9 a6bc eb53 d5bd
00000380: ac97 c33d c42d 2abd b029 653d b4df acbd
00000390: 6c45 633b ef5f 093d 987f 23be 6e49 583d
000003a0: 861f 033e d6fa 0d3d 50f4 a83c 3eba ad3d
000003b0: 166c bfbd bcc3 90bc d364 873d 29d2 1d3e
000003c0: 4c52 8e3d cff9 af3d 177b 983b 92f7 b7bd
000003d0: 48c8 6d3c c143 083e ad4d f63d bee0 3e3d
000003e0: b374 d73d f39e 0bbd 4d41 893d 2ec0 d3bd
000003f0: 7109 6abd e91b b3bd 799f 223e e862 293e

bias f4 [120]
-0.051135525 0.03945343 -0.012092365 -0.036122676 0.045771837 0.025042936 0.041727453 0.044279587
0.017060183 0.040353548 0.054951597 0.06269889 -0.03155024 0.04176385 -0.032015048 0.033863492
-0.06939928 0.008599928 0.054089528 0.007988612 0.062228397 0.0056210216 0.027587865 0.051808283
0.03472862 -0.06454922 -0.04120628 -0.061230067 0.016124075 0.01089501 0.019124497 0.0338952
0.040871818 0.037755013 0.0012903822 0.0344832 -0.03878888 0.010104991 0.034698464 0.023503788
0.0020771888 -0.04563971 0.0348981 0.0037645316 0.040537134 0.018447923 0.048944827 0.016303245
-0.00016402175 0.037029512 0.026041837 -0.017740903 -0.06383661 0.011416432 0.0013407795 0.043601003
0.026971746 0.0042139026 0.012994641 -0.03986133 -0.0007026072 -0.059712004 -0.02321045 -0.019437417
0.06484292 -0.004572874 -0.012368677 -0.00014626763 -0.045283265 -0.026084539 0.038524088 0.024830328
-0.04000506 0.045300066 -0.03312998 -0.020520942 0.016330643 0.03815975 0.006173639 0.023879189
0.038336173 0.02036631 0.027200999 0.034293726 -0.0124379 -0.0022762856 -0.037019692 -0.0062281257
-0.015014138 -0.026202355 -0.029616734 -0.014187162 0.049213123 -0.00093905354 0.058157787 0.019522786
0.029070908 -0.002942071 0.05529735 0.04778084 -0.00880174 0.06283295 -0.0411665 -0.028292099
0.001183975 0.020923473 -0.06193297 0.004567176 0.061647497 -0.0023434144 0.00534968 0.018625176
-0.01061603 0.024965448 -0.01512596 -0.059422508 0.01579795 0.0027129706 -0.0176549 -0.017090382
00000000: 7c73 51bd eb99 213d 0e1f 46bc 5ff5 13bd
00000010: 407b 3b3d d826 cd3c 68ea 2a3d 835e 353d
00000020: ccc1 8b3c c349 253d ed14 613d 4768 803d
00000030: d33a 01bd 9210 2b3d 3622 03bd 72b4 0a3d
00000040: 3621 8ebd b6e6 0c3c fb8c 5d3d abe2 023c
00000050: 34e3 7e3d 8c30 b83b f2ff e13c ec34 543d
00000060: 993f 0e3d 6232 84bd ebc7 28bd 61cc 7abd
00000070: a316 843c fc80 323c faaa 9c3c b1d5 0a3d
00000080: 3569 273d 00a5 1a3d 0b22 a93a 423e 0d3d
00000090: 17e1 1ebd 678f 253c fa1f 0e3d 048b c03c
000000a0: 7221 083b b4f0 3abd 4ff1 0e3d 5cb6 763b
000000b0: 440a 263d 1920 973c 5f7a 483d 628e 853c
000000c0: 41fd 2bb9 42ac 173d b155 d53c 5f55 91bc
000000d0: c5bc 82bd fd0b 3b3c 18bd af3a f796 323d
000000e0: daf3 dc3c c714 8a3b 7ae7 543c a245 23bd
000000f0: 2c2f 38ba 9394 74bd d723 bebc 383b 9fbc
00000100: 5dcc 843d 0cd8 95bb fea5 4abc 6b5f 19b9
00000110: f27a 39bd 3eaf d5bc 6fcb 1d3d f968 cb3c
00000120: 59dc 23bd 908c 393d 4db3 07bd 891b a8bc
00000130: d7c7 853c 664d 1c3d 3d4c ca3b 4a9e c33c
00000140: 6406 1d3d 3fd7 a63c a1d4 de3c 9477 0c3d
00000150: 55c8 4bbc bc2d 15bb f6a1 17bd 4e15 ccbb
00000160: dcfd 75bc 52a6 d6bc cb9e f2bc 4571 68bc
00000170: b393 493d d12a 76ba dc36 6e3d 40ee 9f3c
00000180: 1d26 ee3c c3cf 40bb 797f 623d d8b5 433d
00000190: 2c35 10bc 90ae 803d 349e 28bd d5c4 e7bc
000001a0: 9c2f 9b3a b467 ab3c 6dad 7dbd 40a8 953b
000001b0: 1682 7c3d f893 19bb 5e4c af3b d393 983c
000001c0: dbee 2dbc 5784 cc3c e0d2 77bc 0465 73bd
000001d0: b46a 813c 18cc 313b 02a1 90bc 2101 8cbc

weight f4 [120, 120]
-0.13832372 0.06811154 0.15200537 -0.13048586 0.094571315 0.08426544 0.089455195 -0.13726781
0.13823967 -0.012407307 0.062197853 -0.0033083886 -0.032253776 -0.10909308 0.10360433 0.01495383
-0.043547705 0.022664221 -0.15941924 0.1210367 0.10193703 -0.020680701 -0.0154421665 -0.1633653
0.026802182 0.12747595 -0.09851201 -0.050080884 0.033999644 -0.05598778 -0.049055394 -0.049715973
-0.038719457 -0.08212048 -0.10451687 -0.091927074 0.122141786 0.063845485 0.16350104 0.1337325
0.049300198 -0.047127582 -0.06582291 -0.03274791 -0.07892932 0.11533809 0.07074756 0.1426887
0.14770263 -0.03151753 0.09580876 -0.024493624 0.06524503 -0.011810551 0.065751866 0.13916086
-0.13641647 -0.037618194 -0.0115959775 0.062577784 -0.045668352 0.13676167 0.052274976 0.064341925
0.14105135 -0.11102677 -0.13211916 0.12630937 -0.10158988 -0.12506382 0.10509852 -0.012706552
-0.12822257 -0.11922871 0.04633005 0.015305502 0.076720804 -0.056763127 -0.11696973 -0.01777161
0.071105465 0.13185361 0.10749994 0.08532578 0.033099644 -0.046244387 -0.029252736 -0.09774146
-0.07669982 -0.077754475 -0.016015923 0.08814756 0.029783662 -0.080934234 0.011451102 -0.0038223227
0.12098477 0.020221883 -0.021664787 0.11848712 -0.051759608 -0.15173478 -0.10805914 -0.0044669015
-0.10944962 -0.119995445 0.004099921 0.1547533 -0.13457865 0.001260972 -0.08578362 0.014200805
0.028718913 0.02982988 -0.104647145 0.037469856 0.13441183 0.06719943 -0.12359468 0.06412227
0.023244208 -0.02834606 -0.075227864 -0.010588985 0.13844147 -0.13295116 -0.0947543 -0.14237477
-0.06625521 -0.13426673 -0.113461874 0.111307964 0.07481885 -0.15828416 0.07579622 0.038905103
0.10582225 0.029269816 -0.13270044 0.14978094 -0.0810717 0.060351048 0.11859113 0.01784196
0.1420223 -0.1303774 0.108753935 0.15040098 -0.018611602 -0.011197778 -0.02990115 -0.11207106
-0.063688606 0.08340638 0.0649906 -0.046732794 0.03049736 -0.096500486 -0.05801291 0.040195175
-0.0778158 0.056407653 0.052336622 -0.08744606 -0.088399574 0.09643515 0.021654688 -0.06336385
-0.028217103 0.12428186 0.015462509 0.00993109 0.02704864 -0.020380534 -0.11678919 0.11882693
0.026942134 -0.11402975 -0.12901326 0.15260209 -0.123556085 0.06631049 -0.033259615 -0.06369815
0.06584598 -0.035407215 0.05852147 0.07449943 0.1051057 -0.08333915 -0.10391148 -0.09218064
-0.14439416 0.026426606 0.1194491 0.098572016 0.090617105 0.116074085 0.039583 0.015754761
0.010781567 0.110483065 0.13507773 -0.040077675 0.12145491 0.10627748 0.1314787 0.046220787
0.08388155 0.03547291 -0.008633093 0.00021056153 0.14657058 0.09147312 -0.118916474 -0.049319893
-0.03691046 0.04217436 -0.13969822 0.018362224 -0.059201796 0.06730288 0.08747672 -0.11172298
0.072949365 -0.063366376 0.013131303 0.12579782 -0.011744329 0.062206417 -0.12564164 -0.04597736
0.0069186506 0.15019129 -0.079027735 0.119354285 -0.09716786 0.090723366 0.044507347 0.12457211
-0.14967202 -0.110449925 -0.16015227 0.14123417 -0.07626946 0.07376598 0.05703072 0.054202437
0.12618911 0.013889651 0.11572468 0.018618003 -0.14398086 -0.023181798 -0.0627383 0.04711777
00000000: bca4 0dbe 107e 8b3d 4ca7 1b3e 169e 05be
00000010: 9bae c13d 5c93 ac3d 4934 b73d ef8f 0cbe
00000020: b38e 0d3e 0448 4bbc 2dc3 7e3d 8dd1 58bb
00000030: 891c 04bd 316c dfbd 822e d43d e900 753c
00000040: 145f 32bd 51aa b93c cc3e 23be 17e2 f73d
00000050: 5dc4 d03d 936a a9bc 2401 7dbc 3c49 27be
00000060: 4090 db3c 0e89 023e aac0 c9bd 9d21 4dbd
00000070: 3643 0b3d 7153 65bd 4fee 48bd faa2 4bbd
00000080: 4b98 1ebd c82e a8bd f10c d6bd 4344 bcbd
00000090: 7925 fa3d 6cc1 823d d16c 273e 2cf1 083e
000000a0: 01ef 493d da08 41bd 29ce 86bd ac22 06bd
000000b0: b2a5 a1bd 6036 ec3d 19e4 903d fd1c 123e
000000c0: 5c3f 173e 8718 01bd 6237 c43d daa6 c8bc
000000d0: 309f 853d 0b81 41bc eaa8 863d 2f80 0e3e
000000e0: c2b0 0bbe 8915 1abd 0efd 3dbc c828 803d
000000f0: bd0e 3bbd 400b 0c3e 491e 563d b3c5 833d
00000100: c46f 103e 0162 e3bd 3f4a 07be 3e57 013e
00000110: 5b0e d0bd bb10 00be e53d d73d 242f 50bc
00000120: c74c 03be 2f2e f4bd 94c4 3d3d eec3 7a3c
00000130: cc1f 9d3d 7480 68bd d38d efbd c495 91bc
00000140: be9f 913d a204 073e ee28 dc3d 48bf ae3d
00000150: 7e93 073d c16a 3dbd 6fa3 efbc ad2c c8bd
00000160: cc14 9dbd bd3d 9fbd d333 83bc b586 b43d
00000170: defc f33c d9c0 a5bd 679d 3b3c ef7f 7abb
00000180: ddc6 f73d 5da8 a53c 5a7a b1bc 60a9 f23d
00000190: e201 54bd 5d60 1bbe 1c4e ddbd 165f 92bb
000001a0: 1f27 e0bd 2cc0 f5bd a158 863b a677 1e3e
000001b0: fcce 09be 3347 a53a 53af afbd 7eaa 683c
000001c0: ed43 eb3c cb5d f43c 3e51 d6bd fe79 193d
000001d0: 41a3 093e db9f 893d 351f fdbd 8952 833d
000001e0: a36a be3c ff35 e8bc 1111 9abd 6c7d 2dbc
000001f0: 9ac3 0d3e 5924 08be 8b0e c2bd b1ca 11be
00000200: d0b0 87bd 387d 09be b35e e8bd 6ef5 e33d
00000210: a03a 993d 3e15 22be 0c3b 9b3d f55a 1f3d
00000220: 56b9 d83d 41c7 ef3c a0e2 07be 2d60 193e
00000230: eb08 a6bd a932 773d e8df f23d 4d29 923c
00000240: 4b6e 113e a781 05be 62ba de3d b702 1a3e
00000250: 5c77 98bc e376 37bc 42f3 f4bc 8385 e5bd
00000260: 2c6f 82bd f7d0 aa3d cb19 853d e36a 3fbd
00000270: 99d5 f93c 0ca2 c5bd f29e 6dbd b2a3 243d
00000280: e45d 9fbd b60b 673d ed5e 563d eb16 b3bd
00000290: d60a b5bd cb7f c53d 2c65 b13c e8c4 81bd
000002a0: 8e27 e7bc 7d87 fe3d 7756 7d3c 03b6 223c
000002b0: 1c95 dd3c 14f5 a6bc 2c2f efbd 895b f33d
000002c0: c0b5 dc3c 6e88 e9bd 0d1c 04be b943 1c3e
000002d0: f90a fdbd cbcd 873d 3c3b 08bd 2d74 82bd
000002e0: 42da 863d 2807 11bd 35b4 6f3d 2893 983d
000002f0: a841 d73d b7ad aabd 8bcf d4bd 34c9 bcbd
00000300: 10dc 13be 9c7c d83c bba1 f43d 20e0 c93d
00000310: 7695 b93d 40b8 ed3d c921 223d 2110 813c
00000320: 2ba5 303c f244 e23d d151 0a3e 7d28 24bd
00000330: 5abd f83d 02a8 d93d 5aa2 063e 0252 3d3d
00000340: 17ca ab3d 0b4c 113d d171 0dbc 2eca 5c39
00000350: 9916 163e 4256 bb3d 7b8a f3bd a803 4abd
00000360: 6c2f 17bd 06bf 2c3d 0d0d 0fbe 606c 963c
00000370: 957d 72bd 18d6 893d ff26 b33d 05cf e4bd
00000380: 7a66 953d 3bc6 81bd ad24 573c 25d1 003e
00000390: 496b 40bc 28cc 7e3d 34a8 00be c252 3cbd
000003a0: d9b5 e23b bfcb 193e 4bd9 a1bd 0570 f43d
000003b0: f1ff c6bd 2ccd b93d 564d 363d aa1f ff3d
000003c0: 9f43 19be 9233 e2bd f5fe 23be b19f 103e
000003d0: 2a33 9cbd 9e12 973d 0b99 693d 6003 5e3d
000003e0: b837 013e 6b91 633c 1001 ed3d c884 983c
000003f0: b86f 13be c1e7 bdbc f07c 80bd 90fe 403d

bias f4 [120]
0.024089014 -0.036820076 0.035721257 0.035311945 -0.022233421 0.026631454 0.03234865 0.0121369725
-0.009950122 -0.047224537 0.017971974 -0.035009075 -0.038178317 0.04401624 -0.016396943 -0.0048408927
-0.013059318 0.039313573 0.065120555 -0.035143465 -0.007071761 -0.0063264454 0.010610679 -0.04153184
-0.028167304 -0.04528979 -0.033095434 -0.029633373 0.033883233 0.033104286 0.027666276 0.010364097
0.0051481035 0.009067183 0.04010838 0.021938464 -0.024396297 -0.047183674 -0.010779783 0.0028805719
-0.010083208 0.011691921 0.029387513 -0.023510935 -0.0018916768 0.004056685 0.023859821 0.029818095
0.010762277 -0.027300071 0.01780307 0.04008033 -0.016218565 -0.0270383 0.033969175 0.0021465973
-0.035607457 -0.0067790733 0.027899576 -0.035840023 0.033080082 -0.03580179 0.016078379 -0.0012069053
0.00084329234 -0.046278924 0.011203751 0.009065845 -0.0046072938 0.03300615 0.029439682 -0.03482085
0.00013014876 0.023468303 -0.0062887366 -0.0037079693 -0.004003429 0.02737768 -0.009539787 -0.01280542
0.011292795 0.03102758 0.040452003 -0.044531707 -0.004937999 0.0030801871 -0.029674135 0.052318033
0.002211906 0.0011463582 -0.0058788992 -0.018639404 0.032408144 -0.0060616974 -0.017893815 -0.027746731
0.04870948 0.018613612 0.012128795 -0.010013349 0.0061783465 -0.051649507 -0.033550885 -0.032764334
-0.055865314 -0.03968178 -0.001538965 0.0049316245 0.034144763 -0.008999054 0.0038623735 0.01199136
0.012248556 0.030994343 0.008454065 -0.05682349 -0.0030702697 -0.045536026 0.0014734032 -0.014942241
00000000: 5356 c53c a6d0 16bd 7450 123d 42a3 103d
00000010: dd22 b6bc 352a da3c 0580 043d 27da 463c
00000020: d605 23bc 846e 41bd f639 933c ad65 0fbd
00000030: de60 1cbd 5f4a 343d e252 86bc 5aa0 9ebb
00000040: c0f6 55bc 4507 213d ed5d 853d 98f2 0fbd
00000050: 3bba e7bb 124e cfbb 6ad8 2d3c 4a1d 2abd
00000060: 1ebf e6bc c981 39bd 148f 07bd b0c1 f2bc
00000070: 25c9 0a3d 5c98 073d 63a4 e23c 2cce 293c
00000080: 6cb1 a83b 868e 143c af48 243d 4bb8 b33c
00000090: beda c7bc ab43 41bd b09d 30bc fac7 3c3b
000000a0: 0a34 25bc 798f 3f3c 15be f03c 019a c0bc
000000b0: 24f2 f7ba f1ed 843b ac75 c33c 1445 f43c
000000c0: 4354 303c 66a4 dfbc bed7 913c 462b 243d
000000d0: ccdc 84bc 6d7f ddbc 4323 0b3d edad 0c3b
000000e0: 20d9 11bd fd22 debb a78d e43c fdcc 12bd
000000f0: fb7e 073d e6a4 12bd ceb6 833c 0631 9eba
00000100: 6410 5d3a f88e 3dbd f08f 373c e988 143c
00000110: c8f8 96bb 7531 073d 7d2b f13c 4fa0 0ebd
00000120: 8b78 0839 9940 c03c bf11 cebb 6701 73bb
00000130: 322f 83bb 2847 e03c c44c 1cbc d3cd 51bc
00000140: 6a05 393c 8d2d fe3c 00b1 253d e166 36bd
00000150: f0ce a1bb f7dc 493b 2c17 f3bc 6f4b 563d
00000160: a0f5 103b 6641 963a c8a3 c0bb aab1 98bc
00000170: 67be 043d 34a1 c6bb 0d96 92bc 1d4d e3bc
00000180: 9783 473d 937b 983c dab7 463c 080f 24bc
00000190: ba73 ca3b 6f8e 53bd a76c 09bd e533 06bd
000001a0: 07d3 64bd 5d89 22bd 19b7 c9ba 7799 a13b
000001b0: 61db 0b3d c570 13bc e01f 7d3b 6977 443c
000001c0: 2bae 483c d9e7 fd3c eb82 0a3c bfbf 68bd
000001d0: 9436 49bb fc83 3abd 351f c13a 4dd0 74bc
