Beltrami/best_net_with_improved(DE).pth (torch, 595339 bytes, 24 tensors)

weight f4 [120, 4]
0.28365937 -0.1572339 -0.09513664 0.30803618 -0.3586879 0.4501177 -0.048415076 0.30662736
0.09847681 -0.06583807 0.14634664 -0.18748926 0.23075718 -0.21491872 -0.048728146 -0.29585487
-0.062113788 -0.04427058 0.4648049 0.1563927 -0.26778394 -0.38793918 -0.13237241 -0.21012431
-0.07060021 0.12943794 0.4215097 0.30737945 -0.49560374 0.45856875 0.14587532 0.53521794
0.2621854 -0.49211437 -0.60577625 -0.2312464 0.46767414 -0.019355427 0.26913974 -0.30140886
0.5943995 -0.173442 0.43380907 0.035523742 -0.29414928 0.25561538 -0.2069648 0.26301947
-0.15666607 -0.030345785 -0.61521757 -0.13659616 0.29470617 -0.16563097 0.6275721 0.30882505
0.011368765 -0.29930198 0.3977915 0.2184402 -0.34711358 0.33623576 0.286701 0.54155654
-0.2430598 -0.04790392 -0.011628565 0.15305097 -0.4355258 -0.340116 0.31838393 -0.15977845
0.26720276 0.08255484 0.20024535 -0.014614346 0.22073956 0.2277795 -0.3924565 0.30332375
-0.45703027 -0.4185174 0.052135073 -0.09803952 0.36646274 -0.44432655 -0.5190414 0.38911337
-0.08970425 0.22596192 0.13289653 -0.4502223 0.090742365 0.14684781 -0.33525702 -0.2908066
0.16226183 0.08732521 -0.17932688 -0.31033018 0.5252316 -0.13101557 0.32582518 0.09003508
-0.40227523 -0.4016162 0.4590102 0.02432919 0.3898142 0.122384004 0.23244005 0.34455767
0.4880179 -0.33773446 0.015604163 0.3816175 0.29558733 0.32524103 -0.3768334 -0.5359015
-0.36917648 0.066407174 0.48253432 -0.41517758 0.2086193 -0.40795654 -0.48940825 -0.0063577383
0.3847533 0.5533306 -0.40542224 0.22623836 0.5440113 0.47404444 0.42397448 0.34297898
0.20507064 0.079943575 -0.34457967 -0.5698837 -0.26130623 -0.13526005 -0.35537246 0.4064965
0.26140952 0.062299892 0.3042695 0.34467947 0.38042933 0.3103388 -0.10413686 0.5176402
-0.11971603 -0.090726644 -0.5810689 -0.26735106 -0.38255438 -0.19867249 0.29601333 -0.1136559
-0.4381784 0.29184037 0.22271699 0.39491552 -0.22949648 0.16693307 -0.13974653 -0.14659481
-0.44280607 -0.299916 -0.23554744 0.3741791 0.07071524 0.11264515 0.5102557 0.4032227
0.43877795 0.027502632 -0.31092423 0.44304967 -0.09852419 0.04849604 -0.51173663 -0.09704061
-0.34699887 0.42545322 -0.6754663 -0.37951198 -0.030167533 -0.31505767 0.111085504 -0.3135373
-0.29018304 -0.00067386177 0.3332243 -0.42273313 0.33866337 0.37543356 0.5272771 -0.48944682
0.12581782 -0.31535548 0.35068235 -0.30371258 0.29250515 -0.0022638787 -0.10911686 0.0040411055
0.03542178 0.226684 -0.017445728 0.11676199 -0.4262512 0.42951626 0.3803365 0.48821345
0.29294518 -0.30960062 -0.18219882 0.6390625 -0.3633194 0.5026761 -0.3986381 -0.516575
0.2509763 -0.30746937 -0.11363712 0.5419933 0.44278324 0.52958274 0.04172266 -0.4840985
0.48027945 -0.14970422 -0.18555374 0.051418524 -0.35108337 0.46610174 0.40895188 -0.43245953
-0.48478 -0.11359241 0.040967327 0.20590597 -0.3760299 -0.07579799 -0.6197278 -0.43123868
-0.29137078 0.41287062 0.53654593 -0.23604658 0.025854241 0.21779117 0.068253756 -0.31305856
00000000: cd3b 913e ec01 21be 00d7 c2bd ebb6 9d3e
00000010: f1a5 b7be d475 e63e e34e 46bd 43fe 9c3e
00000020: 36ae c93d 1cd6 86bd e5db 153e 2ffd 3fbe
00000030: 9c4b 6c3e a713 5cbe 2a97 47bd 4a7a 97be
00000040: 076b 7ebd 1155 35bd e8fa ed3e 6825 203e
00000050: fa1a 89be f79f c6be a28c 07be d42a 57be
00000060: d896 90bd 618b 043e 1fd0 d73e d760 9d3e
00000070: c6bf fdbe 86c9 ea3e 5760 153e 0b04 093f
00000080: 2a3d 863e 6af6 fbbe 2714 1bbf dbcb 6cbe
00000090: fc72 ef3e 468f 9ebc afcc 893e 4352 9abe
000000a0: 912a 183f c89a 31be 391c de3e 5881 113d
000000b0: bc9a 96be 05e0 823e 95ee 53be 7daa 863e
000000c0: 126d 20be b997 f8bc e67e 1dbf dddf 0bbe
000000d0: bae3 963e 2a9b 29be 91a8 203f 511e 9e3e
000000e0: 0e44 3a3c 1c3e 99be 54ab cb3e caae 5f3e
000000f0: dfb8 b1be 1827 ac3e 79ca 923e 73a3 0a3f
00000100: abe4 78be e736 44bd bd85 3ebc 65b9 1c3e
00000110: 3dfd debe af23 aebe 3803 a33e f69c 23be
00000120: cdce 883e 8312 a93d 1e0d 4d3e 0371 6fbc
00000130: 8d09 623e 073f 693e 0ff0 c8be 404d 9b3e
00000140: dfff e9be ea47 d6be 968b 553d f2c8 c8bd
00000150: 01a1 bb3e c57e e3be e6df 04bf de39 c73e
00000160: ddb6 b7bd 9062 673e 0716 083e 8a83 e6be
00000170: 22d7 b93d 465f 163e cfa6 abbe 9ae4 94be
00000180: f727 263e 8fd7 b23d 77a1 37be 99e3 9ebe
00000190: 9475 063f f228 06be 8fd2 a63e 5064 b83d
000001a0: 05f7 cdbe a3a0 cdbe 6303 eb3e 024e c73c
000001b0: ba95 c73e 77a4 fa3d c404 6e3e dd69 b03e
000001c0: 7bdd f93e 88eb acbe 9aa8 7f3c 5e63 c33e
000001d0: 3957 973e fe85 a63e 4ff0 c0be d730 09bf
000001e0: b304 bdbe 7c00 883d bd0e f73e 2892 d4be
000001f0: 4ca0 553e aedf d0be b893 fabe 9354 d0bb
00000200: 62fe c43e 13a7 0d3f 8193 cfbe 07ab 673e
00000210: 5344 0b3f f4b5 f23e 2f13 d93e f19a af3e
00000220: 0afe 513e 75b9 a33d bf6c b0be e6e3 11bf
00000230: eec9 85be 9c81 0abe 61f3 b5be 4f20 d03e
00000240: 78d7 853e 2c2e 7f3d 36c9 9b3e d479 b03e
00000250: a2c7 c23e bae4 9e3e b545 d5bd 1184 043f
00000260: ae2d f5bd e4ce b9bd eec0 14bf 3de2 88be
00000270: 2bde c3be cd70 4bbe 0f8f 973e 6dc4 e8bd
00000280: eb58 e0be 1a6c 953e ec0f 643e 5e32 ca3e
00000290: 2001 6bbe 81f0 2a3e b719 0fbe f31c 16be
000002a0: 7ab7 e2be 978e 99be 5933 71be 6794 bf3e
000002b0: 27d3 903d 80b2 e63d 1ea0 023f 3573 ce3e
000002c0: 81a7 e03e 334d e13c 7631 9fbe 68d7 e23e
000002d0: 0dc7 c9bd c9a3 463d 2c01 03bf 3abd c6bd
000002e0: d6a9 b1be 01d5 d93e 5ceb 2cbf 654f c2be
000002f0: e721 f7bc 3d4f a1be cc80 e33d f687 a0be
00000300: df92 94be 19a6 30ba 609c aa3e 7a70 d8be
00000310: 4965 ad3e d438 c03e a2fb 063f c698 fabe
00000320: 63d6 003e 4676 a1be a38c b33e 3780 9bbe
00000330: 3cc3 953e 955d 14bb a978 dfbd 406b 843b
00000340: 6e16 113d da1f 683e 58ea 8ebc e920 ef3d
00000350: 993d dabe 8ee9 db3e 77bb c23e 1df7 f93e
00000360: e9fc 953e f983 9ebe 5492 3abe 9a99 233f
00000370: 0005 babe 62af 003f 4b1a ccbe 423e 04bf
00000380: f77f 803e a06c 9dbe 94ba e8bd 13c0 0a3f
00000390: 7cb4 e23e bc92 073f 61e5 2a3d c2db f7be
000003a0: 30e7 f53e 104c 19be cd01 3ebe 3b9c 523d
000003b0: 33c1 b3be e3a4 ee3e 2462 d13e 566b ddbe
000003c0: 1635 f8be 23a3 e8bd 5bcd 273d 04d9 523e
000003d0: fe86 c0be fa3b 9bbd 7ba6 1ebf 51cb dcbe
000003e0: 8d2e 95be c763 d33e 135b 093f 32b6 71be
000003f0: 46cc d33c a604 5f3e a0c8 8b3d 3649 a0be

bias f4 [120]
0.21661435 -0.22758128 0.029100308 0.15572236 0.36986837 -0.21741833 -0.36925018 0.4956002
0.25059986 0.17156634 0.18322982 -0.109794244 0.39076623 -0.51679003 0.09733171 0.24589707
0.3453273 -0.2506917 -0.35292798 0.1995538 -0.37372348 -0.32829544 -0.4603539 -0.25751647
-0.10873994 -0.37619495 -0.2403644 -0.49223128 0.3345483 -0.1948711 -0.3373513 0.19353746
-0.39861575 0.32261294 0.21478674 -0.38268712 -0.40201765 -0.35850835 -0.2608383 0.042416576
-0.46290794 -0.3461926 0.2575526 -0.28839245 -0.18332133 -0.3239907 0.22369424 0.034877267
-0.2127675 -0.32767847 0.086469464 0.13723418 0.10542679 0.21435256 -3.994959e-07 -0.4619585
0.34303665 -0.03439175 -0.39694434 0.38678008 0.37322444 -0.39328507 -0.30298495 -0.18887709
-0.37935594 0.26936057 -0.34806424 0.4653759 -0.21157996 0.41074073 -0.036635686 -0.18389894
0.314639 -0.43492043 -0.13155049 0.07514771 0.433179 -0.26964226 -0.30349627 -0.3289277
-0.21896486 -0.13105987 -0.07279288 -0.29498038 0.24237074 0.026714971 -0.29453322 -0.23710766
0.11705019 -0.029186815 0.40531787 -0.058549877 -0.33248883 -0.36094818 -0.22661412 -0.16966777
0.06842319 -0.06481525 0.17959073 -0.16760027 0.32323962 0.28163955 -0.14494681 0.4450321
0.11842996 -0.31227225 -0.28577766 0.2503403 0.1583291 0.3461301 0.04342393 0.36181572
0.30125684 0.15515208 -0.13673583 0.5160585 0.11896933 -0.053663842 -0.022249693 0.5297694
00000000: 27d0 5d3e 110b 69be c563 ee3c af75 1f3e
00000010: 635f bd3e e9a2 5ebe 5c0e bdbe 4fbf fd3e
00000020: a04e 803e 16af 2f3e 99a0 3b3e cedb e0bd
00000030: 8312 c83e 5a4c 04bf d955 c73d 71cc 7b3e
00000040: bdce b03e aa5a 80be fab2 b4be d557 4c3e
00000050: af58 bfbe 5716 a8be 82b3 ebbe 33d9 83be
00000060: 0cb3 debd a09c c0be 1622 76be bd05 fcbe
00000070: ea49 ab3e 4a8c 47be 4fb9 acbe af2e 463e
00000080: 5d17 ccbe 862d a53e 0ef1 5b3e 91ef c3be
00000090: 42d5 cdbe 688e b7be 998c 85be 01bd 2d3d
000000a0: 4502 edbe 2840 b1be efdd 833e 2da8 93be
000000b0: 96b8 3bbe 1ce2 a5be 1a10 653e 77db 0e3d
000000c0: b9df 59be 79c5 a7be e716 b13d 1e87 0c3e
000000d0: 00ea d73d 3d7f 5b3e 4c7a d6b4 d385 ecbe
000000e0: 80a2 af3e 5dde 0cbd 4a3c cbbe 0a08 c63e
000000f0: 4617 bf3e a95c c9be d820 9bbe ff68 41be
00000100: f13a c2be a1e9 893e 7a35 b2be c045 ee3e
00000110: 6ba8 58be 9c4c d23e 4d0f 16bd 0150 3cbe
00000120: 5d18 a13e e4ad debe 2cb5 06be 0be7 993d
00000130: a3c9 dd3e 8d0e 8abe dd63 9bbe 3669 a8be
00000140: 5338 60be 8f34 06be 6f14 95bd ab07 97be
00000150: 0930 783e 5bd9 da3c 0fcd 96be 5acc 72be
00000160: 03b8 ef3d 3019 efbc d385 cf3e ffd1 6fbd
00000170: fa3b aabe 33ce b8be 880d 68be 63bd 2dbe
00000180: 7521 8c3d dcbd 84bd a2e6 373e 689f 2bbe
00000190: aa7f a53e 0f33 903e f06c 14be 3fdb e33e
000001a0: 688b f23d 26e2 9fbe 7351 92be 9b2c 803e
000001b0: 0621 223e f737 b13e 4add 313d e93f b93e
000001c0: 563e 9a3e 30e0 1e3e 7a04 0cbe 691c 043f
000001d0: 31a6 f33d 9ece 5bbd fd44 b6bc f89e 073f

weight f4 [120, 120]
0.013422862 -0.05760745 0.13749585 0.04465565 -0.05206011 -0.09110586 0.082376525 0.020658853
-0.08330273 0.09111841 0.0603726 -0.07606348 -0.12416173 0.09670288 -0.004450555 0.019713288
-0.028365795 0.05484041 0.16985619 -0.027901657 0.011121763 -0.049649514 0.13736774 0.044275623
0.11553563 0.19731165 -0.01654368 0.1438376 -0.04204424 0.16505465 0.15612587 -0.093231805
0.019165173 -0.011115279 0.023428056 -0.029701624 0.06355379 -0.033416893 -0.096110396 -0.04769019
-0.01410026 -0.021853982 -0.12292586 0.15397732 0.003103088 0.03420599 -0.1103765 0.119852066
0.0006861284 0.15503639 -0.0023496042 0.041942783 -0.075806215 -0.07733709 -0.15554738 -0.043006737
-0.107992284 0.20766585 0.00759024 0.039752867 -0.1539554 0.0702715 0.06666483 0.033711486
0.20471656 -0.04592627 0.17065704 -0.06979554 -0.03373545 -0.22164574 0.083195284 -0.077449016
-0.06698707 0.15577054 -0.01614801 0.017897153 -0.20791712 0.015562307 0.12592386 -0.0077600614
0.087399594 0.045096304 -0.11176647 0.02534203 -0.117635205 -0.20321743 0.044828743 -0.03543264
-0.09676064 0.043963727 0.026088271 -0.05784505 -0.08120979 -0.009095831 0.01934865 -0.059230283
0.022323195 -0.20541373 0.08133944 0.20964599 -0.03187194 -0.119790316 -0.03505513 0.030730845
-0.05470051 -0.08508265 0.12121134 0.08534117 0.14994799 -0.06413095 -0.11905379 -0.07772052
-0.021158336 0.015206394 -0.030812094 -0.01632628 -0.05645093 0.032837454 0.10488952 -0.057922825
0.11307058 0.084741734 -0.014707377 -0.08158213 0.052954465 0.068638 0.014035863 0.022664545
0.008983196 -0.06861858 0.059319317 0.11852348 0.04924266 -0.070911035 0.10557269 0.090792805
0.0966847 -0.06209725 -0.017509166 -0.019270653 -0.06848428 -0.055807825 -0.025984515 -0.0060657253
-0.13689528 0.0029961749 0.08583966 0.033750348 0.08334277 -0.08552653 0.007238705 0.107057646
0.028461058 -0.09356756 -0.08272778 0.08225964 0.046433594 0.0485123 -0.043302104 -0.00704755
-0.06723436 -0.06968742 0.21922223 -0.09285796 0.010366924 0.016254859 -0.089411944 0.022141334
-0.0678868 -0.19895583 -0.094865985 0.009075508 -0.08026683 0.089543834 0.16417345 -0.06581301
0.075856805 -0.14225927 -0.06671073 -0.0512877 0.0017726602 0.01708117 -0.06895799 -0.10822652
-0.15921928 -0.06824899 -0.13091984 -0.043507557 0.019818436 0.12228938 -0.10935606 0.04157678
-0.019977443 -0.058785472 0.07918822 0.047550444 0.18669601 -0.10550148 -0.03802654 -0.0747929
-0.010248639 0.10375125 0.09356583 0.038765844 0.03787397 0.098677956 -0.0051707625 0.085066
-0.017544448 -0.13076526 0.03321256 -0.06741316 0.037703753 -0.015912842 -0.06441974 0.05435741
0.08355405 0.20788586 0.049009394 -0.11378231 0.05048844 0.12216342 -0.040663853 0.075841665
0.007985473 0.0027228608 -0.097801596 -0.025839018 -0.14217106 -0.022699846 0.0788121 0.10521761
0.086838976 -0.12574652 0.055892605 0.005295362 0.08343616 -0.0916427 -0.100340255 0.07266125
-0.009245991 0.014357641 -0.14529116 -0.07389592 0.026744407 -0.041161206 -0.071758896 -0.023993867
0.068741225 0.057452213 -0.054319188 0.027456162 -0.06882803 -0.050993152 -0.10921907 0.008038922
00000000: 90eb 5b3c caf5 6bbd b6cb 0c3e d8e8 363d
00000010: fb3c 55bd b695 babd 06b5 a83d c13c a93c
00000020: 9f9a aabd 4a9c ba3d 4249 773d 2bc7 9bbd
00000030: 8148 febd 290c c63d f6d5 91bb c37d a13c
00000040: 625f e8bc 56a0 603d c8ee 2d3e 0492 e4bc
00000050: 0e38 363c 4a5d 4bbd 21aa 0c3e 5b5a 353d
00000060: f29d ec3d 110c 4a3e 9d86 87bc 2a4a 133e
00000070: 9536 2cbd 1604 293e 76df 1f3e 51f0 bebd
00000080: 4800 9d3c dc1c 36bc 32ec bf3c d250 f3bc
00000090: 7d28 823d 27e0 08bd 87d5 c4bd ca56 43bd
000000a0: c704 67bc 1f07 b3bc 8ec0 fbbd 3bac 1d3e
000000b0: 2d5d 4b3b 951b 0c3d 130d e2bd 0075 f53d
000000c0: 4cdd 333a dcc1 1e3e d1fb 19bb 32cc 2b3d
000000d0: 4a40 9bbd e962 9ebd d047 1fbe d527 30bd
000000e0: 0f2b ddbd 5ba6 543e 8cb7 f83b e7d3 223d
000000f0: 7ca6 1dbe 81ea 8f3d 9287 883d 0e15 0a3d
00000100: 38a1 513e 2f1d 3cbd b8c0 2e3e f7f0 8ebd
00000110: 2f2e 0abd 1af7 62be 4a62 aa3d 979d 9ebd
00000120: 8430 89bd 5082 1f3e d548 84bc 0d9d 923c
00000130: 3ae8 54be 0cf9 7e3c 2ff2 003e 1d48 febb
00000140: 8ffe b23d e7b6 383d d2e5 e4bd 179a cf3c
00000150: baea f0bd 3b18 50be 589e 373d d121 11bd
00000160: 712a c6bd 4f13 343d 12b7 d53c eeee 6cbd
00000170: 5251 a6bd ae06 15bc 0f81 9e3c 749b 72bd
00000180: 22df b63c fa57 52be 4b95 a63d 70ad 563e
00000190: 278c 02bd a054 f5bd f895 0fbd 41bf fb3c
000001a0: a40d 60bd d03f aebd a73d f83d 5ac7 ae3d
000001b0: f78b 193e 1657 83bd 79d2 f3bd f02b 9fbd
000001c0: 3f54 adbc 3d24 793c a569 fcbc b1be 85bc
000001d0: 1739 67bd 9180 063d 51d0 d63d 7c40 6dbd
000001e0: 8c91 e73d 138d ad3d 36f7 70bc 8814 a7bd
000001f0: c8e6 583d 1492 8c3d adf6 653c ffaa b93c
00000200: 412e 133c e687 8cbd d0f8 723d 70bc f23d
00000210: acb2 493d ce39 91bd 7f36 d83d 94f1 b93d
00000220: a102 c63d b059 7ebd 626f 8fbc 7ddd 9dbc
00000230: 7c41 8cbd bf96 64bd 7add d4bc fec2 c6bb
00000240: 472e 0cbe 795b 443b b4cc af3d ce3d 0a3d
00000250: 9daf aa3d 8928 afbd a932 ed3b 0a41 db3d
00000260: 2a27 e93c 59a0 bfbd 2f6d a9bd be77 a83d
00000270: 2731 3e3d d5b4 463d 8c5d 31bd 22ef e6bb
00000280: 2bb2 89bd 47b8 8ebd cb7b 603e 502c bebd
00000290: 08da 293c e928 853c 9c1d b7bd be61 b53c
000002a0: 3c08 8bbd 14bb 4bbe 1949 c2bd 71b1 143c
000002b0: f062 a4bd c262 b73d 161d 283e f9c8 86bd
000002c0: d05a 9b3d 6aac 11be a39f 88bd 0d13 52bd
000002d0: 9b58 e83a cfed 8b3c d939 8dbd dea5 ddbd
000002e0: 610a 23be 20c6 8bbd da0f 06be fb34 32bd
000002f0: 465a a23c db72 fa3d 12f6 dfbd 6a4c 2a3d
00000300: bca7 a3bc 09c9 70bd 6f2d a23d 41c4 423d
00000310: 3d2d 3f3e 2911 d8bd b8c1 1bbd 052d 99bd
00000320: e8e9 27bc 897b d43d 719f bf3d efc8 1e3d
00000330: bc21 1b3d ab17 ca3d 806f a9bb 1537 ae3d
00000340: 60b9 8fbc 54e7 05be e509 083d e90f 8abd
00000350: 406f 1a3d a65b 82bc 7fee 83bd e0a5 5e3d
00000360: 631e ab3d 08e0 543e 13be 483d b306 e9bd
00000370: f7cc 4e3d d130 fa3d 248f 26bd e052 9b3d
00000380: 80d5 023c 0672 323b 344c c8bd 59ac d3bc
00000390: 4a95 11be 07f5 b9bc 3d68 a13d 557c d73d
000003a0: a2d8 b13d b2c3 00be a5ef 643d b784 ad3b
000003b0: 94e0 aa3d 2baf bbbd 317f cdbd 6ccf 943d
000003c0: 7f7c 17bc 503c 6b3c 35c7 14be be56 97bd
000003d0: 1617 db3c a798 28bd 54f6 92bd c98e c4bc
000003e0: 33c8 8c3d 0353 6b3d cc7d 5ebd bfeb e03c
000003f0: b6f5 8cbd 32de 50bd 3fae dfbd afb5 033c

bias f4 [120]
-0.07033434 -0.01518936 -0.122926846 0.09491165 0.017618483 0.07038566 0.028653149 0.08861742
-0.094730616 -0.09406155 -0.062372897 -0.0050069783 -0.050467666 0.018333996 0.046611518 -0.07643751
0.0939666 -0.116162494 -0.048940748 0.04883001 -0.021184022 0.020749986 0.09821678 0.032129135
0.011841142 -0.049844775 -0.050984256 0.005503131 0.0721381 -0.031359658 0.02762146 0.024378275
0.102054186 0.12616986 0.048807558 -0.060829643 0.072206385 0.0968249 -0.11016842 0.005155593
0.066560216 -0.0054735574 -0.07961821 -0.018040378 -0.06060758 0.09986878 0.078802146 0.03292476
-0.03823265 -0.059734635 0.10391875 0.0043923347 0.08249583 0.12581009 -0.042326756 -0.05022238
0.046631645 0.017386574 -0.10011503 0.028193321 -0.015172226 0.064421445 -0.044862352 0.0138584245
0.02619255 -0.089969836 0.017089726 -0.10567744 0.04739823 0.114351586 0.066249795 -0.020180833
-0.15135534 0.08110978 0.05694418 0.0055938046 -0.02628596 -0.031764507 0.065984145 0.01586535
0.122292556 -0.03917186 -0.039189808 -0.0041700075 -0.043238148 -0.08574452 0.11068339 -0.07925866
0.08419394 -0.08226172 -0.123107664 0.022412831 -0.10512424 0.029522395 -0.090289645 0.0449421
-0.045037817 -0.058108814 -0.0041428176 -0.05670267 -0.036810324 -0.08171357 -0.049284127 0.10125547
0.04372739 -0.07545618 0.0349005 -0.098072 0.021050273 -0.04287102 0.04172837 -0.059816357
0.08387951 0.036080074 -0.014696269 0.009412484 -0.06631152 0.035090797 0.041060004 0.017053476
00000000: 730b 90bd cbdc 78bc 12c1 fbbd 0a61 c23d
00000010: a354 903c 5b26 903d 02ba ea3c 0d7d b53d
00000020: 2002 c2bd 58a3 c0bd b97a 7fbd 9411 a4bb
00000030: 2fb7 4ebd 2d31 963c b8eb 3e3d 458b 9cbd
00000040: 9071 c03d 9ae6 edbd 1876 48bd fa01 483d
00000050: 1d8a adbc e0fb a93c e125 c93d d799 033d
00000060: 5901 423c 092a 4cbd ded4 50bd 9c53 b43b
00000070: 24bd 933d fc72 00bd 6646 e23c f3b4 c73c
00000080: c901 d13d ac32 013e 6fea 473d 8128 79bd
00000090: f1e0 933d 224c c63d fb9f e1bd 40f0 a83b
000000a0: b950 883d 875b b3bb df0e a3bd 6ac9 93bc
000000b0: a73f 78bd 0188 cc3d 0563 a13d 1ddc 063d
000000c0: d799 1cbd 4eac 74bd 5bd3 d43d 93ed 8f3b
000000d0: 93f3 a83d 5cd4 003e d25e 2dbd fbb5 4dbd
000000e0: d300 3f3d 4a6e 8e3c 1c09 cdbd aef5 e63c
000000f0: ee94 78bc 64ef 833d 96c1 37bd 720e 633c
00000100: c291 d63c 1b42 b8bd c1ff 8b3c 6a6d d8bd
00000110: a524 423d 2a31 ea3d f9ad 873d 4652 a5bc
00000120: e5fc 1abe e21c a63d 4d3e 693d 3c4c b73b
00000130: a755 d7bc 801b 02bd b222 873d 0df8 813c
00000140: 8574 fa3d ac72 20bd 7e85 20bd 8fa4 88bb
00000150: 7c1a 31bd d39a afbd f9ad e23d 5d52 a2bd
00000160: df6d ac3d d578 a8bd df1f fcbd 1d9b b73c
00000170: 614b d7bd f3d8 f13c c7e9 b8bd 3515 383d
00000180: 9379 38bd 8203 6ebd 79c0 87bb 0f41 68bd
00000190: 6cc6 16bd 7259 a7bd 27de 49bd 075f cf3d
000001a0: 7e1b 333d c588 9abd d4f3 0e3d f9d9 c8bd
000001b0: 9f71 ac3c 8699 2fbd 5eeb 2a3d ff01 75bd
000001c0: 05c9 ab3d b3c8 133d 9fc8 70bc d236 1a3c
000001d0: 56ce 87bd 5ebb 0f3d 892e 283d bbb3 8b3c

weight f4 [120, 120]
0.11368905 -0.049741264 0.116812415 0.06420929 -0.090173155 0.021896752 0.051582973 0.016094625
0.10887071 0.1765211 0.041806214 -0.0073521873 0.041462652 0.005343009 -0.09729769 0.08943599
-0.0301811 -0.059846338 0.09942388 0.11617541 -0.020076413 0.04184467 0.021923428 0.122802556
-0.05147593 -0.024980238 0.12659517 0.010807715 -0.16608788 -0.029222243 -0.08847034 -0.046429094
0.036943592 -0.037528683 -0.07631052 0.09749373 0.013067806 -0.18250619 0.023361148 -0.062116995
-0.13321863 -0.06561171 0.080483176 0.049974035 0.16274084 0.009179863 0.04051682 -0.017520806
0.083252445 0.13771273 0.1609435 0.04898943 -0.11607473 0.021385504 -0.084393255 0.0045360974
-0.06578601 -0.048691977 0.085179985 -0.029045364 -0.0042685345 0.042449452 0.093985125 0.025488028
-0.08538593 0.022781081 -0.00043976388 0.06750361 -0.0010636679 -0.031483848 0.00942313 -0.12859996
0.06489114 0.029904332 -0.1431839 0.050450392 -0.08351259 0.101319894 0.054886423 0.047910742
0.103888854 -0.012234296 -0.04385801 -0.01242888 0.1213725 0.109587155 -0.11838975 -0.018178357
-0.015546722 0.07319966 -0.012351359 0.050239448 -0.056317475 -0.12722111 0.12454954 -0.039520912
0.022348918 -0.029110791 -0.053137843 0.033642698 0.0071620806 0.0476163 0.1221726 -0.012653283
0.11601323 -0.0050191465 -0.017914593 0.082367465 -0.21248388 -0.09758207 -0.113151796 0.11367016
-0.07110438 -0.08482711 0.0051275548 0.18739444 0.028200828 -0.06617266 -0.048261225 -0.062471014
-0.04085283 -0.019520152 0.114081256 -0.10228187 -0.010781139 -0.082117826 0.099096335 -0.12547262
-0.024283458 0.08194489 0.027528996 0.019086896 -0.052102268 -0.11777732 0.010705012 -0.024750108
0.08788682 0.0063766004 -0.01980015 0.038498845 0.023131287 -0.02432381 0.030283934 0.021780623
-0.14346795 0.01684084 -0.08398512 0.030323448 0.09139248 -0.020103412 0.03184058 0.07362343
0.04087572 0.0026349993 0.04110789 -0.059609998 -0.10313877 -0.027151147 -0.022590421 0.037651345
0.058933746 -0.03840038 0.014761305 0.038503766 0.04981092 -0.06091195 0.07014582 -0.028668355
0.03669766 -0.055330727 0.08092438 0.07732336 0.07730891 0.08672214 -0.04086289 0.06595827
-0.10680635 0.008455002 -0.03821308 0.06501766 -0.10925565 -0.06172082 0.00635739 -0.034956228
-0.046051603 0.056507263 -0.051094368 -0.013559904 0.092920475 -0.09385952 0.12623383 -0.0028464177
0.13180739 -0.00021377826 -0.046521533 0.06051556 0.03044243 -0.061251044 -0.025921123 0.039867606
0.004488349 0.02560097 0.1275849 -0.014762216 0.0624959 0.006619169 -0.10741111 0.0015335222
-0.053470332 0.11755611 -0.08514105 -0.0928472 0.075358935 0.1088728 0.07383251 0.053663544
-0.09212591 0.07858975 -0.09808892 -0.0786348 -0.03229871 0.09410358 -0.030738357 -0.026776522
-0.025573017 0.004062573 -0.118354626 -0.017552694 -0.04880138 -0.098436974 0.077142835 -0.039328583
0.051771592 -0.09012848 -0.095556565 -0.011066249 0.10883379 -0.100333646 0.03818374 0.03622522
0.14086539 -0.08478751 -0.082325466 0.0048989905 0.07170097 -0.020576945 -0.10330507 -0.017565772
-0.10446213 -0.045602683 -0.0066441046 -0.084593095 0.01241728 0.072736405 0.038735934 0.12250465
00000000: ced5 e83d 7fbd 4bbd 593b ef3d 2980 833d
00000010: b4ac b8bd d160 b33c ab48 533d e0d8 833c
00000020: 9bf7 de3d f2c1 343e fe3c 2b3d 9eea f0bb
00000030: bed4 293d 6814 af3b 0344 c7bd 372a b73d
00000040: 5b3e f7bc 6f21 75bd bf9e cb3d 60ed ed3d
00000050: 4a77 a4bc 5165 2b3d c398 b33c e87f fb3d
00000060: 6dd8 52bd 5ba3 ccbc 2aa2 013e d812 313c
00000070: f112 2abe 7c63 efbc f02f b5bd 6f2c 3ebd
00000080: 2a52 173d adb7 19bd b148 9cbd cbaa c73d
00000090: 5a1a 563c e7e2 3abe e15f bf3c 646e 7ebd
000000a0: 776a 08be 6f5f 86bd 5dd4 a43d 93b1 4c3d
000000b0: 89a5 263e 2367 163c f7f4 253d cb87 8fbc
000000c0: 4280 aa3d 9104 0d3e 5fce 243e 24a9 483d
000000d0: 97b8 edbd a730 af3c 5fd6 acbd 8ba3 943b
000000e0: d1ba 86bd 3d71 47bd d872 ae3d 8bf0 edbc
000000f0: 10df 8bbb 7adf 2d3d 467b c03d 45cc d03c
00000100: d2de aebd 649f ba3c 1c90 e6b9 553f 8a3d
00000110: c66a 8bba 35f5 00bd 7963 1a3c b5af 03be
00000120: a5e5 843d eef9 f43c cd9e 12be 12a5 4e3d
00000130: a608 abbd ce80 cf3d 96d0 603d 0e3e 443d
00000140: aec3 d43d 5b72 48bc 75a4 33bd 80a2 4bbc
00000150: 2592 f83d 3b6f e03d 5376 f2bd c7ea 94bc
00000160: aeb7 7ebc b4e9 953d 5b5d 4abc e1c7 4d3d
00000170: 27ad 66bd 4046 02be d413 ff3d aee0 21bd
00000180: 1415 b73c c179 eebc 11a7 59bd edcc 093d
00000190: e3af ea3b 4f09 433d a135 fa3d b74f 4fbc
000001a0: 5898 ed3d a777 a4bb a0c1 92bc 46b0 a83d
000001b0: 6095 59be 1cd9 c7bd 21bc e7bd e7cb e83d
000001c0: 2c9f 91bd d6b9 adbd 0c05 a83b 54e4 3f3e
000001d0: 6c05 e73c 8885 87bd 90ad 45bd 9be1 7fbd
000001e0: 4c55 27bd bae8 9fbc 6fa3 e93d 2879 d1bd
000001f0: 60a3 30bc 642d a8bd 05f3 ca3d e57b 00be
00000200: 1aee c6bc b9d2 a73d 7d84 e13c 1f5c 9c3c
00000210: 3069 55bd 3c35 f1bd 1364 2f3c bdc0 cabc
00000220: 01fe b33d cdf2 d03b ed33 a2bc f7b0 1d3d
00000230: d37d bd3c ba42 c7bc 0316 f83c 476d b23c
00000240: 43e9 12be cdf5 893c 6400 acbd e168 f83c
00000250: fb2b bb3d e9af a4bc 456b 023d e2c7 963d
00000260: 4d6d 273d f4af 2c3b bf60 283d 9d29 74bd
00000270: 6b3a d3bd 156c debc 8c0f b9bc 4c38 1a3d
00000280: 8364 713d b849 1dbd 67d9 713c 20b6 1d3d
00000290: 8906 4c3d cf7e 79bd 9da8 8f3d e6d9 eabc
000002a0: 4950 163d 79a2 62bd aebb a53d b65b 9e3d
000002b0: 2254 9e3d 619b b13d d95f 27bd 2115 873d
000002c0: 4abd dabd d986 0a3c 5285 1cbd fb27 853d
000002d0: 6dc1 dfbd f8ce 7cbd a751 d03b 432e 0fbd
000002e0: 9ba0 3cbd 2974 673d 5448 51bd 5c2a 5ebc
000002f0: 174d be3d 6c39 c0bd 7143 013e f78a 3abb
00000300: 84f8 063e aa29 60b9 5d8d 3ebd 2adf 773d
00000310: 6762 f93c 60e2 7abd 8958 d4bc 374c 233d
00000320: 0013 933b 20b9 d13c 9ea5 023e 39dd 71bc
00000330: b3fb 7f3d 9de5 d83b 5bfa dbbd 7700 c93a
00000340: b503 5bbd 42c1 f03d 6e5e aebd ac26 bebd
00000350: c955 9a3d b4f8 de3d 8035 973d 4ece 5b3d
00000360: 82ac bcbd aaf3 a03d d8e2 c8bd 480b a1bd
00000370: a74b 04bd 61b9 c03d 02cf fbbc 705a dbbc
00000380: 817e d1bc 551f 853b e963 f2bd abca 8fbc
00000390: f5e3 47bd 5399 c9bd 10fd 9d3d 0217 21bd
000003a0: 730e 543d 4895 b8bd 29b3 c3bd 364f 35bc
000003b0: 40e4 de3d ba7b cdbd 8e66 1c3d e560 143d
000003c0: 043f 103e 13a5 adbd 419a a8bd b687 a03b
000003d0: f5d7 923d fb90 a8bc 9c91 d3bd 18e6 8fbc
000003e0: 3ef0 d5bd e1c9 3abd cab6 d9bb 253f adbd
000003f0: d971 4b3c d3f6 943d 92a9 1e3d b8e3 fa3d

bias f4 [120]
-0.052606706 -0.05278211 0.087174244 -0.06939833 0.025476279 -0.031054562 -0.082826026 0.024640877
0.06901959 -0.015586306 -0.03903645 -0.0144479 -0.05961897 0.068900555 0.08585386 -0.08291098
-0.03989559 0.02418146 0.081079945 -0.08129219 -0.1506369 0.02446929 -0.13100481 0.06879979
-0.06293603 -0.05911028 -0.013833473 0.13346581 0.021455988 0.1271798 -0.13589546 -0.07011986
0.042008437 -0.030167619 -0.043342706 -0.101233795 0.011979999 0.04575861 -0.028801955 0.12708743
0.015172932 -0.020239132 -0.026776474 -0.03825813 0.033827532 -0.06722405 -0.009171795 -0.07902147
-0.024984153 0.10502764 0.03943581 0.07683567 -0.016368806 -0.032885995 0.05915206 0.05355502
-0.051327825 -0.090086244 0.0487083 0.04806599 -0.040073197 -0.027940791 -0.06420506 0.027131807
-0.030956851 0.06112011 -0.109639876 -0.19524887 -0.060144562 -0.12795353 0.113719285 0.029684812
-0.031355634 0.11345159 0.1090631 0.04628326 -0.025931343 -0.16299361 -0.06008757 -0.0010798821
0.09089908 -0.033349305 -0.07504272 -0.061260074 -0.038067624 0.018977549 0.058556117 2.6586393e-05
-0.03860626 -0.069624 -0.090190135 -0.031225778 0.04648101 -0.12810388 0.01450673 0.059618887
-0.088114284 -0.0007607824 0.089452945 -0.043675423 0.017197121 0.01174588 -0.0064003016 0.013073455
-0.022959685 -0.094018444 -0.11673815 0.09550246 -0.052033532 0.0058946377 -0.089705706 -0.0071575334
-0.019195504 0.045988433 -0.009434838 -0.044606093 0.074645676 -0.026677338 -0.091931686 -0.04551366
00000000: 217a 57bd 0e32 58bd 6988 b23d b620 8ebd
00000010: a1b3 d03c 2366 febc b1a0 a9bd aadb c93c
00000020: 255a 8d3d b55d 7fbc afe4 1fbd e2b6 6cbc
00000030: 0533 74bd bc1b 8d3d 26d4 af3d 3bcd a9bd
00000040: 8f69 23bd 3218 c63c 3e0d a63d 857c a6bd
00000050: 8f40 1abe d273 c83c 2026 06be e8e6 8c3d
00000060: 9be4 80bd 9f1d 72bd cba5 62bc 43ab 083e
00000070: 78c4 af3c 6c3b 023e 2e28 0bbe 009b 8fbd
00000080: 0a11 2c3d 1522 f7bc 1f88 31bd aa53 cfbd
00000090: c247 443c 616d 3b3d 14f2 ebbc 3523 023e
000000a0: e497 783c 89cc a5bc 565a dbbc 8fb4 1cbd
000000b0: bd8e 0a3d c3ac 89bd 4c45 16bc 02d6 a1bd
000000c0: 91ab ccbc bb18 d73d 7287 213d 055c 9d3d
000000d0: e017 86bc 77b3 06bd 6e49 723d 825c 5b3d
000000e0: 203d 52bd 237f b8bd 5b82 473d d8e0 443d
000000f0: cb23 24bd 16e4 e4bc f17d 83bd 8643 de3c
00000100: 3999 fdbc 1559 7a3d df8a e0bd 52ef 47be
00000110: 255a 76bd 4006 03be a8e5 e83d 902d f33c
00000120: c46e 00bd 4f59 e83d 795c df3d 8493 3d3d
00000130: f86d d4bc cce7 26be 621e 76bd d58a 8dba
00000140: 4c29 ba3d 4899 08bd ffaf 99bd d8eb 7abd
00000150: ccec 1bbd ce76 9b3c 8ad8 6f3d d805 df37
00000160: 9921 1ebd 0797 8ebd 9bb5 b8bd 34cd ffbc
00000170: df62 3e3d aa2d 03be a3ad 6d3c ef32 743d
00000180: 4375 b4bd 3e6f 47ba 1b33 b73d 00e5 32bd
00000190: fae0 8c3c cb71 403c 9fb9 d1bb 0b32 563c
000001a0: f315 bcbc be8c c0bd 6914 efbd cb96 c33d
000001b0: 1d21 55bd ce27 c13b a0b7 b7bd be89 eabb
000001c0: e43f 9dbc 5e5e 3c3d 9494 1abc e1b4 36bd
000001d0: d5df 983d 6f8a dabc ae46 bcbd 886c 3abd

weight f4 [120, 120]
-0.06429992 -0.05201818 0.04227614 0.22535193 -0.077475235 -0.050524 0.0075536487 0.032255016
-0.0014227959 -0.07945185 0.07794325 0.017875329 -0.035104804 0.038355857 -0.112948984 0.09614197
0.06199912 -0.055299662 0.029708916 -0.17220992 0.06620233 0.02017257 0.117655545 0.054578207
0.057472553 0.013632943 -0.086478144 -0.056005195 0.11283068 -0.0049391775 0.04309921 0.037544448
0.11064548 -0.03379766 -0.025110954 0.008781421 0.045855686 -0.12378253 -0.034563147 0.029086519
-0.01849289 -0.040499937 -0.036288198 0.025767602 0.022831276 -0.038782522 0.122699425 -0.036731686
-0.05531606 -0.0117762815 -0.23197223 0.0040413863 -0.060126666 0.07109345 0.021041904 -0.07359761
0.059539963 -0.040448595 -0.03147037 0.010065675 0.015002196 -0.041653518 -0.038338624 0.013677993
-0.08875591 0.012848815 -0.015527516 0.10032059 -0.08867941 -0.019908302 0.15555915 0.0007723766
0.045619473 -0.013705138 -0.05590949 0.135023 0.127929 0.13292228 -0.007218755 -0.055024236
0.06707717 -0.003986095 -0.04359648 0.11471916 0.043518223 0.07581955 0.018832006 -0.056709703
0.086865894 0.06305927 -0.05860441 0.06336466 -0.02321361 0.02010887 0.040549364 -0.018924994
0.0345547 -0.031773973 0.084947556 0.030497728 -0.07203835 0.18178184 0.06655679 0.013590013
0.047219086 -0.010093229 0.15254177 0.031485375 0.03515741 0.1598391 0.032220893 -0.020030515
0.09558867 0.06767548 0.016370695 0.050213538 -0.033149183 -0.02886342 -0.04757915 -0.06621918
0.004814336 -0.03635071 0.013950113 0.05287474 0.044877697 -0.0016914385 -0.052891806 -0.014115319
0.0400314 0.10201519 -0.04781944 0.03837478 -0.0395772 -0.05604264 0.03557458 -0.043653514
-0.078223735 -0.0415732 -0.112130724 0.053576645 -0.024458146 0.059006196 -0.013295954 0.026529524
-0.103739865 -0.037958484 0.0656863 -0.09349376 0.028029222 -0.019350596 -0.00096174085 0.07098571
0.04077259 0.086081386 -0.002896199 0.020656463 -0.05942092 0.05593956 0.040729433 -0.09243797
0.034281366 -0.015892433 0.0063934717 -0.0038436626 0.029920712 0.090371996 0.06380351 -0.08166581
-0.10627253 -0.052905235 0.0373994 0.042861853 0.0041572656 0.1232736 -0.07780209 0.047745824
-0.097664826 0.066683576 0.041261643 0.05842488 0.087568305 0.0643764 0.0035427501 -0.08702174
-0.028785013 -0.029936356 0.006537946 -0.12616135 -0.094498 -0.0069675385 0.062286306 0.08747525
-0.06803864 0.093908325 -0.036625706 0.057528097 0.05523494 0.04783454 -0.01183347 -0.04070075
-0.0030810775 0.054340806 0.11079175 0.086197376 -0.1594086 0.13984522 0.015998824 -0.010476325
0.08218047 0.012496783 -0.020510035 0.0636158 0.1134436 0.06941538 0.06586419 -0.053046018
0.04692875 0.015992094 0.08541059 0.068830974 -0.05927871 0.007918694 0.05526318 0.0129383
-0.009993248 -0.066325694 0.21687476 -0.08094998 -0.034705747 0.04326822 -0.101069584 0.008564898
0.07586529 -0.008797882 -0.073842704 -0.013455814 -0.01104904 0.04133177 -0.0141203655 0.120115995
-0.08038678 0.10919216 0.1247394 0.020741165 -0.06984824 -0.04145163 0.013836093 0.18733175
0.04393852 -0.012416673 0.049814288 0.056585327 -0.0832147 -0.12147044 0.04245272 -0.058224525
00000000: adaf 83bd 0411 55bd bf29 2d3d a8c2 663e
00000010: 56ab 9ebd 41f2 4ebd 9984 f73b d61d 043d
00000020: 1c7d baba a7b7 a2bd b6a0 9f3d 486f 923c
00000030: 0eca 0fbd 081b 1d3d cc51 e7bd 15e6 c43d
00000040: caf2 7d3d e681 62bd 1d60 f33c cc57 30be
00000050: 1695 873d f240 a53c 64f5 f03d 668d 5f3d
00000060: 5768 6b3d b55c 5f3c 741b b1bd b465 65bd
00000070: c613 e73d d3d8 a1bb cc88 303d 35c8 193d
00000080: 199a e23d 6a6f 0abd 7db5 cdbc f3df 0f3c
00000090: 2cd3 3b3d b281 fdbd 1692 0dbd da46 ee3c
000000a0: 677e 97bc 43e3 25bd efa2 14bd 9416 d33c
000000b0: a808 bb3c 6cda 1ebd d649 fb3d f773 16bd
000000c0: 1893 62bd 4ef1 40bc 218a 6dbe 9b6d 843b
000000d0: 6147 76bd 7199 913d 1260 ac3c 58ba 96bd
000000e0: 2de0 733d 6dad 25bd 13e7 00bd 80ea 243c
000000f0: c5cb 753c e19c 2abd f608 1dbd a919 603c
00000100: a9c5 b5bd d683 523c 1f67 7ebc e274 cd3d
00000110: 8d9d b5bd bc16 a3bc e64a 1f3e 5179 4a3a
00000120: 7cdb 3a3d 848b 60bc 5901 65bd 7843 0a3e
00000130: d2ff 023e c71c 083e 4e8b ecbb 1861 61bd
00000140: c15f 893d ca9d 82bb 3992 32bd e1f1 ea3d
00000150: 2a40 323d 4847 9b3d 9445 9a3c 6f48 68bd
00000160: bfe6 b13d 3825 813d 2e0b 70bd 55c5 813d
00000170: 782a bebc 5bbb a43c 1717 263d 9708 9bbc
00000180: 3b89 0d3d 6d25 02bd fcf8 ad3d 5fd6 f93c
00000190: d888 93bd 0525 3a3e ed4e 883d a5a8 5e3c
000001a0: cd68 413d 125e 25bc e933 1c3e cff6 003d
000001b0: 3701 103d dcac 233e 0efa 033d 0917 a4bc
000001c0: fec3 c33d 7199 8a3d d61b 863c b6ac 4d3d
000001d0: 70c7 07bd fb72 ecbc 5be2 42bd ec9d 87bd
000001e0: 94c1 9d3b 7be4 14bd 048f 643c 2f93 583d
000001f0: add1 373d 42b3 ddba 14a5 58bd f043 67bc
00000200: f7f7 233d 57ed d03d 51de 43bd e02e 1d3d
00000210: b41b 22bd f88c 65bd a7b6 113d 07ce 32bd
00000220: c433 a0bd a948 2abd cba4 e5bd 2f73 5b3d
00000230: 735c c8bc 7bb0 713d 46d7 59bc 7254 d93c
00000240: 9175 d4bd 5b7a 1bbd 8a86 863d a879 bfbd
00000250: 8a9d e53c 2485 9ebc 561d 7cba f560 913d
00000260: 2901 273d 704b b03d 28ce 3dbb be37 a93c
00000270: 5a63 73bd e120 653d e8d3 263d 1e50 bdbd
00000280: 9e6a 0c3d d930 82bc 5480 d13b f5e5 7bbb
00000290: 481c f53c f414 b93d 6aab 823d 6740 a7bd
000002a0: 6aa5 d9bd 29b3 58bd 1d30 193d e98f 2f3d
000002b0: ac39 883b df76 fc3d b456 9fbd 2091 433d
000002c0: 7f04 c8bd 6691 883d f801 293d ed4e 6f3d
000002d0: 0357 b33d c6d7 833d 7c2d 683b 7438 b2bd
000002e0: 8cce ebbc 173d f5bc 443c d63b 7130 01be
000002f0: 2b88 c1bd f34f e4bb ed1f 7f3d 3926 b33d
00000300: d857 8bbd 0253 c03d d604 16bd 95a2 6b3d
00000310: 083e 623d 27ee 433d 2ce1 41bc d4b5 26bd
00000320: e7eb 49bb 7794 5e3d c9e6 e23d 4088 b03d
00000330: 023c 23be 9633 0f3e f70f 833c e4a4 2bbc
00000340: 3c4e a83d 4fbf 4c3c a904 a8bc 0049 823d
00000350: 1e55 e83d a729 8e3d cee3 863d c846 59bd
00000360: 5c38 403d da01 833c bfeb ae3d 41f7 8c3d
00000370: 3cce 72bd 69bd 013c a55b 623d 2afb 533c
00000380: b8ba 23bc c4d5 87bd 6b14 5e3e 1ac9 a5bd
00000390: 9d27 0ebd 043a 313d 92fd cebd c953 0c3c
000003a0: 435f 9b3d fe24 10bc d83a 97bd c675 5cbc
000003b0: 0807 35bc 814b 293d 1b59 67bc 60ff f53d
000003c0: d3a1 a4bd 24a0 df3d 5f77 ff3d 60e9 a93c
000003d0: 980c 8fbd 2fc9 29bd c8b0 623c e5d3 3f3e
000003e0: e1f8 333d 4d6f 4bbc 110a 4c3d 04c6 673d
000003f0: 786c aabd 7ec5 f8bd e7e2 2d3d d77c 6ebd

bias f4 [120]
0.015974741 -0.00036505883 -0.08915856 0.06627434 -0.046518642 0.057930734 0.04002802 -0.09272997
-0.065104686 -0.04143093 -0.02055591 -0.07296517 0.084334545 0.011110127 0.0059339977 -0.054186158
0.06513253 -0.088519186 0.06267801 0.06311485 -0.03004022 0.019468881 0.088891774 0.055058263
-0.018239493 -0.03955592 -0.024539808 -0.01579756 -0.049717344 -0.043987323 0.100003 -0.077275604
-0.0692086 0.06095268 0.057423357 -0.110033296 -0.015362494 -0.03105176 0.0031766344 0.03390448
0.0705005 -0.05381856 -0.07432442 -0.028551947 0.016969152 -0.037316337 0.057140183 0.033007596
-0.048127893 0.030554824 0.021884426 -0.06671077 0.18539028 -0.051460218 0.017474864 0.04337219
0.10194939 -0.0030434479 0.116112985 -0.0027577158 -0.1460209 0.035820156 -0.033107467 -0.09768118
-0.081478514 -0.120916165 -0.14359255 0.058730423 -0.048579868 -0.018510444 -0.07382776 -0.039358277
-0.03541923 0.090404175 -0.0133461915 0.10493402 -0.12368522 -0.07830524 0.093742505 0.054456286
0.021992477 0.028625181 -0.024553927 0.06344766 0.055941794 0.08911328 0.035350714 -0.01632399
-0.067805596 0.031556882 0.072525986 0.045829274 0.028061522 -0.056634355 -0.015247912 0.054140974
-0.021957323 -0.0028367168 -0.03665019 -0.095838085 -0.020424696 -0.1777175 0.019623822 -0.046599865
-0.0028631443 0.13803755 -0.11782608 -0.1126432 0.011664614 -0.07226139 0.017720308 0.069093294
0.053819876 -0.16940007 -0.04763178 -0.009236283 -0.0031134577 -0.027065948 -0.088793725 -0.005813964
00000000: 76dd 823c 5e65 bfb9 c398 b6bd d7ba 873d
00000010: 558a 3ebd c748 6d3d 6cf4 233d 36e9 bdbd
00000020: 9b55 85bd 7bb3 29bd de64 a8bc c36e 95bd
00000030: 97b7 ac3d 4007 363c fb71 c23b 4ef2 5dbd
00000040: 3464 853d 8c49 b5bd 545d 803d 5c42 813d
00000050: e816 f6bc 347d 9f3c e40c b63d c684 613d
00000060: fd6a 95bc 6305 22bd b507 c9bc e269 81bc
00000070: 6aa4 4bbd 0d2c 34bd 5fce cc3d ac42 9ebd
00000080: 3dbd 8dbd 84a9 793d c134 6b3d 2359 e1bd
00000090: f8b2 7bbc 4360 febc 152f 503b 6ddf 0a3d
000000a0: 9162 903d da70 5cbd 6737 98bd c6e5 e9bc
000000b0: e402 8b3c 04d9 18bd d30b 6a3d f932 073d
000000c0: c121 45bd 1c4e fa3c f846 b33c a89f 88bd
000000d0: f3d6 3d3e f3c7 52bd 7227 8f3c 0aa7 313d
000000e0: d7ca d03d 9574 47bb a5cc ed3d cbba 34bb
000000f0: 8186 15be 28b8 123d b29b 07bd 120d c8bd
00000100: 35de a6bd e5a2 f7bd ed09 13be 508f 703d
00000110: affb 46bd 37a3 97bc 0233 97bd 2536 21bd
00000120: c113 11bd d325 b93d fca9 5abc a6e7 d63d
00000130: ad4e fdbd 7f5e a0bd 12fc bf3d 8e0d 5f3d
00000140: 9129 b43c 5b7f ea3c 5125 c9bc d9f0 813d
00000150: 3923 653d 0681 b63d e9cb 103d e3b9 85bc
00000160: a9dd 8abd ca41 013d 8188 943d 7ab7 3b3d
00000170: 47e1 e53c 6df9 67bd 61d2 79bc edc2 5d3d
00000180: d8df b3bc 36e8 39bb 821e 16bd c246 c4bd
00000190: b151 a7bc 94fb 35be 23c2 a03c 80df 3ebd
000001a0: 97a3 3bbb b759 0d3e cd4e f1bd 7ab1 e6bd
000001b0: f01c 3f3c c8fd 93bd 2e2a 913c c980 8d3d
000001c0: 3b72 5c3d 3677 2dbe 8b19 43bd c753 17bc
000001d0: 270b 4cbb 68b9 ddbc 7cd9 b5bd 1183 bebb

weight f4 [120, 120]
0.07480261 -0.018049274 0.0007918708 0.01985477 -0.034928206 0.07583402 0.08766377 -0.03521056
0.088374086 -0.021552168 0.09223327 0.020754207 -0.052185543 0.032615557 0.038875375 -0.024599034
0.015962683 -0.05315412 -0.039761513 0.046236515 0.013178037 0.038640853 -0.10888353 0.087935746
-0.042488735 0.048676554 0.010638931 0.012071643 -0.029900808 -0.047425922 0.043654826 -0.047831327
-0.09992151 0.07432134 0.08988972 -0.019147953 -0.059490543 -0.03157555 -0.06929467 -0.03052736
0.037552994 0.07760074 0.09469527 -0.052007616 -0.023346247 0.032682464 0.10819896 0.0032481307
-0.054338634 0.08886743 0.0006693246 0.064303175 0.042566188 0.038613442 -0.055995606 0.039251003
0.04889741 0.06505615 -0.07267666 0.069222614 0.054573156 -0.07314401 0.09046144 -0.0078865895
-0.014183538 -0.06399622 0.14584614 -0.061036527 0.03604726 -0.010279673 0.043226305 0.08857322
-0.08041238 0.064239606 0.038513828 -0.045798015 -0.00091707567 -0.033051234 0.030086929 0.09988742
-0.0070834346 -0.026583213 -0.040612575 0.06897735 -0.063350186 -0.03380831 0.059560493 0.072702385
-0.037054885 0.14038801 0.098215126 0.0995749 0.029366795 -0.026076024 -0.103223786 0.056053143
-0.06989723 -0.026712187 -0.03673605 -0.012014752 -0.05396833 0.1221444 0.047069278 0.023761505
-0.10441492 -0.040651735 0.06813822 0.011590873 0.07658052 0.048827622 0.040721618 0.024372293
0.09975092 0.01709943 -0.062331617 -0.08720468 0.012630659 -0.03204078 -0.054071765 -0.04775418
0.04105098 0.05995018 -0.09122151 -0.022312902 0.026617479 0.016254103 0.09725527 -0.08474005
0.06725679 0.055900045 -0.023284325 0.024653723 -0.00836552 0.008276143 -0.027064636 0.154008
0.013636404 -0.06910146 0.007205716 -0.1580736 0.0031323626 0.00024277953 -0.013257767 0.029447604
-0.14034322 0.017727736 0.065280505 -0.09055959 0.08342184 -0.0031916117 0.07257317 0.013424629
-0.05456293 0.070900634 -0.0862774 0.0766844 -0.044134703 -0.026341632 0.06766047 -0.04460608
0.062803425 0.05188866 -0.01799991 -0.08830225 0.07273872 0.038190722 0.028945623 -0.047593597
-0.09462003 0.04823041 0.073121354 -0.093629524 0.050541293 -0.060557768 0.03977596 0.088023335
-0.052265927 -0.10820966 0.003396011 -0.032121893 0.023983605 0.06480491 0.08281561 -0.056209028
-0.052092224 -0.0001140731 0.11049902 0.08703269 -0.009162305 0.093035884 -0.049466986 -0.0019288261
-0.027417265 -0.060527515 -0.048892673 0.017130561 -0.06189421 -0.0006442671 -0.03168506 0.06116708
0.060167555 0.07831896 -0.1040346 -0.018864589 0.06064457 -0.04005146 -0.05627586 0.032467946
-0.11738781 0.0919387 -0.1116008 -0.08580368 -0.07787913 0.039156392 -0.06469562 -0.017262645
0.030558463 -0.035182424 -0.08655302 0.0013287589 0.04897603 0.017011257 -0.13844284 -0.013873515
-0.07587674 -0.05617169 -0.006366122 -0.08481209 -0.03661404 0.0673866 -0.039342403 0.06959349
-0.12223576 0.003941903 0.0024051173 -0.009202225 0.003989942 0.032210413 0.053685606 0.04181531
0.04099913 -0.07512807 -0.030514628 0.063016556 0.013677546 -0.004755454 0.06147445 0.04325802
-0.07496206 0.10455705 -0.001585122 0.016582439 -0.023895241 0.04264984 0.12332175 -0.0012778392
00000000: 1c32 993d 12dc 93bc 8d95 4f3a 78a6 a23c
00000010: e110 0fbd de4e 9b3d 1089 b33d f338 10bd
00000020: 79fd b43d 2c8e b0bc cce4 bc3d ba04 aa3c
00000030: 82c0 55bd e497 053d c93b 1f3d ea83 c9bc
00000040: 2cc4 823c 22b8 59bd f8dc 22bd 8062 3d3d
00000050: b1e8 573c df45 1e3d 54fe debd a817 b43d
00000060: ab08 2ebd 1161 473d e94e 2e3c 24c8 453c
00000070: 8af2 f4bc af41 42bd 67cf 323d c8ea 43bd
00000080: a6a3 ccbd c935 983d 1a18 b83d 2bdc 9cbc
00000090: 5bac 73bd 5d55 01bd 5dea 8dbd 8414 fabc
000000a0: 2bd1 193d 23ed 9e3d 98ef c13d f005 55bd
000000b0: a140 bfbc 0cde 053d 6b97 dd3d 97de 543b
000000c0: 3092 5ebd 2100 b63d 9d75 2f3a 62b1 833d
000000d0: e259 2e3d 2129 1e3d a65b 65bd a9c5 203d
000000e0: a748 483d 293c 853d 80d7 94bd 96c4 8d3d
000000f0: 1a88 5f3d 87cc 95bd d943 b93d c136 01bc
00000100: 1262 68bc 7310 83bd b158 153e 7001 7abd
00000110: 4ba6 133d 136c 28bc 110e 313d e065 b53d
00000120: 3faf a4bd 0e90 833d adc0 1d3d b396 3bbd
00000130: e867 70ba bb60 07bd dd78 f63c c791 cc3d
00000140: 281c e8bb 0ac5 d9bc 5f59 26bd ff43 8d3d
00000150: bebd 81bd 957a 0abd b4f5 733d fde4 943d
00000160: ddc6 17bd e0c1 0f3e 0325 c93d eded cb3d
00000170: a292 f03c 639d d5bc fe66 d3bd fb97 653d
00000180: 4726 8fbd 84d3 dabc 8a78 16bd 86d9 44bc
00000190: e50d 5dbd d826 fa3d b7cb 403d 7da7 c23c
000001a0: 7dd7 d5bd 6f82 26bd 0d8c 8b3d a5e7 3d3c
000001b0: 3fd6 9c3d 79ff 473d b6cb 263d 67a8 c73c
000001c0: 364a cc3d 1b14 8c3c 704f 7fbd 5e98 b2bd
000001d0: d3f0 4e3c 313d 03bd 5b7a 5dbd e399 43bd
000001e0: 1325 283d 528e 753d 58d2 babd 8cc9 b6bc
000001f0: e60c da3c 5327 853c c52d c73d 318c adbd
00000200: eebd 893d 72f7 643d c5be bebc 9bf6 c93c
00000210: 890f 09bc a998 073c a8b6 ddbc 46b4 1d3e
00000220: 396b 5f3c 1185 8dbd ed1d ec3b 0cde 21be
00000230: 5348 4d3b a292 7e39 1b37 59bc 1a3c f13c
00000240: 22b6 0fbe c239 913c c9b1 853d 4e77 b9bd
00000250: 12d9 aa3d 5c2a 51bb 3ea1 943d faf2 5b3c
00000260: 617d 5fbd 5a34 913d 35b2 b0bd b60c 9d3d
00000270: 97c6 34bd 68ca d7bc 9391 8a3d ddb4 36bd
00000280: 159f 803d 3489 543d 8c74 93bc cfd7 b4bd
00000290: 0af8 943d e06d 1c3d 5f1f ed3c 81f1 42bd
000002a0: 25c8 c1bd 408d 453d a6c0 953d d6c0 bfbd
000002b0: 6304 4f3d 6c0b 78bd 1eec 223d 9445 b43d
000002c0: cc14 56bd 079d ddbd 9c8f 5e3b 3f92 03bd
000002d0: 4479 c43c 70b8 843d 3b9b a93d 703b 66bd
000002e0: a85e 55bd 873a efb8 4f4d e23d 323e b23d
000002f0: 7e1d 16bc 9989 be3d e59d 4abd aad0 fcba
00000300: 2c9a e0bc b3eb 77bd af43 48bd 6455 8c3c
00000310: c884 7dbd 08e4 28ba 32c8 01bd 558a 7a3d
00000320: 4172 763d b165 a03d 1810 d5bd e989 9abc
00000330: 7166 783d 000d 24bd 8481 66bd 1cfd 043d
00000340: 0569 f0bd 5b4a bc3d f68e e4bd d7b9 afbd
00000350: 187f 9fbd 7462 203d 237f 84bd 646a 8dbc
00000360: be55 fa3c 721b 10bd b642 b1bd c029 ae3a
00000370: 179b 483d 315b 8b3c f6c3 0dbe bd4d 63bc
00000380: 4465 9bbd 4914 66bd e79a d0bb f6b1 adbd
00000390: 9bf8 15bd fc01 8a3d 8025 21bd 0887 8e3d
000003a0: be56 fabd 142b 813b 2c9f 1d3b eec4 16bc
000003b0: 0fbe 823b 11ef 033d 70e5 5b3d 8846 2b3d
000003c0: b4ee 273d bfdc 99bd d0f9 f9bc d30e 813d
000003d0: c917 603c a4d3 9bbb a2cc 7b3d 522f 313d
000003e0: b585 99bd 0222 d63d dec3 cfba e5d7 873c
000003f0: f4bf c3bc 99b1 2e3d 1d90 fc3d 2b7d a7ba

bias f4 [120]
0.04280889 0.06914193 -0.04338947 -0.0735816 -0.16580091 0.0627029 -0.015339696 0.1584813
-0.06995921 -0.049154844 -0.06819368 -0.06420676 -0.0012642173 -0.013788426 -0.018386673 0.008138738
-0.05592497 0.018798027 -0.071628466 0.1055445 0.09395177 0.052216534 -0.05216026 0.08006451
0.03305276 -0.083625145 0.04200666 -0.037758444 0.1190536 -0.025142377 0.014141212 -0.07422875
-0.071651496 0.04619858 -0.09455983 0.04492849 -0.10001744 -0.03533318 0.01845265 0.09122449
0.047842678 -0.07175412 -0.09699513 -0.12092526 0.107115224 -0.098453574 -0.11340985 0.07286289
0.012005174 -0.0066189375 0.041254867 -0.010919389 0.023315286 -0.046438422 0.12303627 0.009689998
0.08977262 0.069200516 0.056075316 0.08572491 0.06932327 0.003473152 0.010972619 0.0031247595
0.07809552 -0.09016235 -0.14281814 0.073710196 -0.054406315 -0.085138 -0.13409287 0.0943639
0.008055528 0.14996867 0.08550475 -0.05854406 0.00022107977 0.06908207 -0.045116704 -0.02399392
-0.009619412 0.027341815 0.01605509 -0.07518754 -0.0441486 -0.0066431407 -0.06554645 0.0006682905
0.062063586 0.06943436 -0.07979294 -0.074706726 -0.08271948 -0.09586686 -0.004202505 0.11097131
0.07532297 0.010779986 -0.05068076 0.098267116 0.119075835 -0.05795488 -0.005378258 -0.005411331
-0.045110766 -0.04987604 0.09067754 0.024127828 0.04423645 0.042005282 -0.03385781 -0.06432145
0.06473326 0.043651406 -0.07102696 0.07291686 0.08787288 -0.08989493 0.11598883 0.01881161
00000000: 6058 2f3d 499a 8d3d 28b9 31bd f3b1 96bd
00000010: b7c7 29be 616a 803d 5953 7bbc ec48 223e
00000020: c646 8fbd 9756 49bd 21a9 8bbd d57e 83bd
00000030: 18b4 a5ba dae8 61bc a69f 96bc 5758 053c
00000040: 9511 65bd 52fe 993c f2b1 92bd b727 d83d
00000050: c969 c03d 01e1 553d ffa5 55bd ddf8 a33d
00000060: 5562 073d a943 abbd 2d0f 2c3d 99a8 1abd
00000070: 60d2 f33d 63f7 cdbc 8bb0 673c 3e05 98bd
00000080: 05be 92bd b93a 3d3d 96a8 c1bd f006 383d
00000090: f2d5 ccbd 86b9 10bd 032a 973c e8d3 ba3d
000000a0: aff6 433d d3f3 92bd 62a5 c6bd aaa7 f7bd
000000b0: 3a5f db3d 07a2 c9bd 6c43 e8bd 2439 953d
000000c0: 59b1 443c ace3 d8bb ddfa 283d 3de7 32bc
000000d0: b3ff be3c 3736 3ebd 71fa fb3d ccc2 1e3c
000000e0: b5da b73d 00b9 8d3d 3baf 653d 8b90 af3d
000000f0: 5cf9 8d3d d29d 633b 80c6 333c c4c8 4c3b
00000100: 8bf0 9f3d 0aa7 b8bd eb3e 12be 5ff5 963d
00000110: 28d9 5ebd d55c aebd a44f 09be dc41 c13d
00000120: 55fb 033c 6391 193e 1d1d af3d e5cb 6fbd
00000130: a6d1 6739 e67a 8d3d 4bcc 38bd e68e c4bc
00000140: bd9a 1dbc f1fb df3c f785 833c edfb 99bd
00000150: 2ad5 34bd b4ae d9bb 383d 86bd 3730 2f3a
00000160: 6336 7e3d 9a33 8e3d 7b6a a3bd d7ff 98bd
00000170: d568 a9bd d855 c4bd 2bb5 89bb ed44 e33d
00000180: ee42 9a3d 8a9e 303c a196 4fbd 4540 c93d
00000190: 08de f33d 1962 6dbd 193c b0bb 8951 b1bb
000001a0: 11c6 38bd d24a 4cbd 25b5 b93d b9a7 c53c
000001b0: 4831 353d bb0d 2c3d 7dae 0abd f7ba 83bd
000001c0: df92 843d d1cb 323d 9576 91bd 6f55 953d
000001d0: b2f6 b33d d51a b8bd 8d8b ed3d ce1a 9a3c
