Beltrami/generate_resample_point.pth (torch, 335369 bytes, 20 tensors)

weight f4 [100, 4]
0	0x3dfdf4da	0.12400217
1	0x3dd5371e	0.104109034
2	0xbe30e991	-0.17276599
3	0xbe0cdf42	-0.13757041
4	0x3d9745dc	0.073863715
5	0x3e1a254a	0.15053287
6	0x3d8072b9	0.062718816
7	0x3e82bc43	0.25534257
8	0x3d6ae066	0.05734291
9	0x3a8a24a5	0.0010539485
10	0x3e0623fc	0.13099664
11	0x3da8f485	0.082497634
12	0xbdb35b7b	-0.08757683
13	0xbb90ce15	-0.004419098
14	0xbc6ae49c	-0.014336731
15	0xbe96b740	-0.29436684
16	0xbcfba9c0	-0.030720592
17	0xbdb5f372	-0.08884324
18	0xbc70e21c	-0.014702346
19	0x3e246c5b	0.1605696
20	0xbce0101c	-0.027351432
21	0xbdf02de4	-0.11727503
22	0x3d4cb7f4	0.04998012
23	0xbe61b6fd	-0.2204246
24	0x3e801a6d	0.2502016
25	0xbe46513b	-0.19366924
26	0xbe15b472	-0.14619616
27	0xbe5e5c98	-0.21715009
28	0x3bd1a812	0.0063982094
29	0xbad67e88	-0.0016364614
30	0xbbe48dfc	-0.0069749337
31	0x39a72b51	0.00031884995
32	0x3cce039d	0.025148207
33	0xbd686e20	-0.05674565
34	0x3c023ba4	0.00794879
35	0xbdbe653a	-0.09296651
36	0x3d8ed29a	0.06973763
37	0x3db0ce83	0.08633139
38	0xbe4aede0	-0.19817305
39	0x3e12e162	0.14343789
40	0xbe476733	-0.19472961
41	0xbe55f896	-0.2089561
42	0xbe6dd8f4	-0.23227292
43	0x3e359545	0.17732723
44	0xbe564b3f	-0.20927142
45	0x3dd12174	0.10211459
46	0x3e3b03c2	0.18263152
47	0x3d83e680	0.06440449
48	0x3e5e4914	0.21707565
49	0xbdd8d341	-0.105871685
50	0x3e0f5568	0.13997424
51	0xbe1590c0	-0.14605999
52	0x3cadbedd	0.021209175
53	0xbe473af5	-0.19456084
54	0xbe4a8944	-0.19778925
55	0xbe1111cb	-0.14166944
56	0xbd0433ff	-0.03227615
57	0xbdb71705	-0.089399375
58	0xba0adc93	-0.00052971503
59	0x3d4f37e1	0.0505904
60	0xbd0eb361	-0.034839038
61	0x3e3e4924	0.18582588
62	0xbe079b5a	-0.13242856
63	0xbe8e5650	-0.27800226
64	0xbc04bf24	-0.008102212
65	0xbd66fe49	-0.05639485
66	0xbd437c51	-0.04772598
67	0xbe20ee5a	-0.15715924
68	0xbb289d46	-0.0025728508
69	0xbc0e1c65	-0.008673762
70	0xbc35e271	-0.011101351
71	0xbde94098	-0.113892734
72	0x3e3da3c2	0.185195
73	0x3dbc6bfa	0.092002824
74	0x3dea3d1e	0.114374384
75	0xbd8bc17e	-0.06824015
76	0xbce1d257	-0.027566118
77	0x3c5e6ed4	0.013576228
78	0xbe383a45	-0.17990978
79	0x3e3e74a6	0.18599185
80	0x3e5aecc9	0.21379389
81	0x3d44b754	0.048026398
82	0x3e68023c	0.22657102
83	0xbda742c6	-0.08167033
84	0x3d47e112	0.04879863
85	0xbdef021c	-0.11670324
86	0xbe15b136	-0.14618382
87	0x3ea24993	0.31696758
88	0x3d839382	0.06424619
89	0xbe34d20d	-0.17658253
90	0xbe176af1	-0.14786889
91	0xbe0ff857	-0.14059578
92	0xbd63e28c	-0.055635974
93	0xbd14f8ab	-0.03636996
94	0x3e6ae3ae	0.22938415
95	0x3d4eefb0	0.050521553
96	0xbe79d253	-0.24396639
97	0xbe757c80	-0.23973274
98	0xbdfa577e	-0.12223719
99	0x3dcc7e35	0.099850096
100	0x3df91169	0.12161524
101	0x3ceba8e4	0.028767057
102	0x3d213479	0.039356682
103	0x3ea2274d	0.3167061
104	0x3e468f90	0.19390702
105	0xbdf2abfc	-0.1184921
106	0x3d87cf9d	0.06631396
107	0x3e69ce26	0.22832546
108	0xbe519308	-0.20466244
109	0xbc1e150c	-0.009648573
110	0xbdcc93c3	-0.09989121
111	0x3e5d6447	0.21620284
112	0xbb8f5a53	-0.004374781
113	0x3d03d341	0.03218389
114	0xbd46abaf	-0.048503574
115	0x3e4a2084	0.19738966
116	0x3de6eeb9	0.112760015
117	0x3d01304c	0.0315402
118	0xbe2c04cd	-0.16798706
119	0xbd2f0973	-0.04273362
120	0x3dd94346	0.106085345
121	0xbd2c967e	-0.042135708
122	0xbd044ec3	-0.032301676
123	0x3eb70b8c	0.35750997
124	0xbdeaebb2	-0.114707366
125	0x3e241dd2	0.16027
126	0xbdeec1bb	-0.11658045
127	0x3d877c90	0.06615555
128	0xbe546668	-0.2074219
129	0xbe56fb24	-0.2099424
130	0x3d8e32f6	0.06943314
131	0x3e6d5da9	0.2318026
132	0x3dc548b7	0.0963301
133	0x3d254a5d	0.04035412
134	0xbdc9c5fe	-0.09852217
135	0x3d490161	0.04907358
136	0xbdc80c39	-0.09767956
137	0xbcfb121b	-0.030648282
138	0x3e30e7f8	0.17275989
139	0xbe8728a6	-0.263982
140	0xbe1d2e3a	-0.15349665
141	0x3e611846	0.21981916
142	0x3b4f2772	0.0031609205
143	0x3d59a505	0.05313589
144	0x3d5306f6	0.05152031
145	0xbc6e0ae1	-0.014528961
146	0xbe261452	-0.16218689
147	0xbe8e3110	-0.27771807
148	0xbdfa191a	-0.12211819
149	0x3e67afe3	0.22625689
150	0xbe46d1d2	-0.19415978
151	0x3e214b16	0.157513
152	0x3d2aa8b7	0.041664805
153	0x3e103f58	0.14086664
154	0x3dc7b697	0.09751623
155	0xbba46b3f	-0.0050176675
156	0xbde3a58f	-0.11115562
157	0xbddf4265	-0.109013356
158	0xbe25048d	-0.16115017
159	0xbe4c2bd3	-0.19938593
160	0xbe0eac39	-0.13932885
161	0x3c3824aa	0.01123921
162	0x3d4ee488	0.050510913
163	0xbe8afcf1	-0.27146104
164	0xbdc59726	-0.0964797
165	0xbd4c2470	-0.049839437
166	0x3d86c7d2	0.065810814
167	0xbdcc1f76	-0.09966938
168	0xba8a559d	-0.0010554079
169	0x3dab706f	0.083710544
170	0x3e149ce6	0.14512977
171	0xbdcebbd5	-0.1009442
172	0xbe2adab5	-0.16684993
173	0xbda67357	-0.08127468
174	0x3e1dd08c	0.15411586
175	0x3dba02ff	0.09082603
176	0x3dacc19a	0.08435364
177	0x3bbcd4f6	0.0057626916
178	0x3e658e23	0.22417502
179	0xbe51a0f3	-0.20471554
180	0xba635c9a	-0.00086731615
181	0x3d615cce	0.055020146
182	0x3ddf55fc	0.10905072
183	0x3d8b579f	0.06803822
184	0xbe029d78	-0.12755382
185	0xbd1eb557	-0.038747158
186	0x3d963e40	0.07336092
187	0x3e49810a	0.19678131
188	0xbe2c8bcc	-0.16850203
189	0x3e01846c	0.12648171
190	0x3ca22632	0.019793604
191	0xbe10b02e	-0.14129707
192	0x3e2cf321	0.16889621
193	0x3df855f0	0.12125766
194	0xbe1cf984	-0.15329558
195	0xbe24b30e	-0.16083929
196	0x3e105e43	0.14098458
197	0xbc86d4cf	-0.016458897
198	0x3e3f7210	0.18695855
199	0xbe55a318	-0.20862997
200	0xbdec7ffc	-0.115478486
201	0xbda2a2a3	-0.07941177
202	0x3d4dbd30	0.05022925
203	0x3e44d3ce	0.19221422
204	0x3d5acff5	0.05342098
205	0xbd20c694	-0.03925188
206	0xbddb92c1	-0.107213505
207	0xbe6d2829	-0.23159851
208	0x3d1e7d8d	0.038693953
209	0xbe14a0e8	-0.14514506
210	0x3d4c23ea	0.049838938
211	0xbe263e58	-0.1623472
212	0x3e1c900b	0.15289323
213	0x3e00f203	0.1259232
214	0x3e124b8f	0.14286636
215	0xbe2d9535	-0.16951449
216	0x3d0f442d	0.034977127
217	0xbd06ce75	-0.032911737
218	0x3aeb454b	0.0017949728
219	0xbd13d0bc	-0.036087736
220	0xbd5aaae2	-0.053385623
221	0x3df9b279	0.12192244
222	0xbdbcba17	-0.09215181
223	0xbe63148e	-0.2217581
224	0xbe26e77f	-0.16299246
225	0x3cd3571f	0.025798379
226	0xbdb691a0	-0.089144945
227	0x3e0b0559	0.13576259
228	0xbe162fd8	-0.14666688
229	0xbe5a929c	-0.2134499
230	0xbd5f7542	-0.054555185
231	0x3ea0763f	0.31340215
232	0x3d325fad	0.043548275
233	0xbd1346cc	-0.03595619
234	0x3d061163	0.032731425
235	0xbd20bdee	-0.03924363
236	0xbe426521	-0.1898389
237	0x3cdf8b13	0.027287995
238	0x3cdba884	0.026813753
239	0xbe8db5f1	-0.27677873
240	0xbe12d0c5	-0.14337452
241	0x3a5edd93	0.0008501645
242	0xbdfba566	-0.122874066
243	0xbe759db5	-0.23985942
244	0x3dfa1c1d	0.122123934
245	0x3de184ff	0.11011695
246	0x3de43e68	0.111447155
247	0xbe6bf257	-0.23041664
248	0xbcc0185b	-0.023449114
249	0x3d14dfa7	0.036346104
250	0xbc62a478	-0.013833158
251	0x3ead6107	0.33863088
252	0x3e81a261	0.25319198
253	0xbe03ae93	-0.12859564
254	0x3e0c8459	0.13722362
255	0xbb85c0fc	-0.0040818434

bias f4 [100]
0	0xbd80a8e7	-0.062822156
1	0x3c3849c1	0.011248053
2	0xbd126568	-0.03574124
3	0x3d27b400	0.040943146
4	0x3d41f87b	0.04735611
5	0x3d4cda23	0.05001272
6	0xbdcaae0b	-0.09896477
7	0xbabf52eb	-0.0014596855
8	0x3be96a27	0.00712325
9	0xbc27abcd	-0.010233832
10	0xbd389252	-0.045061417
11	0x3dc6b731	0.0970291
12	0xbd3bbe42	-0.04583574
13	0x3b9165fc	0.0044372063
14	0x3cd7276a	0.026263911
15	0xbced32a9	-0.02895482
16	0x3d8088cf	0.06276094
17	0x3c9f1756	0.019420307
18	0xbd8a411a	-0.067506984
19	0xbd0cbd96	-0.03436049
20	0xbb5fc504	-0.003414453
21	0x3d1a728a	0.03770689
22	0x3e2162d9	0.15760364
23	0xbe07c964	-0.13260418
24	0x3cc1cf10	0.023658305
25	0x3c7b1562	0.015324922
26	0x3d6bf277	0.05760428
27	0xbb9cfa71	-0.004790597
28	0xbae2bf28	-0.0017299401
29	0xbd8b80da	-0.06811686
30	0x3d8b8e30	0.068142295
31	0xbc2b6ad5	-0.010462482
32	0x3d3d7dbe	0.046262495
33	0xbd4ab2eb	-0.049487036
34	0xbcc996d0	-0.024608046
35	0x3ce78c54	0.028265156
36	0x3d990d96	0.074732944
37	0x3d36aa62	0.044596083
38	0x3c9a0385	0.018800506
39	0xbca33931	-0.019924732
40	0x3ce9b356	0.028527897
41	0xbc8f2792	-0.017474923
42	0xbd2f44c5	-0.042790193
43	0xbcf99b84	-0.030469663
44	0xbc68ebee	-0.014216406
45	0xbd155236	-0.036455356
46	0xbb0e02a7	-0.0021669061
47	0xbbbe630e	-0.005810148
48	0xbc93a7d3	-0.01802436
49	0xbda2cfb4	-0.079497725
50	0xbb89056f	-0.004181556
51	0x3d7332f3	0.05937476
52	0x3c776646	0.0151000675
53	0xbc40ce12	-0.011767881
54	0xbc38bec4	-0.011275951
55	0xbcf2a674	-0.029620387
56	0x3d31d3bc	0.043414816
57	0x3d3dc0f2	0.046326585
58	0x3d5abfb9	0.053405497
59	0xbd992978	-0.07478613
60	0xbc341c31	-0.0109930495
61	0xbcf855f7	-0.030314429
62	0x3d221da7	0.03957906
63	0xbd80025f	-0.06250452
64	0xbd7e4a1a	-0.062082388
65	0x3be0ec01	0.0068640714
66	0xbcd5226d	-0.026017392
67	0xbd9ab5b7	-0.075541906
68	0xbd6c6616	-0.057714544
69	0x3d93ce9c	0.07217142
70	0x3d1293f9	0.03578565
71	0x3d9a76cc	0.0754219
72	0x3ca6b7a5	0.02035124
73	0x3d1051a5	0.035234112
74	0x3b15695e	0.00227984
75	0xbc2f728d	-0.010708463
76	0xbd9ab823	-0.075546525
77	0xbd481770	-0.048850477
78	0xbcec1824	-0.028820105
79	0x3db45ad5	0.08806387
80	0x3cfcecbf	0.030874608
81	0x3d79bd48	0.06097153
82	0xbd460894	-0.048348024
83	0xbdb30886	-0.0874186
84	0xbc81f0e9	-0.015861945
85	0xbd37ab05	-0.04484083
86	0xbd335bd6	-0.043788753
87	0x3c150d08	0.009097345
88	0xbd46fcee	-0.048581056
89	0xbd1c4c2c	-0.03815858
90	0x3cef9089	0.029243724
91	0xbd5fe002	-0.05465699
92	0xbd32ede5	-0.043683905
93	0x3d9208b9	0.0713057
94	0xbcb6193b	-0.022228828
95	0xbd47b70e	-0.04875856
96	0xbc4b3bbd	-0.012404379
97	0x3d80e5f8	0.06293863
98	0xbd099b07	-0.03359511
99	0x3da411b4	0.08011189

weight f4 [100, 100]
0	0xbb2dfb15	-0.0026547362
1	0xbdffc834	-0.124893576
2	0xbd828202	-0.06372453
3	0xbe011d19	-0.12608756
4	0x3dd6403a	0.10461469
5	0x3e27bd90	0.16380906
6	0x3e22677f	0.15859793
7	0x3dd2cf7e	0.10293482
8	0x3d39b86d	0.045341898
9	0x3c97fb08	0.018552318
10	0xbe08d1d8	-0.13361299
11	0xbe28a13c	-0.16467756
12	0x3e3bdbca	0.18345562
13	0xbdb6f531	-0.08933485
14	0xbd84f98a	-0.06492908
15	0x3e1873a3	0.14887862
16	0xbe14e1ff	-0.14539336
17	0xbdaf1c02	-0.08550264
18	0xbce61537	-0.028086288
19	0x3db0502d	0.08609042
20	0x3d7d347c	0.06181763
21	0x3e311c48	0.17295945
22	0x3e041810	0.12899804
23	0xbcef3c77	-0.029203637
24	0x3ac0f45a	0.001472126
25	0x3e211513	0.15730695
26	0x3d6c3297	0.057665434
27	0xbd59f177	-0.053208794
28	0xbd049dff	-0.03237724
29	0xbc883bb8	-0.016630039
30	0x3e1719b0	0.14755893
31	0x3d3f762f	0.046743568
32	0x3e0b9ce7	0.13634072
33	0xbc73d24d	-0.014881683
34	0x3c8d0e68	0.017218783
35	0xbdb82c73	-0.08992853
36	0xbd848c83	-0.06472113
37	0xbd0f874c	-0.03504114
38	0x3de34e2c	0.110988945
39	0xbd64aafa	-0.05582712
40	0xbe2e532a	-0.17023912
41	0x3dba18cb	0.0908676
42	0x3be2e6d4	0.0069244895
43	0xbe249eb9	-0.16076173
44	0xbe16abea	-0.14714018
45	0xbc425430	-0.011860892
46	0xbd1802cf	-0.037112053
47	0xbe466ab6	-0.19376644
48	0x3e45ade3	0.19304614
49	0x3e0a92b1	0.13532521
50	0x3d4da05a	0.05020175
51	0x3de3b15f	0.11117815
52	0x3df47a95	0.11937443
53	0x3d463be1	0.04839695
54	0x3e2ad883	0.16684155
55	0x3b7d39f8	0.0038639288
56	0xbdd1de79	-0.102475114
57	0x3dcb369e	0.09922527
58	0x3e328c6e	0.17436382
59	0xbe50bdf9	-0.20384969
60	0xbd3e6792	-0.04648549
61	0xbd82875f	-0.06373476
62	0x3d6ac17e	0.057313435
63	0x3e35988b	0.17733972
64	0x3daaea77	0.08345502
65	0x3d86f3a6	0.06589441
66	0x3e37b8b3	0.17941551
67	0x3dbe31d9	0.092868514
68	0x3d295023	0.04133619
69	0x3e085fc6	0.13317785
70	0xbc93d69d	-0.018046672
71	0x3d977ea5	0.073972024
72	0xbc18b796	-0.009321114
73	0xbc33146c	-0.010930162
74	0x3d952c84	0.07283881
75	0xbdb97629	-0.090557404
76	0xbdc83d2f	-0.09777295
77	0xbe118e17	-0.14214359
78	0xbe0e6b4a	-0.13908115
79	0x3e3a0ba4	0.18168503
80	0xbb734435	-0.0037119512
81	0x3d95ce67	0.07314759
82	0x3c345a76	0.011007896
83	0x3d85c4ef	0.06531703
84	0xbd753f9a	-0.05987511
85	0xbdb8c28c	-0.09021482
86	0xbd8680a7	-0.06567507
87	0xbe36859c	-0.17824405
88	0xbdafbe87	-0.08581262
89	0xbdc72cb0	-0.0972532
90	0x3e25fd6b	0.16209953
91	0x3c3d80da	0.011566365
92	0xbdc225a4	-0.09479836
93	0xbdd1a8ce	-0.10237275
94	0xbd329d03	-0.04360677
95	0xbe1628a5	-0.14663942
96	0x3d58a8f4	0.0528955
97	0xbdfab3ff	-0.12241363
98	0xbe3f708b	-0.18695275
99	0x3d4e0a09	0.05030254
100	0x3d10a6e7	0.03531542
101	0x3c39e9b5	0.011347224
102	0x3d59622d	0.053072143
103	0x3e43afcd	0.19110031
104	0xbe2cdb1a	-0.16880456
105	0x3d828ccf	0.06374513
106	0x3d1be09f	0.038056012
107	0x3e4810b2	0.19537619
108	0x3a2f77f6	0.0006693596
109	0xbc857316	-0.016290229
110	0x3d8b8939	0.068132825
111	0x3daaa38f	0.083319776
112	0xbd58a433	-0.052890968
113	0xbd951412	-0.07279219
114	0x3dda09f9	0.106464334
115	0x3e0b91a6	0.13629779
116	0x3dd34d92	0.1031753
117	0xbb1ef9f6	-0.0024257875
118	0xbdab48a1	-0.08363462
119	0xbe3f428b	-0.18677728
120	0xbe0011db	-0.12506811
121	0x3b9c7a27	0.004775304
122	0x3e1f0a27	0.15531217
123	0xbe2501dd	-0.16113992
124	0x3bc0a574	0.0058790985
125	0xbb6e047b	-0.0036318589
126	0xbe37c87e	-0.17947575
127	0x3dc60c48	0.09670311
128	0xbe5323a9	-0.20619072
129	0x3da00a25	0.07814435
130	0xbd924b47	-0.07143264
131	0x3d52175d	0.051291812
132	0x3bab887e	0.005234777
133	0x3e0a1841	0.13485815
134	0xbdf056fe	-0.117353424
135	0x3e2b2aaf	0.16715501
136	0x3e2b6f16	0.16741595
137	0xbaaf5e36	-0.0013379517
138	0xbdb194df	-0.08670973
139	0x3d4f5447	0.050617483
140	0x3d8f3657	0.069927864
141	0x3df28eb4	0.11843625
142	0x3d80f425	0.06296567
143	0x3de9f705	0.11424068
144	0xbdbbce64	-0.09170225
145	0x3db64eb8	0.08901733
146	0x3de6afe1	0.11264015
147	0xbdc70ca2	-0.097192064
148	0xbcb6e5a2	-0.022326294
149	0x3d91c9ce	0.07118569
150	0x3e0699fc	0.13144678
151	0xbe00548d	-0.12532254
152	0xbd6b6e08	-0.05747798
153	0xbe11a392	-0.14222553
154	0x3e106ba8	0.14103568
155	0x3d6ec9f4	0.058298066
156	0x3c4296d2	0.011876779
157	0xbdbe89c3	-0.0930362
158	0x3d9764f3	0.073923014
159	0xbcf5cdb1	-0.030005308
160	0xbcb5cb05	-0.022191534
161	0xbda2ed74	-0.07955447
162	0xbd98c215	-0.07458893
163	0xbc4da1a3	-0.012550744
164	0xbdf92688	-0.121655524
165	0x3cee3e58	0.029082462
166	0xbdd11754	-0.102095276
167	0x3d64edc4	0.055890813
168	0xbe20dd2a	-0.15709367
169	0xbde485ed	-0.11158357
170	0x3c6449fa	0.013933653
171	0xbd92cf60	-0.0716846
172	0xbda1af3e	-0.07894753
173	0x3e0f852f	0.1401565
174	0x3c6eabf7	0.014567367
175	0x3c8a0845	0.016849646
176	0x3d2fae51	0.04289085
177	0x3d9c5f89	0.076354094
178	0xbd618370	-0.05505699
179	0x3e19357b	0.14961807
180	0xbdc9ceab	-0.09853872
181	0x3e0e6d10	0.13908792
182	0xbddd0313	-0.10791602
183	0xbd080d60	-0.03321588
184	0x3e0c9e23	0.137322
185	0xbe21baa7	-0.15793858
186	0xbd8cb81f	-0.06871056
187	0xbda9526f	-0.08267676
188	0x3e304272	0.17212847
189	0x3d4801e0	0.048829913
190	0xbdc02fda	-0.09384127
191	0x3cd1abe4	0.02559466
192	0x3bf3fb73	0.0074457466
193	0xbcd652df	-0.026162563
194	0xbe02b4f4	-0.1276434
195	0xbe51bfab	-0.20483272
196	0x3d1495a1	0.03627551
197	0xbaa25cb4	-0.0012387247
198	0xbe1f4d4d	-0.15556832
199	0x3dbbc92b	0.09169229
200	0x3dc713c3	0.09720566
201	0x3e1c1ac7	0.1524459
202	0x3c2acbaf	0.0104245385
203	0xbd496483	-0.04916812
204	0x3cd389fd	0.025822634
205	0x3b62aee5	0.0034589109
206	0xbcf45b05	-0.029828558
207	0x3d6d6979	0.057961915
208	0xbd948fba	-0.07253976
209	0x3dd4bc9b	0.10387536
210	0xbdd8315c	-0.105562896
211	0x3dce9fdf	0.10089087
212	0x3d4dd1ea	0.050249018
213	0xbc42cbf7	-0.011889449
214	0x3d1248c3	0.035713922
215	0x3d33db72	0.04391045
216	0xbda4b591	-0.080424435
217	0x3d99aee1	0.07504059
218	0xbd901ef3	-0.07037153
219	0x3e1acdb7	0.15117536
220	0x3cd9ed7a	0.026602495
221	0xbe1889ee	-0.14896366
222	0xbd81ee09	-0.0634423
223	0x3e62d4e3	0.22151522
224	0x3d2c3c8a	0.042049922
225	0x3d8d24e5	0.06891803
226	0xbe4daaa0	-0.2008462
227	0xbdf9ada4	-0.121913224
228	0xbe2c5180	-0.16827965
229	0xbcbd108d	-0.023079181
230	0xbe5cda27	-0.21567594
231	0xbe0cb0bf	-0.13739298
232	0x3dc74510	0.097299695
233	0xbe24dbc4	-0.16099459
234	0xbd256a9a	-0.040384866
235	0xbe19cbf4	-0.15019208
236	0xbdb18208	-0.086673796
237	0xbd9b1019	-0.0757143
238	0xbbca626c	-0.0061762836
239	0xbce1efa6	-0.027580094
240	0xbd7e50ae	-0.06208866
241	0x3e3341ea	0.17505613
242	0x3df15cdf	0.11785292
243	0x3d820985	0.06349472
244	0x3e01aee3	0.1266437
245	0x3db949b8	0.09047264
246	0x3e1c859c	0.15285343
247	0x3dec1140	0.11526728
248	0xbe2c7cc0	-0.16844463
249	0x3df43b9e	0.119254336
250	0x3e23a656	0.15981421
251	0x3d0dc735	0.034613807
252	0xbe308336	-0.17237553
253	0x3e0779ef	0.13230108
254	0xbded03ce	-0.11572991
255	0xbde85ff5	-0.11346427

bias f4 [100]
0	0x3d5447b4	0.051826194
1	0x3da29547	0.07938629
2	0xbda95387	-0.08267885
3	0xbdc1c2c8	-0.0946098
4	0xbd926f0b	-0.07150086
5	0xbbd02739	-0.006352332
6	0x3d059f6c	0.03262274
7	0xbd37f20d	-0.044908572
8	0x3b36dfe4	0.0027904445
9	0x3d7883b9	0.060672496
10	0x3b41d5fa	0.0029577003
11	0xbc80170e	-0.015635993
12	0x3cfbee9a	0.030753423
13	0xbbbe078f	-0.005799241
14	0x3bf33505	0.007422092
15	0x3dcedb11	0.10100377
16	0xbd3c0aad	-0.04590862
17	0xba61a3e5	-0.0008607491
18	0x3ce6ea73	0.028187966
19	0x3cd01b83	0.025403744
20	0xbd5ef3d1	-0.05443174
21	0xbd27a240	-0.040926218
22	0x3d3f8549	0.04675797
23	0x3cfc0a6e	0.030766692
24	0x3bbd2298	0.005771946
25	0xbb9bfe1a	-0.004760516
26	0x3b9d31bb	0.004797188
27	0x3c81fcad	0.015867556
28	0x3d9b9e76	0.075985834
29	0xbdd65fa6	-0.10467462
30	0x3d15f754	0.036612824
31	0xbc4b0501	-0.01239133
32	0xbdd16787	-0.102248244
33	0xbbf1019b	-0.0073549277
34	0xbc17b61c	-0.009259727
35	0xbd01e08e	-0.031708293
36	0x3d0d90bf	0.03456187
37	0x3ca6d4c8	0.020365134
38	0x3ac60285	0.0015106952
39	0x3d1f3523	0.038869034
40	0xbc5c7afd	-0.013457057
41	0xbcfd3aa8	-0.030911759
42	0x3b9a82dd	0.004715307
43	0xbc20588f	-0.009786739
44	0x3a243ea0	0.00062654354
45	0x3d6fc4a1	0.05853713
46	0xbda616d9	-0.081098266
47	0x3dfbb077	0.122895174
48	0xbe0dbb78	-0.13841045
49	0xbb202a7b	-0.0024439383
50	0xbc12cbfa	-0.008959765
51	0x3b352be7	0.0027644576
52	0x3d0afb1f	0.033930894
53	0xbd6f97d0	-0.05849439
54	0xbd9209d8	-0.07130784
55	0x3a72187f	0.00092352176
56	0x3c741179	0.014896744
57	0x3d3fc9b6	0.046823226
58	0xbd118b22	-0.035533078
59	0x3d9ca25e	0.076481566
60	0xbdb64923	-0.089006685
61	0x3c08196a	0.00830684
62	0x3a942e4f	0.0011305305
63	0xbde43555	-0.11142985
64	0x3d358747	0.044318464
65	0x3d5e06ee	0.054205827
66	0xbdabf742	-0.0839677
67	0x3a03ec3c	0.0005032455
68	0xbe00d066	-0.12579498
69	0xbb4ffb8c	-0.0031735627
70	0xbdfdc023	-0.12390163
71	0xbdaaca50	-0.08339369
72	0xbc4da214	-0.0125508495
73	0x3cc800b6	0.024414402
74	0x3caf81a9	0.021424131
75	0xbb0353e3	-0.0020039014
76	0x3d1c3b09	0.038142238
77	0xbe055d1d	-0.13023801
78	0x3dbd6ad3	0.09248891
79	0x3cacb93c	0.02108442
80	0xbcda1210	-0.026619941
81	0x3cd75845	0.026287207
82	0x3d89818a	0.06714161
83	0x3ce962cb	0.028489491
84	0x3c8134dd	0.015772277
85	0xbc4a3e88	-0.01234401
86	0xbd768ca2	-0.06019271
87	0x3d5a86d5	0.053351242
88	0x3d139ccf	0.036038216
89	0xbce5de38	-0.028060064
90	0x3d9ac520	0.0755713
91	0xbd761f3e	-0.06008839
92	0x3d007a94	0.0313669
93	0xbd04536c	-0.03230612
94	0xbd20793c	-0.039178118
95	0x3d515e0a	0.051115073
96	0xbda0a9a7	-0.078448586
97	0x3c62980b	0.013830195
98	0xbd61790e	-0.055047087
99	0x3c3ed0df	0.011646478

weight f4 [100, 100]
0	0x3e53f91d	0.20700498
1	0x3dbdfcd9	0.092767425
2	0xbde31e48	-0.1108976
3	0x3d1baf1b	0.03800879
4	0x3e0841b4	0.13306314
5	0x3db427ab	0.087966286
6	0xbcfb7a23	-0.030697888
7	0xbe507f34	-0.20361024
8	0x3ddf0e1d	0.10891364
9	0x3ddf7305	0.1091061
10	0xbca632e2	-0.020287935
11	0x3db072f8	0.086156785
12	0xbd7469c6	-0.059671186
13	0x3aa500a1	0.0012588688
14	0x3dc73ccf	0.09728395
15	0xbc9fe847	-0.019519938
16	0x3e3d7961	0.18503334
17	0x3d8c0816	0.0683748
18	0xbe21e00a	-0.1580812
19	0xbd76db4f	-0.060267743
20	0x3de8a39f	0.11359333
21	0xbe2fdd32	-0.17174223
22	0xbbd64261	-0.0065386747
23	0xbe23a89a	-0.15982285
24	0x3dda6e75	0.10665599
25	0x3c94852b	0.018129906
26	0x3de21be6	0.110404775
27	0x3de64e1d	0.11245368
28	0x3e162a69	0.14664616
29	0xbe03f0dd	-0.12884851
30	0x3cf480ff	0.029846666
31	0xbc95ff11	-0.018310102
32	0xbe0d9671	-0.1382692
33	0xbd99fafc	-0.075185746
34	0x3d5eb299	0.054369543
35	0xbd77d8a8	-0.060509354
36	0x3d25f28b	0.04051451
37	0xbdd04b4d	-0.101706125
38	0xbdb36d5f	-0.08761095
39	0x3da3e60f	0.080028646
40	0x3db545b4	0.088511854
41	0xbbb653de	-0.005564197
42	0x3e067b9f	0.13133095
43	0xbdba6cfb	-0.091028176
44	0xbc3586e5	-0.011079525
45	0x3dabb207	0.083835654
46	0x3e0ccec3	0.13750748
47	0xbd381013	-0.044937205
48	0xbe214bc5	-0.1575156
49	0xbdaeb549	-0.08530671
50	0x3d817ef6	0.06323044
51	0xbdafc804	-0.08583072
52	0x3d6844b8	0.05670616
53	0x3e10d532	0.14143828
54	0xbcf9bba8	-0.03048499
55	0x3cfd11d3	0.030892288
56	0xbd18a7c0	-0.037269354
57	0xbd4b1e6a	-0.049589552
58	0x3d8f7550	0.070047975
59	0x3de91797	0.113814525
60	0x3ce8dcc6	0.028425585
61	0xbc7282ae	-0.014801664
62	0xbd18a669	-0.037268076
63	0xbd7f4114	-0.062317923
64	0x3d31c13d	0.043397177
65	0xbda40067	-0.08007889
66	0xbd8b363f	-0.06797456
67	0x3de23a6a	0.11046298
68	0xbd93d023	-0.07217433
69	0x3e25a22b	0.16175143
70	0x3bce4926	0.006295341
71	0xbd7160ee	-0.05893033
72	0x3e438679	0.19094266
73	0xbc147e2c	-0.009063285
74	0xbe4d7523	-0.20064215
75	0x3e0e288c	0.13882655
76	0xbe42d8ca	-0.19028011
77	0xbcc84a6f	-0.024449555
78	0x3d0109f0	0.031503618
79	0x3c72668c	0.014794957
80	0xbd9d40c4	-0.07678369
81	0x3e24defd	0.16100688
82	0x3e313589	0.17305578
83	0xbd76a9e1	-0.060220603
84	0xbc917a0c	-0.017758392
85	0x3db0831b	0.086187564
86	0xbe1ad110	-0.15118814
87	0x3e0086e8	0.12551463
88	0x3bfbc9ee	0.007683984
89	0xbe1c52d7	-0.15265976
90	0x3da38166	0.07983665
91	0x3e1d6725	0.15371378
92	0x3e1c21d8	0.15247285
93	0x3df60222	0.120121256
94	0xbcb56efa	-0.022147644
95	0xbe0a17a2	-0.13485578
96	0x3de54922	0.111955896
97	0xbca2fff0	-0.019897431
98	0xbd8ff4ef	-0.07029139
99	0xbd95e286	-0.073185965
100	0x3dbf092a	0.0932792
101	0xbc16f815	-0.009214421
102	0xbe2b6577	-0.16737925
103	0xbe41d360	-0.1892829
104	0xbe112bb5	-0.14176829
105	0xbce50b19	-0.027959393
106	0x3d76162b	0.060079735
107	0x3d09213f	0.03347897
108	0x3e0afd92	0.13573292
109	0xbd655b21	-0.05599511
110	0x3dfd182a	0.123581246
111	0x3be19ef2	0.006885403
112	0x3b9a1e83	0.0047033443
113	0xbcb9eeb7	-0.022696836
114	0xbd97ca3d	-0.07411621
115	0x3dae520f	0.08511745
116	0xbe28f3af	-0.16499208
117	0x3cd9a925	0.026569912
118	0xbe26b40b	-0.16279618
119	0xbdf793d6	-0.12088744
120	0xbe13664e	-0.14394495
121	0xbe1c7dcd	-0.15282364
122	0x3cca6ac2	0.02470911
123	0x3d945334	0.07242432
124	0x3dea5d60	0.11443591
125	0xbdfa52cc	-0.122228235
126	0x3e268762	0.16262582
127	0xbe185892	-0.14877537
128	0xbcaebf48	-0.021331444
129	0xbe15f9d0	-0.14646077
130	0x3ca21886	0.019787084
131	0xbd99fcf5	-0.07518951
132	0xbd6a52cf	-0.05720788
133	0xbe30ddfe	-0.17272183
134	0xbd655b1d	-0.055995096
135	0xb9f843ff	-0.00047352907
136	0x3df8a766	0.12141304
137	0x3e03959c	0.1285004
138	0x3d4b3b04	0.04961683
139	0x3d4f50c8	0.05061415
140	0xbd82cfe3	-0.063873075
141	0xbd7d460d	-0.061834384
142	0xbd0500a6	-0.03247132
143	0xbde5ecca	-0.112268046
144	0x3b9f9878	0.0048704706
145	0xbddb0d3d	-0.106958844
146	0x3dee5d90	0.116389394
147	0xbe4ee4aa	-0.20204416
148	0xbe50e945	-0.20401485
149	0xbc157f29	-0.009124556
150	0x3e258faf	0.16168092
151	0x3d856d8a	0.065150335
152	0x3df80381	0.12110043
153	0xbcc73709	-0.024318235
154	0xbe154f9e	-0.14581153
155	0xbced058e	-0.028933313
156	0xbe1518ba	-0.14560214
157	0x3e062bb8	0.13102615
158	0x3dd33306	0.10312466
159	0x3e20571d	0.15658231
160	0x3cfba95e	0.030720409
161	0xbdf9f241	-0.122044094
162	0xbdc9f584	-0.098612815
163	0xbbd79091	-0.006578513
164	0x3cbdee2a	0.023184855
165	0xbe0423b4	-0.12904245
166	0xbe11956b	-0.14217155
167	0xbc121783	-0.008916738
168	0xbe005453	-0.12532167
169	0xbd1201a8	-0.03564611
170	0xbdf9541b	-0.12174245
171	0x3dac1f01	0.08404351
172	0x3d5c92cc	0.053850934
173	0x3cb1708c	0.021660112
174	0xbdb91736	-0.0903763
175	0x3dfd9240	0.123814106
176	0xbdfe1d34	-0.12407914
177	0xbe279664	-0.16365963
178	0xbbb12494	-0.005405972
179	0x3dae0c45	0.08498434
180	0xbda5c418	-0.080940425
181	0xbe3ac7b8	-0.18240249
182	0xbdefc8d7	-0.11708229
183	0xbe192b3c	-0.14957899
184	0x3c1a90f2	0.009433972
185	0x3d84beb0	0.06481683
186	0xbe32ecda	-0.17473164
187	0x3dc1c1f1	0.094608195
188	0x3c862524	0.016375132
189	0x3d542a9a	0.05179844
190	0xbdb94892	-0.09047045
191	0x3dd0b0e4	0.10189989
192	0x3e1ec60e	0.1550524
193	0xbe085d8c	-0.13316935
194	0x3d2113d8	0.039325565
195	0x3e00fa1d	0.1259541
196	0x3de56561	0.11200977
197	0x3e3ae8b7	0.18252836
198	0xbd468d62	-0.048474677
199	0x3e04e40a	0.12977615
200	0x3cbafc29	0.022825317
201	0xbde58b36	-0.11208193
202	0xbe0a14db	-0.13484518
203	0xbe1265ac	-0.14296597
204	0x3df5ba47	0.1199842
205	0xbdd373a0	-0.10324788
206	0xbde67beb	-0.11254104
207	0x3d570c8b	0.052502196
208	0x3d6cf26d	0.057848383
209	0x3e368acd	0.17826386
210	0x3e0b26a1	0.13588955
211	0x3e05a8e0	0.13052702
212	0xbd0b8024	-0.03405775
213	0x3e28d641	0.16487981
214	0x3d559d56	0.052152
215	0x3c9d4fff	0.019203184
216	0xbda92198	-0.082583606
217	0xbd49e865	-0.049293894
218	0xbd0223fa	-0.03177259
219	0x3db2b739	0.08726353
220	0xbdc04df8	-0.09389871
221	0x3dfd3b88	0.1236487
222	0xbca9652a	-0.020678122
223	0xbdc6c2b1	-0.09705103
224	0xbe12f09c	-0.14349598
225	0x3dace464	0.084419996
226	0xbdfcc621	-0.123424776
227	0x3e37aed3	0.17937784
228	0x3da6af53	0.08138909
229	0x3d4d4c10	0.050121367
230	0x3dd747b3	0.105117224
231	0x3d8f642b	0.070015274
232	0x3cb9f5c9	0.022700207
233	0xbdc241e8	-0.09485227
234	0xbd7b074e	-0.061286263
235	0x3e013aad	0.1262004
236	0xbd6a1ff7	-0.05715939
237	0xbde2fd3f	-0.11083459
238	0x3e01c98c	0.1267454
239	0x3d88c50b	0.06678208
240	0xbd8e14b7	-0.06937545
241	0x3dd42934	0.10359421
242	0x3db9dbf1	0.090751536
243	0x3c30abe2	0.010783168
244	0x3bc41f48	0.0059851743
245	0xbe001b31	-0.12510373
246	0xbde372f4	-0.1110591
247	0x3ddb4441	0.10706378
248	0x3dee1f89	0.116271086
249	0xbe1dd33e	-0.15412614
250	0x3cfe4ca6	0.031042408
251	0x3db47317	0.08811014
252	0x3c10a213	0.008827704
253	0xbd8a48d0	-0.06752169
254	0xbe01db7c	-0.12681383
255	0x3d652518	0.05594358

bias f4 [100]
0	0x3d5b54de	0.053547733
1	0x3cb0abf4	0.021566369
2	0x3d1ee818	0.03879556
3	0xbcc93f66	-0.024566364
4	0xbdc163bd	-0.09442852
5	0x3ced3be1	0.028959217
6	0x3ca808a6	0.020511936
7	0x3ca9e0fa	0.02073716
8	0x3cdc0b6c	0.026860915
9	0xbcc26af1	-0.023732634
10	0xbd444219	-0.047914598
11	0xbd79658a	-0.06088785
12	0x3c4961e6	0.012291407
13	0xbc322a63	-0.010874364
14	0x3c7648eb	0.015032033
15	0xbc976c5f	-0.018484293
16	0xbd2ba1c5	-0.041902322
17	0x3d90f82a	0.070785835
18	0xbd6f6f81	-0.058455948
19	0xbce4bc62	-0.02792186
20	0xbd02753b	-0.03185008
21	0x3ce35a28	0.02775295
22	0xbd906dc0	-0.07052183
23	0x3d7f4568	0.06232205
24	0xbc484952	-0.012224512
25	0x3d3038f4	0.043023065
26	0x3d861ba4	0.06548241
27	0x3dc774a3	0.097390436
28	0x3cb8f8e4	0.022579618
29	0xbd51470d	-0.05109315
30	0x3d52e1f6	0.051485024
31	0xbceff004	-0.029289253
32	0x3d8f24ed	0.06989465
33	0xbcd9cd7c	-0.02658724
34	0x3cf52773	0.029926037
35	0x3c1468b1	0.0090581635
36	0x3d9795f8	0.07401651
37	0xbc02b6b6	-0.007978132
38	0x3d41ad64	0.0472845
39	0xbdbeb9ec	-0.093128055
40	0xbbb089e9	-0.005387534
41	0xbd87c3b0	-0.06629121
42	0x3c4285c7	0.011872715
43	0x3d9f2bca	0.07772024
44	0xbc859274	-0.016305186
45	0x3d2d2883	0.042274963
46	0xbd403f96	-0.04693564
47	0xbaad262b	-0.0013210227
48	0xbcddfdee	-0.027098622
49	0xbca94e87	-0.020667328
50	0x3d0efab3	0.034907054
51	0x3d297526	0.041371487
52	0x3bfad4a0	0.0076547414
53	0xbd724d0f	-0.05915552
54	0xbb432f29	-0.0029782748
55	0xbd050abe	-0.032480948
56	0xbd96cf3e	-0.07363747
57	0xbd5b7b5b	-0.053584438
58	0xbd7f74cb	-0.06236724
59	0xbd5da04b	-0.054107945
60	0xbcede591	-0.02904013
61	0x3ce4d00a	0.027931232
62	0x3bf42a9e	0.0074513694
63	0xbb84b27a	-0.0040495964
64	0x3ce85cb8	0.028364524
65	0xbcd2269b	-0.025653174
66	0xbce6a762	-0.028155986
67	0x3b11802b	0.0022201638
68	0x3d79f4e0	0.061024547
69	0x3c10f33a	0.008847052
70	0xbc4c298d	-0.012461078
71	0xbdc498a9	-0.0959943
72	0x3d71398a	0.058892764
73	0xbd16d51e	-0.03682434
74	0x3c3fdfad	0.011711043
75	0xbd1a9368	-0.037738234
76	0x3c9a5ecc	0.01884403
77	0xbc3a3eb6	-0.0113674905
78	0x3d3da680	0.046301365
79	0x3cea13b8	0.028573856
80	0xbd36034b	-0.044436734
81	0xbe0eaff0	-0.13934302
82	0x3d879dc6	0.0662189
83	0xbd51eb9c	-0.051250085
84	0x3d27e5d7	0.040990677
85	0x3d8cce33	0.06875267
86	0x3d27d418	0.040973753
87	0xbd5408c9	-0.05176619
88	0xbc732e6b	-0.01484261
89	0xbd408aa6	-0.047007225
90	0xbb87d04b	-0.0041447035
91	0xbd5a1f13	-0.05325229
92	0x3cb02a39	0.021504508
93	0x3c06faee	0.008238537
94	0x3de05463	0.109535955
95	0x3d7a043e	0.061039202
96	0x3d9b74bb	0.07590624
97	0xbd7f8fee	-0.06239312
98	0x3c9242aa	0.017854054
99	0xbd8ee412	-0.06977095

weight f4 [100, 100]
0	0x3db31a30	0.08745229
1	0xbdbab463	-0.09116437
2	0xbd4f3371	-0.050586168
3	0x3d93da4e	0.07219373
4	0x3cc120f6	0.023575287
5	0xbb1982f1	-0.0023423994
6	0x3da3bbf9	0.07994837
7	0x3c780b1a	0.015139366
8	0xbcdb80d2	-0.026794825
9	0x3d033ea2	0.032042153
10	0xbe06dc90	-0.13170075
11	0xbe0e09b6	-0.13870892
12	0xbdd604a3	-0.10450103
13	0xbe07f33e	-0.13276383
14	0x3d4fbf9b	0.05071984
15	0x3c23a457	0.009987912
16	0x3e04e801	0.12979127
17	0x3d95a32e	0.07306515
18	0x3dbf5ff8	0.093444765
19	0xbe1dc618	-0.15407598
20	0x3e0de157	0.13855492
21	0x3e05cfa4	0.1306749
22	0xbe04da11	-0.1297381
23	0x3d71d1b0	0.059037864
24	0x3e0c4b1e	0.1370053
25	0x3c8ff569	0.017573075
26	0xb9bcb4c5	-0.00035992838
27	0x3d6646ae	0.05621975
28	0x3df07174	0.117403895
29	0x3e182a27	0.1485983
30	0xbd01b675	-0.031668145
31	0x3d9d3e68	0.07677919
32	0xbd881cbb	-0.06646105
33	0x3e1516cb	0.14559476
34	0x3deedb40	0.11662912
35	0xbcb68dd5	-0.022284428
36	0x3d29afec	0.041427538
37	0x3d7dcd7c	0.061963543
38	0xbd258c12	-0.040416785
39	0xbc91ba30	-0.017788976
40	0xbe0be8de	-0.1366305
41	0x3b53402d	0.0032234297
42	0xbdd61283	-0.104527496
43	0xbe1b16b2	-0.15145376
44	0x3defb2c8	0.11704022
45	0xbe0fdc94	-0.14048988
46	0x3e1f9aaa	0.15586343
47	0xbdb210fd	-0.086946465
48	0xbbe799c0	-0.007067889
49	0xbe3af54f	-0.1825764
50	0x3e080f48	0.1328708
51	0x3dc76e42	0.09737827
52	0xbe6db21f	-0.23212479
53	0xbdc379ec	-0.09544739
54	0xbd61026e	-0.054933958
55	0x3d80f573	0.06296816
56	0xbd41c9b7	-0.04731151
57	0x3db26441	0.08710528
58	0xbdc283cb	-0.09497794
59	0xbd4e0bbc	-0.05030416
60	0xbe2855ba	-0.16438952
61	0xbdbbf23b	-0.09177061
62	0xbd83527a	-0.064122155
63	0x3dfed3fd	0.12442777
64	0xbc613fe6	-0.013748145
65	0x3e271e7d	0.16320224
66	0x3cde6307	0.02714683
67	0x3d189355	0.03724988
68	0x3d91e322	0.071234
69	0xbdc76e43	-0.09737828
70	0xbde14340	-0.10999155
71	0x3e103fe5	0.14086874
72	0x3d93f1b5	0.07223836
73	0xbbae443d	-0.005318193
74	0x3d49ce71	0.049269143
75	0x3da36ab1	0.07979334
76	0x3e085c40	0.1331644
77	0xbe1919a8	-0.14951193
78	0xbe1217ea	-0.14266935
79	0xbd6a4b0c	-0.057200477
80	0xbd241125	-0.040055413
81	0x3e09df79	0.13464154
82	0xbddb56db	-0.10709926
83	0xbd247b89	-0.040156875
84	0xbda24090	-0.079224706
85	0x3d12ef12	0.035872526
86	0xbc136193	-0.0089954315
87	0x3d46db71	0.04854912
88	0xbdf5498c	-0.119769186
89	0xbcec046d	-0.028810704
90	0xbd115083	-0.035477173
91	0xbe393200	-0.1808548
92	0xbcb35cb5	-0.021894792
93	0x3dd5c38c	0.10437688
94	0x3e018d30	0.12651515
95	0x3dea86e8	0.114515126
96	0x3de7fe84	0.11327842
97	0x3d182dbe	0.037153
98	0x3e0d4122	0.13794377
99	0xbd130f95	-0.035903532
100	0xbd95c71f	-0.0731337
101	0x3e16e77d	0.14736743
102	0xbdecd467	-0.1156395
103	0x38b54ea0	8.6453976e-05
104	0x3ddf969a	0.10917397
105	0x3c8d69e3	0.017262405
106	0x3d099a4d	0.03359442
107	0xbe08da47	-0.13364516
108	0xbda6cc1e	-0.08144401
109	0xbd75e9d7	-0.06003746
110	0x3d9e3e94	0.077267796
111	0xbd92df2f	-0.07171475
112	0x3e285437	0.16438375
113	0x3e19f549	0.15034975
114	0x3e0872f9	0.13325109
115	0xbe2454a6	-0.16047916
116	0xbe14c0e8	-0.14526713
117	0x3d887662	0.06663205
118	0x3e3b9c30	0.183213
119	0xbcc5606e	-0.024093833
120	0x3d261bd0	0.040553868
121	0xbdecb2ce	-0.11557542
122	0x3cd201f6	0.0256357
123	0x3de540d1	0.111940034
124	0xbe37c46f	-0.17946027
125	0xbe0cbeba	-0.13744631
126	0x3cfd9390	0.030954152
127	0x3deef5d5	0.116679825
128	0x3e31a90e	0.17349645
129	0x3e2526cb	0.1612808
130	0xbd278142	-0.040894754
131	0xbd1b7e86	-0.03796246
132	0x3e0395bc	0.12850088
133	0x3e0ef46c	0.13960427
134	0xbd7a49cd	-0.06110554
135	0xbd885d35	-0.06658403
136	0x3d9814a1	0.0742581
137	0xbd6cc4ce	-0.057804875
138	0x3e141627	0.14461575
139	0x3c84b332	0.016198728
140	0xbca98069	-0.020691114
141	0xbdf9de02	-0.12200548
142	0x3ca99272	0.020699713
143	0xbd0c05f9	-0.034185383
144	0x3aa1d8fd	0.0012347993
145	0x3e0331e2	0.12811998
146	0xbd8ca909	-0.068681784
147	0x3dcc991d	0.099901415
148	0x3dec2367	0.1153019
149	0x3d82568f	0.06364166
150	0x3c800732	0.015628431
151	0xbe0a4aed	-0.13505144
152	0xbdb9c98b	-0.090716444
153	0x3dcea658	0.10090321
154	0xbe256c56	-0.16154608
155	0xbe0eee7d	-0.13958164
156	0xbd3a343c	-0.04545997
157	0xbe47f73e	-0.19527909
158	0x3d9f86ac	0.077893585
159	0xbd18324a	-0.037157334
160	0xbdb26490	-0.08710587
161	0x3c36e397	0.01116266
162	0x3dbab98e	0.09117423
163	0x3d951a42	0.07280399
164	0xbdfad4ac	-0.12247595
165	0x3dc11d5c	0.09429428
166	0xbd93f3db	-0.07224246
167	0xbe1d8ec4	-0.15386492
168	0x3df9b68e	0.12193023
169	0xbe2bce96	-0.16778025
170	0xbe1eff9a	-0.15527192
171	0xbdd3debf	-0.1034522
172	0xbe1613b1	-0.14655949
173	0x3dad9326	0.08475332
174	0xbc482e86	-0.012218123
175	0x3d1f0af1	0.038828794
176	0xbd803893	-0.06260791
177	0x3daebadb	0.085317336
178	0x3dadd478	0.08487791
179	0xbddaddf0	-0.106868625
180	0xbdc2c2a6	-0.095097825
181	0x3e140e78	0.14458644
182	0x3d9f0948	0.07765442
183	0x3bd37865	0.006453561
184	0x3e531072	0.20611742
185	0xbda0071c	-0.07813856
186	0x3e2e4284	0.17017561
187	0x3e2becb6	0.16789517
188	0x3d930abe	0.07179783
189	0xbdc7e548	-0.09760529
190	0xbd60436e	-0.054751806
191	0x3dcdce01	0.10049058
192	0x3df42dde	0.11922811
193	0x3bfc732e	0.00770416
194	0x3d8c4220	0.0684855
195	0xbe275566	-0.1634117
196	0xbc026ced	-0.00796054
197	0x3cfa6a14	0.03056816
198	0x3e243df6	0.16039261
199	0x3c7b69d4	0.015345056
200	0x3e230882	0.15921214
201	0x3e22cddb	0.1589884
202	0x3e314215	0.17310365
203	0xbd43fea8	-0.04785028
204	0x3d696ee0	0.056990504
205	0x3dcefed0	0.101071954
206	0xbe1789bc	-0.14798635
207	0x3afcaeb5	0.0019278141
208	0x3cb15ecd	0.02165165
209	0x3cad0a8b	0.021123191
210	0xbe140188	-0.14453709
211	0x3e26ee5e	0.16301867
212	0xbd8e2a64	-0.06941679
213	0xbe233ad7	-0.15940414
214	0xbd7da286	-0.061922573
215	0xbe25b3be	-0.16181847
216	0xbdb25d43	-0.087091945
217	0xbd280edc	-0.041029796
218	0x3d9e7e6d	0.077389576
219	0xbdc17a29	-0.09447128
220	0xbc0267e6	-0.007959342
221	0x3d39a799	0.04532585
222	0xbe020726	-0.1269804
223	0x3de37389	0.11106021
224	0xbe458db9	-0.19292344
225	0xbdaa50a2	-0.08316161
226	0x3dfb97da	0.12284823
227	0x3d9a032f	0.075201385
228	0x3e192b4b	0.14957921
229	0xbe2030ad	-0.15643568
230	0x3d54b238	0.051927775
231	0x3e43126a	0.19049993
232	0x3e1ad8d0	0.1512177
233	0x3c114c2f	0.008868261
234	0xbc7838c9	-0.015150257
235	0x3e1a49ff	0.1506729
236	0xbd9f9523	-0.077921174
237	0xbdbd4eca	-0.092435434
238	0xbda349c3	-0.07973053
239	0xbe17f4f1	-0.14839531
240	0xbdd3fa7e	-0.10350512
241	0x3c362546	0.011117285
242	0x3d9c2dd3	0.07625928
243	0x3d8cd862	0.06877209
244	0x3e323a41	0.17405035
245	0xbe69a42d	-0.22816534
246	0xbe04fd1a	-0.12987176
247	0x3e0782e4	0.13233525
248	0xbe2bd29f	-0.16779564
249	0xbe09ffe1	-0.13476516
250	0xbb94d0ca	-0.004541491
251	0x3d6b7d5d	0.057492603
252	0xbd8e0376	-0.06934254
253	0x3e1f9736	0.15585026
254	0xbd7fd349	-0.062457357
255	0x3da8d0e3	0.08242967

bias f4 [100]
0	0x3d4b4d4e	0.04963427
1	0xbd3ada1f	-0.045618173
2	0x3cedabec	0.029012643
3	0xbbbf57fd	-0.0058393464
4	0x3d19d566	0.03755703
5	0x3d352630	0.04422587
6	0x3bbf1fbb	0.00583264
7	0x3b9de7c3	0.004818888
8	0xbd2c528c	-0.04207091
9	0x3a796ba2	0.0009514635
10	0x3bf6d65c	0.007532878
11	0xbce5e03a	-0.028061021
12	0x3d932f60	0.071867704
13	0xbd78bc8b	-0.060726684
14	0xbbf52ddb	-0.007482273
15	0xbc4e4436	-0.012589505
16	0x3ca40341	0.020021083
17	0x3d80d9db	0.06291553
18	0xbdf15377	-0.11783498
19	0x3d58b179	0.052903626
20	0xbb952ddf	-0.0045525874
21	0x3c797a29	0.015226879
22	0x3d1e43ea	0.038638987
23	0xbcadb41a	-0.021204043
24	0xbbd65b1b	-0.0065416223
25	0x3dea04bd	0.11426685
26	0x3df41118	0.11917323
27	0x3cb32485	0.021868
28	0x3c723737	0.014783672
29	0xbc83d25f	-0.016091524
30	0xbc0d6b6d	-0.008631569
31	0xbc3b7620	-0.011441737
32	0xbbf041b2	-0.0073320502
33	0xbd6e10ee	-0.058121614
34	0x3d60ab4d	0.054850865
35	0x3c0ac2e8	0.008469321
36	0x3db7a3de	0.08966802
37	0xbcf7652b	-0.030199608
38	0x3cc752e2	0.024331514
39	0x3d2c2fee	0.042037897
40	0x3bcd1e04	0.0062596817
41	0xbd5343b4	-0.05157824
42	0xbd9a3784	-0.0753012
43	0x3c7c5c49	0.015402862
44	0xbc47e595	-0.012200733
45	0xba2f0a31	-0.0006677239
46	0xbab88553	-0.001407782
47	0x3d2289f3	0.03968234
48	0x3bdafeaa	0.0066831904
49	0x3d033c57	0.032039966
50	0xbcf5311e	-0.029930647
51	0xbaa1f429	-0.0012356091
52	0xbd84eec3	-0.06490853
53	0xbc82e966	-0.015980434
54	0x3ca0f326	0.019647192
55	0x3d4441c0	0.047914267
56	0xbc30c5a1	-0.010789306
57	0xbb3b7200	-0.0028601885
58	0xbce2044c	-0.02758994
59	0xbd3bf927	-0.045891907
60	0x3da5de5f	0.080990545
61	0xbcdece1c	-0.02719789
62	0x3d0d16a3	0.034445416
63	0x3d2d35ea	0.042287745
64	0x3d161a03	0.0366459
65	0xbdef3214	-0.116794735
66	0x3cc05f9b	0.023483088
67	0x3d024e92	0.03181321
68	0x3daf7420	0.08567071
69	0xbd64c3aa	-0.055850662
70	0x3c82cc32	0.015966509
71	0x3d6ae9ea	0.057351984
72	0x3d14151e	0.03615295
73	0x3d409b85	0.047023315
74	0x3d69bd62	0.057065375
75	0xbcbca6d5	-0.02302877
76	0xbce748c7	-0.028232945
77	0xba657359	-0.0008752845
78	0x3bd900d6	0.006622414
79	0xbcf8f83e	-0.030391809
80	0xbd27c5ab	-0.040959995
81	0xbb392074	-0.0028248103
82	0x3d8d04a0	0.06885648
83	0x3dafc029	0.085815735
84	0xbd21c005	-0.039489765
85	0x3bf16f03	0.00736797
86	0x3b7f97a9	0.0039000309
87	0xbd759969	-0.059960756
88	0xbd814654	-0.06312242
89	0x3cc97c74	0.024595477
90	0xbd36810e	-0.04455667
91	0x3c7ef8d9	0.01556226
92	0xbd4a8df4	-0.049451783
93	0x3d338e38	0.043836802
94	0x3cc30eb6	0.023810726
95	0x3dc968fd	0.09834478
96	0x3c83301c	0.016014151
97	0xbbeaa428	-0.007160682
98	0xbd75611c	-0.059907064
99	0xbd324f99	-0.04353294

weight f4 [100, 100]
0	0xbe06d199	-0.13165893
1	0xbdd24da7	-0.10268717
2	0x3db34033	0.087524794
3	0x3caf38af	0.021389334
4	0x3cf2cd25	0.029638836
5	0xbe09f80e	-0.13473532
6	0xbd2152bf	-0.039385553
7	0xbe391590	-0.18074632
8	0x3d9728cb	0.073808275
9	0x3e37c682	0.17946818
10	0x3ba3179a	0.0049771788
11	0x3d7e4813	0.062080454
12	0xbd49895b	-0.049203258
13	0x3e00db6c	0.12583703
14	0xbe32868d	-0.1743414
15	0xbd689f5b	-0.0567926
16	0xbceaba1e	-0.0286532
17	0xbd957d2b	-0.072992645
18	0x3da3786d	0.07981954
19	0x3c8d8823	0.01727683
20	0xbcfa2a6a	-0.030537803
21	0xbc2a3598	-0.010388754
22	0xbd5af1a3	-0.0534531
23	0x3de860f9	0.11346621
24	0x3dca7ce2	0.09887101
25	0xbe34918c	-0.17633647
26	0xbe59e029	-0.21276917
27	0xbdcae04c	-0.099060625
28	0xbe559eef	-0.2086141
29	0x3de6476e	0.11244093
30	0xbd33a12f	-0.04385489
31	0x3d8ef8b3	0.06981029
32	0xbdb0d2c9	-0.08633954
33	0xbd67ece2	-0.056622393
34	0xbe394446	-0.1809245
35	0x3e1cf23e	0.15326783
36	0x3dbb2600	0.09138107
37	0xbdd187fb	-0.10231014
38	0xbd682a2a	-0.056680836
39	0x3d5d6f75	0.05406137
40	0x3d5fc755	0.054633457
41	0x3e664134	0.2248581
42	0x3ddeba84	0.10875419
43	0xbdc28201	-0.094974525
44	0x3e1941b4	0.1496647
45	0x3e209106	0.15680322
46	0xbe0cb760	-0.13741827
47	0x3dc36c78	0.09542173
48	0xbe1f2cb4	-0.15544397
49	0xbdfbc798	-0.12293929
50	0xbb2c0605	-0.0026248705
51	0xbd4b81ee	-0.049684457
52	0xbce689fe	-0.028141972
53	0x3d2605be	0.04053282
54	0x3dce8797	0.100844555
55	0xbcc57cde	-0.024107393
56	0x3e15afbe	0.14617822
57	0xbdd9225b	-0.10602256
58	0x3dd89a47	0.10576301
59	0xbd33cfd1	-0.04389936
60	0xbe1e5e73	-0.15465717
61	0x3d4c5455	0.049885113
62	0x3d842d1f	0.06453919
63	0x3dfd35c6	0.12363772
64	0xbe092268	-0.13392031
65	0x3e2a1d15	0.16612656
66	0x3d87813c	0.066164464
67	0x3da71876	0.081589624
68	0x3adcc7ae	0.0016844177
69	0x3daf8879	0.08570952
70	0x3e070849	0.13186754
71	0xbcf22a77	-0.029561264
72	0xbdd3c897	-0.10340994
73	0xbdde0809	-0.10841376
74	0xbe06c5a9	-0.13161339
75	0x3dace694	0.08442417
76	0xbdf22e21	-0.11825205
77	0x3da9c98b	0.082903944
78	0x3c07188a	0.008245597
79	0xbe42d72b	-0.19027393
80	0x3cce5917	0.025188966
81	0x3d63d140	0.05561948
82	0xbcc96f8e	-0.024589326
83	0xbe1626de	-0.14663264
84	0xbdb7ccd7	-0.08974617
85	0xbe1228f3	-0.14273433
86	0xbdd6e77e	-0.104933724
87	0xbd63d8f8	-0.05562684
88	0x3b6ff9b8	0.003661735
89	0xbbce00ae	-0.006286702
90	0xbdb8325a	-0.08993979
91	0xbcecac19	-0.028890656
92	0xbe00fdc7	-0.12596808
93	0xbe55dde8	-0.20885432
94	0xbdbbbc9b	-0.09166833
95	0xbc31cc62	-0.010851951
96	0xbd80cd9b	-0.06289216
97	0xbdb21427	-0.0869525
98	0x3d63bf10	0.055602133
99	0x3da49298	0.08035773
100	0xbd0fdb58	-0.035121292
101	0xbb7060b1	-0.0036678726
102	0x3dadd5ba	0.08488031
103	0x3e14d6e4	0.145351
104	0xb97aa065	-0.0002390161
105	0x3e096af1	0.13419701
106	0x3d89e42a	0.06732972
107	0xbe08e418	-0.13368261
108	0x3dee39f8	0.116321504
109	0x3e44436a	0.19166341
110	0xbe2f4d50	-0.17119336
111	0xbc91310d	-0.017723585
112	0x3d18a484	0.03726627
113	0xbe30bc19	-0.17259254
114	0xbe0ef45d	-0.13960405
115	0x3de2a622	0.110668436
116	0xbe221220	-0.15827227
117	0x3d3a56fb	0.045493107
118	0x3e23800f	0.15966819
119	0xbd322cd9	-0.0434998
120	0x3d72cf3f	0.059279677
121	0xb9ae0d8f	-0.00033197968
122	0xbdb0eb3e	-0.08638619
123	0x3e408782	0.18801692
124	0xbe2715d9	-0.16316928
125	0xbdf38e8c	-0.11892423
126	0x3cad1cb3	0.021131849
127	0xbdd59dd5	-0.10430495
128	0x3e3c45b3	0.18385963
129	0xbd68d8ef	-0.05684751
130	0x3d7865af	0.060643848
131	0x3d744548	0.059636384
132	0xbde542af	-0.111943595
133	0x3db82af2	0.08992566
134	0xbc8eb701	-0.017421247
135	0x3d410f1e	0.047133557
136	0xbcfff096	-0.03124265
137	0xbe1044d7	-0.1408876
138	0xbe557293	-0.20844488
139	0xbc33eb29	-0.0109813595
140	0x3d1141fa	0.03546331
141	0xbdc56380	-0.09638119
142	0xbce0f228	-0.02745922
143	0x3d7b2fa1	0.06132472
144	0x3cdf29e1	0.02724165
145	0xbc1c340a	-0.009533891
146	0xbc36c4a4	-0.011155281
147	0xbe3bbd1c	-0.18333858
148	0x3dbb268d	0.09138212
149	0x3c5928ed	0.013254386
150	0x3de4b84b	0.111679636
151	0xbd6ba9de	-0.057535045
152	0x3e003cbf	0.12523173
153	0xbdc806b1	-0.09766901
154	0x3e02acbb	0.12761204
155	0x3e0222b7	0.12708555
156	0x3e1f3679	0.15548123
157	0x3df8d131	0.12149275
158	0xbdd58f0e	-0.10427676
159	0xbd0663f7	-0.032810178
160	0xbccb175b	-0.02479141
161	0x3e08ee4f	0.13372158
162	0xbd342c90	-0.04398781
163	0x3df17e2b	0.11791643
164	0x3bdb0c78	0.006684836
165	0xbdd0e978	-0.10200781
166	0xbcae8c58	-0.021307155
167	0xbd968f0c	-0.07351503
168	0xbba6b4d6	-0.0050874753
169	0x3d5e53c7	0.054279115
170	0xbde478f3	-0.11155882
171	0xbe1a8f55	-0.1509374
172	0xbd807992	-0.06273188
173	0x3dfc1aa9	0.123097725
174	0x3c7fcf18	0.01561334
175	0xbd976102	-0.0739155
176	0xbe1364ae	-0.14393875
177	0xbd6818a9	-0.056664143
178	0x3c1878f5	0.009306182
179	0x3e872090	0.2639203
180	0x3e1caa02	0.15299228
181	0x3e4a769b	0.19771807
182	0xbc9e4565	-0.0193202
183	0x3db201d9	0.08691759
184	0xbe33aa7a	-0.175455
185	0x3de7afe8	0.11312848
186	0x3c2c89c8	0.0105308965
187	0x3dad85e2	0.08472802
188	0x3e0b5885	0.13607986
189	0x3d10704d	0.03526335
190	0x3d75fb3f	0.06005406
191	0x3dc9c83a	0.09852643
192	0xbdeab985	-0.11461166
193	0x3d2d11c4	0.04225327
194	0xbd8ce6b4	-0.06879941
195	0xbd6c751b	-0.057728868
196	0x3dd627a0	0.104567766
197	0xbe2633fe	-0.16230771
198	0xbe082d40	-0.13298512
199	0xbd7c0822	-0.061531194
200	0xbe4b44ac	-0.19850415
201	0x3d799720	0.06093514
202	0xbdf0254a	-0.11725862
203	0x3d9d03a4	0.0766671
204	0xbd5b20b5	-0.05349799
205	0x3e03ec15	0.12883027
206	0x3c94f2cf	0.018182186
207	0x3ce07621	0.027400078
208	0xbd11e8cd	-0.035622407
209	0x3cfe27ac	0.031024776
210	0xbdfdd678	-0.12394422
211	0xbdbd98d0	-0.09257662
212	0xbcad8366	-0.02118082
213	0xbdc251ec	-0.094882816
214	0xbdd7c150	-0.10534918
215	0x3dc32dda	0.0953023
216	0x3cfab8fa	0.030605782
217	0xbdc27c14	-0.09496322
218	0x3dc92aad	0.09822593
219	0x3dbe35c0	0.09287596
220	0x3c20f4cc	0.009823989
221	0xbe437418	-0.19087255
222	0x3e06b9ab	0.13156764
223	0x3db2e8b1	0.087357886
224	0xbd7bda48	-0.061487466
225	0xbcd7d50d	-0.026346708
226	0x3daec6fb	0.08534046
227	0x3dc5efd7	0.096648864
228	0xba051672	-0.0005076892
229	0xbe414cda	-0.18876973
230	0x3da73e5a	0.081661895
231	0x3d1f9b9a	0.038966753
232	0xbe1b2c80	-0.15153694
233	0x3df26d62	0.11837269
234	0xbd5fd211	-0.054643694
235	0x3d94c1d4	0.07263532
236	0xbd6bc403	-0.05755998
237	0xbddeec09	-0.10884864
238	0xbdfeb6ff	-0.124372475
239	0x3bd1c6f9	0.006401893
240	0xbd7145c4	-0.058904424
241	0xbc983477	-0.018579705
242	0x3d3481e0	0.04406917
243	0x3d4e3bd1	0.050350014
244	0xbe02a46f	-0.12758039
245	0xbe2b457d	-0.16725726
246	0x3d95c0d6	0.07312171
247	0x3d0aebff	0.03391647
248	0x3dacc50b	0.084360205
249	0xbd754f48	-0.05989006
250	0xbcac048f	-0.020998267
251	0xbd840cba	-0.0644774
252	0x3a66e4ae	0.00088078796
253	0xbc12c565	-0.008958195
254	0x3e1125b8	0.14174545
255	0x3db3235c	0.08746979

bias f4 [100]
0	0xbc7d133b	-0.015446479
1	0xbcf7a5e4	-0.03023047
2	0x3c0aaea1	0.008464486
3	0x3d1e7771	0.038688127
4	0x3cba893a	0.022770513
5	0xbd3d274f	-0.046180066
6	0x3cd732e3	0.026269382
7	0x3d22c648	0.039739877
8	0x3d3d0373	0.046145868
9	0x3c9649dc	0.018345766
10	0xbd9961cd	-0.07489357
11	0xbc9cc9fb	-0.01913928
12	0xbc42ee42	-0.011897625
13	0x3b7c489f	0.0038495434
14	0x3d70c097	0.058777418
15	0xbcd0274d	-0.025409365
16	0xbd4f1f68	-0.05056706
17	0x3d439953	0.047753643
18	0xbd067054	-0.03282197
19	0xbca8efa3	-0.02062208
20	0xbc8ca687	-0.01716925
21	0x3d417cfb	0.04723833
22	0x3d26213e	0.040559046
23	0xbc175b23	-0.009238037
24	0xbd43c016	-0.04779061
25	0xbca961e3	-0.020676559
26	0x3c1eaadd	0.009684292
27	0xbd8114fb	-0.0630283
28	0x3c115c08	0.00887204
29	0xbb2603d1	-0.0025331865
30	0xbd47ebaf	-0.04880875
31	0x3d8e4043	0.06945851
32	0xbbec79e4	-0.007216679
33	0x3cdfa8bc	0.027302139
34	0xbc6be228	-0.014397182
35	0x3cb67204	0.022271164
36	0xbd80fc4e	-0.06298123
37	0xba063a1c	-0.00051203533
38	0x3cf059c5	0.02933968
39	0xbc248348	-0.0100410655
40	0xbdd45ace	-0.10368882
41	0x3c0d1e3e	0.008613167
42	0xbd965137	-0.07339709
43	0x3ca50781	0.02014518
44	0xbb065d31	-0.0020502324
45	0x3cd3ed23	0.025869912
46	0xbb97800a	-0.0046234177
47	0xbd047fb5	-0.032348353
48	0x3caaae13	0.020834958
49	0x3b854285	0.0040667676
50	0x3ca0bafc	0.019620411
51	0x3d111d3e	0.03542828
52	0x3b517cfa	0.003196536
53	0x3c2ed506	0.010670906
54	0xbd0a0ae1	-0.03370178
55	0x3d00ada3	0.031415593
56	0xbbab5046	-0.005228075
57	0xbc0e6f33	-0.008693504
58	0x3c7c7101	0.015407802
59	0xbc85ee61	-0.01634902
60	0x3c66124b	0.014042447
61	0x3d63f354	0.055651978
62	0x3c998306	0.018739235
63	0x3ce85f8b	0.028365871
64	0xbcf6c2a9	-0.030122118
65	0xbba550b4	-0.005045021
66	0xbaccf217	-0.0015636113
67	0x3cb1eca3	0.021719282
68	0x3bcb9fd2	0.0062141204
69	0x3a1dc2e7	0.00060181174
70	0xbd8e5730	-0.069502234
71	0xbd0e7c1d	-0.034786332
72	0xbcdf7390	-0.027276784
73	0xbb120258	-0.002227923
74	0x3d0fb3e7	0.035083678
75	0xbbdd4df1	-0.006753676
76	0x3dae64ac	0.085152954
77	0xbc7d7595	-0.015469928
78	0xbce9c815	-0.02853779
79	0x3c8024c0	0.015642524
80	0xbc24e622	-0.010064634
81	0x3d302519	0.04300413
82	0x3d2d0dd5	0.04224952
83	0xbd0916b6	-0.033468924
84	0xbd36301d	-0.04447948
85	0xbd3dabf7	-0.046306577
86	0x3b8d36e1	0.0043095206
87	0x3d06225b	0.032747608
88	0x3b4e6597	0.0031493658
89	0x3ca3ca61	0.019993963
90	0x3c1613df	0.009160011
91	0xbcae4fa0	-0.021278203
92	0x3b303798	0.0026888605
93	0xbbfd1a0a	-0.0077240514
94	0x3d331a7d	0.043726433
95	0x3d3d28ec	0.046181604
96	0x3c8d07c4	0.017215617
97	0x3d530ea4	0.051527634
98	0x3d489012	0.04896552
99	0xbc44bb44	-0.012007538
